MLBase/results/Stage1/CaptureTheFlag/CaptureTheFlag-54138.pt (torch, 744016 bytes, 46 tensors)

discrete_act_size_vector f4 [1, 3]
00000000: 0000 4040 0000 4040 0000 0040
3.0 3.0 2.0

network_body._body_endoder.seq_layers.0.weight f4 [128, 100]
00000000: d271 57bc bec2 c2bd 6f8e a23d da00 babd
00000010: e35c a0bd f6a2 3e3d 2643 69bd de0b 61be
00000020: c190 ed3d 5bf7 463e 6f93 d93c 34b1 5b3c
00000030: f36a 0cbd 6ce6 a1be efad 7dbd ebb5 503d
00000040: 0791 ecbd 6453 4b3d c918 e9bd 2154 2c3e
00000050: 090a bc3d 800d 5ebd f1f6 babd 9ed2 fa3d
00000060: 85e0 273d 00e4 91bd 8515 b33c c3b6 afbc
00000070: 9bd4 acbd 49f1 28be 576a e63d b0a1 ca3c
00000080: 656a 923e 4419 f43c 51cf b83c 913d b53d
00000090: 1ba7 0dbe 3d09 ee3d ae8c 0c3a e72c 19bc
000000a0: f9df 93ba 7a65 003d f40f 173e 35f9 263e
000000b0: ee16 f03d b601 30be 7b37 98bd 3afa fd3d
000000c0: 0ced 96bd 86e0 41bd 2463 573c 49c6 f73d
000000d0: 9648 d33d 56c3 ffbd 86c4 403d 7191 27bc
000000e0: 4e73 533d 3075 15bb e993 4b3e a41e 86bd
000000f0: bd55 923d b074 f23b 140f 9b3d 1323 53bd
00000100: 868a e73d d7fd ae3d 5a1f 82bd d2b0 d83c
00000110: f227 b93d 50c6 42bd 6cda 913d 66f5 c7bd
00000120: a07e acbd 8423 2cbe 616f 123a 41d2 e13c
00000130: f7a6 6cbd af37 42be d392 163d 20eb e7bc
00000140: dcdb 01be e1e1 b4bd b477 923b 2a10 85bd
00000150: bf14 b23d bc3e 823d bc48 af3d ddee aa3b
00000160: 10d5 a6bd 4c9f 9a3d 2601 f9bd 12eb 7fbd
00000170: 85ce d13d 34cf 9fbd b7ad a0bc 5f8a 15be
00000180: ddff 95bd 7fbe 233e c3b5 893c 19dd 223e
00000190: a331 833d e3a5 7d3d 0977 c7bc 950d dcbc
000001a0: 4913 1b3e 7b91 273e d0c7 3a3e f3be 143d
000001b0: c2db 183e badd 23be 77eb 5bbe 9a4a a0bd
000001c0: f8f6 d3bd ca84 123c c82a e5bd 1e50 eb3d
000001d0: 5448 a03d 7695 63be 3d00 81bd f140 8ebe
000001e0: 0d20 0ebe 5e6b fd3d 42db 30bc dd74 42bd
000001f0: 9337 a83d 7329 a43c 7586 49be 2f64 e9bc
00000200: 971a 2e3e 9230 f93d c550 893d 5e26 15bd
00000210: 1020 2e3b 586c 17bd 8e63 86bd 9979 513d
00000220: 9790 4d3e d795 1c3d 4165 333d ccbf d639
00000230: 00ce 55bd 9528 b33d d93f 87be 126e 4b3e
00000240: dcce fbbd 6752 e93c a183 093d 2b37 333d
00000250: 51a1 36bd 67ed 0cbe 194a f43d 3c40 993c
00000260: d8db 2dbe 1b81 cfbc 9164 08be 9fcd 363d
00000270: c81e 253e 0c6c 00be 793b d6bd 43aa b33d
00000280: fca2 6ebd add1 a3be f324 4fbc 9cb0 00be
00000290: cec7 05be 43ac 383d 9920 babb 405d 0b3d
000002a0: 2924 1b3e 1607 fdbd fcc6 113d df7e 65bd
000002b0: e472 843b 6984 8dbd 89a7 e83d a667 263d
000002c0: a036 843d e770 0cbe 80f7 c2bd 26b3 e8bc
000002d0: c11e a53d e60d cdbd f0fe 73bb e739 0b3e
000002e0: 52f4 893d 259b cc3c 3916 563d 498d babd
000002f0: f4ed a63d ebaa fc3d 6fa5 143e fc39 4a3d
00000300: ed46 47be 99f5 28be 63d6 91bd 6525 6f3c
00000310: ff4d 94bd 54e5 23be ba53 c23d 5a17 70be
00000320: 06a5 abbd 42d4 193e 5cba 98be 7e17 bb3b
00000330: d071 9f3b e162 d23d dbf2 723c a44d 48bd
00000340: 4e4d fcbc c6e2 8ebe c136 013e 4838 a0bd
00000350: 26cc 423e 62bc 2f3d dc19 aa3d cd5c 9abd
00000360: 31e1 a13d 0065 17be c96c e3bd ac4c f33d
00000370: f07c d03d 26fe 2f3d 27e1 27bc 3555 a13d
00000380: 3a10 a73d 9738 e13b 4cae a83d 2105 633e
00000390: d07c 54bd fa7b 093d 0e17 d4bc e644 54bd
000003a0: d022 bf3c 7cfe 89bd 3c1d 323d f38b 81bd
000003b0: 137a 0c3d 8de8 bebd 3df1 92bd 1b0b 613d
000003c0: df92 3c3e e448 10be d906 c6bd 01e5 893c
000003d0: 8232 433e 75df dfbd 54e1 e1bb 5d67 be3c
000003e0: e966 e6bd 4ec8 60bd 06c1 8cbb 108a 17be
000003f0: 02e0 b6bd e1f8 04be 4519 70bc 13b2 433d
-0.0131496955 -0.095098004 0.07937323 -0.09082194 -0.07830217 0.04654213 -0.056948803 -0.21977183
0.11599875 0.19430296 0.02655956 0.013408948 -0.034281682 -0.3162111 -0.061933454 0.05095474
-0.11551099 0.049640074 -0.113816805 0.16828968 0.091816016 -0.054212093 -0.091291316 0.12247203
0.040985603 -0.07123566 0.021860847 -0.021449452 -0.08438989 -0.16498293 0.112507515 0.024735302
0.28596798 0.029797204 0.022559794 0.088496335 -0.13833277 0.11622856 0.0005361539 -0.009349084
-0.0011281959 0.031346776 0.1475218 0.16306002 0.117231235 -0.17188153 -0.07432457 0.124012426
-0.07369432 -0.047333263 0.013146196 0.12098367 0.10316579 -0.12488429 0.04706242 -0.010227547
0.051623635 -0.0022805445 0.19880642 -0.06548813 0.071452595 0.007399164 0.07571235 -0.05154712
0.11305718 0.0854451 -0.06353636 0.026451502 0.09040822 -0.047552407 0.07121739 -0.09763603
-0.08422589 -0.16810423 0.0005586055 0.027566077 -0.057776418 -0.18966554 0.036761116 -0.028310359
-0.12681526 -0.088321455 0.004469836 -0.06497224 0.08695363 0.06359622 0.08558795 0.005216463
-0.08146107 0.07549915 -0.12158422 -0.06248004 0.102444686 -0.07803193 -0.019614084 -0.14603566
-0.07324193 0.15990637 0.016810304 0.15904655 0.06405952 0.06192578 -0.024348753 -0.026861945
0.15144075 0.1636409 0.18240285 0.036314916 0.14927581 -0.1600255 -0.21476541 -0.07826729
-0.1034984 0.008942792 -0.111898005 0.114898905 0.078262955 -0.22224984 -0.062988736 -0.2778392
-0.13879414 0.12373994 -0.010794463 -0.04747473 0.08213725 0.020039296 -0.19680198 -0.028490154
0.1700233 0.12167467 0.06704859 -0.036413543 0.0026569404 -0.03696856 -0.06561957 0.051141355
0.20074688 0.038228836 0.043797735 0.0004096016 -0.05219841 0.08747975 -0.264159 0.19866207
-0.12295315 0.028481675 0.033572797 0.043753784 -0.044587437 -0.13762437 0.119281955 0.018707387
-0.16978395 -0.025330117 -0.13319613 0.04462969 0.16125023 -0.12541217 -0.10460562 0.08772709
-0.058260903 -0.31995907 -0.012643087 -0.12567371 -0.130645 0.045086157 -0.0056801555 0.034024477
0.15150513 -0.12354867 0.035590157 -0.056029197 0.0040420163 -0.06910021 0.1136008 0.04062619
0.064557314 -0.13714944 -0.09519863 -0.028405737 0.080625065 -0.100124165 -0.0037230812 0.13596307
0.067360535 0.024976322 0.052267287 -0.09108979 0.08150855 0.123372875 0.14516233 0.049371704
-0.1946065 -0.16499938 -0.07120969 0.014596318 -0.07241439 -0.1600545 0.09488626 -0.23446408
-0.08381085 0.15022376 -0.2982968 0.0057095876 0.0048658624 0.10272766 0.014828409 -0.04890217
-0.03079858 -0.2790739 0.12618543 -0.07823235 0.19023189 0.042904265 0.083057135 -0.075372316
0.0790428 -0.14784622 -0.111047335 0.118798584 0.1018008 0.042966984 -0.010246552 0.0787758
0.08157392 0.006873201 0.082363695 0.22169925 -0.051876843 0.0335655 -0.0258899 -0.05182352
0.02333203 -0.06737992 0.04348491 -0.06325521 0.034296107 -0.09321699 -0.07174919 0.05494223
0.18415402 -0.14090306 -0.09669275 0.01683283 0.19062236 -0.10931293 -0.0068933163 0.023242647
-0.11250097 -0.054878525 -0.004295471 -0.1479876 -0.08929445 -0.12985565 -0.014654462 0.047777247

network_body._body_endoder.seq_layers.0.bias f4 [128]
00000000: 44cc 913b 1e08 ae3b 3814 eb39 3831 50bb
00000010: cbf4 25bb e87a cc3a 2df2 6eba 0828 c53a
00000020: 660b a8bb 914d c03b a8d6 9bbb c2ae 50ba
00000030: df83 9f3b 98db 01bc a634 973a 07df fa3a
00000040: 03cc 0d3b eca9 a4bb 02c2 233b 170c 983b
00000050: 4fb1 afbb aef8 b5ba afe9 913a fd4d 673b
00000060: 3ce5 9abb 6a9b 64bc 9a38 c1bb f8fb 373b
00000070: 4d48 b2bb b1c3 993b 692e b9ba 2915 86bb
00000080: d1f4 d3bb c3d7 043b 0a6a 863a 7c5d a63b
00000090: 35d9 9b3b 0c51 bd38 3d9b 3abb c655 8b3b
000000a0: c469 353b 289e e7ba cf7a 2b3b f963 1abb
000000b0: ebbc 59bb 26f8 be3b bfa5 da3a c5f4 a63b
000000c0: 0684 613b c995 4dbb 5fd7 aab9 1d03 11bb
000000d0: 829b 2c3b ff51 ee3a b9c7 b13b 6f20 18bb
000000e0: 8622 a1bb 9e09 ac3a 9ed8 763b 016d 9d3b
000000f0: 4580 863b 75fd c9bb 2a72 26bb 0ac7 e43a
00000100: 394b c83b a3f2 ad3b d760 9cbb 7bc1 d03b
00000110: 2a3d b33a cd9b 243b 98c4 0c3a bd0f 823b
00000120: 3e33 583b 9fdf 54ba eb81 983b a07d 053b
00000130: b432 0a39 14d8 95bb 6204 bd3b 77ca b23b
00000140: 0d3e 6cbb 7d21 f73b 4632 f03b b3e9 94bb
00000150: b02c 8bbb 7f41 aa3b 43c3 95bb a992 d33b
00000160: 9939 bfbb 9233 c23a 4e38 4e3b 6b6e 1ebb
00000170: 417d 77bb 9ea2 133a 6594 98bb ec30 8f3b
00000180: 6716 a73b 9e70 01ba e2dd b43b 3dc3 a4bb
00000190: acb6 d8bb 861e fdb9 dabf f23b 656b 90bb
000001a0: f094 3bbc 51f1 94bb 3834 603a 0d90 caba
000001b0: 84e9 053a d8e3 21bb 8163 db3b 21c7 963b
000001c0: e68c d2bb 7382 c43b 7c00 14bb 2ec0 acbb
000001d0: 110a b3bb 4352 a3bb 3c29 9ebb 4a6b c8ba
000001e0: b498 51ba 943c 90bb 6462 4a3a 170c 87bb
000001f0: 1fbb b0bb 3cee 1d3b 0333 843a 21af 803b
0.004449399 0.0053110262 0.00044837757 -0.0031767618 -0.002532291 0.0015600594 -0.00091150665 0.0015041837
-0.005128312 0.0058686216 -0.0047558136 -0.0007960611 0.004868015 -0.00792589 0.0011536076 0.0019139954
0.0021636493 -0.005025139 0.0024987464 0.004640113 -0.005361713 -0.0013883316 0.0011132265 0.0035294287
-0.004727034 -0.013953069 -0.00589664 0.002807377 -0.005440748 0.0046925177 -0.0014128211 -0.004091878
-0.0064683934 0.0020270206 0.0010254991 0.005077062 0.0047561177 9.0273184e-05 -0.0028473877 0.0042521683
0.002768145 -0.0017671036 0.002616573 -0.0023558124 -0.0033224176 0.0058279214 0.0016681476 0.005095097
0.0034410967 -0.0031369796 -0.0003258539 -0.00221271 0.0026337807 0.0018182396 0.00542542 -0.0023212691
-0.0049174456 0.0013125425 0.0037665735 0.004804254 0.0041046464 -0.0061642476 -0.0025397637 0.0017454338
0.006112483 0.0053084656 -0.0047722864 0.006370721 0.0013674845 0.0025117279 0.0005369871 0.0039691613
0.0032989527 -0.00081204803 0.0046541593 0.0020369068 0.00013179594 -0.0045728777 0.0057683447 0.0054562646
-0.0036047727 0.007541834 0.007330212 -0.0045444607 -0.0042472705 0.005195796 -0.004570396 0.0064566922
-0.0058357236 0.0014816395 0.0031466666 -0.00241747 -0.0037763866 0.0005631837 -0.004656362 0.0043698456
0.005099106 -0.0004937741 0.0055196146 -0.005028157 -0.006613573 -0.00048278662 0.0074081244 -0.0044073337
-0.011449084 -0.0045453687 0.0008552703 -0.0015454307 0.0005108344 -0.0024702456 0.0066952114 0.0046013747
-0.006425488 0.005996996 -0.0022583297 -0.005271933 -0.0054638465 -0.0049841716 -0.004826693 -0.0015290764
-0.0007995472 -0.0044017527 0.000772035 -0.0041213143 -0.0053934003 0.0024098298 0.0010086003 0.003927127

network_body._body_endoder.seq_layers.2.weight f4 [128, 128]
00000000: 8cf1 80bd c738 f43d f86b 90bd dc22 8cbd
00000010: 0686 623d d25e 1c3b a991 813d e4a1 52bc
00000020: 8ae4 063c c79e 713d e2a1 afbc dc7e 5a3e
00000030: 086a 3bbd b8c0 46bd fbb8 b3bd 68fe 06be
00000040: cd24 883c c3de 00bd 863b 33bd b25a d439
00000050: 85ba ca3c 3788 6b3d 659b bdbd e340 b8bc
00000060: 7da9 1f3d 8edf 803d 9d17 4bbe 6b84 9bbd
00000070: af10 ef3d 64a0 9abd c135 a03d a496 8f3d
00000080: f03d 103e 1e0a 1bbc c3d6 0ebe e303 26be
00000090: 9a24 a3bc b323 ab3d 64a0 41bd 8773 2ebc
000000a0: 3401 8cbb 032b 41bd ab5e a4bd ed14 7a3b
000000b0: 1da6 9ebc 54c9 053e 6cd3 d33c a330 2cbd
000000c0: d52a de3b e35a 583d 95bd 363d 7c38 9e3d
000000d0: e999 7fbd ac73 62bd f546 413e dad4 b9bd
000000e0: f818 06be 5def c9bc b882 d1bd 1068 a6bd
000000f0: f105 3b3b d9b5 1bbd 675e 113e 647a d13d
00000100: 6b7f a1bd 69a9 853d 9170 16bd ff47 0dbd
00000110: b645 9e3d 6c6f 1ebd 71c3 d13d e2cd 913d
00000120: be47 6c3d f8be 873d 7451 d23d 3484 da3d
00000130: 83b3 6b3d cb60 50bd 4e30 2cbd 22ab 8d3b
00000140: 37f4 6ebd 6b46 ccbd c151 c6bd 8106 f1bd
00000150: 4505 bc3d a64b 9a3c 7ac8 85bc a6fb 793d
00000160: 59ea 2ebe 330d 6ebd 0599 a8ba ea6b 40bd
00000170: fd9a 82bd 1aa7 d43d 1a2b 413d 9832 7abd
00000180: eadb 963d c7b9 87bc 5c21 59be 5a59 813d
00000190: 2f33 003e a7a6 17be e2ba 18be 116e d03c
000001a0: b0fe bcbc 7661 c8bd 0879 2c3e 0148 88bd
000001b0: 8ff7 a23d c9c3 853d 38e4 393d c6ba bd3d
000001c0: 1c18 863c 55d4 543b 9298 643d e714 b3bd
000001d0: 4255 abbd ba89 153d fea5 e53d 52ac e03c
000001e0: a6a1 92bd e3cf 8c3d 2f8e 463e ed6a 973d
000001f0: 54d2 5fbd 8b77 76bb 8a7d 843d a940 48bd
00000200: 0177 7f3d 1370 5a3d 2d48 703d 04a5 123d
00000210: ebdb 883b 8ae4 e4bc 2166 0d3e 24d2 20be
00000220: 86ab 653c 9681 8c3d de46 b8bd ab79 35bd
00000230: ed10 a4bd fa87 ab3c 3069 313e 5c35 54bd
00000240: 1cda 173d acd5 69be 274e 2fbd ee4c bdbc
00000250: 7a18 fabd 92e0 39be eb8b 643c 9e33 f7bb
00000260: ca4b eabd f640 05be 4c04 473e 71f4 a33d
00000270: 9584 c83c 88eb 3fbd bd0b 833d 2bf4 90bd
00000280: 3be7 37bd 5c83 7abd fde5 a63d 4fd4 c2bd
00000290: c165 ebbc cea4 363d 5809 9e3c 0cb0 d9bc
000002a0: a938 09bd 968f 7c3d be80 5ebb 269c c5bd
000002b0: 0639 abbd bad4 c13d 11e4 cb3d 59b5 41bc
000002c0: bb4c 123e b9bf 71bd cd50 fcbb 8c60 403d
000002d0: 437d dbba 9f13 893c 42ab 983c e132 d2bd
000002e0: 9ce1 c3bd 4cb1 5cbc 7405 b63c ba60 21bd
000002f0: 3b96 313d dbdd afbd a0a4 863d d668 ac3d
00000300: 0518 f13d 2062 213e 50c9 d93d 506b 493d
00000310: 2654 843d 4988 3b3d a1f0 33be 9cc1 6fbd
00000320: ec8e f939 08e9 f03c 71f6 2c3e b496 c23d
00000330: 697b 50bd 8f68 1f3d 1bd0 c73d ff71 d7bd
00000340: b4c3 993d 6304 693b de4f 8abd 577e 033d
00000350: 6f5c a5bd ee74 b13d fdb6 0bbe a13f f03d
00000360: 5732 803d 2a9a da39 4146 1fbe 8d15 393d
00000370: 8209 1c3c 3306 ba3d b657 7fbd 24cb bf3d
00000380: 489e 2e3d f06c 173d 0ada 8ebc 7b9c 9ebc
00000390: d7dc 3bbd 0f84 cb3a 470b 09bd 9a52 64bc
000003a0: 7dfe 413d b544 e93d b7c0 1b3e 2d61 4d3d
000003b0: 199c 463d 7918 c5bd ade8 9cbd 8982 343c
000003c0: 9499 bdbd 064f 04bd 1013 d73d 3057 1abd
000003d0: 95fa 233c edce 803d 8875 30bd eb3d 99bd
000003e0: b33c 05be 9feb 9abd b560 47bd 38c2 2bbe
000003f0: 8612 54be 2911 323d c09a e43c 19ab 253e
-0.062960714 0.11924892 -0.070518434 -0.068425864 0.055303596 0.0023860228 0.063266106 -0.012855981
0.008233199 0.058989312 -0.021439496 0.21337456 -0.045755416 -0.048523635 -0.087755166 -0.13182986
0.01661911 -0.031462442 -0.043757938 0.00040503364 0.024747143 0.05750295 -0.09258155 -0.022491878
0.038979996 0.0629264 -0.19833227 -0.07593616 0.11673104 -0.07550123 0.07822753 0.07011154
0.14086127 -0.009462861 -0.13949113 -0.1621242 -0.019914914 0.083564185 -0.0472721 -0.010647661
-0.0042726044 -0.04716016 -0.08025869 0.0038159445 -0.019366318 0.13065082 0.02585765 -0.04203857
0.0067800083 0.05282105 0.044614393 0.07725617 -0.06240264 -0.055286095 0.18874724 -0.09073801
-0.13095462 -0.02465027 -0.10230011 -0.08125317 0.0028537477 -0.03801522 0.14196168 0.10228422
-0.07885631 0.06526453 -0.036728445 -0.03449249 0.0772814 -0.03868048 0.102423556 0.07119347
0.057685606 0.06628221 0.10269442 0.10669747 0.057544243 -0.05087356 -0.042038254 0.004323379
-0.05833837 -0.09974369 -0.09683562 -0.11768819 0.091806926 0.0188349 -0.016330946 0.061031006
-0.17081584 -0.058118057 -0.0012862986 -0.046977915 -0.06377218 0.103834346 0.047160245 -0.061083406
0.07366164 -0.016568078 -0.21204132 0.063158706 0.12519525 -0.14809667 -0.1491504 0.025443109
-0.023070663 -0.09784214 0.16843045 -0.06654359 0.07957374 0.06531484 0.045383662 0.0926414
0.016368918 0.0032475193 0.055809565 -0.08744221 -0.08365871 0.0365083 0.11213301 0.027425919
-0.07159738 0.06875589 0.19390176 0.07393441 -0.054643944 -0.0037607874 0.06469257 -0.04888979
0.06236935 0.05332954 0.058662582 0.035801902 0.004176607 -0.027941007 0.1380849 -0.15705162
0.014017945 0.06860654 -0.08997892 -0.044305485 -0.08011041 0.020938862 0.17325282 -0.0518087
0.03707324 -0.22835416 -0.04279914 -0.023107972 -0.122117 -0.18152073 0.013949375 -0.007543995
-0.11440237 -0.13013062 0.19435233 0.08005608 0.024477283 -0.04685548 0.06398723 -0.07077821
-0.044898253 -0.06116043 0.081493355 -0.09513151 -0.028735043 0.044590764 0.019291565 -0.026573204
-0.0335013 0.06166037 -0.0033951248 -0.096489236 -0.08360486 0.094644025 0.099556096 -0.011823022
0.14287083 -0.05902073 -0.007700062 0.046967074 -0.0016745705 0.016732989 0.01863635 -0.10263611
-0.09564516 -0.013470005 0.022219397 -0.039398886 0.04335616 -0.085872374 0.065743685 0.08418433
0.117721595 0.15760088 0.106341004 0.049174607 0.064613625 0.04578427 -0.17572261 -0.05853425
0.00047599466 0.029407993 0.16890885 0.095014006 -0.050898943 0.038918074 0.0975649 -0.1051979
0.075080305 0.0035555593 -0.06753515 0.03210291 -0.08074271 0.08664881 -0.13644023 0.11730886
0.062596016 0.0004169506 -0.15554143 0.045186568 0.009523751 0.09083214 -0.062339507 0.09364918
0.042631418 0.036969125 -0.017437954 -0.019361725 -0.045864906 0.0015527027 -0.03345802 -0.013935709
0.04736184 0.11390058 0.15210234 0.050141502 0.04848871 -0.096238084 -0.07661567 0.01101745
-0.09257808 -0.032301925 0.10501683 -0.037680805 0.010008474 0.06289468 -0.043080837 -0.07482513
-0.13011436 -0.075644724 -0.04867621 -0.16773307 -0.20710191 0.043473396 0.027905822 0.1617855

network_body._body_endoder.seq_layers.2.bias f4 [128]
00000000: b5d7 89bb 6d3d 803b 341e 63bb 809f b63b
00000010: 4950 bc3a d1b1 cdbb ef93 d2b9 d3cb aa3a
00000020: 5ccd 8a3a 9b89 22bb 0c55 d3bb b23a f6ba
00000030: 45ea bdbb 368a e7bb 405f 90bb b68d f4bb
00000040: f92b f1bb 620d f1bb 4fc2 38bb 5540 03bb
00000050: e37d 96bb 8d76 aeb9 2a4f 12bb 2bc1 593a
00000060: 9e70 823b 72f9 4b3b bf50 6dbb 805a 89bb
00000070: b2b7 27bb 5039 4f3b e2f3 b839 2e4f 5dba
00000080: 6d09 123a ef75 e73a 7ea3 b43b 3cc4 87bb
00000090: d321 533b 9598 c8bb c3b9 f73a 70d8 b63b
000000a0: 84c3 a038 e1ea d2bb 983f c53b 05d5 213b
000000b0: fb32 8dbb 9fd1 a1ba 3712 b2bb 2620 48bb
000000c0: 3001 a3b9 2e02 5dba 0682 ddbb e9cc eeba
000000d0: 4dc2 ba3a 0f0f 943b 4c21 9aba a84e 033b
000000e0: 9a42 be3a dc02 9e3b 06c3 8fbb 79ff 49bb
000000f0: 0d92 dfbb a0f9 6f3b e81d 773b 3e12 ecba
00000100: e599 d4bb d20e e03b face 91ba 64b2 61bb
00000110: f937 813a 8e8a 823b 7ae9 8fbb dcdd 2dbb
00000120: 8f20 3fbb 07f3 903b 3c23 d33a f267 0cbb
00000130: d1ba a1ba d14f bf3b d5b1 123b 907f a6ba
00000140: 2fdc 6f39 5bcf 99bb f58d 14b9 3b81 8fbb
00000150: 26f0 da39 d6bb 4a39 aa78 413a 5a0e dfbb
00000160: fec9 a0ba f9be 993b 365e 3639 13e6 55ba
00000170: a6bc abbb 30a0 ac3a 02ad a43b f832 93ba
00000180: 76d0 9e3b d595 74bb 4e60 3d3b 7333 6e3b
00000190: b832 69bb 0be6 a63b ec48 b33b 006c 853b
000001a0: fae5 513b 9bca fa3a c697 7bbb 33cb 71bb
000001b0: da24 d5ba 9996 823b 721b 4cbb cb7c b73b
000001c0: 6f53 4e3b 751f 73bb ea8c afbb 4a02 883b
000001d0: e35e d7bb 0194 973b c44c 02bb 3722 e63a
000001e0: dc4f 473b f903 a7ba 5684 09bb 05ee e837
000001f0: 01f1 22bb 8570 c13b d57e 5bbb 72d6 413b
-0.0042066225 0.0039135725 -0.0034655454 0.005573213 0.0014367189 -0.006277301 -0.0004016454 0.0013030715
0.0010589766 -0.0024801258 -0.0064493474 -0.0018785803 -0.0057957494 -0.0070660366 -0.004405886 -0.0074631823
-0.0073599783 -0.0073563317 -0.0028191989 -0.0020027359 -0.0045926436 -0.00033276193 -0.0022325017 0.00083066773
0.00398071 0.0031124023 -0.0036211459 -0.0041916966 -0.0025591669 0.0031619854 0.00035276922 -0.00084422796
0.00055708626 0.0017659048 0.005512654 -0.004143266 0.0032216206 -0.006121705 0.0018899966 0.0055800006
7.665812e-05 -0.006436691 0.006019544 0.002469362 -0.004309056 -0.0012345797 -0.0054343003 -0.003053674
-0.00031090667 -0.0008430806 -0.006759885 -0.0018219027 0.001424858 0.0045183967 -0.0011759191 0.0020035896
0.0014515698 0.004822118 -0.0043872623 -0.003082244 -0.0068228305 0.0036617294 0.0037707034 -0.0018010808
-0.006488072 0.006837704 -0.0011124306 -0.0034438604 0.00098586 0.003983802 -0.0043918462 -0.0026529944
-0.0029163694 0.0044235024 0.0016108523 -0.002142426 -0.0012339001 0.0058383723 0.0022383828 -0.0012702812
0.00022874841 -0.004693908 -0.00014167263 -0.004379419 0.00041759125 0.00019334196 0.0007380346 -0.0068071308
-0.001226723 0.004691955 0.00017391969 -0.0008159589 -0.0052409945 0.0013170298 0.005025507 -0.00112304
0.004846628 -0.0037320752 0.0028896513 0.0036346584 -0.003558321 0.005093341 0.0054713394 0.0040717125
0.0032027946 0.0019133867 -0.0038390025 -0.0036894798 -0.0016261593 0.003985238 -0.0031144288 0.0055995933
0.0031482836 -0.0037097607 -0.0053573744 0.0041506635 -0.0065725907 0.0046257977 -0.0019882182 0.0017557804
0.003041259 -0.0012742273 -0.002098342 2.7767392e-05 -0.0024862888 0.005903306 -0.0033492346 0.0029577282

action_model._discrete_distribution.branches.0.weight f4 [3, 128]
00000000: 86a4 cc3b 575a 1f3b 8ab6 d83b dcd9 b23b
00000010: cbc3 85bb b750 29ba d89c cf3b d7a6 483c
00000020: 7862 243b a925 5a3c a87d c13c fe92 6ebc
00000030: 5e5a 003c 0fcf d5bc 369e 213c 9b9a f1ba
00000040: 9c40 883c 0a00 9e3b 09b6 76bc c683 57bc
00000050: 00ee 923b acc4 613c 8810 173b 8e42 efbb
00000060: 407f 9cb7 9018 b53a 56ba b439 10b6 7dbc
00000070: 858a f7bb 25b0 5bbc 73b7 4fbb be9d 6a3c
00000080: 25b9 1f3c 8ae0 893a 1820 30ba a4c4 93bb
00000090: 2b77 f4ba dfd1 fd3b 8158 ae3b 2385 233c
000000a0: d2b0 8b3c 0049 8d3b 7d5b aeb9 533e 92bc
000000b0: ae92 23bc b4b5 123a 2102 07bc 5f6f bcbb
000000c0: 06f2 4dba b4c9 88bb b5a2 56bb a4a6 40bc
000000d0: 39a0 36bc 4a70 6dbb 7128 0abc b7e3 63bc
000000e0: a4bd 52bc a7df 2cbc f83d 803b b94d d03b
000000f0: fdd9 9e3c c28d f83a 6700 d8bb a29c aa3b
00000100: f4fa 933a d64d 6ebc 821b 79bc 627a 323a
00000110: 08dc 0fbc 08d5 6d3b 7e78 453a 07f2 aebb
00000120: 84bf 4f3c 18cf 00bc e4a8 3e3b 935a 3fbb
00000130: e77c 4abb 432b eb3b 622e 88bb 351b 6bbb
00000140: 3c6c 84bc cdf5 8a3c d1bd 6a3c 0462 18bc
00000150: 0f82 5cbc 1e29 8cbc 7017 a3bc 1f07 393b
00000160: 1910 9e3b 13f1 c0bb 6f20 663b ee77 99bb
00000170: 2703 123a 82ff 0abc 79ef de3c 4ecb 29bb
00000180: 9c76 5cbb ae0a 5fbc 720f 893b 8596 973c
00000190: 8cbc bfba 4358 bfbc 0d2a 82bb ab09 8bbc
000001a0: b887 b53b bb81 973b 12c7 c1bb 284a 863c
000001b0: 0757 66bc 621a a7ba c322 0cbc 243b a0bc
000001c0: b766 2ebc 4d3c 503c 9ce0 5db9 eaf6 4dbc
000001d0: 318d 083b 3eba 42ba bbaf b4bb 4b51 06ba
000001e0: d62d 5dbc 221b b3ba 478e 2bbc 8220 3cbc
000001f0: 770b f739 6055 09bd 9d1f 2f3c a8d4 a4bb
00000200: ad80 243b 37eb 7d3b 81e9 6dbb 64a5 bb3c
00000210: 061d 833c e914 973b 4d53 8ebb 7a6f f33b
00000220: 0c8e 4aba f193 8cbb 5931 0bbc 9785 8b3a
00000230: b58a 133a a7fc febb 9641 733b 9c82 bdbb
00000240: 3565 f9bb f202 03bc 18dd 41b9 6a29 033b
00000250: fd6d 943b 3c6e f2bb 07c7 91bc 539d e2bb
00000260: 9b0e 7c3b 0043 043c 89f4 9cbc cabc 963b
00000270: 668a b53b 497e 4f3b 9e9c 7c3c bd68 7a3c
00000280: ac7f 463c 7597 693c df5b a03c 5531 acbc
00000290: b57a 843b 643b 13bc 58cb 85ba cdd9 b63b
000002a0: 29bb 68bb 822b dbbb d8b8 453c dc1f 9dbb
000002b0: 1b88 dfbb 6655 ddba 2bf6 233a c43a 86bb
000002c0: f457 dc3b 347a 7cba 30de b0bc 6038 d7bb
000002d0: d733 6a3c 9632 963c c608 7aba b9b6 7cba
000002e0: 8c39 87bb 139c dbba 8649 2f3c 4295 14bc
000002f0: 6064 74bc c6d7 023c adb5 413b 2387 303c
00000300: a901 583b fa1f 4f3b 46bd 143b e55f ec3b
00000310: 14e7 c63a 44de e9ba 4479 233c e499 8abc
00000320: 832d a93b eb47 d0ba 2480 003c 2f11 f93a
00000330: 51bf 7fbc 3426 b3bb 9826 673c 5e4f b53b
00000340: 8d6c 363a fd12 153c c696 be3c 6dbf 223c
00000350: 6885 ecbb 113f 04bc dec4 2a3b 34da b2b9
00000360: 2faf 5c3c 2a28 243c b0f3 23bc 3098 43bc
00000370: 9505 83bb 7a6e 0cbc 5a8e 33bc 05e0 1639
00000380: 3608 39bc 26a0 c93b a2c2 3d3c 7ed9 34bb
00000390: 9def 393b 905b 893c 0d5d 18bb 27f9 e83b
000003a0: ef76 3b3a a8ed 493b 8e71 1f3c 0d6f babb
000003b0: 3494 663a c3fc bc3a 35c6 aebc 54d7 1f3b
000003c0: 8588 9c3c af8c be3c 7920 45bc 77fa 12bc
000003d0: 24b3 4cbc d429 d0ba 7a9b f937 5df2 adbb
000003e0: c155 19bc 0a68 16bc da9e 3d3c 34cd 53bb
000003f0: 85c5 8a39 ac58 e13b 125a 763b 2562 e63b
0.0062451987 0.0024315321 0.006613557 0.0054581 -0.004082178 -0.0006458866 0.006335836 0.012246809
0.0025083106 0.013314643 0.023619488 -0.014561413 0.007834045 -0.02609971 0.009864381 -0.0018432917
0.01663237 0.004821782 -0.015058049 -0.013153976 0.004483938 0.0137798 0.0023050625 -0.007301635
-1.8655905e-05 0.0013816524 0.00034471106 -0.015485302 -0.0075543546 -0.013408695 -0.0031695038 0.014319835
0.009748732 0.0010519188 -0.00067186495 -0.0045095254 -0.0018651237 0.007745966 0.005320609 0.009980473
0.017052088 0.004311681 -0.0003325603 -0.017851984 -0.009983702 0.0005596534 -0.008240254 -0.005750581
-0.00078561937 -0.0041744355 -0.003275079 -0.01175848 -0.0111465985 -0.003623026 -0.008432494 -0.013909272
-0.012862597 -0.01055137 0.0039136373 0.0063569215 0.019391054 0.0018963146 -0.006591845 0.0052066604
0.001129 -0.014544925 -0.015204312 0.00068083976 -0.008780487 0.0036290307 0.00075329083 -0.0053389105
0.012679938 -0.007861875 0.0029092366 -0.0029198274 -0.0030897202 0.007176788 -0.00415592 -0.003587437
-0.016164891 0.01696291 0.014327482 -0.0093007125 -0.013458743 -0.01710945 -0.019908637 0.0028233004
0.0048236963 -0.0058881133 0.0035114547 -0.004683486 0.0005569928 -0.008483769 0.027213799 -0.0025908533
-0.0033640033 -0.013613386 0.0041827494 0.01850439 -0.0014628335 -0.023357516 -0.003972298 -0.016972383
0.0055398606 0.0046236194 -0.0059136236 0.016392782 -0.014058835 -0.0012748952 -0.00855321 -0.01955945
-0.010644606 0.012709689 -0.00021159876 -0.012571076 0.002083611 -0.0007428265 -0.0055141128 -0.0005123808
-0.013499698 -0.0013664702 -0.010470933 -0.01148236 0.00047120053 -0.033528686 0.01068869 -0.0050302334
0.002510111 0.0038744935 -0.003630251 0.022906013 0.01600505 0.004610647 -0.0043434263 0.0074290605
-0.0007726855 -0.004290097 -0.008495652 0.0010644671 0.0005628274 -0.0077815834 0.003711795 -0.005783392
-0.007610942 -0.007996308 -0.00018488278 0.0020013698 0.004529713 -0.007398395 -0.017795099 -0.006915727
0.0038460854 0.008072615 -0.019159572 0.004600142 0.00554018 0.0031660965 0.0154182 0.015283761
0.0121154 0.014257302 0.019575058 -0.021019617 0.004042948 -0.008986328 -0.0010207696 0.005580163
-0.0035511947 -0.006688536 0.012067996 -0.0047950577 -0.006821645 -0.0016886413 0.00062546384 -0.004096361
0.006724352 -0.0009631247 -0.021590322 -0.0065679997 0.014294586 0.018334668 -0.00095380505 -0.0009640265
-0.004126733 -0.0016754888 0.010698682 -0.009068789 -0.014916509 0.007986015 0.002955775 0.010774407
0.0032959974 0.0031604753 0.0022695824 0.00721358 0.0015175068 -0.001784273 0.009977642 -0.016919084
0.005162896 -0.0015890574 0.007843051 0.0019002313 -0.015609578 -0.0054672007 0.014108323 0.005533143
0.00069589244 0.009098765 0.023265254 0.009933335 -0.0072180517 -0.008071677 0.0026057283 -0.0003411338
0.013469501 0.0100193415 -0.01000683 -0.01193814 -0.003998468 -0.008571262 -0.010959232 0.00014388569
-0.011293462 0.0061531244 0.011582049 -0.0027595456 0.002837158 0.016767293 -0.0023248822 0.0071097794
0.00071512064 0.003081182 0.009731663 -0.005689508 0.00087958877 0.001441859 -0.021334747 0.002438982
0.019108066 0.023260443 -0.012031668 -0.008970848 -0.012493882 -0.0015881606 2.9755513e-05 -0.005308433
-0.009358824 -0.009180078 0.011573518 -0.0032318356 0.00026468575 0.0068770256 0.0037590307 0.0070307427

action_model._discrete_distribution.branches.0.bias f4 [3]
00000000: c494 47bb 9e64 933b e7e6 58ba
-0.0030453661 0.0044980785 -0.0008274153

action_model._discrete_distribution.branches.1.weight f4 [3, 128]
00000000: ab95 8cbc 09d0 13bc 6e36 9e3b d482 fcbb
00000010: f679 b43a 70e8 173c 81c6 f03b e5ea 5ebc
00000020: eeb9 7cbb 1476 fb3a d133 a53a 87b6 f6bb
00000030: 3d66 ee3a 2e58 a6bb 89b4 55bc 5cab 1e3b
00000040: 6acc 383c 63ad 89bb 7358 0d3c 9477 9bb7
00000050: 01cb 043c 17ab f9bb 80c3 193c 96e8 8a3b
00000060: 96ef a43b ecb0 973c 7be9 473c 5495 293c
00000070: b734 183c 679e 4f3b d6d5 91bb 0808 97bc
00000080: 4f9f b0bb b5dd bcbb 8b00 243c 2d6a 98bb
00000090: 7361 c43b 76b1 4cbc 8884 edbb a4f8 38bc
000000a0: a0e5 5d3c 68c3 c63a 6d53 d8bc ff5b 823c
000000b0: 5d58 6b3b d72c 26bc 8b29 0a3b 9622 353b
000000c0: 3cab 673b db38 5d3b 6c24 aa3b 79eb 84bc
000000d0: 64d8 1abb d907 8d3a bba4 26bc 32b2 76bc
000000e0: 0983 333c 7943 603c 3975 ea3b ceb4 a7bb
000000f0: edf6 6e3c 46b4 62bc 98c5 4cbc bfb0 edbb
00000100: 1bf7 97bb 38f0 5ebc 0dbe 163c 4d0b cc3b
00000110: 190a 29bb b3e1 82b9 a479 073c 470f 213b
00000120: 3697 7d3b d646 a53c 11c7 053c cb7b 13bc
00000130: a50e 6b3b 3dc9 94bc 1e34 5dbb 7c6d b939
00000140: e77c c03b 0641 903b c058 3cbc 38ea 153b
00000150: d5a5 5cba 618b a4bb 946f 5abb 6725 f23b
00000160: b913 413c 41dc 043c b347 de3b 61d8 f8bb
00000170: 174d b63a a187 83bc f634 fbba c955 c3bb
00000180: 47ea 363c 35fa ffbb f48a 403c ed83 8ebb
00000190: f709 34ba 60c5 893c 011e a8bc f0d0 3a3c
000001a0: 631a 51bc de10 d23b b420 0a3c 9a28 563b
000001b0: 490f 2dbc 059f e13b 2384 dd3b 9388 a93c
000001c0: cb83 7cbc f6e8 05ba 2e7d bb3a 4429 0dbc
000001d0: 6b86 8cbc 0de6 0abc 56ad 89bc b6fe 8bbc
000001e0: 07c1 d6bb 4023 303c 3373 703b 9287 93bc
000001f0: a259 0a3c 3143 923c 1106 9abc c702 aabb
00000200: 5701 ac3b ec60 1cbc 9fc8 28bc dfbe a63b
00000210: 1475 38bc 0cbe 993b 7f4a 60bb 56e9 16bc
00000220: da77 d5bb a7f9 bdba e817 cb3a 24e2 8d3b
00000230: 3b81 b439 f7a7 ebbb 070a 33bc d462 02bc
00000240: cc8e 1f3c af3d 163b 06bb 8a3c 9d60 233b
00000250: 2cd1 423b 5ef8 b43b 3642 093c f640 1bbc
00000260: 4236 abb9 1cf0 28ba d045 eb3b b091 5e3c
00000270: f74b 0fbb 296f d0bc ec8d 5138 5b83 3abb
00000280: 81ef 243c fa6e 35bb dcc8 bf3a e2b5 813b
00000290: 67c8 b63b a621 7ebb 60b2 18bc ae75 96bb
000002a0: 19b8 debb 289d 303c 8c26 3fbb f369 713c
000002b0: 258d bb3b 6bf2 b539 15a7 243b 729c 01bb
000002c0: 6d00 383b b717 103b 79c5 aeba 8428 beba
000002d0: 034b 0bbc 0eda 87bb a829 14bc 15a2 25bc
000002e0: 06f8 96ba 0d3d 8c3a 1e59 9d3c cc20 aa3b
000002f0: 73a5 f83b d9f2 003b 3a63 d93b 70e1 8539
00000300: db86 2038 3d68 273c 7189 ce3b 7a22 07bc
00000310: e5c2 913b c11a 8dbb 81d5 c03a b3c0 bdbb
00000320: b051 7dba 10e6 f53a f886 ef3a 72fc 53bc
00000330: 1da5 26ba 6531 e03b 907a 1239 86e8 62bb
00000340: a863 8ebb 06d4 243c 0042 d239 0e7f c2bb
00000350: e8e1 b0bb 0bd8 f6bb 9878 813c ff05 a1bb
00000360: ba95 3bbb a473 763a ecea 9dbb e6a4 26bc
00000370: 16e1 c33a ef3b 8bbc e491 b5bb e924 293b
00000380: fa20 a1bb 7e12 953c 52a9 0bbc 0584 2f3c
00000390: 3502 4a3a 00d5 b239 bb05 27bb 8f8f 543c
000003a0: 85d0 233c 337d db3b dbae 8bba eef9 9b3b
000003b0: 895a b13b 1f9e 91bc 7db9 3c3c 8f6f 8c39
000003c0: d72c 2dbc d2b4 ec3b f736 62bb 3024 173b
000003d0: c51c e9bb 4b50 a13c 3672 003c 3ae2 f43a
000003e0: 6d7b 01bb 2941 acba d4a5 babb c0b3 95bb
000003f0: 23d4 703c 0409 9cbc 5487 a13b 6d45 68bc
-0.017161211 -0.009021767 0.004828266 -0.0077060256 0.0013769257 0.009271726 0.0073478823 -0.013605808
-0.0038562971 0.001918497 0.0012603943 -0.007529083 0.0018188428 -0.00507643 -0.013043531 0.0024211025
0.011279205 -0.0042015775 0.008627045 -1.8533123e-05 0.0081050405 -0.0076192725 0.00938499 0.004239152
0.0050334437 0.01851698 0.012201662 0.010350544 0.009289912 0.0031680109 -0.00445054 -0.018436447
-0.005390085 -0.005763734 0.010009895 -0.004651329 0.005993062 -0.012493482 -0.007248465 -0.011289749
0.013543516 0.0015164437 -0.026406968 0.015913008 0.0035910823 -0.010142527 0.002108189 0.0027639023
0.0035349866 0.0033755812 0.00519233 -0.016225563 -0.0023627514 0.0010759785 -0.010171111 -0.0150571335
0.010956534 0.013687962 0.0071550873 -0.005117989 0.014585239 -0.013836926 -0.012498282 -0.007253736
-0.0046376116 -0.013607077 0.009200585 0.006226933 -0.0025793372 -0.0002496369 0.0082687475 0.0024575756
0.0038694865 0.020175379 0.008165137 -0.0090016825 0.0035866883 -0.018162364 -0.0033752988 0.00035367522
0.0058742645 0.0044022826 -0.011495769 0.00228752 -0.0008417045 -0.005021498 -0.0033330666 0.0073897126
0.011784487 0.008109153 0.0067834496 -0.0075941538 0.0013908473 -0.016055884 -0.0019165564 -0.005961154
0.0111642545 -0.0078118094 0.011751879 -0.004349223 -0.000686794 0.016817749 -0.02052212 0.011402354
-0.012762639 0.006410702 0.008430649 0.003267801 -0.010562726 0.0068854117 0.0067601367 0.020695006
-0.015412281 -0.0005108261 0.0014304274 -0.0086157955 -0.01715394 -0.0084777 -0.016806286 -0.01708923
-0.0065537724 0.010750592 0.0036689758 -0.01800898 0.008444222 0.017854305 -0.01880172 -0.0051883194
0.005249183 -0.009544592 -0.010301738 0.0050886716 -0.011258382 0.004691845 -0.003422409 -0.009210905
-0.0065145316 -0.0014493958 0.0015494796 0.0043299366 0.0003442856 -0.007191654 -0.010927684 -0.007958133
0.009738635 0.002292495 0.016934883 0.0024929412 0.0029726727 0.0055227717 0.008377602 -0.009475937
-0.00032656087 -0.00064444705 0.007179953 0.013584539 -0.0021865347 -0.02544363 4.9961658e-05 -0.0028459642
0.010066868 -0.0027684555 0.0014632004 0.0039584497 0.005578089 -0.003877738 -0.009319872 -0.004591665
-0.0067968485 0.0107796565 -0.0029167263 0.014734733 0.005723613 0.00034703626 0.0025124003 -0.0019777087
0.0028076426 0.0021986791 -0.0013333998 -0.0014507924 -0.008501771 -0.004145867 -0.009043135 -0.010109444
-0.0011518009 0.0010699347 0.019207533 0.005191898 0.0075880825 0.0019675998 0.006634143 0.000255357
3.8272567e-05 0.010217723 0.0063030054 -0.008247966 0.004448282 -0.004306168 0.0014712067 -0.005790794
-0.00096633565 0.001876058 0.0018274477 -0.012938606 -0.0006357001 0.006841826 0.00013969303 -0.0034623458
-0.004345376 0.010060316 0.00040103495 -0.0059355563 -0.005398024 -0.0075330785 0.015804574 -0.004914045
-0.002862318 0.0009401387 -0.0048192646 -0.010171151 0.00149444 -0.016996352 -0.005541073 0.0025809354
-0.004917261 0.018197294 -0.008524256 0.010712628 0.00077060173 0.00034109503 -0.0025485593 0.01297368
0.009998445 0.0066982745 -0.0010656969 0.0047600185 0.005412404 -0.017775593 0.011518833 0.00026785998
-0.010569773 0.007223704 -0.0034517625 0.002306234 -0.0071140253 0.019691607 0.00783973 0.0018683143
-0.0019757405 -0.0013141978 -0.005696038 -0.004568547 0.014699015 -0.019047268 0.0049294624 -0.014176709

action_model._discrete_distribution.branches.1.bias f4 [3]
00000000: b89a 6b3b 0fb2 5ebb 64db 26b7
0.0035950374 -0.0033980643 -9.945452e-06

action_model._discrete_distribution.branches.2.weight f4 [2, 128]
00000000: fdbb 1abc a387 193b 8eed 74b9 1969 87bb
00000010: c70c 323c b8fe 8fbc 160a 80bc 1d8f 39bb
00000020: f901 433c 829e 09bc 6784 263b ebfa 71bc
00000030: a133 313c b842 11bb a16d 7e3b 064a 57bc
00000040: c0b5 15bc f580 02bc dccc a23c a212 36bb
00000050: 90e5 bcbb 9aec 653c bd11 2e3c 572a 95bb
00000060: 7e84 083c b755 46bc cb52 95bb 8ce7 0f3b
00000070: 5181 d73a 7c68 04bb f118 bd3b ab8d 303c
00000080: a03d a23c 4b9e 28bb 7739 2e3c f4d0 48bb
00000090: 679e b0bb b422 6c3b d739 173c d55d 4c3c
000000a0: a692 55bc 314d bfbb a803 89bc c522 9c3b
000000b0: 8a7f 90bb 2451 93ba 0eb4 e8bb 0af2 fe3b
000000c0: b5f9 133c 0a2f 83bb 082c a53b 95a4 c3bb
000000d0: 1b54 983b 3acc 733b a54d 01bc 56e3 33bc
000000e0: 7eef 713c bab5 e9bb b17f 5139 fd63 2cbc
000000f0: 032a 3a3b 878a 95bb f9b6 8bbc bcc1 e9bb
00000100: bb6e d23b a21d ce3b 34e1 88ba 6bdc 78bc
00000110: da6e 92bb 2307 4e3a 674f b8bc e35d 8ebb
00000120: a1e0 fcbb cc8c 443b f54c da3b 7faa 003c
00000130: d536 0d3c b32e f83b 49f8 f63b 7c57 153b
00000140: 989c 66bc 2f83 283b 4071 8cbc 71d4 2f3a
00000150: 6c33 163c 8fc9 9d3b 4852 5f3b 45d9 22bc
00000160: e735 893b e49b fd3b a571 5b3b e26c 4eba
00000170: bc3e 1a3c 8124 88ba aa13 243c 937d 67bc
00000180: c523 d73b b760 1eba 4d0c 23bc ccef 8e3b
00000190: bfe3 6d3c d5a0 073c c387 babb 9d98 7f3a
000001a0: 749a 05bb 66ae 10bc 48b9 08bc 543c b13b
000001b0: bd10 08ba 4ec7 e93b 1528 21b9 31ae 363c
000001c0: 2071 9dbc 95c4 fc3b fba2 483c 9f53 13bc
000001d0: c456 a13b e34c 043c 6fb2 bcbc 9428 db3b
000001e0: 45d0 7b3b 81d7 033b ea13 dbba 6619 023c
000001f0: 32ef a3ba 2673 4abb f6e8 bbb9 9767 263c
00000200: c22e e73b d898 d13b d6f7 0bbc 755a 9f3a
00000210: c7c3 e0bc a0bc 8b3b 5a47 55bb 1764 333c
00000220: f2b5 d93b b308 b3bb 5eea 2ebc 056e 4d3c
00000230: 1669 82bc 8ff3 603c 30b8 063c 22ef b5bb
00000240: 697c 0f3b 21b9 bbba d44d a23b e636 d7ba
00000250: 2e11 2ebb 0423 19bc 2b80 f43a ea17 d2b9
00000260: a77a 7cbb c09d 71bc cf55 a0bb 5710 ff3b
00000270: dc2a 12bc dd32 a9bc 65e8 d13c 686c 11bc
00000280: 4be4 4fb9 a466 e43b 26f0 6b3b 8f45 8e3b
00000290: 9fcb 27bc 4072 a43a 116e 343c bf43 783b
000002a0: af92 683b b48f 6b3c dd31 0ebb 80ce c8bb
000002b0: 99e9 96bc e28b 08bb b247 e2bb 5419 8bbc
000002c0: ee84 4abc de7b 173c 7ee7 fa3b b7f0 8e3b
000002d0: 657c 3e3c 36c5 c2ba 833b 5f3b b49c d23b
000002e0: c018 32bc 2f99 15bb 3671 b03c dae5 09bb
000002f0: ac77 203c 3e96 183b 361a a7bb 700d e83c
00000300: 3a8e 1f3c a48f e73b ea60 1f3b 2c14 42ba
00000310: 9671 913c e3f7 a63a 7eb1 6d3b 6552 42ba
00000320: c8b2 a0bb 6bf0 f5bb e557 77bc 3323 19bc
00000330: 5afe 7bbc fcd6 3bbc d9e2 8fbc d2b8 72bb
00000340: 93dd c3bc 96ec 09bb 8540 cc3b 207c c33b
00000350: 0630 00bc 88b4 3a3c 2911 e83b b9dc 3c3c
00000360: b047 1e3c 8afa c5bc a63a 0e3c fb1e 4d3c
00000370: 23c0 343c 7ba9 f93b 9d4b e7bb 5625 443c
00000380: 3c6e e33b 6d54 65bc 91f1 913c cdf3 42bb
00000390: 3759 363c 7ad0 0dbc 8ce1 f139 b364 7ebc
000003a0: 2052 b63b 84f6 5d3c 4502 6d3b aab4 f7bb
000003b0: f359 49ba 6547 e6bb a6f4 76ba 9208 673b
000003c0: 7b70 973b 7c56 1038 b18b ef3c d7d5 f8bb
000003d0: ff0e 983b d77c 9d3c 80a2 683c 854d 12bc
000003e0: b1db 3a3c f1d4 17ba 2a83 4db9 6658 113b
000003f0: 9b1f 9abb 7c7a 003a dcb2 04bb 4e89 1ebc
-0.009444234 0.0023426793 -0.0002335815 -0.0041324017 0.010867304 -0.017577514 -0.01562981 -0.0028314062
0.011902326 -0.008399608 0.0025408508 -0.014769296 0.010815532 -0.0022165012 0.0038822668 -0.013140207
-0.009137571 -0.007965316 0.019873075 -0.0027782102 -0.0057646707 0.014033461 0.010624346 -0.0045521664
0.00833237 -0.012105397 -0.004556989 0.002195808 0.0016441738 -0.002020388 0.0057707955 0.010775964
0.019804776 -0.0025729116 0.010633818 -0.0030642124 -0.005389977 0.0036031427 0.009230099 0.012473543
-0.013035452 -0.0058380594 -0.016725376 0.004764887 -0.004409735 -0.0011239392 -0.0071015423 0.007780318
0.009031703 -0.00400341 0.0050406493 -0.0059705474 0.004648698 0.0037200586 -0.007892047 -0.010979494
0.014766572 -0.007132259 0.00019979362 -0.010521886 0.0028406389 -0.004563633 -0.017055022 -0.0071336906
0.0064218915 0.0062901536 -0.0010443092 -0.0151892705 -0.004468781 0.000785934 -0.0224988 -0.0043446883
-0.0077172075 0.0029991148 0.006662006 0.007853149 0.00861903 0.0075739264 0.007536922 0.002278774
-0.014075421 0.0025712957 -0.017143846 0.00067073765 0.009167533 0.0048152874 0.0034076143 -0.009939496
0.004187334 0.007739531 0.0033484485 -0.0007874501 0.009414371 -0.0010386856 0.010014454 -0.01412906
0.0065655434 -0.00060416333 -0.009951663 0.004362082 0.014519631 0.008278091 -0.0056924536 0.0009750219
-0.002038625 -0.008830642 -0.008344956 0.005408803 -0.00051904825 0.0071343547 -0.00015369088 0.011149929
-0.019218981 0.007713864 0.012245889 -0.008992105 0.0049236733 0.008074972 -0.023034303 0.006688187
0.00384237 0.0020117464 -0.0016714309 0.007940626 -0.0012507199 -0.0030891388 -0.0003584099 0.010156534
0.0070551345 0.006396394 -0.008542975 0.0012157696 -0.027437104 0.004264429 -0.003254375 0.010949156
0.006644004 -0.0054636835 -0.010675995 0.012538438 -0.01591925 0.013729944 0.008222625 -0.0055521885
0.0021894223 -0.001432214 0.0049531255 -0.0016419559 -0.0026560533 -0.009346727 0.001865392 -0.0004007214
-0.0038525255 -0.014747083 -0.0048930417 0.0077839303 -0.008921351 -0.020654136 0.02562351 -0.008875944
-0.00019826104 0.0069702435 0.0036001294 0.004341788 -0.010241418 0.0012546256 0.01101257 0.0037882177
0.003548782 0.014377523 -0.0021697201 -0.0061281323 -0.018421935 -0.002083533 -0.0069055194 -0.01697985
-0.0123607945 0.009245841 0.0076569906 0.0043621915 0.011626338 -0.0014859799 0.0034062571 0.006427372
-0.010870159 -0.00228269 0.021538358 -0.0021041543 0.009794157 0.002328291 -0.00509956 0.02832672
0.009738499 0.007066684 0.002431924 -0.00074035185 0.017754357 0.0012738671 0.0036269124 -0.00074127904
-0.004904125 -0.0075054667 -0.015096639 -0.009346771 -0.015380466 -0.0114648305 -0.017564224 -0.003703643
-0.023909366 -0.0021045557 0.0062332773 0.0059657246 -0.00782395 0.011395581 0.007082124 0.011527234
0.009660646 -0.024167318 0.008680975 0.012519593 0.011032137 0.0076190806 -0.0070585744 0.011971792
0.006940631 -0.013997179 0.017815383 -0.0029747367 0.011129669 -0.008655662 0.00046135148 -0.015526938
0.0055639893 0.013547543 0.0036164683 -0.0075593786 -0.0007680945 -0.007027554 -0.0009420611 0.003525291
0.004621563 3.441282e-05 0.029241415 -0.007593851 0.0046404595 0.019224567 0.014198899 -0.008929615
0.011404918 -0.00057919236 -0.00019599186 0.0022177934 -0.0047034747 0.0004901064 -0.002024821 -0.009676291

action_model._discrete_distribution.branches.2.bias f4 [2]
00000000: c4da efb8 27da ef38
-0.00011437156 0.00011437042

exp_avg f4 [128, 100]
00000000: 42f9 a135 2262 16b5 471e d3b5 2d9a 3ab5
00000010: 73da 1db6 5305 59b5 ee2e 69b6 de33 7534
00000020: d81e 9935 d118 0bb6 d553 4fb4 c8c0 40b6
00000030: 4702 88b5 dcae 73b5 65fc 83b5 1e21 bc35
00000040: 0133 a7b5 1fb8 cbb5 d188 11b6 860a 90b4
00000050: fae6 2b34 9125 23b4 be31 3e32 e10c ed33
00000060: 04b2 9235 efd4 bcb6 ab0b 69b4 642f 22b6
00000070: db1a a7b5 67ed b534 38f0 84b5 8090 83b5
00000080: 7e37 ebb5 2317 24b4 36c5 0735 199d 1a34
00000090: 43cd ce2d 3466 37b6 8f72 c335 9eea 74b6
000000a0: 759e 052a 8b1c d9b5 bc32 3432 6c30 0533
000000b0: 5aad 0fb6 6069 3ab6 fbde e334 6edb b0b4
000000c0: 57f7 46b5 b2c8 3fb5 c1de 3732 d527 c4b5
000000d0: 7b16 5c34 d47d 38b6 2056 9cb3 8cb9 31b5
000000e0: da33 1935 3997 9bb4 58e8 0cb6 2a66 38b6
000000f0: bd1a e8b4 5ca7 6834 b1de 3fb5 9fbd 19b5
00000100: 4f27 a435 e55f c2b6 7e11 b935 aa85 ea33
00000110: 5d5d 97b5 f5c4 22b4 1e0e 9b35 0f70 f735
00000120: b293 01b7 1590 3334 f722 b035 5450 ceb5
00000130: bb44 dbb5 0d3d 8d35 51b9 7935 d5bc c5b6
00000140: d0c1 9835 7434 9eb4 c035 e6b5 7425 6fb6
00000150: 0d3d 8d35 51b9 7935 d5bc c5b6 d0c1 9835
00000160: 7434 9eb4 c035 e6b5 7a25 6fb6 0000 0000
00000170: b3ec 6538 7e7c 7bb6 705f 88b8 0000 0000
00000180: b3ec 6538 7e7c 7bb6 99b3 a039 c282 c335
00000190: b55b 3eb6 e5c9 d634 f680 0136 bb82 e2b6
000001a0: 2239 2d37 7b17 c7b6 7f52 e6b5 6fb6 bab5
000001b0: 5c4b bd34 dd10 45b5 ccc2 51b6 9b50 8236
000001c0: b173 f8b5 c1c1 2ab6 12b5 9eb5 7d87 ba34
000001d0: 966a 8bb6 afb4 c334 df98 7036 3004 f5b5
000001e0: 7942 22b6 9d47 74b6 0917 1335 5fdd 95b6
000001f0: 5d45 a7b5 2f92 cc36 3567 29b4 5582 0835
00000200: 84fe b4b5 859a ecb4 9cf7 bab6 a3b3 1836
00000210: 3d12 3136 f1ab e0b4 d143 3eb6 54eb 2cb5
00000220: 5c85 19ac 4016 f9b6 1944 80b5 029c ce36
00000230: 8914 2b28 f563 cc35 ed0d 0635 5f9c 6e31
00000240: f472 14b7 2dee 0337 321d 1eb6 091d f0b2
00000250: fae0 16b6 f92e 04b4 1589 4934 f7d1 6fb7
00000260: 7318 ac35 81d9 2537 e7e9 5234 d0cc 2a36
00000270: c6e3 3c35 14ea b8b3 6a2f 67b7 e2e6 1437
00000280: 075f 2235 c91d 5b35 35cb c2b5 8857 87b4
00000290: eca8 d6b4 eb19 91b6 085c 9835 a437 d235
000002a0: 6c9d 1eb5 a473 4032 5305 9435 6915 0035
000002b0: 2d92 d7b6 b316 e035 db11 44b5 1d88 8b35
000002c0: b293 b335 e110 44b5 dcc4 b9b5 b920 ae35
000002d0: 5106 a035 d0a4 2b35 be33 82b6 db63 6bb6
000002e0: e110 44b5 dcc4 b9b5 b920 ae35 5106 a035
000002f0: d0a4 2b35 be33 82b6 e863 6bb6 0000 0000
00000300: 5e61 7ab8 21b9 9cb5 5ebe 27b8 0000 0000
00000310: 5e61 7ab8 21b9 9cb5 cd2a 18b9 0ecb 55b2
00000320: df9e 9c34 95c7 a335 b0bc b3b5 1684 2d37
00000330: e484 ccb6 0872 a336 585b 1337 cb66 9f35
00000340: 1300 06b6 beb2 3e36 a8b4 fb35 d06b 3935
00000350: 3b74 9d36 12d0 5237 27e4 0436 98e5 2eb5
00000360: 9483 0036 10aa c5b4 3720 3536 906a 7936
00000370: 80f4 1937 c3e0 7036 43af bcb5 691e 3d37
00000380: 2bc2 19b4 8193 a8b6 6388 8635 b69b e935
00000390: 3fa9 f335 3254 a3b5 2751 4237 79ce ddb6
000003a0: 29a8 af34 8fbc 6336 a993 fe36 9af1 7534
000003b0: dd90 b8ad a416 9537 39e6 b2b5 7d8e f7b6
000003c0: b6f7 d12b 1635 1235 b19e 17b5 7ad1 a02e
000003d0: 7636 af37 48ae 4eb7 8783 76b5 a110 1436
000003e0: 7a62 f436 7104 1235 8591 7232 ad55 8d37
000003f0: f282 17b6 bcab cab6 d6cf 4334 f98d e134
1.2067978e-06 -5.6022157e-07 -1.5729537e-06 -6.9514755e-07 -2.3521977e-06 -8.084655e-07 -3.4747022e-06 2.2836272e-07
1.1408365e-06 -2.072706e-06 -1.9308875e-07 -2.8722443e-06 -1.0133452e-06 -9.077901e-07 -9.833717e-07 1.401673e-06
-1.2457314e-06 -1.5178265e-06 -2.1686321e-06 -2.6829747e-07 1.6009645e-07 -1.5194225e-07 1.1070766e-08 1.1038515e-07
1.0929657e-06 -5.6276253e-06 -2.1704061e-07 -2.4167466e-06 -1.2450286e-06 3.388661e-07 -9.904679e-07 -9.802316e-07
-1.7525015e-06 -1.5282107e-07 5.05784e-07 1.439952e-07 2.3510643e-11 -2.7328615e-06 1.4561973e-06 -3.6495398e-06
1.1867749e-13 -1.6176067e-06 1.0488915e-08 3.1010515e-08 -2.1409564e-06 -2.7777496e-06 4.2444285e-07 -3.294221e-07
-7.4120675e-07 -7.1445095e-07 1.070265e-08 -1.4614731e-06 2.0497275e-07 -2.7491378e-06 -7.279982e-08 -6.6207645e-07
5.7072396e-07 -2.898103e-07 -2.0996868e-06 -2.7477604e-06 -4.3232822e-07 2.1667569e-07 -7.1477103e-07 -5.7272877e-07
1.2230392e-06 -5.792814e-06 1.3788665e-06 1.09207875e-07 -1.1277549e-06 -1.5159078e-07 1.1552509e-06 1.8435547e-06
-7.723387e-06 1.6723091e-07 1.3123198e-06 -1.5371575e-06 -1.6336775e-06 1.0523087e-06 9.30294e-07 -5.8930405e-06
1.1381289e-06 -2.9467958e-07 -1.7151979e-06 -3.5635576e-06 1.0523087e-06 9.30294e-07 -5.8930405e-06 1.1381289e-06
-2.9467958e-07 -1.7151979e-06 -3.563559e-06 0.0 5.4818298e-05 -3.7474379e-06 -6.502762e-05 0.0
5.4818298e-05 -3.7474379e-06 0.0003065139 1.4566688e-06 -2.8365587e-06 4.0007504e-07 1.9297563e-06 -6.750544e-06
1.0324906e-05 -5.9333956e-06 -1.7160345e-06 -1.3911175e-06 3.5258824e-07 -7.341276e-07 -3.1256814e-06 3.8836856e-06
-1.851111e-06 -2.5444754e-06 -1.1824616e-06 3.474378e-07 -4.154931e-06 3.6453045e-07 3.585177e-06 -1.8255141e-06
-2.4178573e-06 -3.6400518e-06 5.479529e-07 -4.466317e-06 -1.2462657e-06 6.096692e-06 -1.5776898e-07 5.0853606e-07
-1.3485119e-06 -4.4070853e-07 -5.5720575e-06 2.2754327e-06 2.6385671e-06 -4.1848355e-07 -2.835168e-06 -6.441744e-07
-2.1816637e-12 -7.4233685e-06 -9.556562e-07 6.15744e-06 9.49686e-15 1.5228276e-06 4.9939155e-07 3.4722445e-09
-8.848252e-06 7.863663e-06 -2.3560829e-06 -2.7952881e-08 -2.2482695e-06 -1.2310547e-07 1.8769454e-07 -1.4294396e-05
1.2822114e-06 9.885408e-06 1.9642867e-07 2.545119e-06 7.036691e-07 -8.610746e-08 -1.3779712e-05 8.875244e-06
6.0487986e-07 8.16272e-07 -1.4513267e-06 -2.5209397e-07 -3.9983513e-07 -4.324354e-06 1.1351667e-06 1.5662413e-06
-5.9088666e-07 1.12021645e-08 1.1028409e-06 4.771487e-07 -6.4245164e-06 1.6695907e-06 -7.3041673e-07 1.0395921e-06
1.3379524e-06 -7.304025e-07 -1.3840868e-06 1.2973534e-06 1.1922767e-06 6.39423e-07 -3.8803255e-06 -3.5075852e-06
-7.304025e-07 -1.3840868e-06 1.2973534e-06 1.1922767e-06 6.39423e-07 -3.8803255e-06 -3.5075882e-06 0.0
-5.9695325e-05 -1.1676785e-06 -3.9993196e-05 0.0 -5.9695325e-05 -1.1676785e-06 -0.00014511794 -1.2444401e-08
2.9172858e-07 1.2202532e-06 -1.3391455e-06 1.0342357e-05 -6.0951443e-06 4.8710535e-06 8.78315e-06 1.187634e-06
-1.99676e-06 2.8416248e-06 1.8753535e-06 6.907476e-07 4.6924956e-06 1.2565421e-05 1.9802335e-06 -6.5154154e-07
1.9150075e-06 -3.6817846e-07 2.6989853e-06 3.716592e-06 9.176438e-06 3.5893615e-06 -1.4058099e-06 1.1272358e-05
-1.4319873e-07 -5.023962e-06 1.0023472e-06 1.7405171e-06 1.8154168e-06 -1.216895e-06 1.1582196e-05 -6.61035e-06
3.2718643e-07 3.3935391e-06 7.58698e-06 2.2905297e-07 -2.098271e-11 1.7772727e-05 -1.3329037e-06 -7.3777614e-06
1.4919097e-12 5.446649e-07 -5.648281e-07 7.313168e-11 2.0886986e-05 -1.2319135e-05 -9.183354e-07 2.2063398e-06
7.283231e-06 5.43957e-07 1.4119341e-08 1.6848406e-05 -2.2576974e-06 -6.0400616e-06 1.82364e-07 4.2012815e-07
