MLBase/results/Stage1/CaptureTheFlag/CaptureTheFlag-0.onnx (onnx, 130971 bytes, 9 tensors)

discrete_act_size_vector f4 [1, 3]
3.0 3.0 2.0
00000000: 0000 4040 0000 4040 0000 0040

network_body._body_endoder.seq_layers.0.weight f4 [128, 100]
-0.010750769 -0.08748111 0.07618063 -0.0994602 -0.08669772 0.043664023 -0.05849692 -0.21527433
0.11691212 0.19043115 0.026668433 0.0062182657 -0.03663603 -0.31556645 -0.06844517 0.048273932
-0.11614251 0.04339186 -0.121093445 0.16139756 0.0909855 -0.05922432 -0.09087321 0.11938726
0.05254454 -0.082282804 0.021718968 -0.02664708 -0.088550985 -0.1644162 0.10888674 0.022975208
0.28375277 0.025724385 0.021139786 0.094542705 -0.13506193 0.112504385 -0.0004122309 -0.011685799
0.0020588608 0.02721381 0.14378746 0.16694473 0.11370442 -0.17921785 -0.07182049 0.118848674
-0.073843285 -0.04841168 0.0034442418 0.118426554 0.10469259 -0.1275978 0.048767023 -0.014316219
0.04746333 -0.0031989522 0.19655 -0.0700651 0.07172678 0.005392245 0.0750645 -0.06228846
0.10658201 0.08332262 -0.06161284 0.02629191 0.08512361 -0.052681614 0.06822404 -0.096426904
-0.09485792 -0.16490546 0.0045839255 0.030223375 -0.055246096 -0.18017653 0.04766649 -0.04037502
-0.12543668 -0.091360144 -0.0012976507 -0.071599126 0.0964427 0.07450156 0.073523305 0.0065949666
-0.08449976 0.069731675 -0.12821113 -0.06248004 0.10206304 -0.081947975 -0.017967828 -0.14603566
-0.073623575 0.15599026 0.017986571 0.15939258 0.0635721 0.06400775 -0.033612918 -0.025688771
0.16966955 0.15851194 0.17782734 0.029579988 0.15687443 -0.16625176 -0.20790696 -0.06812535
-0.112022914 0.0029691227 -0.11186995 0.11978533 0.07236109 -0.2128917 -0.054462817 -0.28534555
-0.14332938 0.11850305 -0.0096776625 -0.052972384 0.09131936 0.02274333 -0.19591245 -0.032430094
0.16655503 0.1167975 0.061520677 -0.03564534 0.006719579 -0.03502988 -0.06962245 0.042671546
0.19724838 0.033416692 0.04481054 -0.001109621 -0.050451685 0.082763456 -0.26093617 0.20383914
-0.12797523 0.030342696 0.030496016 0.039306793 -0.049510848 -0.1434413 0.1237926 0.013750488
-0.17202108 -0.026240934 -0.13343105 0.040500723 0.15772341 -0.124287926 -0.11028677 0.086431935
-0.058720857 -0.31728992 -0.0152988285 -0.12587886 -0.12192159 0.038084235 -0.007970026 0.032408115
0.14602022 -0.12781279 0.033670705 -0.05585865 -0.0010411488 -0.06909033 0.10620463 0.03913983
0.060283292 -0.13859574 -0.10075877 -0.037425343 0.07690766 -0.10542985 -0.005900448 0.13081396
0.06591421 0.019416204 0.0432477 -0.0948072 0.07620287 0.12119545 0.1400132 0.049371704
-0.19778635 -0.17032063 -0.06592709 0.014596318 -0.075594254 -0.16537575 0.08950137 -0.23303938
-0.085022576 0.14560042 -0.29737696 0.008269701 0.0025948568 0.100794174 0.013507937 -0.059141558
-0.03398577 -0.2812912 0.12031473 -0.073522605 0.19720368 0.04886475 0.085654154 -0.072641514
0.07484939 -0.15370232 -0.10808165 0.12876788 0.10632012 0.03324245 -0.0083626835 0.081408
0.073318325 0.002617243 0.08167203 0.22250903 -0.05010735 0.029026708 -0.020638304 -0.059376013
0.015837261 -0.06488516 0.039955504 -0.06306786 0.0387921 -0.090945825 -0.08291312 0.05112788
0.18937545 -0.13796142 -0.09632607 0.019430928 0.19319844 -0.10931744 -0.01623377 0.033336397
-0.1155942 -0.062977545 0.0029669553 -0.14808445 -0.09905127 -0.12722962 -0.018583585 0.04924068
00000000: fe23 30bc 4c29 b3bd 9704 9c3d cab1 cbbd
00000010: 938e b1bd 0cd9 323d 779a 6fbd e070 5cbe
00000020: 9f6f ef3d 6200 433e c277 da3c 98c2 cb3b
00000030: a90f 16bd ed91 a1be fb2c 8cbd e3ba 453d
00000040: 20dc edbd aabb 313d d7ff f7bd 6745 253e
00000050: 9b56 ba3d 3395 72bd bc1b babd 4f81 f43d
00000060: f238 573d e383 a8bd faeb b13c fa4a dabc
00000070: 385a b5bd b85c 28be 0300 df3d 8136 bc3c
00000080: 0b48 913e f2bb d23c 582d ad3c 9b9f c13d
00000090: ad4d 0abe b368 e63d b220 d8b9 cb75 3fbc
000000a0: f4ed 063b 7fef de3c 053d 133e 8ff3 2a3e
000000b0: dddd e83d e284 37be 9f16 93bd ef66 f33d
000000c0: 263b 97bd 534b 46bd cab8 613b 9f89 f23d
000000d0: 1269 d63d ffa8 02be eebf 473d 938e 6abc
000000e0: e968 423d 83a5 51bb 6744 493e 4b7e 8fbd
000000f0: 7de5 923d 6eb1 b03b 6bbb 993d 2f22 7fbd
00000100: ab47 da3d 0da5 aa3d bf5d 7cbd 2262 d73c
00000110: 4a55 ae3d adc8 57bd 0cb9 8b3d 787b c5bd
00000120: df44 c2bd fadc 28be c134 963b 0397 f73c
00000130: bb49 62bd 3280 38be f03d 433d 4760 25bd
00000140: 7972 00be 071b bbbd ef15 aaba 90a2 92bd
00000150: c083 c53d 4694 983d 6393 963d 971a d83b
00000160: 360e adbd 7bcf 8e3d c749 03be 12eb 7fbd
00000170: 6d06 d13d 57d4 a7bd 4431 93bc 5f8a 15be
00000180: f5c7 96bd e9bb 1f3e 9358 933c cf37 233e
00000190: 1732 823d 7f16 833d b3ad 09bd 4271 d2bc
000001a0: dbbd 2d3e f450 223e 5f18 363e bb51 f23c
000001b0: b1a3 203e e73d 2abe 90e5 54be 4e85 8bbd
000001c0: 456c e5bd 9d95 423b 131c e5bd 0352 f53d
000001d0: 0d32 943d 4800 5abe 6714 5fbd d018 92be
000001e0: f0c4 12be bab1 f23d 0f8f 1ebc 92f9 58bd
000001f0: a505 bb3d 3850 ba3c 469d 48be 6bd5 04bd
00000200: 678d 2a3e 8733 ef3d 1bfd 7b3d d900 12bd
00000210: ea2f dc3b 7e7b 0fbd 3796 8ebd 5cc8 2e3d
00000220: 7bfb 493e f1df 083d 428b 373d b470 91ba
00000230: 6da6 4ebd e37f a93d 6d99 85be 35bb 503e
00000240: f00b 03be 3f91 f83c c8d2 f93c 2900 213d
00000250: e3cb 4abd 47e2 12be fa86 fd3d ba49 613c
00000260: 4b26 30be 3af7 d6bc 26a2 08be 16e4 253d
00000270: 3f82 213e ab8a febd 08de e1bd 3a03 b13d
00000280: 4885 70bd d373 a2be f0a7 7abc 63e6 00be
00000290: 07b2 f9bd 37fe 1b3d b694 02bc 5fbe 043d
000002a0: 5386 153e 5be1 02be 4bea 093d 0acc 64bd
000002b0: 2877 88ba 3b7f 8dbd d081 d93d 1651 203d
000002c0: 9deb 763d 0bec 0dbe 9d5a cebd 514b 19bd
000002d0: c381 9d3d 9beb d7bd 8c58 c1bb 18f4 053e
000002e0: 08fe 863d bb0e 9f3c 8024 313d 472a c2bd
000002f0: 4010 9c3d 5235 f83d 9f5f 0f3e fc39 4a3d
00000300: 8188 4abe 8868 2ebe c804 87bd 6525 6f3c
00000310: 29d1 9abd 4358 29be 7f4c b73d e0a1 6ebe
00000320: 5120 aebd 4718 153e cb41 98be a47d 073c
00000330: 790e 2a3b 2d6d ce3d 6550 5d3c 6b3e 72bd
00000340: aa34 0bbd 6605 90be 9267 f63d 0593 96bd
00000350: c3ef 493e 6726 483d 726b af3d 13c5 94bd
00000360: a34a 993d 2464 1dbe ea59 ddbd badb 033e
00000370: 5dbe d93d 3c29 083d a303 09bc 3db9 a63d
00000380: eb27 963d 0d86 2b3b aa43 a73d 68d9 633e
00000390: 5d3d 4dbd 6bc9 ed3c a911 a9bc 4334 73bd
000003a0: 25bd 813c 83e2 84bd 62a8 233d b929 81bd
000003b0: 77e4 1e3d ce41 babd 5bce a9bd 786b 513d
000003c0: a3eb 413e c245 0dbe 9a46 c5bd 9c2d 9f3c
000003d0: d0d5 453e d2e1 dfbd affc 84bc bf8b 083d
000003e0: a7bc ecbd 5ffa 80bd 4071 423b 73a3 17be
000003f0: 64db cabd 7b48 02be 9a3c 98bc 98b0 493d

network_body._body_endoder.seq_layers.0.bias f4 [128]
0.0 0.0 0.0 0.0 0.0 0.0 0.0 0.0
0.0 0.0 0.0 0.0 0.0 0.0 0.0 0.0
0.0 0.0 0.0 0.0 0.0 0.0 0.0 0.0
0.0 0.0 0.0 0.0 0.0 0.0 0.0 0.0
0.0 0.0 0.0 0.0 0.0 0.0 0.0 0.0
0.0 0.0 0.0 0.0 0.0 0.0 0.0 0.0
0.0 0.0 0.0 0.0 0.0 0.0 0.0 0.0
0.0 0.0 0.0 0.0 0.0 0.0 0.0 0.0
0.0 0.0 0.0 0.0 0.0 0.0 0.0 0.0
0.0 0.0 0.0 0.0 0.0 0.0 0.0 0.0
0.0 0.0 0.0 0.0 0.0 0.0 0.0 0.0
0.0 0.0 0.0 0.0 0.0 0.0 0.0 0.0
0.0 0.0 0.0 0.0 0.0 0.0 0.0 0.0
0.0 0.0 0.0 0.0 0.0 0.0 0.0 0.0
0.0 0.0 0.0 0.0 0.0 0.0 0.0 0.0
0.0 0.0 0.0 0.0 0.0 0.0 0.0 0.0
00000000: 0000 0000 0000 0000 0000 0000 0000 0000
00000010: 0000 0000 0000 0000 0000 0000 0000 0000
00000020: 0000 0000 0000 0000 0000 0000 0000 0000
00000030: 0000 0000 0000 0000 0000 0000 0000 0000
00000040: 0000 0000 0000 0000 0000 0000 0000 0000
00000050: 0000 0000 0000 0000 0000 0000 0000 0000
00000060: 0000 0000 0000 0000 0000 0000 0000 0000
00000070: 0000 0000 0000 0000 0000 0000 0000 0000
00000080: 0000 0000 0000 0000 0000 0000 0000 0000
00000090: 0000 0000 0000 0000 0000 0000 0000 0000
000000a0: 0000 0000 0000 0000 0000 0000 0000 0000
000000b0: 0000 0000 0000 0000 0000 0000 0000 0000
000000c0: 0000 0000 0000 0000 0000 0000 0000 0000
000000d0: 0000 0000 0000 0000 0000 0000 0000 0000
000000e0: 0000 0000 0000 0000 0000 0000 0000 0000
000000f0: 0000 0000 0000 0000 0000 0000 0000 0000
00000100: 0000 0000 0000 0000 0000 0000 0000 0000
00000110: 0000 0000 0000 0000 0000 0000 0000 0000
00000120: 0000 0000 0000 0000 0000 0000 0000 0000
00000130: 0000 0000 0000 0000 0000 0000 0000 0000
00000140: 0000 0000 0000 0000 0000 0000 0000 0000
00000150: 0000 0000 0000 0000 0000 0000 0000 0000
00000160: 0000 0000 0000 0000 0000 0000 0000 0000
00000170: 0000 0000 0000 0000 0000 0000 0000 0000
00000180: 0000 0000 0000 0000 0000 0000 0000 0000
00000190: 0000 0000 0000 0000 0000 0000 0000 0000
000001a0: 0000 0000 0000 0000 0000 0000 0000 0000
000001b0: 0000 0000 0000 0000 0000 0000 0000 0000
000001c0: 0000 0000 0000 0000 0000 0000 0000 0000
000001d0: 0000 0000 0000 0000 0000 0000 0000 0000
000001e0: 0000 0000 0000 0000 0000 0000 0000 0000
000001f0: 0000 0000 0000 0000 0000 0000 0000 0000

network_body._body_endoder.seq_layers.2.weight f4 [128, 128]
-0.06980807 0.11466051 -0.07986963 -0.06416922 0.05077059 0.0010294606 0.05970146 -0.0050246213
0.011319183 0.06418428 -0.024786215 0.21775587 -0.035772663 -0.041953374 -0.09677201 -0.1270236
0.011335346 -0.03653636 -0.03869827 0.009018819 0.019948922 0.06357128 -0.07996246 -0.016942497
0.035601303 0.07294985 -0.2026754 -0.072467305 0.11274527 -0.07346527 0.07298548 0.066799
0.14651845 -0.004620486 -0.14182809 -0.1688443 -0.025668832 0.07822836 -0.03977863 -0.0035167653
-0.008229609 -0.046893198 -0.068874836 -0.000690483 -0.01839695 0.13040914 0.020864246 -0.04767549
0.0019736385 0.04783781 0.03651957 0.07149135 -0.05666307 -0.048944388 0.18274677 -0.084124275
-0.13320613 -0.018803647 -0.093039386 -0.08175063 -0.0021092754 -0.04216969 0.14924985 0.09664871
-0.083290435 0.058754902 -0.0283279 -0.026863368 0.084030546 -0.043702748 0.09633386 0.06579451
0.04651914 0.062209032 0.097682 0.11458066 0.06483264 -0.052252457 -0.035866123 0.00050649565
-0.061730016 -0.09164788 -0.09074086 -0.11125603 0.09803375 0.026743772 -0.010125337 0.057672624
-0.17524064 -0.052857958 -0.007187927 -0.051805187 -0.070041485 0.099796064 0.053125184 -0.05701409
0.063813 -0.0105254585 -0.2032215 0.058256384 0.13242406 -0.14492877 -0.13765271 0.032559466
-0.023059648 -0.09164922 0.16225928 -0.072443284 0.075043045 0.061285656 0.036838464 0.08669379
0.011582742 0.004097782 0.064508334 -0.092490435 -0.08797327 0.033185333 0.118967146 0.027327487
-0.07837961 0.07431231 0.18912287 0.07732631 -0.048431396 0.0033099363 0.07198068 -0.05426167
0.05811948 0.04926277 0.05637769 0.036064483 0.000467064 -0.030160405 0.13480055 -0.15581319
0.01421657 0.06789999 -0.092619225 -0.046977505 -0.084026076 0.019173685 0.17180297 -0.053485267
0.033620246 -0.23226367 -0.039014213 -0.027068092 -0.12622257 -0.17732057 0.0143796615 -0.004817581
-0.11791767 -0.13145758 0.1896074 0.07989249 0.020757802 -0.04812915 0.060180146 -0.07641856
-0.03937477 -0.049730293 0.07942587 -0.09769677 -0.03231014 0.040920958 0.014005188 -0.032049112
-0.036291577 0.053506542 -0.004322777 -0.100570925 -0.08729587 0.09099682 0.0963081 -0.015330352
0.13888066 -0.063050576 -0.009932994 0.043995436 0.0010450319 0.01238262 0.015370893 -0.10805404
-0.09979776 -0.008585908 0.0253727 -0.043069113 0.03940474 -0.089610964 0.060125746 0.08081283
0.11401244 0.15474547 0.10510358 0.043422483 0.059224978 0.04181768 -0.17903887 -0.062166143
-0.0020681566 0.027790554 0.16513458 0.09671401 -0.05632424 0.035249762 0.09453312 -0.108384304
0.07169586 0.005327925 -0.06667281 0.027480649 -0.07980076 0.089371376 -0.13183233 0.11362155
0.058545724 0.0052412106 -0.15840751 0.04051583 0.006125639 0.08634081 -0.056552045 0.09098851
0.039915476 0.042797215 -0.016357949 -0.02315998 -0.051173434 -0.00069136824 -0.033043034 -0.015789209
0.04788151 0.11836535 0.14886971 0.047088154 0.04658021 -0.08844487 -0.07856571 0.0076300185
-0.09666242 -0.0325826 0.10696714 -0.041829832 0.00621298 0.060808223 -0.04886963 -0.06872377
-0.13198473 -0.07424816 -0.052854054 -0.16812679 -0.20349501 0.037638683 0.022353139 0.15818106
00000000: 89f7 8ebd 21d3 ea3d b092 a3bd 276b 83bd
00000010: d2f4 4f3d f7ee 863a 8589 743d 94a5 a4bb
00000020: 1874 393c 0c73 833d 760c cbbc 65fb 5e3e
00000030: 5b86 12bd 4dd7 2bbd 6730 c6bd 7912 02be
00000040: e3b7 393c 26a7 15bd 1482 1ebd abc3 133c
00000050: ec6b a33c a931 823d 5cc3 a3bd feca 8abc
00000060: acd2 113d bb66 953d 248a 4fbe bd69 94bd
00000070: fee6 e63d f674 96bd 6979 953d eacd 883d
00000080: ef08 163e 7267 97bb 623b 11be 85e5 2cbe
00000090: 7147 d2bc 3136 a03d ebee 22bd 8879 66bb
000000a0: 7bd5 06bc 1513 40bd 400e 8dbd 8801 35ba
000000b0: 33b5 96bc f989 053e 7feb aa3c 6047 43bd
000000c0: 2958 013b 94f1 433d 8b95 153d 0f6a 923d
000000d0: 8917 68bd e979 48bd f821 3b3e 5949 acbd
000000e0: 3067 08be 1b0a 9abc 6f8b bebd e06c a7bd
000000f0: c53b 0abb 20ba 2cbd f4d4 183e c2ef c53d
00000100: 2d94 aabd fba8 703d ea0f e8bc 9110 dcbc
00000110: 3518 ac3d a701 33bd b04a c53d 46bf 863d
00000120: db8a 3e3d e6ce 7e3d 800d c83d 44a9 ea3d
00000130: fac6 843d ac06 56bd 5be8 12bd 59c6 043a
00000140: 9dd8 7cbd e2b1 bbbd 58d6 b9bd 34da e3bd
00000150: ebc5 c83d c115 db3c bee4 25bc 213a 6c3d
00000160: 4872 33be 9681 58bd b488 ebbb ad31 54bd
00000170: e971 8fbd e161 cc3d cb99 593d 9b87 69bd
00000180: 64b0 823d f972 2cbc 4c19 50be 3f9e 6e3d
00000190: 2c9a 073e 3568 14be d5f4 0cbe 135d 053d
000001a0: 96e7 bcbc 96b2 bbbd 4c27 263e 255d 94bd
000001b0: 2bb0 993d ab06 7b3d eee3 163d 848c b13d
000001c0: 8bc5 3d3c b046 863b f21c 843d a06b bdbd
000001d0: 542b b4bd 58ed 073d 0ca5 f33d e5dd df3c
000001e0: 7d85 a0bd 0d31 983d 6da9 413e 425d 9e3d
000001f0: 0060 46bd 84eb 583b 9b6a 933d 7c41 5ebd
00000200: b10e 6e3d c2c7 493d 4bec 663d 5ab8 133d
00000210: 45e0 f439 f412 f7bc 2809 0a3e 7e8d 1fbe
00000220: 9eec 683c 260f 8b3d 26af bdbd 7c6b 40bd
00000230: dd15 acbd 2212 9d3c 1eed 2f3e 5e13 5bbd
00000240: 62b5 093d 87d6 6dbe 5ecd 1fbd e7bd ddbc
00000250: 7d40 01be 8693 35be ac98 6b3c ccdc 9dbb
00000260: d27e f1bd d19c 06be 7128 423e ac9e a33d
00000270: 440c aa3c 1223 45bd 757f 763d 5681 9cbd
00000280: 7047 21bd feb1 4bbd 08aa a23d 3f15 c8bd
00000290: a357 04bd bc9c 273d 0476 653c ee45 03bd
000002a0: 7aa6 14bd ad29 5b3d 15a6 8dbb 21f8 cdbd
000002b0: 2dc8 b2bd 8a5c ba3d 2e3d c53d 282c 7bbc
000002c0: bb36 0e3e a920 81bd ffbd 22bc 8f34 343d
000002d0: 74f9 883a 79e0 4a3c 33d6 7b3c 704b ddbd
000002e0: c562 ccbd e9ab 0cbc 69da cf3c 3d69 30bd
000002f0: dd66 213d f485 b7bd 6a46 763d 3281 a53d
00000300: 5b7f e93d 9975 1e3e 8c40 d73d c6db 313d
00000310: e495 723d 0449 2b3d f755 37be eda1 7ebd
00000320: e989 07bb 04a9 e33c 0a19 293e ff11 c63d
00000330: 3fb4 66bd 0e62 103d 959a c13d 97f8 ddbd
00000340: 47d5 923d e095 ae3b c18b 88bd 191f e13c
00000350: 956e a3bd 5708 b73d 0eff 06be 6ab2 e83d
00000360: a4cd 6f3d 76be ab3b 9435 22be edf3 253d
00000370: 96b9 c83b 73d3 b03d 1ea3 67bd 2f58 ba3d
00000380: 697e 233d 224c 2f3d 1b01 86bc 00ba bdbc
00000390: 3c9b 51bd f03c 35ba 2258 07bd 5f58 81bc
000003a0: 671f 443d 8869 f23d 4d71 183e 82df 403d
000003b0: e4ca 3e3d 9622 b5bd 0fe7 a0bd 3c05 fa3b
000003c0: f2f6 c5bd 5575 05bd 9711 db3d c255 2bbd
000003d0: 4196 cb3b 0b12 793d 852b 48bd 0cbf 8cbd
000003e0: 0127 07be 6b0f 98bd 7e7d 58bd 6e29 2cbe
000003f0: ff60 50be 052b 1a3d ee1d b73c 37fa 213e

action_model._discrete_distribution.branches.0.weight f4 [3, 128]
0.0064350814 0.002285824 0.0035767988 0.004464869 -0.00276971 0.0023989298 0.007916588 0.0139614
-0.003566966 0.009451483 0.02561975 -0.007840979 0.00788426 -0.024188403 0.011969145 -0.0033914023
0.018393382 0.006852495 -0.012872404 -0.012213018 0.009470103 0.01291304 -0.0075564818 -0.00848222
-0.0026604522 0.0029637034 -0.0028088533 -0.012728693 -0.004851607 -0.011070388 0.0043898234 0.014448779
0.006818703 0.005500879 0.0021859503 -0.00396409 -0.00019836321 0.012626529 -0.001003368 0.002536032
0.016523099 0.00752837 0.00019815243 -0.015356814 -0.014514542 -0.0023071568 -0.006887018 -0.00019710041
-0.004267943 -0.004164597 0.0011634374 -0.013247351 -0.0026455498 -0.00037073277 -0.008232078 -0.0034597192
-0.0012370296 -0.007845676 0.0017006112 -0.00016713438 0.02193488 0.0069171214 0.00963926 0.005184296
-0.0017530421 -0.006949899 -0.01286175 4.8719852e-05 -0.009172559 0.0012686409 0.006860699 -0.005682768
0.014522073 -0.00539171 -0.0023638739 -0.002308075 -0.0009753369 0.007654179 -0.0012638974 -0.0023069594
-0.013779299 0.006544221 0.010500147 -0.009994092 -0.011726545 -0.011420159 -0.01872888 0.0008717032
0.010297145 -0.0031006874 0.009742483 -0.0027299945 -0.0015802684 -0.008605348 0.017547544 -0.003306136
-0.0003159386 -0.011901061 0.007919067 0.017432129 0.00051584 -0.023131844 0.0014692195 -0.01461699
0.00846394 0.008355695 -0.0028265282 0.012836734 -0.011943996 0.001248157 -0.0057851053 -0.01719485
0.0030903562 0.012481186 0.0006785327 -0.009799073 -0.003513407 -0.0077076615 0.0070414506 -0.0009834593
-0.011715611 -1.1704408e-05 -0.0071667056 -0.005116665 0.004998577 -0.020421134 0.0086245835 -0.005605874
-0.0007352737 0.0014593896 -0.0037758548 0.02052276 0.014986745 0.0031723313 -0.003094274 0.0043796767
0.00022994648 -0.0057362407 -0.010220338 -0.004899461 -0.0014218754 -0.010809768 0.0013569727 -0.0072139925
-0.010478479 -0.010093454 -0.0029113272 0.0018426458 0.00028590683 -0.009524859 -0.017604072 -0.009236923
0.0031576417 0.0046968684 -0.019894084 0.001810265 0.0023331463 -0.0006536772 0.012085496 0.013510658
0.013836811 0.009199998 0.016666358 -0.023733668 0.00048271517 -0.013290435 0.00039804247 0.007982544
-0.0064263605 -0.009994961 0.00910085 -0.0032552702 -0.002633205 0.00082501286 -0.003362589 -0.0036723677
0.009498124 -0.003892785 -0.024307733 -0.0033455559 0.00948754 0.014652212 -0.0047276444 -0.0065610507
-0.006203751 -0.0041238363 0.009714229 -0.010663036 -0.017423121 0.009560075 -0.0040880884 0.008319601
0.003233548 -0.0006120148 -0.0015696153 0.005113801 0.002030586 -0.0027429971 0.0066106017 -0.019779447
0.00044320337 -0.003886462 0.00957534 -0.0011789984 -0.019305054 -0.0082886405 0.011060503 0.0017768631
-0.0034244366 0.012335013 0.026474202 0.009696587 -0.006034912 -0.0099492 -0.00077898783 0.00414878
0.009337443 0.0076167337 -0.01335454 -0.010067383 -0.0057477313 -0.01189526 -0.004398089 -0.0025678123
-0.0142175425 0.002163966 0.007958642 -0.0047524185 0.0003091234 0.014646764 -0.0056051705 0.004001613
-0.0029846297 0.0014482782 0.0070465007 -0.0016305326 -0.0023536058 -0.0014450924 -0.022997685 -1.8239125e-05
0.010965866 0.02087111 -0.014065784 -0.012956035 -0.0078032375 0.004592104 -0.0070560137 -0.0074729803
-0.012858331 -0.01231055 0.008007152 -0.008193271 -0.0026807731 0.004908621 0.006240851 0.004388467
00000000: 60dd d23b c3cd 153b ba68 6a3b 094e 923b
00000010: 0684 35bb 5d37 1d3b 94b4 013c 5bbe 643c
00000020: c2c3 69bb 65da 1a3c 83e0 d13c 7377 00bc
00000030: fc2c 013c c226 c6bc 3c1a 443c 4a42 5ebb
00000040: b8ad 963c e58a e03b c7e6 52bc 1c19 48bc
00000050: 7e28 1b3c 3791 533c 5d9c f7bb 02f9 0abc
00000060: fb5a 2ebb b13a 423b bd14 38bb 028c 50bc
00000070: 3bfa 9ebb 9360 35bc 82d8 8f3b 92ba 6c3c
00000080: 6d6f df3b b840 b43b 2942 0f3b 32e5 81bb
00000090: b8ff 4fb9 80df 4e3c 7183 83ba 8f33 263b
000000a0: 735b 873c 8bb0 f63b 23c7 4f39 259b 7bbc
000000b0: 67ce 6dbc ab33 17bb 7fac e1bb bdac 4eb9
000000c0: 1ada 8bbb 2c77 88bb 7b7e 983a 6b0b 59bc
000000d0: f660 2dbb e95e c2b9 d6df 06bc 75bc 62bb
000000e0: d323 a2ba 268b 00bc 0be7 de3a cb40 2fb9
000000f0: c7b0 b33c 05a9 e23b fded 1d3c 07e1 a93b
00000100: 55c6 e5ba fabb e3bb 17ba 52bc 8b58 4c38
00000110: 8048 16bc 8648 a63a b7cf e03b 8336 babb
00000120: fded 6d3c f1ac b0bb 39eb 1abb 1343 17bb
00000130: c0ad 7fba e8cf fa3b 5ca9 a5ba 5b30 17bb
00000140: 92c2 61bc e870 d63b cf08 2c3c 43be 23bc
00000150: b220 40bc 9e1b 3bbc 4f6d 99bc 0383 643a
00000160: 5bb5 283c e734 4bbb ef9e 1f3c b5e9 32bb
00000170: 0221 cfba 72fd 0cbc debf 8f3c c2ab 58bb
00000180: 90a4 a5b9 abfc 42bc f9be 013c d3cd 8e3c
00000190: 7039 073a fe7e bdbc d392 c03a 1a7c 6fbc
000001a0: 56ac 0a3c 53e6 083c 463d 39bb 2a51 523c
000001b0: c0b0 43bc 3399 a33a fb90 bdbb 37dc 8cbc
000001c0: 9387 4a3b e37d 4c3c 8fdf 313a 4b8c 20bc
000001d0: 3041 66bb 8d90 fcbb f8bb e63b 6be7 80ba
000001e0: d6f2 3fbc 0d5e 44b7 afd6 eabb b2a9 a7bb
000001f0: 1acb a33b 394a a7bc 204e 0d3c 7bb1 b7bb
00000200: 62bf 40ba fd48 bf3a 5574 77bb 591f a83c
00000210: f78a 753c e3e6 4f3b 4ec9 4abb 6483 8f3b
00000220: ca1d 7139 13f7 bbbb 3473 27bc a88b a0bb
00000230: 395e baba 741b 31bc 73dc b13a 5b63 ecbb
00000240: edad 2bbc 045f 25bc f7cb 3ebb ef84 f13a
00000250: c4e5 9539 270e 1cbc 6a36 90bc 7756 17bc
00000260: 70f0 4e3b 30e8 993b ebf8 a2bc 6a46 ed3a
00000270: b3e7 183b 895b 2bba 3f02 463c cf5b 5d3c
00000280: cbb3 623c 97bb 163c e387 883c 1c6d c2bc
00000290: ef14 fd39 20c0 59bc 5bb0 d039 37c9 023c
000002a0: 3894 d2bb e8c1 23bc bb1b 153c 5f56 55bb
000002b0: d991 2cbb ad45 583a e25e 5cbb 1bac 70bb
000002c0: 059e 1b3c 181e 7fbb 0321 c7bc 1d41 5bbb
000002d0: a171 1b3c d50f 703c 5bea 9abb 15fe d6bb
000002e0: d648 cbbb 3f21 87bb 6e28 1f3c 04b4 2ebc
000002f0: efba 8ebc dca1 1c3c 5ff5 85bb f04e 083c
00000300: efe9 533b 9e6f 20ba 8dbb cdba ac91 a73b
00000310: 9413 053b dbc3 33bb bf9d d83b 8208 a2bc
00000320: c05d e839 03b4 7ebb e3e1 1c3c 9f88 9aba
00000330: a225 9ebc 14cd 07bc 1d37 353c a2e5 e83a
00000340: 836c 60bb cb18 4a3c 6de0 d83c 6fde 1e3c
00000350: 83c0 c5bb f801 23bc fd34 4cba 7df2 873b
00000360: 13fc 183c cb95 f93b 00cd 5abc aaf1 24bc
00000370: 7757 bcbb 56e4 42bc d81d 90bb be48 28bb
00000380: b2f0 68bc 53d1 0d3b f764 023c 2dba 9bbb
00000390: d711 a239 fbf8 6f3c 94ab b7bb f61f 833b
000003a0: c799 43bb 27d4 bd3a 55e6 e63b 98b7 d5ba
000003b0: f43e 1abb 4169 bdba a465 bcbc 3900 99b7
000003c0: 2daa 333c e4f9 aa3c 2d74 66bc 8d45 54bc
000003d0: 4db2 ffbb 5c79 963b 2236 e7bb e7df f4bb
000003e0: c0ab 52bc 30b2 49bc 6e30 033c 123d 06bc
000003f0: e9af 2fbb 7fd8 a03b 0d80 cc3b 21cd 8f3b

action_model._discrete_distribution.branches.0.bias f4 [3]
0.0 0.0 0.0
00000000: 0000 0000 0000 0000 0000 0000

action_model._discrete_distribution.branches.1.weight f4 [3, 128]
-0.011960472 -0.0020695957 0.00675072 -0.0014891714 -0.008389743 0.003984563 0.0014695326 -0.0073709376
-0.002410132 0.0056539453 -0.007545737 -0.0003631965 -0.004858989 -0.011119973 -0.018756786 0.007540339
0.0055065737 -0.009584744 0.0040288386 0.005336987 0.005937752 -0.0017554332 0.003616618 0.010277673
0.004157658 0.012170486 0.015707424 0.0044690953 0.004097573 -0.0013662899 0.0049372846 -0.013023461
0.0024493793 0.0005845874 0.003823764 0.0005506331 0.0022960575 -0.016482094 -0.0023828777 -0.007539842
0.010644232 -0.003626632 -0.02002883 0.01036786 0.008567589 -0.010057098 -0.0043005277 -0.00415901
-0.0033191952 0.0007653371 0.008927984 -0.010319095 -0.00063696154 -0.00344199 -0.009095724 -0.007830462
0.004308234 0.008392981 0.01274111 -0.010351447 0.0066472846 -0.0117741665 0.00047403463 -0.002414463
-0.0073541338 -0.0017004319 0.0039523705 0.01209706 -0.0017671466 0.0040659746 0.0040239403 0.0045019113
0.0061073373 0.013840102 0.0127923135 -0.002958996 0.0076196725 -0.011526936 -0.009016538 0.0013084296
0.003595033 -0.0039122812 -0.004748249 0.0056512053 -0.012416044 0.001262048 -0.007282601 0.007515345
0.007902777 0.0019039506 0.0051092394 -0.0036982156 0.0063562216 -0.008624286 -0.0012920304 -0.0004563415
0.004942697 -0.01121755 0.005453187 0.002056315 -0.006359309 0.011187537 -0.01050629 0.0060384274
-0.0047305333 0.0121941585 0.0026816712 0.0010710931 -0.005123326 0.00109831 0.0068207355 0.015611607
-0.0063652247 -0.0022791547 -0.0025707171 -0.0031779844 -0.0133997 -0.0065794312 -0.01552029 -0.01103709
0.00014383966 0.010109375 0.010095802 -0.009504167 0.0029468914 0.009456262 -0.016237922 -0.0045835245
0.00716799 -0.008303669 -0.007398871 0.0075198063 -0.0036739137 0.0048761745 -0.005438277 -0.0077362442
0.0010299046 0.00048213374 0.009069874 0.0040817177 0.0023717915 -0.0055049215 -0.008374866 -0.0056434483
0.011140492 0.002110042 0.016685143 0.0014296515 0.005780747 0.007886816 0.011978751 -0.009008589
0.0008606731 0.0040837186 0.010332349 0.014899998 -0.0015748249 -0.022224959 -0.012035483 1.3493945e-05
0.009367653 -0.0025702545 0.003789351 0.00606268 0.003256113 -0.0019510583 -0.011340237 0.00024404151
-0.008400892 0.011814958 -0.00095754856 0.019818567 0.003405419 -0.002927101 0.006259089 0.0037594417
0.006031012 0.0026021197 -0.0001224799 -0.00385336 -0.006786885 -0.002699662 -0.007004739 -0.013874272
0.0049742605 0.0021122284 0.019881872 -0.002167329 0.012138163 -0.00229412 0.0062128264 0.0028573133
0.0038080893 0.010681568 0.0089738285 -0.0071957493 0.00018158507 -0.001922568 0.0029112857 -0.003812692
0.00020771996 0.0045298664 -0.0026055737 -0.009506794 0.0018318834 0.007926906 0.0015408334 -0.0023964471
-0.0010321292 0.014461097 -0.0026443207 -0.005792012 0.0038157084 -0.008235267 0.014266548 -0.00852841
-0.0046074875 0.004031308 0.0008482017 -0.010909234 0.0041620703 -0.016926331 -0.0081972545 0.0048449626
-0.0024823698 0.021723462 -0.005058754 0.012614796 0.0018521373 0.0013049952 -0.0036996708 0.014066072
0.010620839 0.0054502985 0.0003471959 0.003095307 0.007153824 -0.015556213 0.0071091563 2.1908976e-05
-0.020267203 0.0072306693 -0.0044933734 0.0017550217 -0.008098288 0.015149032 0.005027731 0.0043915473
-0.0006237928 -0.0054484075 -0.0054142787 -0.0027036981 0.018179484 -0.013907236 0.006577696 -0.0110398065
00000000: dbf5 43bc 0ea2 07bb 2535 dd3b 4d30 c3ba
00000010: 2275 09bc f090 823b 559d c03a e887 f1bb
00000020: 4ef3 1dbb bb44 b93b 3b42 f7bb 696b beb9
00000030: 2738 9fbb 8c30 36bc d5a7 99bc f314 f73b
00000040: 7d70 b43b 5509 1dbc 5904 843b e4e1 ae3b
00000050: 7991 c23b 9016 e6ba c804 6d3b af63 283c
00000060: f73c 883b b866 473c dbac 803c 7d71 923b
00000070: ef44 863b 1515 b3ba f2c8 a13b 5b60 55bc
00000080: c485 203b ff3e 193a 1d98 7a3b 5d58 103a
00000090: 7479 163b 7505 87bc 0e2a 1cbb c710 f7bb
000000a0: 2565 2e3c caac 6dbb 8013 a4bc f5dd 293c
000000b0: 135f 0c3c 87c6 24bc 71eb 8cbb 4e48 88bb
000000c0: db86 59bb e7a0 483a ae46 123c 6c11 29bc
000000d0: c4f9 26ba 0293 61bb 3b06 15bc 574b 00bc
000000e0: 162c 8d3b b782 093c 17c0 503c 1e99 29bc
000000f0: 77d1 d93b 6fe8 40bc da87 f839 f83b 1ebb
00000100: f2fa f0bb 07e1 deba e382 813b bf32 463c
00000110: 9a9f e7ba de3b 853b 42db 833b c584 933b
00000120: 0f20 c83b 98c1 623c da96 513c b7eb 41bb
00000130: 72ae f93b 79db 3cbc 1aba 13bc 9d7f ab3a
00000140: a59a 6b3b 9832 80bb 3397 9bbb bf2d b93b
00000150: aa6c 4bbc 4e6b a53a e3a2 eebb 4843 f63b
00000160: a67a 013c fb8d f93a 686b a73b c35d 72bb
00000170: da47 d03b e14c 0dbc 5959 a9ba 1f41 efb9
00000180: 59f6 a13b d1c9 37bc a6b0 b23b 3ec3 063b
00000190: c061 d0bb ee4b 373c 9322 2cbc 00de c53b
000001a0: 9702 9bbb 02ca 473c fabe 2f3b ec63 8c3a
000001b0: 93e1 a7bb 2bf5 8f3a 7a80 df3b d3c7 7f3c
000001c0: 6093 d0bb df5d 15bb 7a79 28bb bb45 50bb
000001d0: 6a8a 5bbc 4598 d7bb d048 7ebc e9d4 34bc
000001e0: aad3 1639 cba1 253c dd68 253c 5eb7 1bbc
000001f0: a220 413b 70ee 1a3c 6405 85bc 6431 96bb
00000200: 75e1 ea3b 1d0c 08bc 3a72 f2bb b568 f63b
00000210: 0bc6 70bb 51c8 9f3b 9333 b2bb 5280 fdbb
00000220: ddfd 863a e5c6 fc39 cf99 143c eebf 853b
00000230: 0f70 1b3b a162 b4bb bc36 09bc adec b8bb
00000240: 9c86 363c a148 0a3b 48af 883c 2563 bb3a
00000250: 6c6c bd3b b437 013c 8642 443c c398 13bc
00000260: cb9e 613a b7d0 853b 0349 293c 1f1f 743c
00000270: 5b6a ceba 1e11 b6bc 7930 45bc 0d64 6237
00000280: c97a 193c b771 28bb c356 783b 72a9 c63b
00000290: 8364 553b a7ba ffba 67cc 39bc 65e5 7f39
000002a0: e5a3 09bc 8793 413c ff03 7bba 8c5a a23c
000002b0: 732d 5f3b 9bd4 3fbb 0b19 cd3b f760 763b
000002c0: cc9f c53b 5388 2a3b f36d 00b9 a788 7cbb
000002d0: 8564 debb d0ec 30bb 0288 e5bb ea50 63bc
000002e0: 1fff a23b 506d 0a3b 4fdf a23c bf09 0ebb
000002f0: 25df 463c f258 16bb f794 cb3b c341 3b3b
00000300: 2391 793b be01 2f3c f706 133c 52ca ebbb
00000310: df67 3e39 adfe fbba 45cb 3e3b 5bde 79bb
00000320: 67cf 5939 466f 943b 46c2 2abb 62c2 1bbc
00000330: cf1b f03a dbdf 013c caf5 c93a b60d 1dbb
00000340: 8248 87ba 3dee 6c3c 574c 2dbb ebca bdbb
00000350: f710 7a3b 37ed 06bc 3dbe 693c bfba 0bbc
00000360: 68fa 96bb 1019 843b da59 5e3a a5bc 32bc
00000370: fa61 883b 17a9 8abc c74d 06bc 7ec2 9e3b
00000380: 41af 22bb 67f5 b13c e7c3 a5bb 4aae 4e3c
00000390: 6ac3 f23a 5f0c ab3a 2d76 72bb 6275 663c
000003a0: 0703 2e3c 6b98 b23b d807 b639 a2da 4a3b
000003b0: a06a ea3b 7ddf 7ebc edf3 e83b 2bc9 b737
000003c0: 6807 a6bc 40ef ec3b 263d 93bb c208 e63a
000003d0: afae 04bc a533 783c aabf a43b f8e6 8f3b
000003e0: 0786 23ba 8e88 b2bb 436a b1bb 8730 31bb
000003f0: 24ed 943c 2ddb 63bc b789 d73b 4ee0 34bc

action_model._discrete_distribution.branches.2.weight f4 [2, 128]
-0.008550896 0.0036886584 -0.0022957504 -0.0039310167 0.0014147003 -0.016983137 -0.014306088 -0.0022687463
0.009383343 -0.009135062 -0.006049409 -0.0076273414 0.008942719 -0.0033949488 0.0034221988 -0.013700365
-0.009585544 -0.0061506107 0.021700665 -0.0010740291 -0.005851505 0.013997423 -1.1335068e-05 -0.003111492
-0.00039128616 -0.014552007 -0.006214071 0.0027753224 0.0028573535 -0.0028119616 0.012229058 0.013447861
0.023179334 0.0006762047 0.009328284 -0.002686641 -0.0021762422 0.0057517416 0.0086083375 0.0070263906
-0.012317396 -0.004550739 -0.015986903 -0.0022538237 -0.005835747 -0.0042463657 -0.009322156 0.0049831755
0.0015086242 -0.0008087402 0.007880476 -0.0051520905 0.005228954 0.003577228 -0.008613377 -0.0039642793
0.011991696 -0.007338886 0.0013295333 -0.005935239 0.000144309 -0.006245735 -0.008129714 -0.0075407126
0.0078799445 0.012469613 -0.001655898 -0.015211816 -0.0010897388 -3.4406814e-05 -0.0201417 -0.004645903
-0.0074500837 0.0006470561 0.006623161 0.008215033 0.008542697 0.008298226 0.007526826 0.0049764346
-0.0145149445 -0.00058189785 -0.016421515 -4.317857e-05 0.002660773 0.010128899 0.005713228 -0.009937656
0.0069213742 0.0058546006 0.0022542193 0.0003221831 0.009186233 0.0011283236 0.005907894 -0.013247768
0.004854211 -0.00085547473 -0.012305248 0.005101413 0.0151169915 0.008423383 -0.0010048234 0.0016178277
0.00059322175 -0.007859969 -0.008119002 0.007876567 -9.97767e-05 0.0058902013 0.0026205722 0.012153728
-0.008056447 0.011876642 0.013629976 -0.0075357105 0.004786056 0.0070417835 -0.018268144 0.007334353
0.0054406244 0.005787375 -0.00015046202 0.009763865 -0.0018291455 -0.0061854688 -0.0019136606 0.008420537
0.006161803 0.005050413 -0.0064808107 0.001014388 -0.017984502 0.0036700591 -0.004578095 0.010386499
0.009162988 -0.0047282362 -0.0020857318 0.005396489 -0.014046432 0.01490839 0.008682693 -0.0049920306
0.0026373896 -0.003246915 0.003125534 -0.0033461356 -0.0025692221 -0.009310688 0.01250107 -0.0018413967
0.004871129 -0.012300472 -0.0032359585 0.0072044185 -0.010134533 -0.019862564 0.019165255 -0.011547841
-0.0035728142 0.0037211278 0.004905665 0.003964215 -0.013455147 -0.0008939705 0.011634329 0.009235365
0.002830731 0.0130902035 -0.0029081816 0.0008905795 -0.01699592 0.0010388936 -0.0046849065 -0.014182702
-0.004837716 0.0060511692 0.004817163 0.0035437376 0.011046085 -0.0013431478 0.0041275914 -0.00058783893
-0.008095285 -0.0020760603 0.020408621 -0.0066908 0.012490493 0.004010394 -0.014024876 0.028733749
0.008280452 0.0008872232 0.0030435144 -0.000717794 0.014375311 0.0020942085 0.001269814 -0.000440063
-0.0051712533 -0.0051534036 -0.015057797 -0.009708658 -0.015304135 -0.012189125 -0.017554129 -0.0064013056
-0.02346984 0.0010486381 0.0055109523 0.0066796443 -0.0013171886 0.006081973 0.0047765095 0.011525394
0.006926605 -0.022282368 0.0097752055 0.011409961 0.011260276 0.005452072 -0.002952011 0.011090501
0.008651962 -0.013745862 0.020168947 -0.0037140686 0.010532307 -0.008800955 -0.0042262776 -0.016169742
0.0029321425 0.01257687 0.0033905152 -0.010027144 -0.0011873659 -0.0057834 -0.0037163224 0.0025214918
-0.00654097 -0.004128371 0.027857333 -0.009050244 0.0047780783 0.020257752 0.00943273 -0.0095757805
0.009806662 -0.00435482 -0.0017169596 0.00039455332 -0.004125052 0.0035864324 -0.00046957267 -0.007940299
00000000: 0f19 0cbc 6bbd 713b 4d74 16bb c2cf 80bb
00000010: 776d b93a 3820 8bbc 1564 6abc 3faf 14bb
00000020: 98bc 193c 3aab 15bc 1f3a c6bb c7ee f9bb
00000030: 7b84 123c ca7d 5ebb f846 603b 7f77 60bc
00000040: af0c 1dbc 108b c9bb 98c5 b13c 70c6 8cba
00000050: fbbd bfbb 7355 653c bf2b 3eb7 2cea 4bbb
00000060: 8a25 cdb9 8b6b 6ebc 689f cbbb 2fe2 353b
00000070: 7042 3b3b e348 38bb 635c 483c 6b54 5c3c
00000080: 96e2 bd3c 5443 313a a9d5 183c 5b12 30bb
00000090: 499f 0ebb 1b79 bc3b fc09 0d3c a33d e63b
000000a0: e7ce 49bc 5e1e 95bb f7f6 82bc e3b4 13bb
000000b0: cb39 bfbb 1925 8bbb f5bb 18bc e849 a33b
000000c0: 07bd c53a a301 54ba 1d1d 013c ded2 a8bb
000000d0: a557 ab3b ed6f 6a3b 1f1f 0dbc c9e6 81bb
000000e0: d278 443c 0a7b f0bb bc43 ae3a 657c c2bb
000000f0: a751 1739 06a9 ccbb 7e32 05bc 1518 f7bb
00000100: e21a 013c 594d 4c3c b80a d9ba fb3a 79bc
00000110: 91d5 8eba 0950 10b8 3500 a5bc a93c 98bb
00000120: d51f f4bb 339f 293a 1a07 d93b 5998 063c
00000130: abf6 0b3c 48f5 073c 98a3 f63b 5c11 a33b
00000140: 17d0 6dbc 818a 18ba 6a86 86bc a31a 35b8
00000150: 5d60 2e3b aef3 253c 0836 bb3b 8dd1 22bc
00000160: b2cc e23b f3d7 bf3b 86bb 133b afea a839
00000170: db81 163c 42e4 933a 0297 c13b 2b0d 59bc
00000180: 1310 9f3b f041 60ba f39b 49bc c129 a73b
00000190: 42ad 773c 3b02 0a3c 47b4 83ba 4a0d d43a
000001a0: 7082 1b3a 19c7 00bc 9005 05bc b70c 013c
000001b0: 353f d1b8 9702 c13b e8bd 2b3b 6e20 473c
000001c0: 30ff 03bc 3f96 423c 4350 5f3c 1fee f6bb
000001d0: 59d4 9c3b c3be e63b 13a7 95bc 0355 f03b
000001e0: 4447 b23b 05a4 bd3b 57c5 1db9 9ef8 1f3c
000001f0: f0bf efba 79af cabb cbd3 faba 4bf6 093c
00000200: f3e8 c93b ef7d a53b fb5c d4bb 37f5 843a
00000210: 3c54 93bc 6085 703b d803 96bb 222c 2a3c
00000220: 5b20 163c 52ef 9abb c6b0 08bb 08d5 b03b
00000230: 0223 66bc 5242 743c db41 0e3c 3094 a3bb
00000240: 0ed8 2c3b 32ca 54bb c2d5 4c3b d74a 5bbb
00000250: 6560 28bb db8b 18bc 4ad1 4c3c 055b f1ba
00000260: fe9d 9f3b eb87 49bc 6012 54bb 0b13 ec3b
00000270: 500b 26bc d1b6 a2bc 7400 9d3c 2833 3dbc
00000280: e025 6abb 2ade 733b b3bf a03b 3fe6 813b
00000290: fa72 5cbc 5859 6aba ea9d 3e3c ee4f 173c
000002a0: c983 393b 4b78 563c 3197 3ebb c775 693a
000002b0: 073b 8bbc 7c2b 883a d883 99bb 905e 68bc
000002c0: b485 9ebb e348 c63b 4bd9 9d3b 0d3e 683b
000002d0: a3fa 343c 900c b0ba bf40 873b 3419 1aba
000002e0: 16a2 04bc 830e 08bb fb2f a73c 803e dbbb
000002f0: eda4 4c3c a069 833b 98c8 65bc 0a63 eb3c
00000300: bcaa 073c 8b94 683a b375 473b 572a 3cba
00000310: 6d86 6b3c fd3e 093b e36f a63a 42b8 e6b9
00000320: 9e73 a9bb e2dd a8bb fab4 76bc 1011 1fbc
00000330: 32be 7abc e5b4 47bc adcd 8fbc 0bc2 d1bb
00000340: d243 c0bc 7572 893a 3895 b43b ebe0 da3b
00000350: 84a5 acba 4a4b c73b 4484 9c3b 02d5 3c3c
00000360: 93f8 e23b 8389 b6bc 2f28 203c d8f0 3a3c
00000370: 057d 383c 4ba7 b23b 8776 41bb efb4 353c
00000380: f5c0 0d3c 5336 61bc 5939 a53c bb67 73bb
00000390: b38f 2c3c e131 10bc 967c 8abb 6876 84bc
000003a0: 3029 403b 370f 4e3c 6833 5e3b e448 24bc
000003b0: 63a1 9bba ad82 bdbb 8b8d 73bb 9d3f 253b
000003c0: a255 d6bb 4947 87bb 1035 e43c 7a47 14bc
000003d0: 6d91 9c3b 96f3 a53c bd8b 1a3c bce3 1cbc
000003e0: 1fac 203c e1b2 8ebb 9b0b e1ba 0ddc ce39
000003f0: 722b 87bb 5a0a 6b3b fa30 f6b9 0718 02bc

action_model._discrete_distribution.branches.2.bias f4 [2]
0.0 0.0
00000000: 0000 0000 0000 0000
