MLBase/results/Stage1/CaptureTheFlag/checkpoint.pt (torch, 743266 bytes, 46 tensors)

discrete_act_size_vector f4 [1, 3]
0	0x40400000	3.0
1	0x40400000	3.0
2	0x40000000	2.0

network_body._body_endoder.seq_layers.0.weight f4 [128, 100]
0	0xbb963968	-0.00458448
1	0xbdc0d237	-0.09415095
2	0x3da76953	0.08174386
3	0xbdb42c93	-0.08797564
4	0xbda0042c	-0.07813296
5	0x3d36c313	0.04461963
6	0xbd70d365	-0.05879535
7	0xbe580df5	-0.21099074
8	0x3df560e5	0.11981372
9	0x3e4668a6	0.19375858
10	0x3ce05430	0.027383894
11	0x3ca59e5b	0.020217111
12	0xbd0c495a	-0.03424964
13	0xbea12e3b	-0.31480584
14	0xbd580181	-0.05273581
15	0x3d56b018	0.05241403
16	0xbded6a38	-0.11592525
17	0x3d39b19e	0.045335405
18	0xbdd0705e	-0.10177682
19	0x3e2c3499	0.1681694
20	0x3dc01723	0.09379413
21	0xbd4a0d4b	-0.049329083
22	0xbdc8ac2c	-0.09798464
23	0x3dfd1108	0.12356764
24	0x3d37e474	0.044895604
25	0xbd8dd468	-0.06925279
26	0x3ca7bfaa	0.020477135
27	0xbcaa037e	-0.020753618
28	0xbd9c1a1f	-0.0762217
29	0xbe264991	-0.16239001
30	0x3de769e2	0.112994924
31	0x3ca6560f	0.020304708
32	0x3e97d048	0.29651093
33	0x3ccc6fe6	0.024955701
34	0x3cd321ff	0.025773047
35	0x3dacc813	0.08436599
36	0xbe16844f	-0.14698909
37	0x3df2a633	0.11848106
38	0x3a827b86	0.0009955026
39	0xbc0292fa	-0.007969612
40	0x3bb1b10d	0.0054227174
41	0x3d098465	0.033573527
42	0x3e0d7800	0.13815308
43	0x3e29b113	0.16571455
44	0x3df41084	0.119172126
45	0xbe30ea14	-0.17276794
46	0xbd8fba18	-0.070179164
47	0x3e00abc7	0.12565528
48	0xbd8eed47	-0.06978851
49	0xbd5b4887	-0.053535964
50	0x3c374e52	0.011188107
51	0x3dfbe942	0.1230035
52	0x3dd9bb8a	0.10631473
53	0xbdfd33a8	-0.12363368
54	0x3d43b2b9	0.047777865
55	0xbc0dcc98	-0.008654736
56	0x3d47803e	0.048706286
57	0xbb029e8a	-0.0019930922
58	0x3e4df071	0.20111252
59	0xbd7f4cc0	-0.062329054
60	0x3d8dc244	0.06921819
61	0x3c0c243b	0.00855356
62	0x3d9b6aea	0.075887516
63	0xbd46c510	-0.048527777
64	0x3ddf4bdb	0.1090314
65	0x3db7027e	0.08936022
66	0xbd846913	-0.06465354
67	0x3cce8ee8	0.025214627
68	0x3db7dcb4	0.08977643
69	0xbd390ebe	-0.045180075
70	0x3d90be48	0.07067543
71	0xbdcafec4	-0.09911874
72	0xbda8e1b6	-0.08246176
73	0xbe2c4fbb	-0.1682729
74	0xb91c0aaa	-0.00014881292
75	0x3d0a85af	0.033818897
76	0xbd657ca7	-0.05602708
77	0xbe43d6fc	-0.19124979
78	0x3d21b333	0.03947754
79	0xbcd6af29	-0.02620657
80	0xbe006830	-0.12539744
81	0xbdb58767	-0.088637166
82	0x3bb63dc6	0.005561563
83	0xbd7f3a9b	-0.06231175
84	0x3daed620	0.08536935
85	0x3d87ceed	0.06631265
86	0x3db397bc	0.087691754
87	0x3bd964ab	0.006634315
88	0xbda77a96	-0.08177678
89	0x3d9cdbb0	0.076590896
90	0xbdf38e4a	-0.11892374
91	0xbd7feb12	-0.06248004
92	0x3dcf748b	0.10129651
93	0xbd9b4a9e	-0.075825915
94	0xbcc423bb	-0.023942819
95	0xbe158a5f	-0.14603566
96	0xbd9859d7	-0.074390106
97	0x3e2600c9	0.16211237
98	0x3c931deb	0.017958602
99	0x3e23a726	0.15981731
100	0x3d958813	0.07301345
101	0x3d81f3f4	0.063453585
102	0xbca6e008	-0.020370498
103	0xbc91d787	-0.017802967
104	0x3e0e4e61	0.13897087
105	0x3e2a9925	0.16659983
106	0x3e3d4f04	0.18487173
107	0x3d32f91e	0.043694608
108	0x3e174aee	0.14774677
109	0xbe1fa94c	-0.15591925
110	0xbe619625	-0.22029932
111	0xbda5afbe	-0.08090161
112	0xbdd958e9	-0.106126614
113	0x3c4b0350	0.0123909265
114	0xbdd57215	-0.1042215
115	0x3de53d72	0.111933604
116	0x3da8b3a4	0.08237389
117	0xbe5dcbec	-0.21659821
118	0xbd9e2b03	-0.077230476
119	0xbe8c1b19	-0.27364424
120	0xbe0be1aa	-0.13660303
121	0x3e0a4af2	0.13505152
122	0xbafcfbfa	-0.0019301169
123	0xbd31ae33	-0.04337902
124	0x3d8d8392	0.06909861
125	0x3c8ac228	0.016938284
126	0xbe4bd3b6	-0.1990498
127	0xbcc73935	-0.02431927
128	0x3e370d6f	0.17876218
129	0x3df553eb	0.11978897
130	0x3d92ad18	0.07161921
131	0xbd07e224	-0.03317465
132	0xbc0572ad	-0.008145017
133	0xbd4d98a9	-0.050194416
134	0xbd8ddb52	-0.06926598
135	0x3d5e7cd4	0.054318264
136	0x3e51e163	0.20496134
137	0x3d32923a	0.043596484
138	0x3cf34fb2	0.029701088
139	0xbb6e5807	-0.0036368386
140	0xbd677779	-0.056510422
141	0x3db72c89	0.08944041
142	0xbe89b032	-0.2689224
143	0x3e47c63e	0.19509217
144	0xbdf0a817	-0.117508106
145	0x3ca0342c	0.019556127
146	0x3cffe929	0.03123911
147	0x3d57566c	0.052572653
148	0xbd26453a	-0.040593363
149	0xbe0812ea	-0.13288465
150	0x3df745c2	0.12073852
151	0x3cc85c8f	0.024458198
152	0xbe3b8cc9	-0.18315424
153	0xbd027f94	-0.03185995
154	0xbe08f114	-0.13373214
155	0x3d3d1798	0.04616508
156	0x3e1eeae2	0.15519288
157	0xbdffc2ee	-0.12488352
158	0xbdcba116	-0.09942834
159	0x3da39b1e	0.07988571
160	0xbd783b41	-0.060603384
161	0xbea48bd6	-0.32137936
162	0xbc33c012	-0.010971086
163	0xbe03a429	-0.12855591
164	0xbe027b15	-0.12742265
165	0x3d45738d	0.0482059
166	0xbbfde5cb	-0.0077483407
167	0x3d17c4be	0.037052862
168	0x3e1ed946	0.1551257
169	0xbdf5aa57	-0.1199538
170	0x3d091681	0.033468727
171	0xbd62a9aa	-0.055337586
172	0x3c162879	0.009164923
173	0xbd9948c4	-0.07484582
174	0x3decec63	0.11568525
175	0x3d11065e	0.035406463
176	0x3d8aae18	0.06771487
177	0xbe0e761e	-0.13912246
178	0xbdbc31a1	-0.091891535
179	0xbcd8aa3a	-0.026448358
180	0x3daa8ba4	0.083274156
181	0xbdca6461	-0.09882427
182	0xba80603c	-0.0009794305
183	0x3e0edee2	0.1395221
184	0x3d85e9e6	0.06538753
185	0x3ce7b2a2	0.028283421
186	0x3d5e1aad	0.05422466
187	0xbdb52066	-0.0884407
188	0x3da99779	0.08280844
189	0x3e0124b1	0.12611653
190	0x3e184a6a	0.14872137
191	0x3d4a39fc	0.049371704
192	0xbe46a37e	-0.19398305
193	0xbe24bbf4	-0.16087323
194	0xbd9466b0	-0.072461486
195	0x3c6f2565	0.014596318
196	0xbd930721	-0.07179094
197	0xbe1fabaf	-0.15592836
198	0x3dcafbc3	0.09911301
199	0xbe682076	-0.22668633
200	0xbdbd2a07	-0.09236532
201	0x3e1c0fec	0.15240449
202	0xbe9783e5	-0.29592815
203	0xbb5590e2	-0.0032587578
204	0x3c1477d8	0.009061776
205	0x3dcf2ae7	0.10115605
206	0x3c419033	0.011814165
207	0xbd6d7b66	-0.05797901
208	0xbd053d00	-0.032528877
209	0xbe9038f2	-0.28168446
210	0x3e04a9af	0.12955354
211	0xbda623cf	-0.08112299
212	0x3e3ee494	0.18641883
213	0x3d14825b	0.03625713
214	0x3d9840ff	0.07434272
215	0xbd96726f	-0.07346045
216	0x3d9b9541	0.07596827
217	0xbe1a36dd	-0.15059991
218	0xbddef026	-0.108856484
219	0x3de630a3	0.112397455
220	0x3dc619cb	0.09672888
221	0x3cfedbf5	0.031110743
222	0xbbb68c82	-0.005570949
223	0x3d9863e1	0.074409254
224	0x3db575e9	0.0886038
225	0x3bcfc08e	0.006340093
226	0x3da314bb	0.079629384
227	0x3e5e97aa	0.21737543
228	0xbd7b949a	-0.061421014
229	0x3d082cd7	0.033245888
230	0xbcf93982	-0.03042293
231	0xbd5783e2	-0.052616008
232	0x3cc61619	0.024180459
233	0xbd7763a4	-0.06039776
234	0x3d366eda	0.04453931
235	0xbd8a5172	-0.06753816
236	0x3d0a14bb	0.033711176
237	0xbdca0c09	-0.09865577
238	0xbd7be0ec	-0.0614938
239	0x3d5e5b96	0.054286562
240	0x3e3cb06d	0.18426676
241	0xbe13e98c	-0.1444456
242	0xbdb8c1f3	-0.09021368
243	0x3c5da048	0.013526984
244	0x3e3d78c7	0.18503104
245	0xbdd4dc4e	-0.10393582
246	0xbbf740a7	-0.007545549
247	0x3c42ecca	0.011897275
248	0xbdf2464b	-0.118298136
249	0xbd712f94	-0.058883265
250	0xbb03a7cd	-0.002008903
251	0xbe1d444a	-0.15358081
252	0xbd9874f7	-0.07444184
253	0xbe0289de	-0.12747905
254	0xbc848c32	-0.016180132
255	0x3d3b1620	0.045675397

network_body._body_endoder.seq_layers.0.bias f4 [128]
0	0x3bdcd90d	0.0067397417
1	0x3c0c12f5	0.008549442
2	0xbb644f71	-0.003483739
3	0xbbea8835	-0.0071573504
4	0xbb4354c0	-0.0029805154
5	0xbaa7d6d2	-0.001280511
6	0xbacb6f36	-0.0015520814
7	0x3b5d13e8	0.003373379
8	0xbbba098b	-0.005677407
9	0x3c256a3e	0.010096131
10	0xbbb84cbb	-0.0056243814
11	0xb9e6f227	-0.00044049436
12	0x3c205313	0.009785431
13	0xbc382568	-0.011239387
14	0x3bdd6389	0.0067562503
15	0x3ba08609	0.0048987907
16	0x3b3e3781	0.0029024782
17	0xbb96bc2b	-0.004600068
18	0x3c14ee69	0.009090045
19	0x3be8eb37	0.007108118
20	0xbb332610	-0.002733592
21	0x3a951972	0.0011375381
22	0x3a87788e	0.0010335611
23	0x3c11b6e4	0.008893702
24	0xbbd1bf11	-0.0064009507
25	0xbc3cc9fc	-0.011522766
26	0xbb94c567	-0.0045401338
27	0xbadede57	-0.0017003518
28	0xbbd26d97	-0.0064217555
29	0x3be76f88	0.007062856
30	0x3a3ede75	0.00072810735
31	0xbb482753	-0.0030541017
32	0xbc2991bd	-0.010349688
33	0x3b1c4c7d	0.0023849302
34	0x3a9ae667	0.0011817933
35	0x3c00b9be	0.007856784
36	0x3bd36949	0.00645176
37	0x3b677462	0.0035317172
38	0xbadaa3c1	-0.0016680883
39	0x3c241b66	0.010016298
40	0x3bad6c33	0.0052924394
41	0xbae91673	-0.001778318
42	0x3becd200	0.0072271824
43	0x3b3e62f7	0.0029050687
44	0xbbbe4bac	-0.0058073606
45	0x3b94e38a	0.0045437263
46	0x3b1bac9f	0.0023754013
47	0x3bf9ee64	0.0076272953
48	0x3b9af605	0.004729035
49	0xbb358d43	-0.0027702607
50	0xbb2dd826	-0.002652654
51	0xbb20db82	-0.00245449
52	0x3a5f7d34	0.00085254316
53	0x3c1774ff	0.009244203
54	0x3be9ac9c	0.0071311723
55	0x3b8d62f5	0.004314775
56	0xbb851339	-0.0040611294
57	0x3b02c84d	0.0019955814
58	0x3bdc553f	0.0067240293
59	0x3b95a17f	0.004566371
60	0x3bd01fb8	0.0063514374
61	0xbc26affc	-0.010173794
62	0x3b2b3d40	0.0026129037
63	0x3b9fac32	0.004872822
64	0x3c224a06	0.009905344
65	0x3bea38e8	0.007147897
66	0xbc12891d	-0.008943823
67	0x3c2c6b0f	0.010523572
68	0x3c171eea	0.009223679
69	0x3bc1b9f2	0.005912059
70	0x3b1c6de7	0.0023869218
71	0x3bb947f8	0.0056543313
72	0x3b9b9188	0.0047475733
73	0xba0d685d	-0.00053942745
74	0x3bc572d7	0.006025653
75	0x3b7b9a77	0.0038391629
76	0x3bac0542	0.00524965
77	0xbc0d6206	-0.008629328
78	0x3c2586b1	0.010102914
79	0x3bdd6da3	0.0067574545
80	0xbbe64726	-0.0070275245
81	0x3c1b3d20	0.009475023
82	0x3c305e54	0.010764677
83	0xb99a4f3e	-0.0002943221
84	0x3b0564c3	0.0020354248
85	0x3c36cdea	0.011157492
86	0xba7647fc	-0.0009394882
87	0x3c2f3685	0.010694151
88	0xbb2aba3c	-0.0026050946
89	0x3be721ff	0.007053613
90	0x3b76cf54	0.0037660198
91	0xbb78b6e3	-0.0037950806
92	0xbaeb394b	-0.0017946152
93	0x3b1b581e	0.0023703645
94	0x3a82cca2	0.0009979198
95	0x3c0582f2	0.008148896
96	0x3bec3335	0.007208253
97	0x3b2460ff	0.0025082228
98	0x3c1b29d7	0.009470425
99	0x3afa61d7	0.0019102645
100	0xbb60fc1c	-0.0034329956
101	0xba9855a8	-0.0011622207
102	0x3c032df5	0.0080065625
103	0xbc047a71	-0.008085833
104	0xbc8ef9d0	-0.017453104
105	0xb637d440	-2.739267e-06
106	0x3b172c66	0.0023067235
107	0xb9b835ed	-0.00035135393
108	0x39d83902	0.00041241205
109	0x3b6eecd9	0.003645709
110	0x3b8a57f3	0.00422191
111	0x3be52983	0.006993474
112	0xbbc88b02	-0.0061200866
113	0x3c17dd33	0.009269047
114	0xba19271e	-0.0005842316
115	0xbb846aa3	-0.0040410324
116	0xbc00fbf9	-0.007872575
117	0xbbb5aea2	-0.0055444995
118	0xbbe4fa76	-0.006987865
119	0xbba29f7e	-0.0049628606
120	0xbbc76433	-0.0060849427
121	0xbaa88f3b	-0.0012860069
122	0x3b008d47	0.0019615458
123	0xbbf6ee3d	-0.0075357244
124	0xbb6e1aee	-0.003633197
125	0x3befe0a7	0.007320482
126	0x3bc7b52a	0.0060945945
127	0x3bba29b8	0.005681243

network_body._body_endoder.seq_layers.2.weight f4 [128, 128]
0	0xbd787635	-0.060659606
1	0x3df63f57	0.120238
2	0xbd9360fb	-0.07196232
3	0xbd9211b3	-0.07132282
4	0x3d6a5c20	0.057216763
5	0xb80ee93f	-3.4072666e-05
6	0x3d846dd6	0.06466262
7	0xbc6f25e9	-0.014596441
8	0x3ba4a40f	0.00502444
9	0x3d630f0d	0.055434275
10	0xbcaa5173	-0.020790791
11	0x3e595ff1	0.21228005
12	0xbd43fcec	-0.047848627
13	0xbd4c3c7b	-0.049862366
14	0xbdb6de91	-0.0892917
15	0xbe09e506	-0.13466272
16	0x3c8fb4ad	0.017542208
17	0xbcfd4958	-0.030918762
18	0xbd3c7a91	-0.046015326
19	0xbab80f2d	-0.0014042609
20	0x3cd6f675	0.026240567
21	0x3d6377f0	0.055534303
22	0xbdc22985	-0.094805755
23	0xbcd00043	-0.02539075
24	0x3d244c93	0.04011209
25	0x3d78cdcd	0.060743142
26	0xbe493067	-0.1964737
27	0xbda46560	-0.08027148
28	0x3df24d87	0.118311934
29	0xbd9fbdba	-0.07799859
30	0x3da2ac06	0.07942967
31	0x3d90350a	0.070413664
32	0x3e0daa88	0.13834584
33	0xbc88d244	-0.016701825
34	0xbe13d005	-0.14434822
35	0xbe260848	-0.16214097
36	0xbc967964	-0.01836843
37	0x3dae082c	0.084976524
38	0xbd47db30	-0.048793018
39	0xbc474beb	-0.012164096
40	0xbb35f894	-0.0027766572
41	0xbd42142f	-0.04738253
42	0xbda8beae	-0.08239494
43	0x3bc25b0e	0.0059312647
44	0xbca26514	-0.019823588
45	0x3e06910d	0.1314127
46	0x3ce03ad6	0.027371805
47	0xbd27c2c8	-0.040957242
48	0x3c065520	0.008199006
49	0x3d5e0e5b	0.05421291
50	0x3d2d86c5	0.042364854
51	0x3d98d2ee	0.07462107
52	0xbd85df8d	-0.065367796
53	0xbd68292b	-0.056679886
54	0x3e432b48	0.19059479
55	0xbdbc9e8a	-0.092099264
56	0xbe05b936	-0.13058934
57	0xbcd9b28e	-0.0265744
58	0xbdd5df80	-0.1044302
59	0xbda576a0	-0.080792665
60	0x3b94774b	0.0045308224
61	0xbd15beb5	-0.036558826
62	0x3e0fd745	0.14046963
63	0x3dd62650	0.10456526
64	0xbd9d7561	-0.07688404
65	0x3d8624cd	0.06549988
66	0xbd1ca12e	-0.03823965
67	0xbd13ee1e	-0.036115758
68	0x3d9b68f2	0.07588376
69	0xbd15a42c	-0.03653352
70	0x3dd00065	0.10156325
71	0x3d947dd2	0.07250561
72	0x3d697737	0.056998458
73	0x3d8927af	0.06697022
74	0x3dd4e691	0.103955396
75	0x3dd702e3	0.104985975
76	0x3d659d5a	0.056058265
77	0xbd500de2	-0.05079449
78	0xbd31ed00	-0.04343891
79	0x3bbed108	0.0058232583
80	0xbd6aa33d	-0.057284582
81	0xbdd0351f	-0.10166382
82	0xbdc94b21	-0.09828783
83	0xbdf3db6b	-0.11907085
84	0x3db89c76	0.090142176
85	0x3c89ca53	0.016820109
86	0xbc968fee	-0.018379178
87	0x3d805dd7	0.062678985
88	0xbe2cef46	-0.1688815
89	0xbd7663d7	-0.06015381
90	0xbb344b51	-0.0027510712
91	0xbd3f1bd3	-0.046657395
92	0xbd81332b	-0.06308588
93	0x3dd903b7	0.10596412
94	0x3d389a5f	0.045069095
95	0xbd83b501	-0.06431008
96	0x3d95aa61	0.07307888
97	0xbc9a5bae	-0.018842544
98	0xbe5b047e	-0.21388432
99	0x3d856b81	0.06514645
100	0x3dfd6c17	0.12374132
101	0xbe199655	-0.14998753
102	0xbe1b1516	-0.15144762
103	0x3cc5f2f8	0.024163708
104	0xbcdd06bd	-0.026980752
105	0xbdcc3a73	-0.09972086
106	0x3e2be709	0.16787352
107	0xbd84c3fe	-0.06482695
108	0x3d9f10d8	0.077668846
109	0x3d695657	0.056967106
110	0x3d30d82f	0.04317492
111	0x3dbbf229	0.09177048
112	0x3c94e172	0.018173907
113	0xba8d4522	-0.001077805
114	0x3d5dbb8c	0.054133937
115	0xbdaee56c	-0.085398525
116	0xbda80826	-0.08204679
117	0x3d1acd3d	0.037793387
118	0x3de30110	0.11084187
119	0x3cc448cd	0.023960495
120	0xbd9750f4	-0.073884875
121	0x3d86cc81	0.06581975
122	0x3e48c951	0.19608046
123	0x3d90d51c	0.070718974
124	0xbd68c2ff	-0.056826588
125	0xbbac0347	-0.005249414
126	0x3d816d02	0.0631962
127	0xbd401664	-0.046896353
128	0x3d864bf1	0.065574534
129	0x3d615a5a	0.055017807
130	0x3d68b26b	0.056810778
131	0x3ce91724	0.028453417
132	0x3bef4ef1	0.0073031117
133	0xbd000dc5	-0.03126313
134	0x3e1035ac	0.14082974
135	0xbe213de1	-0.15746261
136	0x3c1c1854	0.009527285
137	0x3d81ff54	0.06347528
138	0xbdb58271	-0.0886277
139	0xbd2a9b42	-0.04165197
140	0xbd9f922a	-0.077915505
141	0x3c8b7079	0.017021405
142	0x3e2f7559	0.17134608
143	0xbd6dd430	-0.058063686
144	0x3d1d9cdc	0.03847967
145	0xbe68b32d	-0.227246
146	0xbd357651	-0.04430229
147	0xbcab4206	-0.020905506
148	0xbdf51915	-0.11967675
149	0xbe44776a	-0.19186178
150	0x3c6325d1	0.013863997
151	0xbc033936	-0.008009246
152	0xbde53f38	-0.11193699
153	0xbe071479	-0.13191403
154	0x3e4a66f1	0.19765832
155	0x3d97eb19	0.07417888
156	0x3cdf6a21	0.027272286
157	0xbd450a76	-0.04810568
158	0x3d86d8d5	0.06584326
159	0xbd8ed070	-0.0697335
160	0xbd5bf5ad	-0.05370109
161	0xbd9ad842	-0.07560779
162	0x3d9d3749	0.076765604
163	0xbdc343a6	-0.09534387
164	0xbcdb6df3	-0.026785826
165	0x3d3eb76b	0.04656164
166	0x3cbfe5ae	0.02342495
167	0xbcaed0d3	-0.02133981
168	0xbcfbedd3	-0.030753052
169	0x3d83c7f8	0.064346254
170	0xbad606c7	-0.0016328924
171	0xbdbe3d49	-0.09289033
172	0xbda60aba	-0.08107515
173	0x3dc902ff	0.098150246
174	0x3dd06501	0.10175515
175	0xbc2b2697	-0.010446212
176	0x3e149a50	0.1451199
177	0xbd69055c	-0.056889877
178	0xbc291437	-0.010319761
179	0x3d35281b	0.0442277
180	0xbc317034	-0.010829974
181	0x3c7c40c3	0.0153963
182	0x3cac5412	0.021036182
183	0xbdcae53c	-0.09907004
184	0xbdc1dedb	-0.094663344
185	0xbce2c1a2	-0.027680222
186	0x3cad624b	0.021165034
187	0xbd132e6c	-0.035932943
188	0x3d3bf9bd	0.045892466
189	0xbdaad391	-0.08341134
190	0x3d90225c	0.070378035
191	0x3db2c1c0	0.08728361
192	0x3df7cde6	0.12099819
193	0x3e216e0d	0.15764637
194	0x3dd89a3c	0.10576293
195	0x3d5c4a15	0.053781588
196	0x3d8d49f6	0.068988726
197	0x3d4934fa	0.049122788
198	0xbe35503b	-0.17706387
199	0xbd687bd9	-0.056758735
200	0xb9f364e1	-0.00046423732
201	0x3cf7ec63	0.030264085
202	0x3e2ee85f	0.1708083
203	0x3dbc2ba9	0.09188015
204	0xbd3e86cc	-0.04651527
205	0x3d293d75	0.041318376
206	0x3dcd56a3	0.1002629
207	0xbdd1d0ec	-0.10244927
208	0x3d9e8698	0.077405155
209	0x3b6478ec	0.0034862114
210	0xbd8aedf3	-0.067836665
211	0x3d1c6f6c	0.038192198
212	0xbdb8a9b1	-0.09016741
213	0x3db057fa	0.0861053
214	0xbe167c10	-0.14695764
215	0x3df64bf8	0.12026209
216	0x3d86f908	0.06590468
217	0xbc1afd1a	-0.009459758
218	0xbe211464	-0.15730435
219	0x3d3c4a2c	0.045969173
220	0x3c2677aa	0.010160366
221	0x3dc231db	0.094821654
222	0xbd96bb5a	-0.07359953
223	0x3db5acb7	0.08870833
224	0x3d2bba30	0.04192561
225	0x3cdbd524	0.026835032
226	0xbc90ec8a	-0.017690916
227	0xbc84496b	-0.01614829
228	0xbd293afb	-0.041316014
229	0x3a96071b	0.0011446209
230	0xbd136cc5	-0.035992403
231	0xbc6ecb81	-0.014574886
232	0x3d2cfa7e	0.042231075
233	0x3dd760c7	0.10516506
234	0x3e1b1e73	0.15148334
235	0x3d576379	0.0525851
236	0x3d3da2e1	0.04629791
237	0xbde1366a	-0.10996707
238	0xbda28ae7	-0.0793665
239	0x3c1ed6c4	0.009694759
240	0xbdb7c0c8	-0.08972317
241	0xbd186498	-0.03720531
242	0x3dd49de3	0.10381677
243	0xbd0d8680	-0.034552097
244	0x3c4d19e9	0.0125183845
245	0x3d85ef8b	0.0653983
246	0xbd1a31ad	-0.03764503
247	0xbd9fe9ef	-0.07808291
248	0xbe07c8ca	-0.13260189
249	0xbdaba434	-0.08380929
250	0xbd390d78	-0.04517886
251	0xbe2fc9f8	-0.17166889
252	0xbe5e2d0c	-0.21696872
253	0x3d47d0d6	0.048783146
254	0x3d0586a2	0.0325991
255	0x3e288038	0.16455162

network_body._body_endoder.seq_layers.2.bias f4 [128]
0	0xbb985ba4	-0.0046495963
1	0x3bbfa030	0.0058479533
2	0xbb9cdf46	-0.0047873585
3	0x3bfd653b	0.007733015
4	0x3b7a70eb	0.0038214277
5	0xbbafe3c5	-0.0053677284
6	0x3a319f65	0.0006775766
7	0x3b8199d6	0.0039551063
8	0x3b8fe53b	0.00439134
9	0xbb62c3f5	-0.0034601663
10	0xbbe7d3f8	-0.007074829
11	0xbb83e48a	-0.0040250467
12	0xbbad9226	-0.0052969633
13	0xbbf600c4	-0.0075074155
14	0xbb76b126	-0.003764221
15	0xbc18436e	-0.00929342
16	0xbbe93dc1	-0.0071179573
17	0xbc0d6af6	-0.0086314585
18	0xbb49aaf2	-0.0030772057
19	0x3ac98419	0.0015374451
20	0xbaca8b66	-0.0015452921
21	0x3a98f0e4	0.0011668471
22	0x3b81be7c	0.003959475
23	0x3b34b92c	0.0027576191
24	0x3b6ff5d7	0.0036615038
25	0x3be4e537	0.0069853324
26	0xbb7a4b3a	-0.0038191811
27	0xbb3d04fa	-0.0028842078
28	0x3b2ea661	0.0026649463
29	0x3bd30439	0.0064397124
30	0xbaf7fbd4	-0.0018919655
31	0xb9e883d2	-0.00044348702
32	0x3b01187c	0.0019698432
33	0x3b46355b	0.0030244205
34	0x3c1fad6b	0.009745936
35	0xbb80a4be	-0.003925889
36	0x3c09d3b3	0.008412289
37	0xbbf1a215	-0.007374058
38	0x3b7af420	0.0038292482
39	0x3c2a2e0a	0.010386953
40	0x3b819b9f	0.003955319
41	0xbbf2109c	-0.007387234
42	0x3c048c52	0.008090096
43	0x3b68222b	0.0035420756
44	0xbb0b8733	-0.0021290302
45	0xb8cf312d	-9.879689e-05
46	0xbba16d9b	-0.004926396
47	0xbabf50d2	-0.001459623
48	0xbaa2f09a	-0.0012431324
49	0x3ad2caab	0.0016082128
50	0xbbec0027	-0.0072021666
51	0x3ab3aa69	0.0013707402
52	0x3b7635e9	0.0037568754
53	0x3c11fd3e	0.008910475
54	0xbab9d766	-0.0014178574
55	0x3b5ebaa6	0.0033985763
56	0x3ba8116a	0.005129029
57	0x3c0f8851	0.008760528
58	0xbb939a3e	-0.004504471
59	0xbb518cad	-0.0031974718
60	0xbbe81f54	-0.0070838127
61	0x3c0341e9	0.00801132
62	0x3bdf7424	0.006819265
63	0x3a36bea8	0.0006971159
64	0xbc0243eb	-0.007950763
65	0x3c0fae2a	0.008769551
66	0x3a49b3c9	0.00076943316
67	0xb878852c	-5.9251834e-05
68	0x3a298da6	0.00064679456
69	0x3bd13fdb	0.006385786
70	0xbb598b20	-0.0033194497
71	0xbb705b68	-0.0036675576
72	0xbaca9cd9	-0.0015458121
73	0x3c0b9427	0.008519209
74	0xb845c364	-4.715043e-05
75	0x3aa631e2	0.0012679661
76	0xbb2fcfe6	-0.0026826798
77	0x3bfa2b74	0.0076345745
78	0x3b919995	0.0044433572
79	0x3b270a39	0.002548827
80	0x3b179d8f	0.0023134684
81	0xbb866a56	-0.0041020317
82	0xbaceb9ba	-0.0015771904
83	0xbbbd8697	-0.0057838666
84	0x39940bed	0.00028237645
85	0xba9a310e	-0.0011763887
86	0xb802020e	-3.099633e-05
87	0xbc0c1b1b	-0.008551384
88	0x3b32e00d	0.002729419
89	0x3bf363e1	0.007427678
90	0x3b6b8964	0.0035940045
91	0xb938bf93	-0.00017618974
92	0xbb892cad	-0.004186234
93	0x3ae57bb3	0.0017508179
94	0x3c78ff96	0.015197655
95	0xb84cffef	-4.8875747e-05
96	0x3c0f2e08	0.008739002
97	0xbbabc4f5	-0.005241985
98	0x3bd85786	0.0066022305
99	0x3bb5bb57	0.0055460143
100	0x3aa9dc9d	0.0012959425
101	0x3c0a7e36	0.008452943
102	0x3bef4b94	0.007302711
103	0x3c19ad8f	0.0093797585
104	0x3b9452f8	0.004526492
105	0x3b6e4f98	0.003636336
106	0x3b1947a4	0.0023388648
107	0xbc153d82	-0.009108903
108	0xb924b388	-0.0001570714
109	0x3c0334b4	0.008008171
110	0xbb3df6bc	-0.0028986176
111	0x3c2c2f5f	0.010509341
112	0x3bf766a3	0.007550077
113	0xbb6c0ee0	-0.0036019608
114	0xbb8b4cd6	-0.004251103
115	0x3b9e4094	0.0048294757
116	0xbbc55962	-0.006022618
117	0x3bb8aaa5	0.005635577
118	0xbb74f798	-0.0037379023
119	0x3b69f51a	0.003569907
120	0x3b688e2d	0.0035485134
121	0x3aa1583b	0.001230962
122	0x3b487ec8	0.0030593146
123	0x3a8e3042	0.0010848122
124	0xbaaec8a5	-0.0013334943
125	0x3c4516e9	0.012029388
126	0xbb0d2319	-0.0021535812
127	0x3bc801a0	0.0061037093

action_model._discrete_distribution.branches.0.weight f4 [3, 128]
0	0x3bb8d5e1	0.0056407307
1	0x3a8c326a	0.0010696177
2	0x3ba814bc	0.005129425
3	0x3b54fe0a	0.0032500052
4	0xbaab7c2a	-0.0013083268
5	0xbab7f198	-0.0014033793
6	0x3bffd66b	0.007807543
7	0x3c26a434	0.010170985
8	0x389fdd4b	7.62293e-05
9	0x3c3c5cff	0.011496781
10	0x3cde3832	0.027126405
11	0xbc5d9709	-0.013524779
12	0x3c02f075	0.0079919
13	0xbcd48b7d	-0.02594542
14	0x3c11d679	0.008901232
15	0xbb6193cf	-0.0034420376
16	0x3c809afc	0.015698902
17	0x3baf2b03	0.0053457036
18	0xbc6bfcde	-0.01440355
19	0xbc88f9bd	-0.016720647
20	0x3b097afb	0.0020977843
21	0x3c3ea6f0	0.011636481
22	0x3b81624d	0.003948486
23	0xbbe0cac6	-0.00686011
24	0x3b6895b5	0.0035489623
25	0x3b241ef3	0.0025042861
26	0x39f70d39	0.00047121363
27	0xbc812f4f	-0.015769629
28	0xbc1854c5	-0.009297554
29	0xbc5c10e2	-0.01343176
30	0x3b0b3299	0.0021239875
31	0x3c3bcdcf	0.011462643
32	0x3c2d8bfe	0.010592459
33	0x3aa7ae3e	0.0012793017
34	0xba9bea95	-0.0011895472
35	0xbbaccbb6	-0.0052733077
36	0xb9ebf0db	-0.00045002144
37	0x3c1d8a22	0.009615453
38	0x3b65248e	0.0034964415
39	0x3be11f26	0.0068701683
40	0x3c78b076	0.01517879
41	0x3b2f3462	0.0026734103
42	0xbab0471e	-0.0013448929
43	0xbc6e7300	-0.014553785
44	0xbc300483	-0.010743263
45	0xbaa86e0a	-0.0012850177
46	0xbc179f38	-0.009254269
47	0xbc183ce4	-0.009291861
48	0x3b8ffad8	0.0043939166
49	0xbb162f9b	-0.0022916559
50	0xbb38f5a8	-0.0028222594
51	0xbc3f55e4	-0.011678193
52	0xbc3f69ca	-0.011682937
53	0xbb973049	-0.0046139103
54	0xbc0fdceb	-0.008780698
55	0xbc51cee8	-0.012805678
56	0xbc8962b6	-0.016770702
57	0xbc34d3f9	-0.011036866
58	0x3b3e46f4	0.002903399
59	0x3c3908f4	0.0112936385
60	0x3c92f73d	0.017940158
61	0xbb46b0a7	-0.0030317695
62	0xbbbc7a05	-0.0057518505
63	0x3b8c1f97	0.0042762267
64	0x3b195337	0.0023395547
65	0xbc56752f	-0.013089462
66	0xbc8650fb	-0.016396036
67	0xbad9a204	-0.001660407
68	0xbc15d413	-0.009144801
69	0x3aa722e6	0.0012751489
70	0x3b2efa73	0.0026699572
71	0xbb71803b	-0.0036850113
72	0x3c57eedb	0.013179506
73	0xbbfb85b2	-0.00767585
74	0x3c0ddc19	0.008658432
75	0xbbb739ec	-0.0055916216
76	0xbb88f92d	-0.0041800947
77	0x3ba89a76	0.0051453663
78	0xbb8786b3	-0.0041359304
79	0xbb60841a	-0.0034258426
80	0xbc858887	-0.016300453
81	0x3cbe41b1	0.023224683
82	0x3c82e913	0.01598028
83	0xbc1419a9	-0.009039321
84	0xbc2ac87b	-0.010423775
85	0xbc7e78ff	-0.015531777
86	0xbc94d7b1	-0.018169256
87	0x3b9e7471	0.0048356582
88	0x3b88ef88	0.004178945
89	0xbbc6d4a6	-0.00606783
90	0x3a9f4ad2	0.0012153035
91	0xbb850971	-0.0040599634
92	0xba714592	-0.0009203787
93	0xbbfc026f	-0.00769072
94	0x3cf91749	0.030406611
95	0xbb06e1fc	-0.0020581475
96	0xbb5a7d64	-0.0033338899
97	0xbc7449fd	-0.014910218
98	0x3b962ccf	0.0045829783
99	0x3c8e4120	0.017365038
100	0xba5f3bab	-0.0008515666
101	0xbca3f276	-0.020013075
102	0xbb4c8238	-0.0031205546
103	0xbc996de8	-0.018729165
104	0x3bce8c78	0.0063033663
105	0x3b97dbf2	0.004634374
106	0xbbfb7a6a	-0.007674505
107	0x3c806b0d	0.015676046
108	0xbc8a2a94	-0.016866006
109	0xbb4da445	-0.003137843
110	0xbaae8776	-0.0013315517
111	0xbc9b37a2	-0.018947426
112	0xbc88bf4f	-0.016692786
113	0x3c7578de	0.01498243
114	0xba6fbc14	-0.0009145152
115	0xbc4318ee	-0.011907799
116	0x3b35274f	0.0027641838
117	0x3bbe6a46	0.0058110086
118	0xbbb1d4bc	-0.0054269712
119	0xbad5f0c1	-0.0016322361
120	0xbc6471a7	-0.013943112
121	0xbafca16b	-0.001927418
122	0xbc5bfd47	-0.013427085
123	0xbc5fa15e	-0.013649313
124	0x3af70739	0.0018846757
125	0xbd15523a	-0.03645537
126	0x3c158bcc	0.009127568
127	0xbbf0bf80	-0.0073470473
128	0x3b9cc053	0.004783669
129	0x3bc652fa	0.006052372
130	0xbb76f0f4	-0.003768024
131	0x3cd641c9	0.026154416
132	0x3c8062ef	0.015672175
133	0x3bb8d15d	0.0056401924
134	0xbbdac103	-0.006675841
135	0x3c0f4fdd	0.008747068
136	0x3b513e2d	0.0031927929
137	0xbb2e5a88	-0.0026604254
138	0xbc1d1b70	-0.009589061
139	0x3b1e8045	0.0024185341
140	0x3b28a0a1	0.0025730508
141	0xbbe69eb7	-0.0070379633
142	0x3bc77b1f	0.006087675
143	0xbb9aefeb	-0.0047283075
144	0xbbc8b083	-0.0061245575
145	0xbbe7e863	-0.007077263
146	0xba8623ae	-0.0010234022
147	0x3b79d161	0.0038119184
148	0x3be64559	0.00702731
149	0xbb9ab38f	-0.004721112
150	0xbc7fa371	-0.015602932
151	0xbbb4d72f	-0.005518816
152	0x3b696e95	0.003561889
153	0x3c093bda	0.008376086
154	0xbca6dd5e	-0.020369228
155	0x3bc2e417	0.0059476006
156	0x3bfc68ee	0.0077029383
157	0x3ba971f2	0.005171054
158	0x3c2fe371	0.010735379
159	0x3c557233	0.0130277155
160	0x3c641d67	0.013923026
161	0x3c755bb2	0.014975475
162	0x3cb0212f	0.021500198
163	0xbcac6ab8	-0.021046981
164	0x3b819c64	0.003955411
165	0xbc29c78d	-0.010362518
166	0xbabe8ec1	-0.0014538394
167	0x3c0299fd	0.007971284
168	0xbb09518b	-0.0020953144
169	0xbba306ca	-0.0049751746
170	0x3c63b1e6	0.013897395
171	0xbbd9c5f3	-0.006645912
172	0xbc278392	-0.01022424
173	0xbb7efe02	-0.0038908725
174	0x3b54d5e2	0.0032476117
175	0x39d9f857	0.00041574493
176	0x3b96f7dc	0.004607184
177	0xb90bdbc2	-0.00013337939
178	0xbcb71a3a	-0.022351373
179	0xbc101399	-0.008793735
180	0x3c8bf984	0.017086752
181	0x3ca4f6e0	0.02013725
182	0x377ff874	1.5257032e-05
183	0xb923cf03	-0.00015622009
184	0xb976173e	-0.00023469047
185	0x3a3db1c7	0.0007236269
186	0x3c26b090	0.010173932
187	0xbc2f3d4a	-0.010695765
188	0xbc600820	-0.013673812
189	0x3c2d10d5	0.010563095
190	0x3b71093e	0.003677919
191	0x3c2d2631	0.010568188
192	0x3b8e27b0	0.004338227
193	0x3b8fbf95	0.004386852
194	0x3b940b16	0.004517923
195	0x3c22e41a	0.009942079
196	0x3a3c086d	0.00071728864
197	0x38881db1	6.490516e-05
198	0x3c345c06	0.011008268
199	0xbc828239	-0.015931236
200	0x3bbd2f7a	0.005773482
201	0x394444b2	0.00018717608
202	0x3bacb96f	0.005271129
203	0x3bd8b5d1	0.006613471
204	0xbc76cf06	-0.015064007
205	0xbb52e3ab	-0.0032179158
206	0x3c7d018f	0.015442266
207	0x3bf8df45	0.007594975
208	0x3b2e5c97	0.002660548
209	0x3bcf11ad	0.006319246
210	0x3ca53533	0.020166969
211	0x3bdea1c1	0.006794185
212	0xbbf541ec	-0.007484665
213	0xbbd3bdc9	-0.006461833
214	0x3b05b114	0.0020399736
215	0xbb609de0	-0.0034273788
216	0x3c65e36a	0.0140312705
217	0x3c3e748e	0.0116244685
218	0xbbcddafc	-0.0062822085
219	0xbc56cc76	-0.013110271
220	0xba9532c8	-0.0011382932
221	0xbbc9d330	-0.0061592087
222	0xbc871225	-0.016488144
223	0x3a9e6eb6	0.0012087438
224	0xbc2190c1	-0.009861172
225	0x3c0f5702	0.008748772
226	0x3c4cd28b	0.012501369
227	0xba08a195	-0.0005212066
228	0x3b817f16	0.0039519174
229	0x3c877d03	0.016539102
230	0xba4296e7	-0.0007422999
231	0x3c1dbc6a	0.009627441
232	0x3afa65b9	0.0019103802
233	0x3b1d99be	0.0024047936
234	0x3c5062f5	0.012718906
235	0xbc02b866	-0.007978534
236	0x3b688fee	0.003548618
237	0x3ba02d80	0.0048882365
238	0xbcd13ee7	-0.02554269
239	0x3b6fd95b	0.003659806
240	0x3cbb81ac	0.02288898
241	0x3cc0e63a	0.02354728
242	0xbc44f74b	-0.01202185
243	0xbc28ae07	-0.010295398
244	0xbc76c240	-0.015060961
245	0xbb6f85e6	-0.0036548316
246	0xbb3834fd	-0.0028107755
247	0xbb47db8c	-0.003049585
248	0xbbefcc0f	-0.007318027
249	0xbc0f1f90	-0.008735552
250	0x3c5f2a1a	0.013620878
251	0xb8b1c93c	-8.4775005e-05
252	0x3aca2b5e	0.0015424301
253	0x3c3c209c	0.011482384
254	0x3c042d4c	0.00806744
255	0x3c1cf744	0.009580437

action_model._discrete_distribution.branches.0.bias f4 [3]
0	0xbb5adc35	-0.0033395414
1	0x3bdab0f2	0.0066739256
2	0xbb3b178e	-0.0028547975

action_model._discrete_distribution.branches.1.weight f4 [3, 128]
0	0xbca14600	-0.019686699
1	0xbc38e22f	-0.011284395
2	0x3b98fbe2	0.0046686986
3	0xbc21a883	-0.0098668365
4	0x3b5f8154	0.0034104185
5	0x3c448b0d	0.011996043
6	0x3c152734	0.009103585
7	0xbc80f252	-0.015740547
8	0xbc081609	-0.008306035
9	0x3a6eb872	0.0009106464
10	0x3a9d52d9	0.001200284
11	0xbc041a72	-0.008062946
12	0x3b9f3188	0.0048581995
13	0xbb29a879	-0.002588777
14	0xbc3a12d8	-0.011357032
15	0x3a3ab07e	0.00071216363
16	0x3c630a7c	0.01385748
17	0xbb1f2cf4	-0.0024288269
18	0x3c472de9	0.012156942
19	0xbb0893e4	-0.0020840103
20	0x3c46c29c	0.012131359
21	0xbc16d713	-0.009206551
22	0x3c8aaab1	0.016927095
23	0x3b83f00e	0.0040264195
24	0x3ba63a80	0.0050728917
25	0x3cacc6f3	0.02109096
26	0x3c27eddf	0.010249584
27	0x3c626723	0.013818535
28	0x3c60bb62	0.013716551
29	0x3bc513bc	0.0060143154
30	0xbc09de43	-0.008414808
31	0xbcb4bc6a	-0.0220625
32	0xbc17ac85	-0.00925744
33	0xbbf417a7	-0.0074491086
34	0x3c66429b	0.014053966
35	0xbbe2c835	-0.006920839
36	0x3c420909	0.011842974
37	0xbc81ad43	-0.015829688
38	0xbc374c34	-0.011187602
39	0xbc898221	-0.016785683
40	0x3c96e6b5	0.018420557
41	0x3b93c1df	0.004509195
42	0xbce6f8b3	-0.02819476
43	0x3c85e157	0.016342802
44	0xba8da26c	-0.0010805852
45	0xbc4e39a8	-0.0125869885
46	0x3ba1ac0f	0.004933841
47	0x3c00a234	0.007851172
48	0x3b2d7ea1	0.0026473182
49	0x3c1a582b	0.009420435
50	0x3bb048f8	0.0053797923
51	0xbca6ff60	-0.020385444
52	0x3adc85bd	0.0016824525
53	0x3bcf36bc	0.0063236635
54	0xbc46a5eb	-0.012124519
55	0xbc909501	-0.017649176
56	0x3c8e5c49	0.01737799
57	0x3c985ddb	0.018599441
58	0x3bba75cb	0.0056903115
59	0xbb734f8f	-0.0037126278
60	0x3c896fd4	0.016776957
61	0xbc9a54c7	-0.018839253
62	0xbc7abe5e	-0.015304176
63	0xbc1c53ea	-0.009541491
64	0xbbb05985	-0.0053817653
65	0xbc81c054	-0.01583878
66	0x3c60152c	0.013676923
67	0x3b9df606	0.004820588
68	0x3af73e22	0.0018863122
69	0xbafd1584	-0.001930878
70	0x3c196fb9	0.009365016
71	0x3a92acdc	0.0011190432
72	0x3b878a6b	0.0041363738
73	0x3cc4fa04	0.024044998
74	0x3b827cc4	0.0039821584
75	0xbc31d211	-0.010853306
76	0x3b14c503	0.0022700436
77	0xbca84ce5	-0.020544479
78	0x393c0dc4	0.00017934205
79	0x3b7cbbbb	0.0038564045
80	0x3c20e041	0.009819091
81	0x3b9229ff	0.0044605727
82	0xbc7d650b	-0.015465985
83	0xba934773	-0.0011236503
84	0xba4a157d	-0.00077088905
85	0xbbf8f20c	-0.0075972136
86	0x3a2d6333	0.0006614208
87	0x3be164d0	0.006878473
88	0x3c8c8cd1	0.01715699
89	0x3c45aee7	0.012065626
90	0x3c592e0a	0.0132556055
91	0xbc364bee	-0.0111265015
92	0xb91046ea	-0.00013759328
93	0xbc921492	-0.017832074
94	0xbb86fa6d	-0.0041192085
95	0xbc04ae32	-0.008098172
96	0x3c72afc7	0.014812416
97	0xbb8adfde	-0.004238113
98	0x3c733a85	0.014845495
99	0xbbcc995e	-0.0062438687
100	0x3b7cf7df	0.003859989
101	0x3caa9732	0.020824049
102	0xbcbd8b34	-0.023137666
103	0x3c84e0f5	0.01622055
104	0xbc6f7532	-0.014615344
105	0x3b538fd8	0.0032281782
106	0x3c5531de	0.013012378
107	0x3b563fb0	0.003269177
108	0xbc502a24	-0.01270536
109	0x3c4c1517	0.0124562
110	0x3af59334	0.0018735887
111	0x3cdb145b	0.026743105
112	0xbcb216b8	-0.021739349
113	0x3adba638	0.0016757911
114	0x3b3ac299	0.0028497337
115	0xbc5908ca	-0.013246724
116	0xbca3302b	-0.01992043
117	0xbc2ee0be	-0.0106737
118	0xbca93e80	-0.020659685
119	0xbc9a59ab	-0.018841585
120	0xbc03730e	-0.008023037
121	0x3c468843	0.012117448
122	0x3b64cb90	0.0034911372
123	0xbcae58b7	-0.021282537
124	0x3c47fb9b	0.0122059835
125	0x3ccd71e4	0.025078721
126	0xbcd2a831	-0.025714966
127	0xbb745f87	-0.0037288384
128	0x3b81799f	0.003951266
129	0xbc39e1da	-0.011345351
130	0xbc33d6f6	-0.010976544
131	0x3b4168f2	0.0029512015
132	0xbc429658	-0.011876665
133	0x3b4d0c73	0.0031287938
134	0xbaecbf20	-0.0018062331
135	0xbc2b3553	-0.010449725
136	0xbc242c92	-0.010020392
137	0xbb24674f	-0.002508599
138	0x3b4ace5c	0.0030945754
139	0x3b702b1d	0.0036646791
140	0xbb19302b	-0.0023374658
141	0xbc0d447a	-0.008622283
142	0xbc56f1ab	-0.013119142
143	0xbc07a0f6	-0.008278122
144	0x3bf24f3f	0.007394701
145	0x3b1d9697	0.0024046057
146	0x3c869840	0.01643002
147	0x3ac7b87a	0.0015237473
148	0x380d04b2	3.3621393e-05
149	0x3b79cc2d	0.0038116083
150	0x3b523045	0.0032072228
151	0xbc25080a	-0.010072717
152	0x399e94cc	0.0003024697
153	0xbb0d0947	-0.0021520422
154	0x3bf89c63	0.007587002
155	0x3c3916c6	0.0112969335
156	0xbbcb84f0	-0.0062109157
157	0xbce287bd	-0.027652616
158	0x3b370e77	0.0027932206
159	0xbb775b25	-0.0037743535
160	0x3c2cc465	0.010544871
161	0xbb61a762	-0.0034432043
162	0xbae7a4a9	-0.0017672974
163	0x3b7d56db	0.0038656506
164	0x3b944482	0.0045247683
165	0xbaf4eaee	-0.0018685737
166	0xbc23787e	-0.009977458
167	0xbc10ca99	-0.008837366
168	0xbc35b7d6	-0.011091193
169	0x3c01655f	0.007897704
170	0xbb919dfc	-0.004443882
171	0x3c853037	0.016258342
172	0x3c28b3c2	0.010296764
173	0x3ac7ac6c	0.0015233881
174	0xb9e3e56e	-0.00043467752
175	0xbbbb4f96	-0.0057162745
176	0x3b9b3b87	0.004737321
177	0x3a15ec9f	0.0005719158
178	0xbab0c7c2	-0.0013487267
179	0x3aee0d2a	0.0018161882
180	0xbc3306eb	-0.010926942
181	0xbbfc2f9d	-0.0076961056
182	0xbc22dd21	-0.009940417
183	0xbc2bbdab	-0.010482232
184	0xbba9de9e	-0.0051840087
185	0xbb038bc5	-0.0020072323
186	0x3c9e8abf	0.019353269
187	0x3c28e6a8	0.010308899
188	0x3bafd73e	0.005366235
189	0xbaba586e	-0.0014217028
190	0x3bac9915	0.0052672722
191	0xb9a921ff	-0.0003225952
192	0x3adba2c3	0.0016756881
193	0x3c28415d	0.01026949
194	0x3b2f8e71	0.0026787783
195	0xbc29479b	-0.0103320135
196	0x3b957b9a	0.0045618536
197	0xbbcca234	-0.006244922
198	0x3a9a62c3	0.0011778701
199	0xbbac2437	-0.0052533406
200	0xbabd5747	-0.0014445566
201	0xba6351ac	-0.0008671533
202	0x3bdd55d8	0.006754618
203	0xbc821748	-0.015880242
204	0xbaa59b60	-0.0012634806
205	0x3ba0bde0	0.0049054474
206	0xbb2e8dee	-0.002663489
207	0xbbb031c0	-0.0053770244
208	0xbbe3fe6e	-0.0069578206
209	0x3c823ba8	0.015897587
210	0x3b7a1197	0.0038157457
211	0xb929a664	-0.00016179081
212	0xbb8de31d	-0.0043300525
213	0xbbe94b73	-0.00711959
214	0x3c85b9b2	0.016323898
215	0xbb2426ad	-0.0025047467
216	0xbbc8a67f	-0.0061233635
217	0xbafd4087	-0.0019321599
218	0xbc1b9da6	-0.009498036
219	0xbbef2324	-0.0072978903
220	0xb9215348	-0.00015385181
221	0xbc915c44	-0.017744191
222	0xb9b9110e	-0.00035298656
223	0x3b16bde6	0.0023001372
224	0xbbf7729f	-0.0075515057
225	0x3c7a5a9a	0.01528039
226	0xbc2b75c3	-0.010465088
227	0x3c19a589	0.009377846
228	0xbb16c0bb	-0.002300306
229	0x3980731e	0.00024499831
230	0xbb44e6cb	-0.003004479
231	0x3c0c8ad0	0.008578017
232	0x3c1b16fc	0.009465929
233	0x3bdedcf4	0.006801242
234	0xbba9db98	-0.0051836483
235	0x3bbbb877	0.005728777
236	0x3b5db38d	0.0033828944
237	0xbcb882e2	-0.022523347
238	0x3c9a6700	0.018847942
239	0xbb30d58b	-0.002698275
240	0xbc9f497f	-0.019444225
241	0x3bf0d879	0.0073500243
242	0xbb9c68ef	-0.0047732512
243	0x3b8a6b99	0.0042242524
244	0xbb9336f9	-0.0044926372
245	0x3ce44014	0.027862586
246	0x3c43baa5	0.011946355
247	0x39c49dfa	0.00037501735
248	0xbb4453a9	-0.0029957092
249	0xbb3d0e62	-0.0028847684
250	0xbc06911f	-0.0082133105
251	0xbbd7e0c5	-0.006588074
252	0x3c4d82b4	0.012543369
253	0xbccb55c7	-0.024821175
254	0x3ac4508a	0.0014977616
255	0xbc8afdf3	-0.016966796

action_model._discrete_distribution.branches.1.bias f4 [3]
0	0x3bda3572	0.006659203
1	0xbbbe3ed3	-0.005805829
2	0xba026e34	-0.0004975528

action_model._discrete_distribution.branches.2.weight f4 [2, 128]
0	0xbc11cced	-0.008898956
1	0x3b1b6295	0.0023709883
2	0x39322a53	0.0001699117
3	0xbb7c05fd	-0.0038455718
4	0x3c03c87c	0.008043405
5	0xbc865f1d	-0.016402775
6	0xbc801af2	-0.015637849
7	0xbb46409d	-0.0030250915
8	0x3c2e5b4e	0.010641886
9	0xbc03021b	-0.007996107
10	0xb7aa64f6	-2.0312593e-05
11	0xbc63e7e7	-0.01391027
12	0x3c371b4a	0.01117594
13	0xbb22bded	-0.0024832443
14	0x3ba453a6	0.0050148545
15	0xbc53f3df	-0.012936561
16	0xbc13439b	-0.008988286
17	0xbbc00ac7	-0.0058606598
18	0x3ca827f5	0.020526865
19	0xbac28da6	-0.001484324
20	0xbbac4197	-0.0052568424
21	0x3c674959	0.014116609
22	0x3c2842db	0.010269846
23	0xbb49d620	-0.0030797794
24	0x3b993f97	0.00467677
25	0xbc652d0d	-0.013987792
26	0xbbaf8e20	-0.005357519
27	0x3b376cc2	0.0027988409
28	0x3aea6525	0.0017882927
29	0xbb357505	-0.0027688157
30	0x3babadc0	0.0052392185
31	0x3c1d8153	0.009613353
32	0x3ca6fbbf	0.020383714
33	0xbaef761c	-0.0018269452
34	0x3c1ff6e1	0.00976345
35	0xbb959e0d	-0.0045659603
36	0xbb47721c	-0.0030433005
37	0x3b166448	0.0022947956
38	0x3c194fb3	0.009357381
39	0x3c358dc3	0.011081162
40	0xbc598b29	-0.013277807
41	0xbbba4779	-0.0056847897
42	0xbc86aa83	-0.016438728
43	0x3aea1a1b	0.0017860563
44	0xbbc93dcc	-0.0061414
45	0xbad7f87c	-0.0016477252
46	0xbbe82eaa	-0.007085641
47	0x3c04493f	0.008074104
48	0x3b969f9d	0.004596664
49	0xbb0a0461	-0.002105974
50	0x3bbfbdff	0.0058515067
51	0xbbc98672	-0.0061500603
52	0x3ba5c62c	0.0050590243
53	0x3b23d6af	0.0024999788
54	0xbc0d835b	-0.008637275
55	0xbc24adb8	-0.010051183
56	0x3c7420f3	0.014900434
57	0xbbd1fde6	-0.006408441
58	0xb977be39	-0.00023626619
59	0xbbec3722	-0.007208721
60	0x3b0017b5	0.001954538
61	0xbbd7bcb7	-0.006583776
62	0xbc8a0582	-0.01684833
63	0xbc08c005	-0.008346562
64	0x3c0eb975	0.008711209
65	0x3bf59d94	0.0074955914
66	0xbadaecd6	-0.0016702663
67	0xbc764450	-0.015030935
68	0xb905ffc6	-0.00012779151
69	0x3a7ed5f3	0.0009721212
70	0xbcab4f29	-0.02091177
71	0xbb8e5ef3	-0.004344815
72	0xbc057ac6	-0.008146947
73	0x3b03a384	0.0020086477
74	0x3b656a36	0.0035005934
75	0x3bf46b99	0.0074591157
76	0x3bf93e05	0.0076062703
77	0x3bf64880	0.007515967
78	0x3bce97ea	0.0063047307
79	0x3b5aa52e	0.0033362615
80	0xbc6cd454	-0.01445492
81	0x3b52a1c9	0.0032139888
82	0xbc8fe7d6	-0.017566603
83	0x39d72300	0.00041034073
84	0x3bf6ce9a	0.007531953
85	0x3bb8f4e4	0.0056444276
86	0x3bb2fb04	0.0054620523
87	0xbc1f51a6	-0.009724056
88	0x3b94ae2f	0.004537366
89	0x3bdb53ad	0.0066933245
90	0x3b2bcfd0	0.0026216395
91	0x3928fd35	0.00016116055
92	0x3c1c2856	0.009531101
93	0x38864846	6.40308e-05
94	0x3be92b8d	0.0071157874
95	0xbc623f09	-0.013808974
96	0x3bb09db7	0.005389895
97	0xb8c3e04b	-9.3401024e-05
98	0xbc3b951c	-0.011449125
99	0x3b9cc449	0.004784141
100	0x3c7ac635	0.015306045
101	0x3c1019de	0.00879523
102	0xbb96f517	-0.0046068537
103	0x3a75272e	0.00093518465
104	0xba9f6142	-0.0012159722
105	0xbc134625	-0.008988892
106	0xbbfddd5f	-0.0077473368
107	0x3b8c3bc0	0.0042795837
108	0xba1ff3d0	-0.00061016995
109	0x3bf13c20	0.007361904
110	0xbb52aaa9	-0.0032145178
111	0x3c50adf3	0.012736785
112	0xbca4c4ed	-0.020113433
113	0x3c1a0aad	0.009401959
114	0x3c434f22	0.011920722
115	0xbc2c2652	-0.010507183
116	0x3ae75147	0.0017648124
117	0x3c625ad7	0.013815603
118	0xbcbdd482	-0.02317262
119	0x3bdffc4f	0.0068354975
120	0x3b948dfa	0.0045335265
121	0x3b82355b	0.0039736456
122	0xbafebbf5	-0.0019434678
123	0x3bfda02e	0.007740042
124	0xbaf85e6e	-0.0018949041
125	0xbb2695ea	-0.0025418946
126	0xb9f6033b	-0.00046923183
127	0x3c1dd995	0.009634395
128	0x3bd550a1	0.006509856
129	0x3bd0ab5c	0.006368084
130	0xbc129431	-0.008946464
131	0x3a738452	0.00092894316
132	0xbcc9a19f	-0.0246132
133	0x3b4a7c62	0.0030896892
134	0xbb54c074	-0.0032463344
135	0x3c369075	0.01114284
136	0x3c0181a3	0.007904443
137	0xbbc04185	-0.0058671855
138	0xbc04f40f	-0.008114829
139	0x3c3f5b00	0.011679411
140	0xbc855ce8	-0.016279653
141	0x3c65525e	0.013996689
142	0x3be8538d	0.007090038
143	0xbbbc9b7b	-0.0057558394
144	0x3b05b3b8	0.002040131
145	0xbb67cade	-0.003536872
146	0x3b8ce174	0.004299337
147	0xbb406742	-0.0029358421
148	0xbb4f591a	-0.0031638802
149	0xbc1a7fc3	-0.009429875
150	0x3b117b94	0.0022198902
151	0xbaf58313	-0.001873108
152	0xb94e7ee3	-0.0001969296
153	0xbc52c66a	-0.012864688
154	0xbb861a7d	-0.004092513
155	0x3beb4dbc	0.0071808975
156	0xbc148753	-0.009065467
157	0xbca3114c	-0.019905709
158	0x3cd64330	0.026155084
159	0xbbfcc018	-0.007713329
160	0xba4bbced	-0.00077719876
161	0x3bcbf50a	0.0062242793
162	0x3b927d47	0.0044705006
163	0x3bbf7b24	0.005843537
164	0xbc4e3e45	-0.012588088
165	0x3b27f792	0.002562974
166	0x3c325836	0.010885289
167	0x3ba9c206	0.0051806
168	0x3b7874ad	0.003791134
169	0x3c690cd6	0.014224252
170	0xbb20faf0	-0.0024563633
171	0xbb4e6481	-0.003149301
172	0xbc88ba06	-0.016690265
173	0xbacc7063	-0.0015597459
174	0xbbe2cd16	-0.006921421
175	0xbc8d8173	-0.01727364
176	0xbc01db0d	-0.007925761
177	0x3bf0cae1	0.007348404
178	0x3be05585	0.006846132
179	0x3b94d293	0.004541704
180	0x3c37c35d	0.011216012
181	0xb98b687f	-0.00026590002
182	0x3b88092e	0.004151485
183	0x3bb4317d	0.0054990635
184	0xbc344a35	-0.01100402
185	0xbb4508e3	-0.0030065111
186	0x3cb403b3	0.02197442
187	0xbbb183c8	-0.005417321
188	0x3c2efc43	0.010680261
189	0x3b8e7d52	0.0043484354
190	0xbbade017	-0.0053062546
191	0x3cf1fd01	0.029539587
192	0x3bf41846	0.0074491827
193	0x3bc00fab	0.005861243
194	0x3b4866ba	0.0030578808
195	0xba6b95cf	-0.0008986862
196	0x3c5bc3c1	0.013413371
197	0x3a8e9072	0.0010876788
198	0x3b05af95	0.0020398844
199	0xba424a10	-0.0007411549
200	0xbb929de6	-0.0044743894
201	0xbbd57bca	-0.006515001
202	0xbc438bf4	-0.011935223
203	0xbc12ae7c	-0.008952733
204	0xbc6b6688	-0.014367707
205	0xbc3ae3e0	-0.011406869
206	0xbc85cac4	-0.016332038
207	0xbb9c0340	-0.0047611296
208	0xbcc0c1b2	-0.023529861
209	0xbb340b2f	-0.0027472486
210	0x3bda1ac5	0.006656023
211	0x3bcc0481	0.006226123
212	0xbbcac7d1	-0.0061883708
213	0x3c2d1eda	0.010566438
214	0x3ba4bf45	0.005027684
215	0x3c39551a	0.011311794
216	0x3c188b89	0.0093106115
217	0xbcbd687c	-0.023121111
218	0x3c1a231b	0.009407784
219	0x3c3d943c	0.011570986
220	0x3c32d689	0.010915407
221	0x3bd5873e	0.0065163663
222	0xbb884fcf	-0.0041599046
223	0x3c3ee6ca	0.011651704
224	0x3c04fa25	0.00811628
225	0xbc6db2bc	-0.014507946
226	0x3c9e35f6	0.01931284
227	0xbb5e9cc9	-0.0033967963
228	0x3c2976c0	0.010343254
229	0xbc164985	-0.009172802
230	0xba23a49e	-0.00062424864
231	0xbc7dbd9b	-0.0154871
232	0x3b9b5d34	0.0047413353
233	0x3c608e42	0.013705792
234	0x3b45d7e3	0.0030188493
235	0xbbd2b413	-0.006430158
236	0xba3176de	-0.0006769727
237	0xbbedbc36	-0.0072551025
238	0x3b0adb01	0.0021187665
239	0x3afe131f	0.0019384361
240	0x3bb4bfa0	0.0055160075
241	0xbad8c04d	-0.0016536802
242	0x3cf2359c	0.029566579
243	0xbbc73073	-0.0060787736
244	0x3bff9171	0.0077993204
245	0x3c5cebba	0.013483936
246	0x3c6ae6a2	0.014337214
247	0xbc14b764	-0.009076927
248	0x3c2f88c2	0.010713758
249	0xbb268871	-0.0025410915
250	0x389f7a8b	7.604536e-05
251	0x3b1e7da0	0.0024183765
252	0xbb8503ca	-0.0040592896
253	0xb86fac1d	-5.7142333e-05
254	0xbafadf2f	-0.001914
255	0xbc15fb4b	-0.009154151

action_model._discrete_distribution.branches.2.bias f4 [2]
0	0xb9bbf475	-0.00035849554
1	0x39bbf44b	0.00035849432

exp_avg f4 [128, 100]
0	0xb5b41260	-1.3416393e-06
1	0x354947cc	7.4982813e-07
2	0xb64dc700	-3.0663214e-06
3	0xb5cbeb47	-1.5193153e-06
4	0x355e683f	8.285314e-07
5	0x367a68d4	3.731392e-06
6	0x36807359	3.8281255e-06
7	0x3460ec05	2.0947489e-07
8	0xb42f6a89	-1.6336902e-07
9	0x369dbb48	4.700767e-06
10	0xb573dcf5	-9.084609e-07
11	0xb674a8dd	-3.6457125e-06
12	0xb5597e39	-8.102248e-07
13	0xb614c181	-2.2166353e-06
14	0x3581adab	9.661793e-07
15	0x350a4a35	5.151699e-07
16	0x36155b24	2.225578e-06
17	0xb654b8e6	-3.1698087e-06
18	0xb50027f3	-4.774185e-07
19	0xb535ca8f	-6.7722516e-07
20	0xb38a2c15	-6.434144e-08
21	0x33f69480	1.148228e-07
22	0x3545b444	7.365054e-07
23	0x36890110	4.083042e-06
24	0xb462fb76	-2.1139371e-07
25	0xb6b2f7eb	-5.333675e-06
26	0xb1ea8e6d	-6.8264883e-09
27	0xb66ea15b	-3.5558685e-06
28	0x34bc6b87	3.5095965e-07
29	0x340c1955	1.3047732e-07
30	0x368cf9dd	4.201413e-06
31	0xb6940a57	-4.4119474e-06
32	0xb50e9023	-5.310887e-07
33	0xb4bfd84b	-3.5733896e-07
34	0x3558d0d4	8.0770155e-07
35	0x3507dfa0	5.0616836e-07
36	0x33b86db9	8.588126e-08
37	0x3612ea8a	2.1892215e-06
38	0x353f2c7f	7.1217795e-07
39	0xb6806445	-3.82637e-06
40	0xb498cbda	-2.8460528e-07
41	0xb65ad775	-3.2609944e-06
42	0x35946f03	1.1059168e-06
43	0xb304c9bb	-3.0917118e-08
44	0x360ace1b	2.0683572e-06
45	0xb64f912d	-3.0929907e-06
46	0xb52df636	-6.4805806e-07
47	0xb2aa601d	-1.9834312e-08
48	0x34f1f034	4.506452e-07
49	0x35a29938	1.2114533e-06
50	0xb3c63e12	-9.231384e-08
51	0xb54520c8	-7.343592e-07
52	0xb4a34c9d	-3.041686e-07
53	0xb4aa3532	-3.1703672e-07
54	0xb4cc9a5f	-3.811028e-07
55	0xb582dd40	-9.750147e-07
56	0x34da9e55	4.0720866e-07
57	0x34f061a3	4.4774524e-07
58	0xb5cb479d	-1.5145521e-06
59	0x35d645f5	1.5964603e-06
60	0xb5ca2a10	-1.5062415e-06
61	0xb34ecd3e	-4.814978e-08
62	0xb5623a04	-8.4275985e-07
63	0x33a8fc19	7.868966e-08
64	0x34a1750d	3.0073753e-07
65	0x35a59ed7	1.2339686e-06
66	0xb5a796c3	-1.2486347e-06
67	0x2f988d8c	2.7749214e-10
68	0xb583e0aa	-9.825646e-07
69	0xb4812619	-2.4055842e-07
70	0xb504ec1b	-4.951741e-07
71	0x34eeb0db	4.4459634e-07
72	0xb64e5408	-3.0745305e-06
73	0x35ca5403	1.5074623e-06
74	0xb49bbf1f	-2.901006e-07
75	0x35ad2b9b	1.2902195e-06
76	0xb42a6e99	-1.5872719e-07
77	0x34abf707	3.2030968e-07
78	0x358a6830	1.0312124e-06
79	0xb6368eae	-2.7203164e-06
80	0x35b92784	1.3795075e-06
81	0xb5843af3	-9.851923e-07
82	0x34bfa363	3.5695402e-07
83	0xb26d4107	-1.3810001e-08
84	0x34abf707	3.2030968e-07
85	0x358a6830	1.0312124e-06
86	0xb6368eae	-2.7203164e-06
87	0x35b92784	1.3795075e-06
88	0xb5843af3	-9.851923e-07
89	0x34bfa363	3.5695402e-07
90	0xb26d5ea1	-1.3816732e-08
91	0x00000000	0.0
92	0xb6daf5ef	-6.5255367e-06
93	0x35ce02ff	1.5349068e-06
94	0xb881a061	-6.181072e-05
95	0x00000000	0.0
96	0xb6daf5ef	-6.5255367e-06
97	0x35ce02ff	1.5349068e-06
98	0x38fcb155	0.00012049327
99	0x368aad2b	4.13288e-06
100	0xb5242ac8	-6.1157016e-07
101	0xb59c0b6b	-1.1626229e-06
102	0x36b4f06e	5.3924077e-06
103	0xb7316cc8	-1.057535e-05
104	0x3737a51e	1.0946094e-05
105	0xb78d0dee	-1.6814996e-05
106	0xb791f223	-1.73981e-05
107	0xb527b259	-6.247188e-07
108	0x332887e1	3.923913e-08
109	0xb79817d9	-1.8130917e-05
110	0xb6ce59cc	-6.149732e-06
111	0x37282b76	1.0023699e-05
112	0x36075154	2.0163907e-06
113	0xb54d5b82	-7.650161e-07
114	0xb5536acf	-7.875905e-07
115	0x34f0cb9e	4.4851635e-07
116	0xb745b9fd	-1.1785419e-05
117	0xb63c5d0c	-2.8068343e-06
118	0x36b23857	5.311372e-06
119	0xb657280f	-3.2060814e-06
120	0xb6d85e1b	-6.448257e-06
121	0xb4dd7cf8	-4.1255385e-07
122	0xb5f8bd16	-1.8532471e-06
123	0xb7a1cf73	-1.9289297e-05
124	0xb48b6f4b	-2.5971744e-07
125	0x3716cca5	8.988344e-06
126	0x2fea7dff	4.2653878e-10
127	0xb5b54148	-1.350455e-06
128	0xb5af1fea	-1.3047804e-06
129	0xb49dc2af	-2.938518e-07
130	0xb79700fa	-1.8001057e-05
131	0x370a82cc	8.2558945e-06
132	0xb5055f6c	-4.968522e-07
133	0xb58441c1	-9.853903e-07
134	0xb6ccb382	-6.100571e-06
135	0x34623c74	2.1069883e-07
136	0x341db07e	1.4685972e-07
137	0xb7d9e087	-2.597297e-05
138	0x361b4c87	2.3141345e-06
139	0x372f2c52	1.0441132e-05
140	0x331279dd	3.4104108e-08
141	0x3668bb97	3.4679886e-06
142	0xb5cc5ac1	-1.5225597e-06
143	0x342729d9	1.5568311e-07
144	0xb7c6a25b	-2.3679042e-05
145	0x372a1d44	1.0139604e-05
146	0x36514691	3.1184502e-06
147	0xb58b575f	-1.0381735e-06
148	0xb6888a59	-4.0692216e-06
149	0x3538c2bc	6.882872e-07
150	0x32f5efcf	2.8630806e-08
151	0xb7a84634	-2.0059852e-05
152	0x36342536	2.684375e-06
153	0x36757a53	3.6579047e-06
154	0x343b7c53	1.7460961e-07
155	0x360f640f	2.1366902e-06
156	0xb1aacbb9	-4.9708118e-09
157	0xb5e67dd7	-1.717296e-06
158	0xb79884d3	-1.8181663e-05
159	0x369a9e94	4.6080186e-06
160	0x361d37c6	2.3427287e-06
161	0x340885ab	1.2714615e-07
162	0xb5bacbf3	-1.3917437e-06
163	0xb4af8eaf	-3.2700106e-07
164	0x3507d28e	5.0597816e-07
165	0xb748ed23	-1.1976142e-05
166	0x3610150e	2.1469928e-06
167	0xb6342981	-2.6846249e-06
168	0xb503dde2	-4.9124185e-07
169	0xb6b4c8bd	-5.387787e-06
170	0x350b5e81	5.1919056e-07
171	0xb51155e1	-5.414168e-07
172	0xb7d176fa	-2.4970144e-05
173	0x3742b892	1.1606275e-05
174	0xb4b95e6c	-3.4527636e-07
175	0x357305db	9.0533075e-07
176	0xb72b9c69	-1.0228811e-05
177	0x3697857c	4.5156903e-06
178	0xb5e3d985	-1.6976124e-06
179	0xb6630ba6	-3.3832416e-06
180	0x35cd4f06	1.5296689e-06
181	0xb5df9581	-1.6658306e-06
182	0xb74b6b43	-1.2124717e-05
183	0xb73bce05	-1.1194036e-05
184	0x3697857c	4.5156903e-06
185	0xb5e3d985	-1.6976124e-06
186	0xb6630ba6	-3.3832416e-06
187	0x35cd4f06	1.5296689e-06
188	0xb5df9581	-1.6658306e-06
189	0xb74b6b43	-1.2124717e-05
190	0xb73bcdef	-1.1194016e-05
191	0x00000000	0.0
192	0x3660cdfb	3.3498497e-06
193	0xb7ba05b8	-2.217559e-05
194	0x39912d5e	0.00027690356
195	0x00000000	0.0
196	0x3660cdfb	3.3498497e-06
197	0xb7ba05b8	-2.217559e-05
198	0xba04d9f4	-0.0005067878
199	0xb6d86ad7	-6.4497394e-06
200	0x368845bd	4.0612344e-06
201	0x352cf9ad	6.443832e-07
202	0xb714ce5a	-8.869532e-06
203	0x3766e3f2	1.3762141e-05
204	0xb5d5d8e5	-1.5932861e-06
205	0x370efc9c	8.522675e-06
206	0x376f2e64	1.4256311e-05
207	0x35bde4f9	1.4148237e-06
208	0x3534b829	6.7323214e-07
209	0x3716cec7	8.988841e-06
210	0x35f2a7c0	1.8079227e-06
211	0x360bc97c	2.0829893e-06
212	0x35d15a8c	1.5598066e-06
213	0x36eb6963	7.0158144e-06
214	0x360dfbf8	2.1157302e-06
215	0x3645959a	2.9442367e-06
216	0x36b6aecf	5.444373e-06
217	0x37085b2b	8.127458e-06
218	0xb6b714ad	-5.456232e-06
219	0x3660f3af	3.3520444e-06
220	0x36cf1718	6.171769e-06
221	0xb3c5b5dc	-9.2066074e-08
222	0xb2093e75	-7.988651e-09
223	0x37474aca	1.18787375e-05
224	0xb5c5dbf3	-1.4741657e-06
225	0x370323da	7.816556e-06
226	0xb5d5de85	-1.5934498e-06
227	0x36ce84f9	6.1547585e-06
228	0x35cd9027	1.5315644e-06
229	0x33f196a5	1.1249839e-07
230	0x37491b51	1.1986894e-05
231	0x3617a21f	2.259512e-06
232	0x35cbb930	1.5178575e-06
233	0xb56c69ed	-8.8070993e-07
234	0x36492d45	2.9977684e-06
235	0x358d0531	1.050683e-06
236	0xb4a82203	-3.1317185e-07
237	0x376de421	1.4179416e-05
238	0xb69e9ee8	-4.727266e-06
239	0x36d53268	6.3537627e-06
240	0xb287c0c6	-1.5803732e-08
241	0x3684a793	3.9534148e-06
242	0xb5aca80b	-1.2863906e-06
243	0x35193a62	5.70819e-07
244	0x378ae1a7	1.655596e-05
245	0x3433fb2d	1.6762051e-07
246	0x356cdf12	8.824146e-07
247	0xb4c2c76d	-3.6280417e-07
248	0x36b24035	5.312288e-06
249	0xb53b2f91	-6.9732147e-07
250	0xb3e98e1f	-1.087576e-07
251	0x378d9008	1.687558e-05
252	0xb682c1f4	-3.896881e-06
253	0x368dcec2	4.2261972e-06
254	0x340a4ca3	1.2880132e-07
255	0x34a6daf8	3.107923e-07
