MLBase/results/ppo/CaptureTheFlag/CaptureTheFlag-3626.onnx (onnx, 130971 bytes, 9 tensors)

discrete_act_size_vector f4 [1, 3]
00000000: 0000 4040 0000 4040 0000 0040
3.0 3.0 2.0

network_body._body_endoder.seq_layers.0.weight f4 [128, 100]
00000000: 6543 2f3c 04ff 833d 1319 a7bd 6502 57bd
00000010: 9c31 abbc 2567 d4bd 7504 74bc 40d7 803d
00000020: 4008 cdba 7bba fd3c cad1 573d 1398 803e
00000030: 1d6b 1cbd cac2 6dbd 34c4 c7bb 86c7 28be
00000040: da7a 8f3c 10e0 f13d ba1d 6b3c 7663 c03d
00000050: 21ff 30bd 9c91 a5bd 31d3 c23d dacd f13d
00000060: 3841 febd 6c7c 2e3e 339d b93d 538d a73d
00000070: 5ec8 84bd 8836 fbba 8c36 02be ab92 0abd
00000080: 26c8 ae3c 070b 06b8 a814 63bc 73db 2b3e
00000090: af9e d43c 208c f0bd 7303 6e3d 7fc0 33be
000000a0: c73f 113d f12e 3fbe 58b2 87be fd49 d6bd
000000b0: 7da9 52bd 87bc ddbc ad79 e8bd 571a b73d
000000c0: 9233 3dbe 9a0d bebc a3aa 23bd 38c5 44bd
000000d0: 93d5 cc3d 52e0 efbd 4924 00bc 2ec6 133d
000000e0: 0e44 c4bb a027 333c e33a 2ebe 2834 463d
000000f0: b692 1d3d faf3 5e3c efaf dcbc 1532 0b3d
00000100: e73c dc3d 9889 bd3d e538 513d 87da d43b
00000110: d96c 013e 307d e9bd 5065 50be dd13 38bd
00000120: 1b4d f0bd 1d24 e3bd a57e 21bb 2b77 0a3e
00000130: 00fb d23d ad2c 93bc 234b 9abc ede0 43bd
00000140: 178a c83d ffb5 fe3d 6f8a aebd b354 073a
00000150: a0df fb3d 5afd e1bd c609 9cbc 58b2 fa3d
00000160: ae2b 943d e3f0 9ebc eb88 163e 0af8 b4bd
00000170: 8098 80be 874d 2bbe bee2 b2bd 3f2c eabc
00000180: 6aac d73d dbea 3e3d 1e0f 093c 1363 9dbd
00000190: 54d4 04bc b387 b2bd a32f 5b3e 0b55 713d
000001a0: 52b7 debd 5725 acbd b7c1 86bd 85e1 14bd
000001b0: 2fc1 c9bd 8588 3abd 447a 303c 6089 843d
000001c0: 7a92 79bd e306 55bc b714 333d cb49 f33c
000001d0: dad1 36bd ed61 b53d 2ff0 9dbb 994c c13d
000001e0: 853d 3c3d 95a2 eebd 9847 10bd 46af c6bd
000001f0: 6f41 4cbd 8d68 44bd b29e 77be 1166 033e
00000200: b3e8 7b3c 4bfb 043c 20ed 0abe 789d 5fbc
00000210: 37b2 11be 37af b9bd 62ac 4f3e 04e7 3fbe
00000220: fb6f 25be a409 1a3d 2ca0 393c 8812 633d
00000230: 32ca 143e 43b8 c6bd 98a7 57be ac24 0ebe
00000240: 979a 173d ebad 35bc ff0d ad3d a461 12be
00000250: 920e ad3d 45fa 48bd f363 543d 9fe0 d73c
00000260: db0b 793c b6fe 213e 5ed0 123c 922e 933d
00000270: d3f1 f439 80c7 27be 6930 0a3e 4f54 a4bb
00000280: ba77 5fbe 2f56 09be 23a4 533e 0412 903d
00000290: 95be 853c cfa5 66be e13c 9f3b e73e 30bc
000002a0: 9a43 eabb 7d99 dbbd 5add a3bc 48d8 b13c
000002b0: b8b3 34be 9b7c 973d d508 b03d 27c1 c83d
000002c0: 7ed0 b7bd 87cd f2bd 77c6 503c 0a45 24bd
000002d0: 56df 86bc fff0 90bd 3312 843d 8ffc 63be
000002e0: 1ede 873d a2ce 71bd 63bc e2bd c54f 9dbc
000002f0: a736 33bd 9f2b cbbc 3210 883e 3fe6 d3bc
00000300: 74cc 8dbd d51c 1abd 4894 4dbd 2bb8 14be
00000310: 5483 17bd e730 e93d e668 0f3e d5fb dbbc
00000320: 1604 213e c76c 7ebe 1d01 b23d 3551 453d
00000330: 7398 a1bd 2547 d33d 7897 01be 27cf 943b
00000340: 497a 9fbd d7dd 06bc 6b43 f7bd 911f 333e
00000350: 8cc6 183d 7498 99bd c98a 22be 5669 063e
00000360: 3f70 c03d ca73 6b3b 5311 c4bd 1bc0 673d
00000370: 179c 093e 6e01 95bd 6b67 7d3d ad1d 32be
00000380: 4b66 533d 0f67 dfb9 efc4 9c3d aa0a cabd
00000390: 5110 22be 2036 f3bc 20b0 2d3e cf1d e7bb
000003a0: 55a3 0abe 52d6 6fbc 601d 643e 1b13 5e3d
000003b0: b369 8cbd 9b9d 49be d6ff b5bd 07eb 843d
000003c0: faa9 0cbe 9c5b 0c3e 17e6 703d 4c29 abbd
000003d0: a821 8c3d 33a7 19be d395 c5bd 6216 203d
000003e0: 7a64 cebd b7fe 953d 7c10 02be ff58 d0bd
000003f0: ab3b 38bd d6da 283e 5685 0c3e d051 6fbe
0.01069722 0.06445125 -0.081590794 -0.052492518 -0.020897679 -0.10371236 -0.014893641 0.06291056
-0.0015642717 0.03097271 0.052690305 0.25116023 -0.03818809 -0.058047093 -0.0060963873 -0.16482362
0.017514635 0.11810315 0.014350349 0.09393971 -0.04321206 -0.080844134 0.09512938 0.11806841
-0.12414783 0.1703965 0.090631865 0.08181252 -0.064835295 -0.0019166032 -0.1271612 -0.03383128
0.021335673 -3.195836e-05 -0.013859905 0.16782932 0.025954572 -0.11745477 0.05810876 -0.175539
0.035461213 -0.1867025 -0.26503253 -0.10463331 -0.051431168 -0.027067436 -0.11351333 0.08940571
-0.18476704 -0.023199845 -0.039957654 -0.048039645 0.100016735 -0.117127076 -0.007821151 0.03607767
-0.005989558 0.01093474 -0.17014651 0.048389584 0.038469993 0.013607973 -0.02693936 0.03398331
0.10753804 0.092547596 0.05107965 0.006495777 0.12639178 -0.11400831 -0.20351148 -0.044940818
-0.11733457 -0.110908724 -0.0024642136 0.13522021 0.10301781 -0.017965639 -0.018834656 -0.047821928
0.097919635 0.12437057 -0.08522498 0.00051624625 0.122985125 -0.11034651 -0.01904763 0.122410476
0.07234894 -0.019401973 0.14700668 -0.08836372 -0.25116348 -0.16728793 -0.08734654 -0.028585551
0.10530932 0.046610694 0.008365421 -0.076849125 -0.008107264 -0.08717289 0.2140489 0.058918994
-0.10874809 -0.084055595 -0.06579917 -0.036347885 -0.098513 -0.04554035 0.010771338 0.06471515
-0.060930707 -0.01300213 0.043720927 0.029698273 -0.044633724 0.088565685 -0.004819892 0.09438438
0.045957107 -0.11652104 -0.035224527 -0.097013995 -0.04986709 -0.04795127 -0.24181631 0.12831904
0.015375304 0.008116554 -0.13567019 -0.013648383 -0.1422814 -0.09066623 0.20280603 -0.18740469
-0.16155998 0.03760685 0.011329692 0.055437595 0.14530256 -0.09703114 -0.21060026 -0.13881177
0.037012663 -0.011088829 0.08449935 -0.1429506 0.08450045 -0.0490668 0.05185313 0.026352225
0.0152005805 0.15819821 0.008960811 0.07186617 0.0004671948 -0.16384697 0.1349503 -0.005014933
-0.21823016 -0.13411783 0.20668082 0.07034686 0.016326228 -0.22524188 0.0048595523 -0.010757185
-0.007149172 -0.10722635 -0.02000301 0.021709576 -0.17646682 0.073968135 0.085954346 0.09802466
-0.089753136 -0.118556075 0.01274263 -0.040104903 -0.016463917 -0.07077216 0.06448784 -0.22264312
0.06634162 -0.05903495 -0.11071088 -0.019203076 -0.043753292 -0.024801074 0.26574856 -0.025866626
-0.06923762 -0.037625153 -0.05019024 -0.1452338 -0.03699048 0.113862805 0.1400486 -0.026853481
0.15724215 -0.24846183 0.086916186 0.04817315 -0.078904055 0.10316304 -0.12655437 0.004541296
-0.07786996 -0.008231602 -0.12073406 0.1749251 0.037298724 -0.07499781 -0.15873255 0.1312612
0.09396409 0.003592717 -0.09573617 0.05657969 0.1343845 -0.07275663 0.061866205 -0.17394133
0.051611226 -0.0004261066 0.076547496 -0.09865315 -0.15826537 -0.029688895 0.16961718 -0.007053114
-0.13538869 -0.0146385 0.2227683 0.05421744 -0.06856098 -0.19689028 -0.088866875 0.064901404
-0.13736716 0.13706821 0.05881318 -0.08357486 0.06842357 -0.15005188 -0.09647717 0.039083846
-0.10077758 0.073239736 -0.12701601 -0.10173225 -0.04497878 0.1648973 0.13722739 -0.23371053

network_body._body_endoder.seq_layers.0.bias f4 [128]
00000000: 0000 0000 0000 0000 0000 0000 0000 0000
00000010: 0000 0000 0000 0000 0000 0000 0000 0000
00000020: 0000 0000 0000 0000 0000 0000 0000 0000
00000030: 0000 0000 0000 0000 0000 0000 0000 0000
00000040: 0000 0000 0000 0000 0000 0000 0000 0000
00000050: 0000 0000 0000 0000 0000 0000 0000 0000
00000060: 0000 0000 0000 0000 0000 0000 0000 0000
00000070: 0000 0000 0000 0000 0000 0000 0000 0000
00000080: 0000 0000 0000 0000 0000 0000 0000 0000
00000090: 0000 0000 0000 0000 0000 0000 0000 0000
000000a0: 0000 0000 0000 0000 0000 0000 0000 0000
000000b0: 0000 0000 0000 0000 0000 0000 0000 0000
000000c0: 0000 0000 0000 0000 0000 0000 0000 0000
000000d0: 0000 0000 0000 0000 0000 0000 0000 0000
000000e0: 0000 0000 0000 0000 0000 0000 0000 0000
000000f0: 0000 0000 0000 0000 0000 0000 0000 0000
00000100: 0000 0000 0000 0000 0000 0000 0000 0000
00000110: 0000 0000 0000 0000 0000 0000 0000 0000
00000120: 0000 0000 0000 0000 0000 0000 0000 0000
00000130: 0000 0000 0000 0000 0000 0000 0000 0000
00000140: 0000 0000 0000 0000 0000 0000 0000 0000
00000150: 0000 0000 0000 0000 0000 0000 0000 0000
00000160: 0000 0000 0000 0000 0000 0000 0000 0000
00000170: 0000 0000 0000 0000 0000 0000 0000 0000
00000180: 0000 0000 0000 0000 0000 0000 0000 0000
00000190: 0000 0000 0000 0000 0000 0000 0000 0000
000001a0: 0000 0000 0000 0000 0000 0000 0000 0000
000001b0: 0000 0000 0000 0000 0000 0000 0000 0000
000001c0: 0000 0000 0000 0000 0000 0000 0000 0000
000001d0: 0000 0000 0000 0000 0000 0000 0000 0000
000001e0: 0000 0000 0000 0000 0000 0000 0000 0000
000001f0: 0000 0000 0000 0000 0000 0000 0000 0000
0.0 0.0 0.0 0.0 0.0 0.0 0.0 0.0
0.0 0.0 0.0 0.0 0.0 0.0 0.0 0.0
0.0 0.0 0.0 0.0 0.0 0.0 0.0 0.0
0.0 0.0 0.0 0.0 0.0 0.0 0.0 0.0
0.0 0.0 0.0 0.0 0.0 0.0 0.0 0.0
0.0 0.0 0.0 0.0 0.0 0.0 0.0 0.0
0.0 0.0 0.0 0.0 0.0 0.0 0.0 0.0
0.0 0.0 0.0 0.0 0.0 0.0 0.0 0.0
0.0 0.0 0.0 0.0 0.0 0.0 0.0 0.0
0.0 0.0 0.0 0.0 0.0 0.0 0.0 0.0
0.0 0.0 0.0 0.0 0.0 0.0 0.0 0.0
0.0 0.0 0.0 0.0 0.0 0.0 0.0 0.0
0.0 0.0 0.0 0.0 0.0 0.0 0.0 0.0
0.0 0.0 0.0 0.0 0.0 0.0 0.0 0.0
0.0 0.0 0.0 0.0 0.0 0.0 0.0 0.0
0.0 0.0 0.0 0.0 0.0 0.0 0.0 0.0

network_body._body_endoder.seq_layers.2.weight f4 [128, 128]
00000000: ad57 8ebd b6fc 723b 0bcf ac3d 8d41 b6bd
00000010: 8ca5 813d 5ce2 68bd 9e65 f43d 2efe 64bd
00000020: 67ce c7bd 1fbe 56bd 11b9 673d de5f 63bd
00000030: 4214 813d 8f08 a2bb c13a f2bd 502f 9fbd
00000040: 7832 cebc d5b8 e53d 0c87 383e d821 e7bd
00000050: f8f8 083e 2611 ab3d fb46 b53d 1982 c9bd
00000060: d46e 96bd 3760 853c 3cb8 35be f841 80bd
00000070: 2bc0 003e b69d 6eba 1322 893c 9365 383d
00000080: 0dbd 5d3c 54ae ebbd b70c 29bd 835d 8fbd
00000090: 1a60 ebbd 5b0e a9bc a9d5 563b 101d 993b
000000a0: aafb 203e e8ef 56ba bbb1 0e3d ce21 11bd
000000b0: fc78 d1bc 5277 403b 32ca 14be 2ac4 bf3d
000000c0: f332 02bd 1207 573d f047 8ebd cec1 463c
000000d0: 429f 2f3d 0dab f8bc 09ed 32be cc0b 453d
000000e0: 098e e63d 08b3 38be 7334 303d f0c0 21be
000000f0: a981 59bd d44c 033c f337 9cbb ed38 4bbd
00000100: d48a 16be 6234 983d b46b 45be aa78 27bd
00000110: c907 363d ec0a 4f3e 97b5 cdbc 402d bcbc
00000120: 4277 5fbc 0fdf 893b 5bd1 9d3d 4d82 ad3d
00000130: dc1c 52bd b6bc e1bc b88e 0f3d df08 1b3e
00000140: 3cae 233d 1a30 d83d b1b7 57bd a422 2abc
00000150: 3e21 fcbd 6a9b 5cbd 3673 2c3e 5666 06be
00000160: b056 c0bc 7124 19be a9e5 0f3e bad1 593d
00000170: 99ce e6bc 837e e13c a2ea ddbc 11b1 e2bb
00000180: cc8d 33bd cc78 94bd b0b9 c5bc 13e2 85bd
00000190: c0f0 b9bc 9a80 c2bd e3a9 97bd 4951 d0bd
000001a0: 8164 e73d b46e 6ebd 277c fabd 2951 14bd
000001b0: 832f ffbd 3a76 603c f9d6 b4bd 949b 473c
000001c0: ea23 3abd 87f6 51bd e9f4 eb3c 57b9 3cbd
000001d0: 3ddf 28bd 0749 e0bb 910f 01be ce24 adbd
000001e0: 288d e3bc 4eea 583b 9223 24bd 0c19 c8bc
000001f0: af99 ca3c d5a3 8abd bbb4 ef3d fd56 033e
00000200: 47d6 96bb 7cf6 bc3d 4894 2d3e 2e99 c13d
00000210: eaa9 533d 40f2 dabc a8a8 8c3d 5f24 b5bd
00000220: cb1d f83d fe97 13bc 411f 0c3d 6564 c53d
00000230: a008 05be 3829 a5bd 5b69 d63c 4746 bdbd
00000240: 896c a7bd 2c32 463c a0cd b13c 7195 01bb
00000250: 796a 453c 6807 fb3d 6f15 f83d 94d9 b9bd
00000260: 165b 8fbb 4590 2abd 476e 573d 6276 0db9
00000270: 2372 323c a638 273b 8c9a bdbd 2f94 113e
00000280: f121 873c 2789 ccbd dc4a 9c3d d981 6fbc
00000290: fd2c 88bd 4ba3 193e 0bec 85bc a401 893d
000002a0: e6c8 0ebd 0dfa b53d 7954 b0bd 5587 86bd
000002b0: aaa7 3e3e b230 8fbd 36b6 c73d 8cd1 b8bd
000002c0: 89e4 313d 540d 49bd b560 b03d fdda c83d
000002d0: c6a0 81bd b550 fa3c eef7 003e 2d7a 2e3e
000002e0: 71d1 81bd ea7e 4a3c 235c 29be ded2 bc3d
000002f0: b4ab 103d fa44 c6bd da5e 1dbd c84c b6bc
00000300: a09e 723d 3d01 3cbd 9eb9 84bd 89c1 45bd
00000310: fb8f f73c 2028 1ebd c011 463d f2a6 aebc
00000320: 2014 f23d 49bd c3bd fc27 b73d 5249 853c
00000330: b2d5 b83c 4cdb 623c b85a 3b3d 276f 243b
00000340: e12f b8bd 26ed 6c3d 3d5c ec3c 24f4 31be
00000350: cc10 023e c7b1 b1bd 52f3 c2bd 0ebc 5bbd
00000360: a3ac 32bd 69da 913d 7b3b 083d ac65 e6bd
00000370: 1c3b 863e febd 693c ec76 063d 8f9d 0fbd
00000380: 745b 0d3e f498 573c 3ecf 393e 7c42 d9bd
00000390: 13bb 0cbe c10e 8fbc bca7 b43d dde8 39bd
000003a0: c555 edbd 159d 703d 7cef 02bd 6a6e 64bd
000003b0: d6d6 5abd 3443 cbbd bf27 2dbd 71a5 0c3c
000003c0: 6606 893b d35e 0e3e 2f02 7e3d a665 c3bd
000003d0: 6b45 acbd ae89 60bd cb31 a6bd 3545 8a3d
000003e0: 45f9 813d 3b12 5d3b c64c 56bc 1a99 2dbe
000003f0: c8b8 8cbc 9d4a b0bb 865c 943d b999 d53d
-0.069503166 0.0037076897 0.08437928 -0.088992216 0.06330404 -0.056856498 0.119334444 -0.055906467
-0.09756165 -0.052427407 0.056572977 -0.055511348 0.06302692 -0.004944868 -0.11827613 -0.07772696
-0.02517055 0.112168945 0.18020266 -0.11285752 0.13376224 0.0835288 0.08851429 -0.09839267
-0.073453575 0.01628123 -0.17746061 -0.062625825 0.12573306 -0.000910248 0.01673988 0.045018744
0.013533843 -0.1150786 -0.04127189 -0.07000258 -0.11492939 -0.020636728 0.003278116 0.004672654
0.15721002 -0.0008199201 0.034837466 -0.03543263 -0.025570385 0.0029367995 -0.14530256 0.09363587
-0.03178687 0.052496977 -0.06947315 0.012131168 0.04287649 -0.030355 -0.17473234 0.048106954
0.1125756 -0.18037045 0.04301877 -0.15796256 -0.05310217 0.008013923 -0.004767412 -0.049614836
-0.14701396 0.07431866 -0.19279367 -0.04088656 0.04444102 0.2021901 -0.025111003 -0.022970796
-0.013639273 0.004207499 0.07705947 0.084721185 -0.051297054 -0.027555805 0.035048217 0.15140103
0.039961085 0.1055605 -0.052665416 -0.0103842355 -0.12311028 -0.053859152 0.16840824 -0.13124976
-0.023478836 -0.14955308 0.14052452 0.053178526 -0.028174685 0.027526146 -0.02708942 -0.0069180806
-0.0438364 -0.07249603 -0.024136394 -0.06537261 -0.022697806 -0.09497185 -0.0740545 -0.10171754
0.112984665 -0.058211043 -0.122307114 -0.036210213 -0.12460234 0.013700062 -0.08830065 0.012183089
-0.045444407 -0.051260497 0.028803306 -0.04607519 -0.04122852 -0.006844643 -0.12603594 -0.084542856
-0.02777727 0.003309864 -0.040072985 -0.024426006 0.024731485 -0.0676953 0.117043935 0.12826152
-0.0046031806 0.09226701 0.16951096 0.09453045 0.051675715 -0.026726842 0.06868106 -0.08844828
0.121150576 -0.009008406 0.034209494 0.09638289 -0.12991571 -0.080645025 0.026173284 -0.0924192
-0.08174998 0.012096923 0.021704495 -0.0019772912 0.012049311 0.12257272 0.12113463 -0.09074703
-0.004374872 -0.041641492 0.052595403 -0.00013490909 0.01089147 0.0025515943 -0.09257993 0.14216684
0.016495677 -0.09987097 0.07631466 -0.01461836 -0.06649206 0.15003698 -0.016347906 0.06689766
-0.03485956 0.08885584 -0.08609862 -0.06568781 0.18618646 -0.0699171 0.09751551 -0.09024343
0.04343084 -0.049084976 0.086121954 0.09807394 -0.06329493 0.030556062 0.12594578 0.17038794
-0.06338776 0.01235936 -0.16539054 0.09219907 0.03532 -0.09681125 -0.038420536 -0.022253409
0.059233308 -0.04589962 -0.06480716 -0.048280273 0.030220022 -0.038612485 0.04835677 -0.02131984
0.11820245 -0.09557588 0.08943173 0.016270313 0.022562835 0.01384623 0.045740813 0.0025090666
-0.08993507 0.05784335 0.028852576 -0.17378289 0.1270172 -0.086764865 -0.09519066 -0.05364614
-0.04362167 0.071217366 0.03325985 -0.11249861 0.26216972 0.014266489 0.032828256 -0.03506237
0.13804418 0.013159025 0.18145463 -0.10608384 -0.13743238 -0.01746309 0.08821055 -0.04538809
-0.11588625 0.058743555 -0.03196667 -0.05576936 -0.05342754 -0.09924927 -0.042274233 0.008584366
0.004181671 0.1390336 0.0620138 -0.09540872 -0.08411678 -0.0548188 -0.08114966 0.067514814
0.063463725 0.003373279 -0.013079828 -0.16952935 -0.017177954 -0.0053799883 0.0724421 0.10429711

action_model._discrete_distribution.branches.0.weight f4 [3, 128]
00000000: 251f 6bbc 1b3b f93b 6d39 4cbc 31c2 393b
00000010: cba4 ca3c fa07 4eba cdc2 903b dd1c 173c
00000020: 3f53 14bb c5c7 643c b883 7abb a0f5 003b
00000030: e81d 53bc efb7 e139 b3fd 6a3c c399 123c
00000040: d301 47bb 8b98 95bb fbab 12bc 9356 013c
00000050: 881e fe3b 7732 ad3b 4d5e edba 2149 29bc
00000060: 07ed 003c 6bdc 363c dfb3 6f3c 92ff 563b
00000070: add8 e9bb 5575 b338 7eb5 c03a 43b7 0b3c
00000080: 9ad8 893c da44 3b3c 3b0b 1cbc 4dbb 1e3c
00000090: 8733 c5ba fd9d e6bb f899 933b 8fd3 8ebc
000000a0: 965e 13ba 9fc0 8b3a bb1c 12bb 9be7 f5bb
000000b0: 6b2d 52bc 0628 a03b 99d9 8d3b 869c a43c
000000c0: afb7 20bc 4c5f 8abb 4f42 503c 42a0 bf3c
000000d0: 3e29 91bb d1d9 4b3c 65fb 943b 52ed 7fbb
000000e0: bbb7 04bb 020e e73b 95d1 f43b 092e 93ba
000000f0: 82f8 1039 b114 a6bb dc59 043c 19eb 1c3c
00000100: 08a9 d53b 6bbd 613b 5f0b f63b 9840 3cbc
00000110: ed53 853a 33f2 26bb 7908 40b9 1146 0bbc
00000120: c65b 053c 1486 18bc da7f 5f3c df57 49bb
00000130: 9fb1 c1b9 553c 74bc e31f 8e3c ac76 14bc
00000140: dfb5 10bb a757 ef3a c8ca bd3b da22 273c
00000150: 44c6 c93b 7047 0b3c 6316 85bc 1dd3 94bc
00000160: 14a2 1fbc 5809 c3bb a34f 55bc 43da 3eba
00000170: 6278 72bc 8efc 29bc c996 83bc 430f 48bb
00000180: 5541 cd3b 7a30 a63a 7f79 8bbb ead2 6c3a
00000190: 8d00 f4ba 0292 8e3b 155c e2bb 43b1 683c
000001a0: 1972 153b 73a2 1dbc 0bbf 993c 9a2c 2a3c
000001b0: d02c ec3a ba5d 93bb 92cc 4cbc 57e5 1cbb
000001c0: 201d f23b d79e 213a 321d ce3b 7af1 62bc
000001d0: d892 d6bb f3a1 d6ba fb0d 6dbb 3109 453c
000001e0: 283e 6abc 6a25 133c 73cf 693c 724a 97bc
000001f0: b7e1 013b 1a4b 1d3c cff7 323c 8e37 89ba
00000200: 7f62 963a 78e2 e7b9 8485 223c 2f37 ec3b
00000210: 902f f0bb 230a 30bb cb05 e23b 6bb8 20bc
00000220: e095 79bb cdf3 353b 57c8 b9bb 9fc3 353c
00000230: 0534 613c 50f9 463c 1b9c 153b 1f59 c4ba
00000240: 956d 753b 3734 08bc aeb1 1ebb 75e3 48bb
00000250: 1ab6 ffba 12b5 1dbc 1b56 cc3b f12e 4c3c
00000260: 1b57 78bc bb79 af3b cff5 993b 5522 ec3b
00000270: 237f 8dba b59a a63b fbf3 a63a b4ef 15bb
00000280: 1738 0e3b bfff 99bb 80a1 10bc 4fe9 e73b
00000290: 5aac 703a 3fcd f93b 8d9f 4dbb 4ff9 14bc
000002a0: ef3c c53b 95c2 d23b d219 e0b9 3796 7d3c
000002b0: 6bb3 4c3b 2f6b 793c 2ae6 7d3c 22c1 2bb9
000002c0: 4f1f e63a e15a a3bb 3d7f c2bb 2122 c3bb
000002d0: a4aa 3bbc 387e 14bb 4abc 63bb dd76 a8bb
000002e0: 9424 353c 7c4b 483c 4530 b93a db8d 2bbc
000002f0: 055c f13c 72b1 193c 8031 973b 8a19 543c
00000300: 0eae 9bbb 1f91 543b 15ba 23bc 07bf 833b
00000310: 18f2 1c3c 95bc 163a 9a9f 1cb9 37a6 6ab9
00000320: c0bd a03c e357 ca3a 1880 213c 12ae cc3b
00000330: 0a38 9bbc cb02 123c 7805 50bb 9df1 6c3c
00000340: f7bb 3fbc c427 b53c f512 903a 127f 23bc
00000350: 9a0f 203b ef70 2e3c 2dd1 06bb 6d88 5e3c
00000360: 7eff a33b f38e b53b 1b78 4a3c c45e 203b
00000370: d0a3 96b9 f535 e33a 6814 5abb 3bbe a43c
00000380: 83c9 383c f369 91bb e71a 8ebc f361 b4ba
00000390: 4879 5ebc 23f3 16bb 77d1 9b3a 41c9 b13c
000003a0: 323a e0ba 67e2 27bc 9eba 1f3b 2f89 a93c
000003b0: b4ad 93bc d51a fab9 7c9a 31ba f32d 5a3c
000003c0: a375 293c 532b 293c e72a 74bc 4727 78b9
000003d0: 334e 1cbb 5f26 b63c b269 d3bb db1c f73b
000003e0: 71c5 babb de98 3c3c 1b3c 50bc 2b7d de39
000003f0: 8dd0 853b 42ef 2dba 4297 743a 2461 9d3c
-0.014350687 0.007605923 -0.012464863 0.0028344507 0.024736783 -0.0007859465 0.0044177533 0.00922319
-0.0022632626 0.013963644 -0.0038225483 0.0019677654 -0.012885548 0.00043052385 0.014342713 0.008947792
-0.0030366078 -0.0045653037 -0.008952136 0.007894176 0.0077551045 0.005285557 -0.0018109769 -0.010332377
0.007869012 0.01116095 0.014630287 0.003280614 -0.0071364255 8.55724e-05 0.0014702526 0.00852758
0.016826916 0.01142999 -0.009524162 0.009688211 -0.0015045264 -0.0070378766 0.0045044385 -0.017434863
-0.00056216994 0.0010662264 -0.0022294957 -0.007504416 -0.012828211 0.0048875837 0.004328918 0.020094167
-0.009809419 -0.004222786 0.012711122 0.023391847 -0.0044299653 0.012442068 0.00454657 -0.0039051366
-0.0020251113 0.0070512304 0.007471273 -0.001122893 0.00013825487 -0.0050683846 0.008078065 0.009577536
0.0065203942 0.0034445177 0.0075086798 -0.01149001 0.0010172107 -0.0025473952 -0.00018313703 -0.008500592
0.008139556 -0.0093093105 0.013641322 -0.0030722541 -0.00036944167 -0.014906962 0.01734919 -0.009061497
-0.002208106 0.0018260375 0.0057919957 0.01020118 0.0061576683 0.008500919 -0.016246026 -0.018167073
-0.009743232 -0.0059520416 -0.013019475 -0.00072804483 -0.014799209 -0.010375155 -0.01606311 -0.0030526675
0.0062638917 0.0012679242 -0.004256427 0.0009034114 -0.0018615887 0.0043509016 -0.0069079497 0.014202419
0.0022803603 -0.00962125 0.018767854 0.01038661 0.0018018726 -0.004497257 -0.012499945 -0.0023940408
0.007388726 0.00061653316 0.0062901014 -0.013851518 -0.006548267 -0.0016375169 -0.0036171663 0.012026117
-0.014297046 0.008981088 0.014270651 -0.018468115 0.0019818374 0.009600425 0.01092334 -0.0010468827
0.0011473446 -0.00044228486 0.009919528 0.007208727 -0.0073298886 -0.002686151 0.006897663 -0.009809594
-0.0038083717 0.0027763725 -0.0056696343 0.011094003 0.013745313 0.012144402 0.0022828642 -0.0014980173
0.003744935 -0.00831323 -0.0024214792 -0.0030653153 -0.0019509227 -0.00962569 0.0062358505 0.012462364
-0.015157486 0.0053550876 0.004698492 0.007206241 -0.0010795336 0.0050843605 0.0012737507 -0.002287847
0.0021700913 -0.0046996768 -0.008827567 0.007077373 0.0009180956 0.007623344 -0.0031375617 -0.009092643
0.0060192267 0.0064318874 -0.00042743847 0.015477709 0.003123487 0.0152233085 0.01549677 -0.00016379778
0.0017556938 -0.004985199 -0.005935578 -0.005954996 -0.011454258 -0.002265824 -0.003474968 -0.0051411227
0.011056084 0.012225028 0.0014128765 -0.010470833 0.029462824 0.009380685 0.004614055 0.012945542
-0.0047509735 0.0032435132 -0.009993096 0.004020575 0.009579204 0.0005750147 -0.00014936776 -0.00022377899
0.01962173 0.0015437569 0.0098572 0.0062463367 -0.01894762 0.008911799 -0.003174154 0.014461902
-0.011702529 0.022113688 0.0010991978 -0.009979026 0.0024423362 0.010647043 -0.0020571456 0.013582331
0.0050048223 0.0055407225 0.012357737 0.0024470547 -0.0002873228 0.0017334806 -0.0033276323 0.02011024
0.011278513 -0.004437679 -0.017346812 -0.0013762101 -0.01357872 -0.0023033104 0.0011887987 0.02170241
-0.0017107187 -0.01024685 0.0024372707 0.020695297 -0.018027164 -0.00047703707 -0.0006775034 0.013316619
0.010342988 0.010325271 -0.014902807 -0.00023665755 -0.0023850321 0.022235094 -0.006451809 0.0075412816
-0.0056998064 0.011511056 -0.012709643 0.00042436397 0.004083699 -0.00066350785 0.00093304005 0.01921136

action_model._discrete_distribution.branches.0.bias f4 [3]
00000000: 0000 0000 0000 0000 0000 0000
0.0 0.0 0.0

action_model._discrete_distribution.branches.1.weight f4 [3, 128]
00000000: e674 973a b01f 353c ba1b 29bc be1d 2d3c
00000010: 1d0b d53b 9d9e d53b c0f2 fdba 8a8d 7039
00000020: 4e25 91b9 e0b2 24bb 4a2a e93b 8ceb 2a3c
00000030: f8e8 ec3b d77d ad3b 3355 843b d3e6 b0bb
00000040: 8754 acbb e5a9 54bc 2b8a 14bc 8fa5 d0bb
00000050: 83e7 43bb c700 64bb a2f7 233b f03a 4d3c
00000060: dcaa 8f3b 55b8 b1bb ea0e 8c3b 841c 243b
00000070: eb1f 3e3b 6b45 593c 4578 a13b 7748 c3bb
00000080: 2f04 8bb9 42b8 09bc 5ae7 fa3b 9a3f 9a3b
00000090: 510d be3a 02f0 d3bb 36d2 a6bb fe2a 2abb
000000a0: ca19 593b df3c fc3a d97a 033c 8a15 283b
000000b0: dcc3 05bc 6c0b 23bc a7b5 6bbb bab8 d8ba
000000c0: e27b 89bc 8285 103b 8750 d4ba 7754 0c3b
000000d0: 23c9 5a3c 4548 d63b 9433 9c3b da4c 60bb
000000e0: 835c a0bc 93a9 0bbc a794 003b a76d 323b
000000f0: f803 ddbb 3795 263a e9ff 08bb d887 e8ba
00000100: 3a11 783c 9f65 2dbb 225b 3dbb 9512 dbb8
00000110: 3b67 24ba aba4 ffbb 098e 1c3c 48f6 05bc
00000120: 968b 433c 1d68 963b 004e ef3b ac78 1abc
00000130: afad d23b 3761 49bc 5db8 1d3c 9b78 9bbb
00000140: a2bc c7bb ccb1 a13b 8fce a5bb cfa0 f63b
00000150: 01b8 0b3c bb73 12bc c25e 613c 9fba 9bbb
00000160: 40e5 6f3c d8e9 91bc d72f 8ebb 45c4 233c
00000170: 37e1 2bbc 8b06 103b c832 293c 79c8 35bb
00000180: e3ed 8dba 5796 bd3a b267 d7bb 43f8 833b
00000190: 356e 923b a9d2 36bc 9189 873c 3169 a43b
000001a0: f01b bcbb c6a5 1f3b 0b8a 883c 0a06 14bc
000001b0: 53c6 003b 2976 89bc 6aac 6ebc a29e 56bb
000001c0: 6ff6 b8bc 23b8 6f3b 05b2 56bc 4372 53bc
000001d0: 7b49 2b3c d573 913b fbdc b8bb 2f09 23bc
000001e0: c25c 5f3c 959d ebbb 8784 b03b 2052 4abc
000001f0: 9f82 21bc 8006 07bc 576c d53b be56 b93b
00000200: 8f88 893b 1ad8 94bc 4c11 a03c 6c42 a1ba
00000210: 4ca5 a1bb afe2 333c bb15 273b 38cb c53c
00000220: 6a16 a63b 3aeb a1bc 2ce1 4a3c 5287 60bc
00000230: 9d06 9e3b 88c4 0bbb cc6d 22bc 209c 79ba
00000240: 65eb de3a 8bc6 a83b dad9 aabc 3ed9 c1bb
00000250: 72db 4e3b 3f41 b0bb efb9 4abb 1a7e 6c3c
00000260: 15ec 1fbc 4f9f 15ba 95f9 68bb bfab db3a
00000270: a23f 993b 847e 8d3c 7663 0b3c e742 323c
00000280: d43c 9f3a d2bd 7f3c ed39 d73b 899e 423c
00000290: b577 3dbb 81e8 063c c7b7 a7bb 0d0d 723c
000002a0: 39d3 39bb dc1f 0c3c c8eb 53bc c53e d9bb
000002b0: ed8b 5abb 4d39 d4bb a37a cbbb d832 55bc
000002c0: d380 463b 756c e8ba 668a 833c 8bc6 85bc
000002d0: 8322 703b c28b 103c cade 693b 4a4c 043c
000002e0: d39d afbb e92d 9e3b d054 a6bb 59d8 923a
000002f0: addb 503c 4bd5 3e3b bd7a 763c b53c 503b
00000300: 230c 04bc 9888 7abb 282f 2d3c eb24 7c3c
00000310: 3bd4 ef3b dd92 dc3b 8a0a 4e39 373c 503c
00000320: 23c9 0c3c e304 b0bb ffc2 193c 81b2 ccbc
00000330: 452c d33b 0a93 d9bb 7d47 d7bb 8040 35bc
00000340: 8363 6f3c 9d81 72b9 9245 cdbb 7f8f 993a
00000350: 5bd4 02bb d7e4 adbb 7302 653a e3a7 05bb
00000360: f3ad 103c 3b64 82bb 2c29 87bc 939d 02bc
00000370: 48b0 6bbb e17e 2d3b 6efe b0bb 278e 30bc
00000380: 4aa5 04bc 1938 053a 47b3 e03b 88bb 1dbc
00000390: 2f1a bb3b e5bd 44bc f33d af3a e3bb 02bc
000003a0: 084c 78b8 1777 52bc 0fec 3b3c b3fb bd3b
000003b0: d912 823b 4f33 4dbc 1d80 5bb8 f82c 38bc
000003c0: 5b7d 9e3b f001 cc3b 528f c63a 529c 52bb
000003d0: b2ae cf3b 8730 0bbc 2f69 063c c3fd 623b
000003e0: 3bbc b1bc 9776 5f3c 2535 05bc 32af 11b9
000003f0: 1752 843b 203e 9c3b ea74 3dbc 42bb e5b9
0.0011555224 0.011054918 -0.010321552 0.010566173 0.006501569 0.0065191523 -0.0019374713 0.00022940911
-0.0002768435 -0.0025131032 0.007115637 0.010432135 0.0072299205 0.0052945423 0.004038477 -0.00539861
-0.0052591 -0.012979959 -0.009066145 -0.0063673924 -0.002989263 -0.0034790502 0.0025019427 0.012526259
0.0043843817 -0.0054235854 0.004274239 0.002504141 0.0029010724 0.013261179 0.0049276673 -0.005959566
-0.00026515263 -0.008405747 0.007656974 0.004707289 0.0014499818 -0.00646782 -0.005090977 -0.0025965567
0.0033126944 0.0019244215 0.008024895 0.0025647604 -0.008164372 -0.009951454 -0.0035966428 -0.0016534545
-0.016782705 0.0022052233 -0.0016198315 0.002141265 0.013353619 0.006539377 0.004766891 -0.0034225495
-0.019575363 -0.008524316 0.0019619854 0.0027226002 -0.006744858 0.0006354632 -0.0020904487 -0.001774068
0.015140826 -0.0026458276 -0.002889343 -0.00010446195 -0.0006271486 -0.0078016124 0.009555348 -0.008176394
0.011935135 0.004590048 0.0073029995 -0.0094281845 0.006429396 -0.012291244 0.009626475 -0.004744602
-0.006095485 0.004934525 -0.005060024 0.007526494 0.008527757 -0.008938725 0.013755502 -0.0047524716
0.01464206 -0.0178117 -0.004339199 0.009995525 -0.010490707 0.0021976556 0.010327049 -0.00277379
-0.0010828342 0.001446436 -0.0065736407 0.004027398 0.004468704 -0.011158624 0.016545089 0.0050174226
-0.005740635 0.0024360283 0.016667387 -0.009034643 0.001964946 -0.016779976 -0.014567474 -0.003274836
-0.022578446 0.003657826 -0.013103967 -0.01290566 0.010454531 0.004438857 -0.0056415773 -0.00995092
0.013632955 -0.007190416 0.0053868922 -0.012348682 -0.009857803 -0.008241296 0.0065131593 0.0056560924
0.0041971873 -0.018169452 0.019539498 -0.001230312 -0.004933035 0.010979339 0.002549513 0.024144754
0.00506859 -0.019765485 0.012382787 -0.013704138 0.0048225657 -0.0021326859 -0.009913873 -0.00095218606
0.0017007409 0.0051506213 -0.020855833 -0.00591579 0.0031563905 -0.0053788717 -0.003093358 0.014434362
-0.009760876 -0.0005707638 -0.0035549153 0.0016759558 0.004676775 0.017272241 0.0085076 0.010880209
0.0012148865 0.0156092215 0.0065681846 0.011878618 -0.0028910462 0.008234144 -0.0051183435 0.014773619
-0.0028354658 0.008552518 -0.012934633 -0.006629797 -0.0033347562 -0.0064765573 -0.006209688 -0.01301261
0.0030289188 -0.0017732518 0.016057204 -0.016330024 0.0036641664 0.008822383 0.003568577 0.008074829
-0.0053593903 0.0048272503 -0.0050760284 0.0011203393 0.012747687 0.0029118832 0.0150439115 0.0031774465
-0.008059534 -0.003822839 0.010570325 0.015389661 0.007319001 0.0067313747 0.00019649617 0.012709669
0.008592877 -0.0053716763 0.00938487 -0.024987461 0.0064444863 -0.006639843 -0.0065698014 -0.011062741
0.014611128 -0.00023127203 -0.006264397 0.0011715739 -0.0019963 -0.005306821 0.00087360217 -0.0020394258
0.008830535 -0.0039792336 -0.016499124 -0.007972139 -0.0035963226 0.002647333 -0.005401424 -0.010776079
-0.008096049 0.00050819066 0.006857309 -0.00962723 0.0057099084 -0.012008165 0.0013369903 -0.007979366
-5.9198617e-05 -0.012845776 0.011469855 0.005797827 0.003969532 -0.01252444 -5.2332984e-05 -0.01124119
0.004836721 0.006225817 0.0015148914 -0.0032136631 0.006337964 -0.008495457 0.008203789 0.0034636117
-0.0216962 0.013639114 -0.008130346 -0.00013893543 0.004038106 0.004768148 -0.011563519 -0.00043817802

action_model._discrete_distribution.branches.2.weight f4 [2, 128]
00000000: a079 cf3b e3f6 b2bc 2890 abb9 8329 2b3b
00000010: c257 ba3b d46b 82bc 52db fd3b 6bee 0539
00000020: 15d3 8dbb 8001 13bb 1175 8cbc baea 1abc
00000030: 766c c33b db1b eabb 503a 8dbc 39a1 c63a
00000040: fa7e ae3a 42ac c0ba 2253 85bc a733 4ebb
00000050: 4f64 4bbc 3a1d 993c adc5 40b9 6287 9a3b
00000060: 8eab 9bbb 2b50 6bbc fb4d 53bb 5ab5 6dbb
00000070: 68d5 60bb aa67 443c 03dc a93c cbb7 103a
00000080: 8e5d 303c 33cc 53bb 7ba4 18bc d509 883c
00000090: 89c5 8fba 30f5 08bc 0d13 52bb 1172 08bc
000000a0: 3778 1bbc 2157 8cbb 7b94 39bc 2bd4 383b
000000b0: 5f6a 513c fd2d 153c 906a 823c b08a 553b
000000c0: 480d e13c f0fa 2fbc fbdd 963c 46e7 35bb
000000d0: 1791 6fbc e16b ca3b 93ef ffba f857 2b3b
000000e0: 6a0f 5fbc e022 f73b 034a 293c d8d3 69bb
000000f0: bd23 64bb 10f8 15bb 3aa2 c23b 544e 08bc
00000100: 77b8 68bc b36b c83b 2ac3 09bc 0baa 0bbc
00000110: fd78 be3b a598 013c 2558 6f3b e3c7 823b
00000120: 23c7 2f3b 72d0 043c 0763 90bb 687b bb3b
00000130: a564 a53b aadb e0bb cb3f f7bb 663c 2cbc
00000140: 27e5 2bbc 43ac 5f3c 40c5 7c3c d691 05bb
00000150: 322c d4bb 9d4f edbb 6320 813c 4c87 ca3a
00000160: a13f 343c 3725 d53b 8d8c 1abc 1ff6 5f3c
00000170: 28e6 42bc 93c2 47b9 bff1 623c ac5b c03b
00000180: 4731 84bc 1abe 70bc b585 053c 9a77 833b
00000190: 1453 1bbb 440b 3ebb 6ce9 3dbc 0f7e c73b
000001a0: 9358 ee3b 7e4b cc3b d9db 263c 5df3 903b
000001b0: dae8 13bc f2ac 2abb 2d0c f33b 7a03 6ab8
000001c0: b1e1 b33a 324a 82bc a1fc ca3b 82e8 eb3b
000001d0: 7fb2 87bb f279 25bc 58c9 0dba 3c1b 173c
000001e0: c704 9d3b 444e 263c eb5f 13bc e33e 063c
000001f0: 3a56 f5bb 47ca 653b 2a74 69bb 3bfa 9fbb
00000200: 7c21 42bc 020e c239 f504 973c 9f82 e8bb
00000210: 8f27 9ebc c39f ae3c 5fd7 653a 856a 7fbc
00000220: a151 b7bb b511 c2bb 677f c9bb 1310 c83b
00000230: e0d5 a63c d33a 9c3b d4d5 14bc a3f2 07ba
00000240: 4deb 8a3b 2512 ae3b bb9e 9a3b 449c c93b
00000250: 3317 98bb 8a60 c0b9 0b3f 0a3a b98d b6bb
00000260: 0039 853b a030 c73a f05b 4f3b 76af b6b9
00000270: 0b7c bebb e297 7d3b 298c 843b f46d 063b
00000280: 78c9 30bc d728 5fbc 0da3 ddbb 97ad cabb
00000290: 471a d5ba 6705 93bb 2533 f4bb d41a a0bb
000002a0: 0fed 563c 2ddd 0fbc 3819 93bb 1f3d 133a
000002b0: fd04 113c 569b b5bb 1411 0cbb 0059 09bb
000002c0: 5748 aabb a50b 183b f59b e2bb 60e7 17bc
000002d0: 23c5 b23c 5301 6fbc 89b6 923c bf44 90bb
000002e0: 00f3 9b39 5074 62bc 3a0b f13b aa4f 303c
000002f0: b72a 173c 0790 5a3c 4799 babb bd4a 683c
00000300: 97b9 3dbb 17a7 a73b 85b7 123c 8359 26bb
00000310: 79de 403c 174d 8e3b 88b8 8c3c 374e debb
00000320: 1227 d13b 0771 c3ba 6ae7 7ebc 1b06 0139
00000330: 0995 053c ab01 7dbc df41 8d3a f7df d23a
00000340: b7ae 1dbb 4332 133c cf81 a2bb 2f2b f33b
00000350: 052d 09bc a3d8 05bc eb75 49bb dfd1 8e3c
00000360: 1234 a5b9 f18c ccbb 5f4c 7c3b 5849 d93b
00000370: d804 fe3b fb56 0c3c 5a70 bf3a 04ac 15bc
00000380: 4d23 7f3c aa4c e23b 8a57 283b c7aa e23a
00000390: c837 67bc 7bd8 33bc dd73 723b 26c9 943b
000003a0: 22fe d1bb 2b4d 803b ed1f b0bc 3ed6 8bba
000003b0: d7e2 eb3a e7be 4a3c 1f0b ddbb 9fb2 51bb
000003c0: 3a4a 7fbb 81c0 c63a 5ad9 6ebc bdeb 0f3c
000003d0: 7a25 74ba 1418 9f3b 8b3f 35bc c5d7 fc3a
000003e0: 6850 c53b 55b3 5e3b ee6a 8a3c 91e9 24bc
000003f0: dcec 383c 9915 263c 1a96 6cbc 1889 853b
0.0063316375 -0.02184624 -0.00032723066 0.0026117272 0.005686731 -0.015920557 0.0077470923 0.00012772686
-0.0043281415 -0.0022431314 -0.017145665 -0.009455377 0.0059638573 -0.007144434 -0.01723972 0.0015154249
0.0013312988 -0.0014699774 -0.016274992 -0.0031463893 -0.012414052 0.018690694 -0.00018384187 0.004715846
-0.0047506755 -0.014362375 -0.0032242525 -0.0036271424 -0.0034306888 0.011987606 0.020734793 0.00055205513
0.010764493 -0.0032317757 -0.009316559 0.01660625 -0.0010968904 -0.0083592385 -0.0032054812 -0.008327977
-0.009489111 -0.0042828475 -0.011326904 0.0028202634 0.0127817085 0.009105203 0.015919954 0.0032583885
0.027472153 -0.0107409805 0.018416395 -0.0027756258 -0.014621994 0.006177411 -0.0019526355 0.0026144963
-0.013614515 0.007541999 0.010332587 -0.0035679247 -0.003481134 -0.0022883452 0.005939749 -0.008319456
-0.014204136 0.0061163544 -0.008408347 -0.008524428 0.005812763 0.007909928 0.0036521044 0.0039911135
0.0026821576 0.008106338 -0.004406336 0.0057214983 0.005047398 -0.0068621235 -0.0075454465 -0.010512447
-0.010491646 0.01365191 0.015427887 -0.0020381114 -0.006474995 -0.0072421567 0.015762514 0.0015451699
0.011001498 0.0065046805 -0.009432924 0.01366952 -0.011895694 -0.00019050603 0.013851582 0.005870303
-0.016136779 -0.014693761 0.008149554 0.0040120604 -0.0023700641 -0.0028998414 -0.011591297 0.0060880254
0.0072737425 0.0062345853 0.010184252 0.0044235424 -0.009027684 -0.0026043025 0.007417223 -5.5793185e-05
0.0013723877 -0.01590452 0.0061946665 0.007199348 -0.0041411514 -0.010099875 -0.00054087257 0.009222802
0.0047918293 0.010150496 -0.008995037 0.008193704 -0.0074870856 0.0035063194 -0.0035622218 -0.0048821247
-0.011848804 0.00037013 0.01843498 -0.0070956494 -0.019305972 0.021316415 0.00087677495 -0.015589361
-0.0055944477 -0.005922521 -0.0061492207 0.006105432 0.020365655 0.0047677546 -0.009084184 -0.0005185997
0.004239476 0.0053122216 0.004718629 0.0061526615 -0.0046414374 -0.0003669302 0.00052736764 -0.005571094
0.004065633 0.0015196986 0.0031640492 -0.00034844474 -0.005813127 0.0038695266 0.0040450287 0.0020512315
-0.010790221 -0.013620577 -0.006763822 -0.0061852443 -0.0016258442 -0.004486728 -0.007452386 -0.0048860107
0.013118043 -0.00878076 -0.0044890903 0.0005616713 0.008851287 -0.005542199 -0.0021372484 -0.002095759
-0.005196612 0.00232003 -0.006915564 -0.009271473 0.021822518 -0.014587718 0.017909305 -0.0044027264
0.00029744953 -0.013821676 0.0073560746 0.010761181 0.009226493 0.013340003 -0.0056945416 0.014177975
-0.0028949731 0.005116354 0.008954887 -0.0025382943 0.011771792 0.004342686 0.017177835 -0.0067842263
0.0063828314 -0.0014911004 -0.015558103 0.00012304673 0.0081532085 -0.015442292 0.0010777077 0.0016088475
-0.0024060437 0.008984151 -0.004959322 0.0074209194 -0.00837255 -0.008169326 -0.003074045 0.017434059
-0.00031510048 -0.0062423875 0.003849767 0.0066310577 0.0077520423 0.00856566 0.0014605627 -0.00913525
0.015572381 0.0069061117 0.0025686943 0.0017293327 -0.01411242 -0.010976906 0.003699533 0.0045405803
-0.006408469 0.003915449 -0.021499598 -0.0010668708 0.0017996681 0.012374616 -0.0067457105 -0.0031997336
-0.0038954155 0.0015163572 -0.014578188 0.008784232 -0.0009313446 0.0048551653 -0.011062513 0.0019290379
0.006021548 0.0033981402 0.016896691 -0.010065452 0.01128694 0.010136985 -0.014440084 0.0040751807

action_model._discrete_distribution.branches.2.bias f4 [2]
00000000: 0000 0000 0000 0000
0.0 0.0
