MLBase/results/ppo/CaptureTheFlag/CaptureTheFlag-9760.pt (torch, 250453 bytes, 16 tensors)

discrete_act_size_vector f4 [1, 3]
0	0x40400000	3.0
1	0x40400000	3.0
2	0x40000000	2.0

network_body._body_endoder.seq_layers.0.weight f4 [128, 100]
0	0xbcd2f28d	-0.025750423
1	0x3d1e60cb	0.038666528
2	0x3d8c2150	0.06842291
3	0x3d38997e	0.045068257
4	0x3d1e6f1e	0.03868019
5	0x3c0376b9	0.008023911
6	0x3c286708	0.010278471
7	0xbd51f9fd	-0.051263798
8	0xbcfeb46f	-0.031091897
9	0x3dfb16a3	0.12260177
10	0xbe6261da	-0.2210764
11	0xbd176437	-0.036960807
12	0x3e034565	0.1281944
13	0x3bb47260	0.0055067986
14	0x3dd5f308	0.10446745
15	0xbd9f1f02	-0.07769586
16	0xbced370f	-0.028956918
17	0x3d9febf7	0.078086786
18	0xbd70186f	-0.05861705
19	0x3dae115e	0.08499406
20	0x3dc2e63e	0.095165715
21	0xbe471024	-0.19439751
22	0xbbb08e63	-0.0053880676
23	0x3e1a29fb	0.15055077
24	0xbcf8e6c3	-0.030383473
25	0x3c6c59a3	0.014425668
26	0x3e19648d	0.14979763
27	0xbbea6acf	-0.007153846
28	0x3d1ac383	0.03778411
29	0x3d61c040	0.055114985
30	0xbd1dadd9	-0.038495872
31	0x3e424c74	0.18974477
32	0xbc8ee278	-0.017441973
33	0xbd14a9fa	-0.036294915
34	0xbd064ac2	-0.03278614
35	0x3c7927d0	0.015207246
36	0xbdfe516a	-0.12417872
37	0xbdec9c12	-0.115532055
38	0x3e072d50	0.13200879
39	0x3db08f3f	0.08621072
40	0xbd54323a	-0.051805712
41	0xbd8c0933	-0.06837692
42	0x3bda7572	0.0066668326
43	0x3d3b29ce	0.045694165
44	0xbd0317a7	-0.03200498
45	0xbe052b3e	-0.13004777
46	0xbdb34bf7	-0.087547235
47	0xbd9a8731	-0.07545317
48	0xbdd5c47f	-0.10437869
49	0xbe6581af	-0.22412752
50	0xbd5e54f2	-0.05428023
51	0xbdc381bb	-0.095462285
52	0xbb9903db	-0.004669649
53	0x3dae1739	0.08500523
54	0xbcb6ac56	-0.022298973
55	0xbe2eafd0	-0.17059255
56	0x3dadd5ee	0.084880695
57	0xbc88e2a7	-0.016709639
58	0x3d307e25	0.04308905
59	0x3db81a15	0.0898935
60	0xbe24ddc4	-0.16100222
61	0x3df4c41b	0.11951467
62	0x3d80f14a	0.06296022
63	0x3dba4d36	0.09096758
64	0xbe4aca11	-0.19803645
65	0x3c0ae7f1	0.008478151
66	0xbe38647c	-0.18007082
67	0x3d2ac570	0.041692197
68	0xbda6e1ed	-0.08148561
69	0x3da73ffd	0.08166502
70	0x3e43d187	0.19122897
71	0x3dd2b05f	0.10287546
72	0x3d37a71b	0.0448371
73	0xbdd041bb	-0.10168787
74	0xbd8b794e	-0.068102464
75	0xbe3eb585	-0.18623932
76	0x3caeacaf	0.021322576
77	0xbc07edf8	-0.008296482
78	0xbd6b13c2	-0.05739189
79	0xbdba1263	-0.09085538
80	0x3d129315	0.0357848
81	0x3dd07115	0.10177819
82	0xbe40d0a3	-0.18829589
83	0x3d8a7f1d	0.06762526
84	0x3e190cbb	0.14946263
85	0x3e0edc1d	0.13951154
86	0x3d4146d3	0.047186684
87	0xbe19bba9	-0.15012993
88	0x3e0210be	0.12701699
89	0x3e067eab	0.13134257
90	0xbdd5d4d0	-0.104409814
91	0x3d4ac8f3	0.049508046
92	0x3e07817b	0.13232987
93	0x3e16f55a	0.14742032
94	0x3cce0365	0.025148103
95	0x3df74c88	0.12075144
96	0xbd83e2fe	-0.0643978
97	0xbe05dc1f	-0.13072251
98	0x3daf6199	0.08563537
99	0x3e0dd1c9	0.13849558
100	0xbdaeb13f	-0.08529901
101	0x3e2ff19c	0.1718201
102	0xbdbcfb8d	-0.09227667
103	0xbdce5eff	-0.10076713
104	0xbd024c1f	-0.031810876
105	0xbccb48cb	-0.024814984
106	0xbc8c9e29	-0.01716526
107	0x3db9197c	0.09038064
108	0xbd0e9fe2	-0.034820445
109	0xbe5e4c23	-0.21708731
110	0xbe0187aa	-0.12649408
111	0x3d6c020f	0.05761915
112	0xbd160c7b	-0.036632996
113	0x3ce124bf	0.027483342
114	0x3d78f670	0.060781896
115	0x3e08fd8f	0.13377975
116	0x3d1d3abb	0.038386088
117	0x3dfed078	0.12442106
118	0xbc61436f	-0.013748988
119	0x3df76abb	0.12080904
120	0xbe1e0ea3	-0.15435271
121	0xbdf8382b	-0.12120088
122	0x3d86a4ef	0.06574427
123	0xbcc09d58	-0.023512527
124	0x3beb0b0b	0.0071729473
125	0xbcaa3056	-0.020775001
126	0x3e10f877	0.14157282
127	0xbe2bfa22	-0.16794637
128	0xbdaa97d9	-0.08329744
129	0x3e01088f	0.12600921
130	0x3d015b12	0.031580992
131	0x399e2787	0.0003016556
132	0xbe19cdcf	-0.15019916
133	0x3b41a638	0.0029548537
134	0x3d8c0032	0.06835975
135	0x3cdb12ef	0.026742427
136	0x3dc803d9	0.09766359
137	0x3c9d14e1	0.019174995
138	0xbd852943	-0.06502011
139	0x3dfc78bd	0.123277165
140	0xbdcf11db	-0.101108275
141	0xbd8aba0d	-0.067737676
142	0xbe0ef087	-0.13958941
143	0x3d943223	0.07236125
144	0x3cca8353	0.024720823
145	0x3df5e5ba	0.120067075
146	0xbc8ee2ae	-0.017442074
147	0x3d2a0e88	0.041517764
148	0x3d5bb09a	0.053635217
149	0xbcba0ec7	-0.022712125
150	0x3c94385c	0.01809328
151	0x3d9df2df	0.077123396
152	0x3cd8c94b	0.026463171
153	0xbe44c82b	-0.19216983
154	0xbd9907d8	-0.07472199
155	0x3dec7582	0.1154585
156	0x3c450d51	0.012027101
157	0x3d0cc0af	0.034363445
158	0x3d3560e1	0.044281844
159	0xbe2064e7	-0.15663491
160	0x3d4648a0	0.048409104
161	0xbcaa1b7c	-0.020765059
162	0xbb54c852	-0.0032468033
163	0x3df7a69a	0.120923236
164	0x3cb0c0b1	0.021576257
165	0xbde81a37	-0.11333125
166	0xbc783a22	-0.015150579
167	0x3d81a82c	0.06330904
168	0xbdb2193f	-0.086962216
169	0xbe629a5a	-0.22129193
170	0xbdc4e5ff	-0.09614181
171	0x3db3cdbc	0.08779475
172	0x3dd0d5b3	0.1019701
173	0x3e83f397	0.25771782
174	0xbd734132	-0.059388347
175	0xbd22fd58	-0.03979239
176	0x3c5375c3	0.012906495
177	0x3e55a78d	0.20864697
178	0xbe1d9a10	-0.15390801
179	0xbe01eb57	-0.12687431
180	0xbd2f9769	-0.042869005
181	0xbc9e33de	-0.019311842
182	0x3e297622	0.1654897
183	0x3e174d72	0.14775637
184	0xbd57f1a3	-0.052720677
185	0xbda80722	-0.082044855
186	0xbdb17aff	-0.08666038
187	0xbdfef2e2	-0.1244867
188	0x3d9d9023	0.076935075
189	0xbd4f0cff	-0.050549503
190	0x3d7ec8ad	0.062203098
191	0xbdffcdad	-0.124904014
192	0xbe009507	-0.1255685
193	0xbdd3c60a	-0.10340507
194	0xbdec3343	-0.11533215
195	0xbafc3c7a	-0.0019244098
196	0xbdf80ad0	-0.12111437
197	0xbd449103	-0.047989856
198	0xbd78e4f8	-0.060765237
199	0xbd9c6b79	-0.07637686
200	0xbdcbc5b8	-0.09949821
201	0xbd32dd2e	-0.043667965
202	0x3e155943	0.14584832
203	0xbd2fe7ef	-0.0429458
204	0x3d929c4f	0.0715872
205	0xbcdc4253	-0.026887095
206	0x3ddba797	0.107253246
207	0xbd5fbbe8	-0.05462256
208	0x3d86e86b	0.06587299
209	0xbca064bd	-0.019579286
210	0x3dc32b33	0.09529724
211	0xbda1a743	-0.07893231
212	0x3cb5f99d	0.022213751
213	0x3e4504dc	0.19240135
214	0x3d2d7c83	0.04235507
215	0xbd9baba3	-0.076010965
216	0xbdf968db	-0.12178203
217	0xbc044553	-0.008073169
218	0xbbe800d0	-0.007080175
219	0xbd579ab8	-0.052637786
220	0xbd03216d	-0.0320143
221	0xbe6cb00a	-0.23114029
222	0x3dba8e4b	0.091091715
223	0x3db18cab	0.086694084
224	0xbd6f9e93	-0.058500838
225	0xbdb6de13	-0.08929076
226	0x3da4ec2c	0.08052859
227	0x3cea7413	0.028619802
228	0x3cbcd3b4	0.023050167
229	0x3d54ef15	0.05198582
230	0x3c95c5b4	0.018282749
231	0xbdc2abf6	-0.09505455
232	0xbcef20f8	-0.029190525
233	0xbb39b1b1	-0.0028334672
234	0xbdcd0325	-0.100103654
235	0xbb4a2bd4	-0.0030848878
236	0xbc8d82c4	-0.017274268
237	0xbcfc4032	-0.03079233
238	0xbe04b098	-0.1295799
239	0x3cd41e00	0.025893211
240	0xbdd190ed	-0.102327205
241	0xbc50675d	-0.012719956
242	0xbd5fae7b	-0.054609757
243	0xbc596b00	-0.01327014
244	0x3d9a1eae	0.07525383
245	0xbdac4230	-0.08411062
246	0x3e07727d	0.13227268
247	0x3da65933	0.08122482
248	0xbcc66fbc	-0.024223201
249	0xbd2a8dbe	-0.041639082
250	0x3d91adeb	0.0711325
251	0x3d98afe5	0.07455424
252	0x3de86768	0.11347848
253	0x3d838b93	0.06423106
254	0xbe4a82ba	-0.1977643
255	0x3df12865	0.11775283

network_body._body_endoder.seq_layers.0.bias f4 [128]
0	0x00000000	0.0
1	0x00000000	0.0
2	0x00000000	0.0
3	0x00000000	0.0
4	0x00000000	0.0
5	0x00000000	0.0
6	0x00000000	0.0
7	0x00000000	0.0
8	0x00000000	0.0
9	0x00000000	0.0
10	0x00000000	0.0
11	0x00000000	0.0
12	0x00000000	0.0
13	0x00000000	0.0
14	0x00000000	0.0
15	0x00000000	0.0
16	0x00000000	0.0
17	0x00000000	0.0
18	0x00000000	0.0
19	0x00000000	0.0
20	0x00000000	0.0
21	0x00000000	0.0
22	0x00000000	0.0
23	0x00000000	0.0
24	0x00000000	0.0
25	0x00000000	0.0
26	0x00000000	0.0
27	0x00000000	0.0
28	0x00000000	0.0
29	0x00000000	0.0
30	0x00000000	0.0
31	0x00000000	0.0
32	0x00000000	0.0
33	0x00000000	0.0
34	0x00000000	0.0
35	0x00000000	0.0
36	0x00000000	0.0
37	0x00000000	0.0
38	0x00000000	0.0
39	0x00000000	0.0
40	0x00000000	0.0
41	0x00000000	0.0
42	0x00000000	0.0
43	0x00000000	0.0
44	0x00000000	0.0
45	0x00000000	0.0
46	0x00000000	0.0
47	0x00000000	0.0
48	0x00000000	0.0
49	0x00000000	0.0
50	0x00000000	0.0
51	0x00000000	0.0
52	0x00000000	0.0
53	0x00000000	0.0
54	0x00000000	0.0
55	0x00000000	0.0
56	0x00000000	0.0
57	0x00000000	0.0
58	0x00000000	0.0
59	0x00000000	0.0
60	0x00000000	0.0
61	0x00000000	0.0
62	0x00000000	0.0
63	0x00000000	0.0
64	0x00000000	0.0
65	0x00000000	0.0
66	0x00000000	0.0
67	0x00000000	0.0
68	0x00000000	0.0
69	0x00000000	0.0
70	0x00000000	0.0
71	0x00000000	0.0
72	0x00000000	0.0
73	0x00000000	0.0
74	0x00000000	0.0
75	0x00000000	0.0
76	0x00000000	0.0
77	0x00000000	0.0
78	0x00000000	0.0
79	0x00000000	0.0
80	0x00000000	0.0
81	0x00000000	0.0
82	0x00000000	0.0
83	0x00000000	0.0
84	0x00000000	0.0
85	0x00000000	0.0
86	0x00000000	0.0
87	0x00000000	0.0
88	0x00000000	0.0
89	0x00000000	0.0
90	0x00000000	0.0
91	0x00000000	0.0
92	0x00000000	0.0
93	0x00000000	0.0
94	0x00000000	0.0
95	0x00000000	0.0
96	0x00000000	0.0
97	0x00000000	0.0
98	0x00000000	0.0
99	0x00000000	0.0
100	0x00000000	0.0
101	0x00000000	0.0
102	0x00000000	0.0
103	0x00000000	0.0
104	0x00000000	0.0
105	0x00000000	0.0
106	0x00000000	0.0
107	0x00000000	0.0
108	0x00000000	0.0
109	0x00000000	0.0
110	0x00000000	0.0
111	0x00000000	0.0
112	0x00000000	0.0
113	0x00000000	0.0
114	0x00000000	0.0
115	0x00000000	0.0
116	0x00000000	0.0
117	0x00000000	0.0
118	0x00000000	0.0
119	0x00000000	0.0
120	0x00000000	0.0
121	0x00000000	0.0
122	0x00000000	0.0
123	0x00000000	0.0
124	0x00000000	0.0
125	0x00000000	0.0
126	0x00000000	0.0
127	0x00000000	0.0

network_body._body_endoder.seq_layers.2.weight f4 [128, 128]
0	0xbd7233a7	-0.05913129
1	0xbe03c580	-0.12868309
2	0x3d3619da	0.044458248
3	0xbd647eb8	-0.05578491
4	0xbbbc38c2	-0.0057440707
5	0x3d6ea5aa	0.05826346
6	0xbc4a20a0	-0.01233688
7	0xbd774597	-0.0603691
8	0x3d84f7d1	0.0649258
9	0x3d42a0dc	0.04751669
10	0xbe0524e8	-0.1300236
11	0xbd4f137e	-0.0505557
12	0x3e0cd77a	0.13754073
13	0xbe42b028	-0.19012511
14	0x3e32cc4b	0.17460744
15	0x3c9ea846	0.019367348
16	0x3c69fdba	0.0142816845
17	0xbe401ced	-0.18761034
18	0x3bbc5eff	0.005748629
19	0xbdd7f6d5	-0.10545126
20	0x3c93dadd	0.018048698
21	0x3d017c6b	0.031612795
22	0xbd8bbc52	-0.068230286
23	0xba8fd062	-0.0010972137
24	0x3da90748	0.08253342
25	0x3d59b4e7	0.053151038
26	0x3c095a21	0.008383305
27	0x3d13130a	0.03590683
28	0xbc6f1b87	-0.014593965
29	0xbdd59d14	-0.10430351
30	0x3df8b3d7	0.12143677
31	0xbc4351fc	-0.011921402
32	0xbd6e219c	-0.05813752
33	0xbd868e79	-0.06570143
34	0xbdd63777	-0.10459798
35	0xbb6d9cdb	-0.0036256823
36	0x3d81d747	0.06339889
37	0x3d1c7fa7	0.038207676
38	0x3e004d8f	0.12529586
39	0xbd5c681d	-0.053810228
40	0xbc2187e8	-0.009859063
41	0x3e4168ff	0.18887709
42	0xbd0d05bf	-0.034429308
43	0xbe20a7c0	-0.15688992
44	0x3cbd679c	0.023120694
45	0x3d8a4626	0.06751661
46	0x3c6acc24	0.0143308975
47	0xbd8c05d4	-0.06837049
48	0x3e257b88	0.16160405
49	0x3d09b7b3	0.033622455
50	0xbdfdf876	-0.12400906
51	0x3d3fef6e	0.046859197
52	0xbe39e9ec	-0.1815564
53	0x3db3d12b	0.0878013
54	0xbd2e1f2f	-0.042510208
55	0x3dfe61c3	0.1242099
56	0x3e260aa0	0.1621499
57	0x3e02efe5	0.12786825
58	0xbda6ed28	-0.08150703
59	0x3de4fe4e	0.11181317
60	0xbd19765d	-0.037466396
61	0x3da340de	0.07971357
62	0x3d5475dd	0.051870216
63	0xbd71ed21	-0.059064034
64	0x3cba73d3	0.022760307
65	0x3dcc51c1	0.09976531
66	0xbd8a9175	-0.06766025
67	0x3cff1abe	0.031140681
68	0x3e27daf1	0.16392113
69	0x3c7dc2a4	0.0154883005
70	0xbe2a015e	-0.16602084
71	0xbdbeb0a7	-0.093110375
72	0x3bc2daa6	0.005946475
73	0x3cab6eb5	0.020926813
74	0xbd0ba143	-0.034089338
75	0xbdf7c519	-0.1209814
76	0xbdbac464	-0.0911949
77	0xbbf952e7	-0.0076087597
78	0x3de428b8	0.11140579
79	0xbdaf0b9b	-0.085471354
80	0x3b3555ff	0.0027669666
81	0xbc906480	-0.017626047
82	0x3df72134	0.1206688
83	0x3cce28c9	0.025165932
84	0xbd731781	-0.059348587
85	0x3da589a3	0.08082893
86	0x3cbc982b	0.023021778
87	0xbcb80304	-0.022462375
88	0x3dda1164	0.10647848
89	0x3d27c0ad	0.040955234
90	0x3d673ab3	0.056452464
91	0x3db8b86c	0.09019551
92	0x3ddfe551	0.109324105
93	0x3bc6644c	0.006054437
94	0xbd8b366e	-0.06797491
95	0x3b023e03	0.0019873388
96	0x3d6bea84	0.0575967
97	0xbd24749d	-0.040150274
98	0x3e14c1e9	0.14527096
99	0xbe0d7eb5	-0.13817866
100	0xbd5deda2	-0.054181702
101	0xbe04e6c5	-0.12978657
102	0xbddea7a4	-0.10871819
103	0x3c875855	0.016521612
104	0xbdc7cdf2	-0.09756078
105	0xbaffe0f6	-0.0019522
106	0xbda15a46	-0.078785464
107	0x3d522350	0.051303208
108	0x3cb31ce5	0.021864364
109	0xbdb719c8	-0.08940464
110	0x3d6411a2	0.05568088
111	0xbd911d3e	-0.07085656
112	0x3e18825e	0.14893481
113	0xbced7dfd	-0.02899074
114	0x3da3e321	0.08002306
115	0xbd8d6d37	-0.06905597
116	0xbd2a2ad9	-0.04154477
117	0x3b814cb3	0.003945911
118	0x3dab3b50	0.08360922
119	0x3d892fc1	0.066985615
120	0xbcb8f55a	-0.02257793
121	0xbddada10	-0.10686123
122	0x3d826fdd	0.063689925
123	0xbce0c5b5	-0.027438024
124	0xbcd89f78	-0.026443228
125	0xbd7a3db1	-0.06109399
126	0x3d303cf4	0.04302688
127	0x3d8c35ac	0.068461746
128	0x3d156fcf	0.036483582
129	0xbdbeb43e	-0.09311722
130	0x3e19e0ab	0.1502711
131	0xbc23b145	-0.009990995
132	0x3decd4eb	0.115640484
133	0xbe6424be	-0.22279641
134	0xbcba86cf	-0.02276936
135	0xbdeb2530	-0.11481702
136	0x3de0ca84	0.10976127
137	0xbdefc01e	-0.11706565
138	0xbde0fda8	-0.10985881
139	0xbc760530	-0.015015885
140	0xbde73310	-0.11289036
141	0x3d7c5b39	0.061610434
142	0x3c7611f2	0.015018927
143	0x3dd9adcb	0.106288515
144	0x3c7e4c2d	0.015521091
145	0x3d1330cb	0.035935204
146	0x3cda5330	0.026650995
147	0x3d661807	0.056175258
148	0x3c8a084c	0.01684966
149	0xbdb9d0c5	-0.09073023
150	0xbd8252c9	-0.06363446
151	0x3de41346	0.111364886
152	0xbcb537a7	-0.022121264
153	0x3dc467d9	0.0959012
154	0xbd96864e	-0.07349835
155	0x3d633670	0.055471838
156	0xbc29018c	-0.01031531
157	0xbe259ef1	-0.16173913
158	0xbd306e12	-0.04307372
159	0x3df9c2c8	0.12195355
160	0x3e063a7f	0.13108252
161	0x3d9276fd	0.071516015
162	0x3d925654	0.07145372
163	0xbd7d3bea	-0.061824717
164	0x3c048e68	0.008090593
165	0x3e19ffcc	0.15038985
166	0x3e3694b7	0.17830168
167	0x3cf8bcff	0.030363558
168	0xbe2c3de8	-0.1682049
169	0x3d91c12a	0.07116921
170	0x3e1c7dd4	0.15282375
171	0x3d043866	0.03228035
172	0x3ca735eb	0.020411452
173	0xbdd48f15	-0.10378853
174	0x3d8f3a10	0.069934964
175	0x3d195711	0.03743655
176	0x3dd5311a	0.10409756
177	0xbb67938e	-0.0035335752
178	0x3dd0fe94	0.10204807
179	0xbcabf3a9	-0.02099021
180	0xb9baa625	-0.00035600472
181	0x3d974a5c	0.0738723
182	0x3dd73568	0.10508233
183	0xbbb7057f	-0.005585372
184	0xbcba07f5	-0.022708872
185	0xbc9037b2	-0.017604683
186	0xbe0e06cb	-0.13869779
187	0x3c7bb95c	0.015364017
188	0x3d7e267c	0.06204842
189	0x3d3bf79b	0.04589043
190	0xbd9edf32	-0.07757415
191	0xbbf07912	-0.0073386515
192	0x3ca8544a	0.020548005
193	0x3d9e04c3	0.07715752
194	0x3d63c827	0.055610802
195	0xbe26040e	-0.16212484
196	0x3b93eb1a	0.0045141103
197	0x3d35acba	0.044354178
198	0x3dbc8174	0.09204379
199	0x3d4a3ca8	0.049374253
200	0xbd19b443	-0.037525427
201	0x3c269eb1	0.010169671
202	0xbe45b38a	-0.1930677
203	0x3c27443b	0.0102091385
204	0xbd8c7863	-0.068588994
205	0x3df3dd52	0.11907448
206	0x3ded21a1	0.1157868
207	0xbdfdc9d2	-0.1239201
208	0x3d49f030	0.049301326
209	0x3d0219e1	0.03176296
210	0x3d66b226	0.05632224
211	0xbd25e8d4	-0.040505245
212	0x3c67e96e	0.014154775
213	0xbdc390fa	-0.095491365
214	0x3dad1c47	0.08452659
215	0xbd82bb6f	-0.06383406
216	0xbd539ec8	-0.051665097
217	0xbc334f24	-0.010944162
218	0x3ce15bd6	0.027509611
219	0x3d875f5a	0.06609984
220	0x3c97fb7c	0.018552534
221	0x3d9b38c5	0.07579187
222	0x3ccaa06a	0.024734695
223	0x3d3d03ea	0.04614631
224	0xbd17e441	-0.037082914
225	0x3e56b13d	0.20966049
226	0x3d7d42aa	0.061831154
227	0xbc61fd4a	-0.013793299
228	0xbd20622f	-0.039156135
229	0xbd454da2	-0.04816974
230	0x3d2bd485	0.04195072
231	0x3d0934cb	0.033497613
232	0x3d1e4f43	0.03864981
233	0x3d842314	0.06452003
234	0x3dc189a5	0.09450082
235	0x3d809cde	0.0627992
236	0x3e15554d	0.14583321
237	0xbcea3923	-0.028591698
238	0xbdd76e72	-0.10519113
239	0xbd65fe63	-0.056150805
240	0x3b19f06b	0.0023489248
241	0xbd60245e	-0.054722182
242	0xbdb45f1b	-0.088072024
243	0x3dba8e47	0.091091685
244	0xbb9fc178	-0.004875358
245	0x3cb75a3c	0.022381894
246	0xbd04f549	-0.032460485
247	0xbc4fde3d	-0.012687263
248	0xbc6722e2	-0.014107438
249	0xbc983018	-0.01857762
250	0xbd6a0fc6	-0.05714395
251	0x3dc8c6db	0.09803554
252	0xbdc3a5bb	-0.09553095
253	0x3d2d1fed	0.042266775
254	0xbddccd78	-0.107813776
255	0x3e3928d6	0.18081984

network_body._body_endoder.seq_layers.2.bias f4 [128]
0	0x00000000	0.0
1	0x00000000	0.0
2	0x00000000	0.0
3	0x00000000	0.0
4	0x00000000	0.0
5	0x00000000	0.0
6	0x00000000	0.0
7	0x00000000	0.0
8	0x00000000	0.0
9	0x00000000	0.0
10	0x00000000	0.0
11	0x00000000	0.0
12	0x00000000	0.0
13	0x00000000	0.0
14	0x00000000	0.0
15	0x00000000	0.0
16	0x00000000	0.0
17	0x00000000	0.0
18	0x00000000	0.0
19	0x00000000	0.0
20	0x00000000	0.0
21	0x00000000	0.0
22	0x00000000	0.0
23	0x00000000	0.0
24	0x00000000	0.0
25	0x00000000	0.0
26	0x00000000	0.0
27	0x00000000	0.0
28	0x00000000	0.0
29	0x00000000	0.0
30	0x00000000	0.0
31	0x00000000	0.0
32	0x00000000	0.0
33	0x00000000	0.0
34	0x00000000	0.0
35	0x00000000	0.0
36	0x00000000	0.0
37	0x00000000	0.0
38	0x00000000	0.0
39	0x00000000	0.0
40	0x00000000	0.0
41	0x00000000	0.0
42	0x00000000	0.0
43	0x00000000	0.0
44	0x00000000	0.0
45	0x00000000	0.0
46	0x00000000	0.0
47	0x00000000	0.0
48	0x00000000	0.0
49	0x00000000	0.0
50	0x00000000	0.0
51	0x00000000	0.0
52	0x00000000	0.0
53	0x00000000	0.0
54	0x00000000	0.0
55	0x00000000	0.0
56	0x00000000	0.0
57	0x00000000	0.0
58	0x00000000	0.0
59	0x00000000	0.0
60	0x00000000	0.0
61	0x00000000	0.0
62	0x00000000	0.0
63	0x00000000	0.0
64	0x00000000	0.0
65	0x00000000	0.0
66	0x00000000	0.0
67	0x00000000	0.0
68	0x00000000	0.0
69	0x00000000	0.0
70	0x00000000	0.0
71	0x00000000	0.0
72	0x00000000	0.0
73	0x00000000	0.0
74	0x00000000	0.0
75	0x00000000	0.0
76	0x00000000	0.0
77	0x00000000	0.0
78	0x00000000	0.0
79	0x00000000	0.0
80	0x00000000	0.0
81	0x00000000	0.0
82	0x00000000	0.0
83	0x00000000	0.0
84	0x00000000	0.0
85	0x00000000	0.0
86	0x00000000	0.0
87	0x00000000	0.0
88	0x00000000	0.0
89	0x00000000	0.0
90	0x00000000	0.0
91	0x00000000	0.0
92	0x00000000	0.0
93	0x00000000	0.0
94	0x00000000	0.0
95	0x00000000	0.0
96	0x00000000	0.0
97	0x00000000	0.0
98	0x00000000	0.0
99	0x00000000	0.0
100	0x00000000	0.0
101	0x00000000	0.0
102	0x00000000	0.0
103	0x00000000	0.0
104	0x00000000	0.0
105	0x00000000	0.0
106	0x00000000	0.0
107	0x00000000	0.0
108	0x00000000	0.0
109	0x00000000	0.0
110	0x00000000	0.0
111	0x00000000	0.0
112	0x00000000	0.0
113	0x00000000	0.0
114	0x00000000	0.0
115	0x00000000	0.0
116	0x00000000	0.0
117	0x00000000	0.0
118	0x00000000	0.0
119	0x00000000	0.0
120	0x00000000	0.0
121	0x00000000	0.0
122	0x00000000	0.0
123	0x00000000	0.0
124	0x00000000	0.0
125	0x00000000	0.0
126	0x00000000	0.0
127	0x00000000	0.0

action_model._discrete_distribution.branches.0.weight f4 [3, 128]
0	0x3bc08074	0.005874688
1	0xbc28f001	-0.010311128
2	0xbafc4a9d	-0.0019248311
3	0xbc3706c6	-0.0111710485
4	0xbb99d94e	-0.004695094
5	0x3ac2aaa2	0.0014851878
6	0xbc248583	-0.010041597
7	0x3bc2a0fb	0.0059396005
8	0x3a93ff59	0.001129131
9	0x3bc73b5c	0.0060800742
10	0xba71ecdb	-0.00092287146
11	0xba87b9bc	-0.0010355036
12	0xba4f360f	-0.00079044787
13	0x3bbbc2e5	0.0057300203
14	0xbad38195	-0.0016136641
15	0xbc2e8f97	-0.010654352
16	0x3bfd2d3b	0.007726339
17	0xbbe16ddb	-0.006879551
18	0x3c06b85b	0.008222665
19	0x3be7ec92	0.007077762
20	0xbb88c0db	-0.004173381
21	0xbb75a9c0	-0.0037485212
22	0x3bb368e1	0.005475149
23	0x3c15a92b	0.009134571
24	0xbc9947e6	-0.018711042
25	0x3b4ccc85	0.0031249833
26	0x3b3b2cb8	0.002856059
27	0xbc3eaabd	-0.011637387
28	0x3bfac675	0.0076530525
29	0xbbc36329	-0.0059627485
30	0x393d07df	0.00018027377
31	0xbbe50893	-0.0069895475
32	0xbbccf547	-0.0062548253
33	0x3b827843	0.0039816215
34	0x3c1ddc4c	0.009635042
35	0x3c1828ce	0.009287072
36	0x3c04da64	0.008108709
37	0xbca8da87	-0.020612014
38	0xbb3b3d47	-0.002857046
39	0xbc1e076c	-0.009645324
40	0x39f87d72	0.0004739571
41	0x3b15255b	0.0022757861
42	0x3bb664ca	0.005566214
43	0xbb9aa622	-0.0047195116
44	0xb9a3550b	-0.00031153145
45	0xbc9e2ae0	-0.019307554
46	0x3c07d457	0.008290372
47	0xbc9b82c5	-0.018983254
48	0x3bba0ce6	0.005677807
49	0xbae77907	-0.001765997
50	0xb9bc9479	-0.00035968775
51	0xbc2d0da2	-0.010562332
52	0xbca34d17	-0.01993422
53	0xbc1d566b	-0.009603123
54	0xbb4a1fd1	-0.0030841718
55	0x3a308f3f	0.00067352125
56	0xbbf420a8	-0.007450182
57	0x3b568e6a	0.0032738694
58	0xbb95302c	-0.0045528617
59	0xba9b5f9f	-0.0011854059
60	0x3bac6517	0.0052610743
61	0xbb253843	-0.0025210537
62	0x3b485157	0.003056606
63	0x3bc8173c	0.0061062854
64	0x3c6d6295	0.014488836
65	0xbb84a266	-0.0040476797
66	0x3b85f113	0.004087576
67	0x3bd5b8c8	0.006522272
68	0xbb82352e	-0.0039736247
69	0x3c07848f	0.0082713505
70	0xbb048625	-0.0020221558
71	0x3cb93d1e	0.02261215
72	0xbb5547f5	-0.003254411
73	0xbaac3fdf	-0.0013141594
74	0xbb591cc0	-0.0033128709
75	0xbbe3449a	-0.006935668
76	0x3c89494b	0.016758582
77	0x3b68e5c8	0.003553735
78	0x3c2f40b0	0.010696575
79	0x3c83fea9	0.016112642
80	0xb9176a98	-0.00014440191
81	0x3bf6e04a	0.0075340616
82	0x3b6703ca	0.0035250061
83	0xbc02ff23	-0.0079954
84	0xbc0573bd	-0.00814527
85	0xbc80e08b	-0.01573207
86	0xbbb128d9	-0.0054064807
87	0xbbd23c82	-0.0064159045
88	0xbb2a0aa6	-0.0025946288
89	0xbb4dd985	-0.003141017
90	0x3a9d0dbc	0.0011982243
91	0xbbae8e59	-0.0053270278
92	0x3bdc2b9f	0.006719067
93	0x3c0f317b	0.008739824
94	0xbba90339	-0.005157855
95	0xbc2877df	-0.010282486
96	0xbb880877	-0.0041513997
97	0x3c22fb3d	0.009947595
98	0xbadbbaca	-0.0016764042
99	0xba5b0cd8	-0.0008356101
100	0x3a0f99c6	0.0005477931
101	0x3bfab043	0.0076504066
102	0x3acb0022	0.001548771
103	0xbb83a90d	-0.004017955
104	0xb9a19c18	-0.00030824612
105	0x39213bfe	0.00015376505
106	0x3a8385b0	0.0010034349
107	0xbc57a3fd	-0.013161656
108	0xbba3bf78	-0.00499719
109	0xbc6a1c7d	-0.014289019
110	0x3c13755b	0.009000148
111	0xbc4c25be	-0.01246017
112	0xbbef7458	-0.0073075704
113	0x3b808efe	0.003923296
114	0x3c05305c	0.008129206
115	0xbb780633	-0.0037845492
116	0xbb82fb68	-0.003997255
117	0xbb41929d	-0.0029536851
118	0x3b149a53	0.0022674992
119	0x3b77c575	0.0037806903
120	0x3b4e29d8	0.0031458046
121	0x3c15b817	0.009138129
122	0x3c098003	0.008392337
123	0xbb3837bf	-0.00281094
124	0x3a880197	0.001037645
125	0xbc625065	-0.013813113
126	0xbc724c1f	-0.0147886565
127	0xbb23ebdb	-0.0025012407
128	0x3c3c56c4	0.011495296
129	0xbc7b9c95	-0.015357156
130	0x3b5c7f1a	0.0033645094
131	0xb8ab9f4f	-8.183589e-05
132	0xb7944850	-1.7676648e-05
133	0xbb7de0a2	-0.0038738628
134	0xbab0b00f	-0.0013480204
135	0xbca3cdcf	-0.019995598
136	0x3b846feb	0.004041662
137	0xbc7f7753	-0.015592414
138	0xb9fe591b	-0.00048513044
139	0xbab8047a	-0.001403942
140	0xbb5f01eb	-0.0034028243
141	0xba838dbb	-0.0010036746
142	0x3a9a99d3	0.0011795111
143	0x3c01a457	0.007912717
144	0xbc2c0b60	-0.010500759
145	0x3a7b2e1a	0.000958176
146	0xbc20ec7a	-0.009822005
147	0x3aae4c5f	0.0013297907
148	0x3bc4f289	0.0060103578
149	0x3bdc74a0	0.00672777
150	0xbb901903	-0.004397513
151	0x3a2f8a49	0.00066963263
152	0xbc0f5dd0	-0.008750394
153	0x3b55c0c0	0.0032616109
154	0x3b76bc60	0.0037648901
155	0xba941753	-0.0011298455
156	0x3ace42d7	0.0015736473
157	0x383cd20d	4.5018318e-05
158	0xbb90fa44	-0.0044243652
159	0xbb5582a7	-0.0032579096
160	0xbb95332d	-0.00455322
161	0x3b8d5167	0.0043126824
162	0xbc7d8c40	-0.015475333
163	0xbbbeca97	-0.0058224904
164	0xba13bc0e	-0.00056356273
165	0x3b092d56	0.0020931563
166	0xbb9f2dac	-0.0048577394
167	0xbc6782e8	-0.014130332
168	0xbaf9928f	-0.001904087
169	0x3bfa9b20	0.007647887
170	0x3c226d48	0.00991375
171	0x3b8eac89	0.004354064
172	0x3be32f1f	0.0069331075
173	0x3b81aa4d	0.003957069
174	0xbc1d48fb	-0.009599919
175	0x3b88f72c	0.004179856
176	0x3c95dd44	0.018293984
177	0x3bc5aab0	0.0060323104
178	0xbbc09828	-0.0058775134
179	0x3bbae8c1	0.005704016
180	0xbc54e110	-0.012993112
181	0xbb561d23	-0.0032671175
182	0xbc04d2db	-0.0081069125
183	0xbae9c470	-0.0017835032
184	0xbc205be3	-0.0097875325
185	0x3c0bb405	0.008526807
186	0xbb9eda6b	-0.004847815
187	0xbbddf130	-0.0067731366
188	0x3bd3846f	0.0064549963
189	0xba1060e3	-0.00055076013
190	0xbc9db1af	-0.019249765
191	0x3c1d84a9	0.009614148
192	0x399d7220	0.00030030403
193	0xbbfed588	-0.0077769198
194	0x3a1500cf	0.00056840194
195	0x3b10f5ff	0.0022119281
196	0xbb302e0e	-0.002688292
197	0x3c1c41b7	0.009537152
198	0x3c4f8cc0	0.012667835
199	0x39ae0b83	0.00033196443
200	0xbc336471	-0.01094924
201	0xbb88d8e7	-0.0041762474
202	0x3bca0413	0.0061650365
203	0xbb889850	-0.0041685477
204	0x3a71cfab	0.00092243653
205	0xbb95ce0a	-0.004571681
206	0xbbf2c835	-0.0074091204
207	0x3ab9013b	0.0014114747
208	0xbc3bd98e	-0.011465443
209	0xbca4a7bc	-0.020099513
210	0xbc13a6d5	-0.009011944
211	0xbbc800ae	-0.0061035967
212	0x3c14ab61	0.009074063
213	0x3ac8b057	0.0015311342
214	0x3b994d49	0.0046784026
215	0xbbcd2e8d	-0.006261653
216	0xbc839455	-0.016061941
217	0xbae67a92	-0.0017584136
218	0x3c12be33	0.00895648
219	0xbbca53eb	-0.0061745546
220	0xba956a8a	-0.0011399549
221	0x3bff2ddf	0.0077874507
222	0x3b0cc73c	0.0021481058
223	0xbb972a35	-0.0046131858
224	0x3bf8b337	0.0075897234
225	0xbbd973e8	-0.0066361316
226	0x3a33ba8b	0.0006856105
227	0x3b7d21c5	0.0038624865
228	0xbb5f91d3	-0.0034114018
229	0x3c116f00	0.008876562
230	0x3b331d57	0.002733072
231	0xbb995ba8	-0.0046801157
232	0xbb652905	-0.0034967076
233	0x3b80841f	0.003922
234	0x3c81f535	0.015863994
235	0xbc36454d	-0.011124921
236	0xbba34c61	-0.0049834703
237	0xba8d06ff	-0.0010759531
238	0x3b1afdd3	0.0023649826
239	0xbb4cda00	-0.0031257868
240	0xbb264dcb	-0.0025375958
241	0x3b7ededd	0.003889016
242	0xbb49a800	-0.0030770302
243	0xbbf8911b	-0.0075856573
244	0xbc96618f	-0.018357066
245	0xbc78b0b5	-0.015178849
246	0x3be7538d	0.0070595206
247	0xbc3900ab	-0.011291663
248	0x3ba6578c	0.0050763544
249	0xbb47ea7d	-0.0030504756
250	0x3b527433	0.0032112717
251	0xbbb7caa1	-0.005608872
252	0xbbee615f	-0.007274791
253	0x3cb17a95	0.021664897
254	0x3ca5a81b	0.02022176
255	0x3b7ed23a	0.003888263

action_model._discrete_distribution.branches.0.bias f4 [3]
0	0x00000000	0.0
1	0x00000000	0.0
2	0x00000000	0.0

action_model._discrete_distribution.branches.1.weight f4 [3, 128]
0	0xbc48493f	-0.0122244945
1	0xbbd1e4e3	-0.0064054593
2	0xbc0a72bc	-0.008450206
3	0x3c40d89e	0.011770396
4	0xbc02c1f3	-0.007980811
5	0x3bcdec6d	0.0062842877
6	0x3a2921ac	0.0006451856
7	0xbc801ba9	-0.01563819
8	0xbc14d9ce	-0.009085132
9	0xba27cfe4	-0.00064015226
10	0x3bb6f082	0.00558287
11	0x3c20bb60	0.009810299
12	0x3b528933	0.0032125234
13	0xbba60273	-0.00506621
14	0x3cb36e17	0.02190308
15	0xbca11c0b	-0.019666692
16	0x3beb7030	0.0071850047
17	0xbcb7955b	-0.022410085
18	0x3c1754d2	0.009236531
19	0xbb843297	-0.004034351
20	0x3bc113e7	0.005892265
21	0xbc08b33b	-0.008343513
22	0xbbf99995	-0.0076171854
23	0xbc84021f	-0.016114293
24	0x3c046b65	0.0080822455
25	0x3c00d510	0.007863298
26	0xbc4d57ab	-0.012533109
27	0xbc834634	-0.016024686
28	0x3b25e270	0.002531197
29	0xbb419321	-0.0029537159
30	0x3bd89f3f	0.0066107805
31	0x3b828567	0.003983188
32	0xbc2dc5f6	-0.01060628
33	0xbbd23885	-0.006415429
34	0x3b8915bf	0.0041835005
35	0x3b8326fc	0.00400245
36	0xbb218e73	-0.0024651557
37	0x3ad02a10	0.0015881676
38	0x3bec370a	0.0072087096
39	0x3b63eacf	0.0034777408
40	0x3c9e7fa0	0.019347966
41	0x3abfba98	0.0014627753
42	0xbb903b15	-0.0044015744
43	0xbb07f59f	-0.0020745767
44	0x3ba92c26	0.0051627336
45	0xbc709f98	-0.014686488
46	0x3bfa49dd	0.0076381997
47	0x3b755988	0.0037437398
48	0x3c07f2bb	0.008297618
49	0x3aed081d	0.0018084083
50	0x3a8a58ca	0.0010555026
51	0xbc894590	-0.016756803
52	0x3c7dd2f0	0.015492186
53	0x39da9583	0.00041691595
54	0x3a630e8b	0.000866153
55	0xbb9f9d68	-0.004871059
56	0x3bd263bb	0.00642058
57	0x3b896df7	0.004194017
58	0x3adfefa2	0.0017084966
59	0x3bdb9332	0.0067008967
60	0xbc488beb	-0.01224039
61	0x3c913f07	0.01773025
62	0xbbe5aa9a	-0.0070088627
63	0x3c0fd57b	0.008778925
64	0xb836e059	-4.360112e-05
65	0x3af32a6a	0.0018552069
66	0x3c645f37	0.013938717
67	0x3c0278c7	0.007963366
68	0x3c607df3	0.013701904
69	0x3b86de8c	0.004115885
70	0xbaedbe6a	-0.0018138413
71	0xbc0d8233	-0.008636999
72	0x3bef9968	0.0073119886
73	0x3ba1bc9c	0.004935814
74	0xbbf4ed50	-0.007474579
75	0x39030e6c	0.00012498506
76	0xbc870adc	-0.01648467
77	0xba4154a2	-0.0007374977
78	0xbb689acf	-0.0035492664
79	0xbbd65ba5	-0.0065416866
80	0x38412db9	4.605737e-05
81	0xbba5407c	-0.0050430875
82	0x3aa7fd1d	0.0012816523
83	0xbbb72b85	-0.0055899047
84	0x3bad4f08	0.0052889623
85	0x3b7459af	0.00372849
86	0x3ba66ffb	0.005079267
87	0xbbdb6cff	-0.006696343
88	0xbc2d1f23	-0.010566506
89	0x3aab0354	0.0013047257
90	0x3b55584f	0.0032553857
91	0x3b86af3e	0.004110246
92	0x3ae9b4c2	0.0017830359
93	0x3c7c6702	0.015405418
94	0xbcfc87c5	-0.030826459
95	0x3c7552cf	0.014973356
96	0xbc886d8e	-0.016653802
97	0x3b626088	0.00345424
98	0x3af8915d	0.001896422
99	0x3b8a4db4	0.0042206887
100	0x3b266d65	0.0025394794
101	0x3900d14c	0.00012285
102	0x3adaf6a2	0.0016705582
103	0x3bbb16f4	0.0057095233
104	0xbc48dde7	-0.012259937
105	0xbc140031	-0.009033249
106	0xbc1418c8	-0.009039111
107	0x3abd273a	0.0014431246
108	0xbc654aad	-0.013994855
109	0x3b5efbf8	0.0034024697
110	0xb81ca20d	-3.734422e-05
111	0xbc103623	-0.00880197
112	0x3c3343d5	0.010941465
113	0xbb3fe7eb	-0.002928252
114	0xbc23acd2	-0.009989934
115	0x3b90a209	0.0044138473
116	0xbbba51f9	-0.0056860414
117	0xbb64c5aa	-0.0034907856
118	0x3ba540c4	0.005043121
119	0x3c5cab1b	0.013468529
120	0x3c21b0bc	0.009868797
121	0xbac15779	-0.00147508
122	0xbb98a57e	-0.0046584
123	0xbb87b4e0	-0.004141435
124	0xbc1df015	-0.00963976
125	0xbbfd371a	-0.007727516
126	0x3c803123	0.01564843
127	0xbb2e620e	-0.0026608738
128	0x3c200204	0.009766106
129	0x3b5d297f	0.0033746657
130	0x3a4199dc	0.00073852926
131	0xbaac790a	-0.0013158631
132	0xba2e1927	-0.0006641321
133	0xbbfd1e7a	-0.0077245804
134	0xbc233894	-0.00996222
135	0x3b9992fe	0.0046867123
136	0x3c10e800	0.008844376
137	0xbb475b73	-0.0030419498
138	0xbbdda433	-0.006763959
139	0x3bb32c54	0.005467931
140	0x3b4c23d3	0.0031149283
141	0xbcd4e577	-0.025988324
142	0xbb9bd254	-0.0047552977
143	0x3b534718	0.003223842
144	0xb946b1c3	-0.00018948973
145	0xbc0998c8	-0.008398242
146	0xba8e4185	-0.0010853267
147	0x395b85bf	0.00020935292
148	0x3c21792d	0.009855551
149	0x3afd081d	0.0019304786
150	0xb9e3030b	-0.0004329908
151	0x389566ba	7.124008e-05
152	0x3c88829b	0.01666384
153	0xbbfad15d	-0.0076543526
154	0xbb4555f2	-0.0030111042
155	0x3c1f54d0	0.009724811
156	0x3c42de57	0.01189383
157	0x3be1882b	0.0068826876
158	0xbb2ba202	-0.0026189093
159	0xba174f01	-0.00057719654
160	0xbb79a9f5	-0.0038095687
161	0x3babeaff	0.0052465196
162	0x3bae164d	0.005312717
163	0xbb84b857	-0.0040502953
164	0x3986ddd3	0.00025723744
165	0x3b8a09f2	0.0042126114
166	0x3c41d777	0.011831156
167	0xba1b4197	-0.00059225544
168	0xbae20373	-0.001724346
169	0x3ac15c73	0.0014752283
170	0xbc233207	-0.009960658
171	0xbbbebbd7	-0.005820732
172	0x3bb43c1f	0.005500331
173	0xbb929d6d	-0.004474333
174	0xbb7c6e23	-0.0038517795
175	0xbbf3f43d	-0.007444887
176	0x38be6ffd	9.0807654e-05
177	0xbb932efd	-0.0044916854
178	0xbb7a5d80	-0.0038202703
179	0xbc14ca3b	-0.009081419
180	0xbbbf79f9	-0.0058433977
181	0xbc372fa0	-0.011180788
182	0xbc35dddb	-0.011100258
183	0xbbc04d7a	-0.005868611
184	0x3c3fb388	0.011700518
185	0x3bfd13bd	0.0077233003
186	0xbc839a5e	-0.016064819
187	0x3c33c78a	0.010972867
188	0xbbed28e7	-0.007237542
189	0x3c38f528	0.011288919
190	0xbbac4d6f	-0.0052582542
191	0x3c793ed3	0.015212732
192	0x3bb0b9c7	0.00539324
193	0x3a546710	0.0008102516
194	0x3a63bd68	0.00086875865
195	0xbc32cb56	-0.010912737
196	0xbc374125	-0.011184965
197	0x3c0e62af	0.00869052
198	0xbc36fd20	-0.011168748
199	0x3b9c47a9	0.0047692847
200	0xbb1602e5	-0.002288991
201	0x3c3505fd	0.011048791
202	0x3bcf1b78	0.006320413
203	0xbc0c6eae	-0.00857131
204	0x3c918c2d	0.017767036
205	0x3c42d9d6	0.011892756
206	0x3c04b4dd	0.008099762
207	0xbaa91c5a	-0.0012902126
208	0xbc0197fd	-0.007909772
209	0x3c0e40ca	0.008682439
210	0x3be87c55	0.0070948997
211	0x3bce4d9a	0.006295872
212	0x3c29cc1e	0.010363607
213	0x3bb37bb0	0.005477391
214	0x3bbec1b4	0.005821431
215	0xbbb68c20	-0.0055709034
216	0x3a9248a4	0.0011160565
217	0xbc236d4f	-0.009974792
218	0xbc2b411a	-0.010452533
219	0x3bb1af00	0.005422473
220	0xbb4bbca0	-0.003108777
221	0x3ad12370	0.0015955996
222	0x3ab214ca	0.0013586518
223	0x3bae04c4	0.0053106267
224	0x3b5437ea	0.003238196
225	0x3c406159	0.0117419595
226	0x3c252dab	0.010081689
227	0x3bfa7e7b	0.007644472
228	0xbbc442d7	-0.0059894132
229	0xba2e0c3c	-0.00066393963
230	0x3b188393	0.0023271784
231	0xb96a724f	-0.00022358562
232	0x3b70ccef	0.0036743244
233	0x3c73530a	0.014851341
234	0xbc1b542f	-0.00948052
235	0x3c41c3d0	0.0118264705
236	0xbc919a0f	-0.017773656
237	0x3bba71e3	0.005689846
238	0x3c4d8de8	0.01254604
239	0xbb709083	-0.003670723
240	0x3c2e4e53	0.010638791
241	0xbb45b369	-0.0030166751
242	0xbc2c10bf	-0.010502039
243	0xbc8e0395	-0.017335692
244	0x3c6027ea	0.013681391
245	0x3ae264f2	0.0017272516
246	0xbc861839	-0.016368972
247	0x3985e7f3	0.00025540552
248	0xbab0647f	-0.0013457685
249	0x3c39f229	0.011349239
250	0x3c361e87	0.011115677
251	0xbb82f433	-0.003996396
252	0x3b43beef	0.0029868444
253	0x3c3b38ab	0.011427085
254	0xbb8724b7	-0.00412425
255	0x3beedce3	0.0072895153

action_model._discrete_distribution.branches.1.bias f4 [3]
0	0x00000000	0.0
1	0x00000000	0.0
2	0x00000000	0.0

action_model._discrete_distribution.branches.2.weight f4 [2, 128]
0	0xbba7bd43	-0.0051189973
1	0xba9ed93b	-0.0012119183
2	0x3ba02189	0.00488681
3	0xbbcb5125	-0.0062047415
4	0x3baee815	0.005337725
5	0xbc296f67	-0.010341502
6	0xbb08191f	-0.0020766926
7	0xbc81b2a3	-0.015832251
8	0xbbbd891a	-0.005784166
9	0xbc83b4a2	-0.016077343
10	0x3bef1fd5	0.007297496
11	0xbbea2483	-0.007145466
12	0x3b074fc8	0.0020646919
13	0x3972091a	0.00023082309
14	0x3c1656b9	0.00917595
15	0xba30d739	-0.0006745938
16	0x3be1ec6f	0.00689464
17	0x3c853046	0.01625837
18	0xbc9462a3	-0.01811344
19	0xbbc9df32	-0.00616064
20	0xbb997cdd	-0.0046840743
21	0x3b98477b	0.004647193
22	0xbc575437	-0.013142637
23	0x3b64f4d0	0.0034935959
24	0xbadc1fa5	-0.0016794099
25	0x3b8a3815	0.0042181113
26	0x3c2088d7	0.00979825
27	0xb685c725	-3.9868924e-06
28	0x3b350724	0.0027622664
29	0xbbc194a3	-0.0059076115
30	0xbc2f9025	-0.010715519
31	0xbc871dd0	-0.016493708
32	0x3b60ae10	0.0034283437
33	0x3b69e535	0.0035689597
34	0x3aac0e27	0.0013126776
35	0x3be31522	0.0069300095
36	0xbb39576c	-0.0028280867
37	0xbc50d96a	-0.012747148
38	0xbb990bb2	-0.0046705836
39	0xbb318e0c	-0.0027092723
40	0x3bc2b090	0.005941458
41	0xbb9095bc	-0.004412381
42	0xbc4f5aa7	-0.012655891
43	0xbcb55d3e	-0.022139188
44	0x3c4d6ed2	0.012538629
45	0x3c05d72f	0.00816898
46	0x3bb3ea88	0.005490605
47	0xbc0b8093	-0.008514541
48	0x3caf57af	0.021404115
49	0x3ac9bd9d	0.0015391592
50	0xb82a24df	-4.0565497e-05
51	0x3cc552c9	0.024087327
52	0x3bf08f82	0.007341326
53	0x3c22adab	0.009929101
54	0x3c1710e6	0.0092203375
55	0x3a66fbca	0.0008811323
56	0xbc09587b	-0.008382912
57	0xb9e9ba7a	-0.0004458016
58	0xbba85a53	-0.0051377206
59	0xbb9d4f7a	-0.004800734
60	0x3a508e67	0.000795579
61	0xbba716d7	-0.0050991583
62	0xbb8c678e	-0.0042848056
63	0xbc802ab3	-0.01564536
64	0xbb51eb27	-0.003203103
65	0x3c9076de	0.017634805
66	0x3c1d0dcb	0.009585808
67	0xba80bfbf	-0.000982277
68	0xbc7916b3	-0.015203166
69	0x3b9f431b	0.0048602945
70	0xbbe80142	-0.007080228
71	0xbc31dc10	-0.01085569
72	0xbc0b3083	-0.008495453
73	0x39840a74	0.0002518479
74	0x3c3ee9c7	0.011652417
75	0x3a23308b	0.000622519
76	0x3a3a0e5a	0.00070974755
77	0x3c00eecf	0.007869436
78	0x3c195c21	0.009360344
79	0x3b3fdc13	0.0029275462
80	0x3c4edb8b	0.012625585
81	0xbc8fdda0	-0.017561734
82	0x3b2cbbaf	0.0026356985
83	0x3b9f9045	0.004869493
84	0x3c2dbbca	0.010603854
85	0xbc489b5d	-0.012244073
86	0xbc41259d	-0.011788753
87	0xbbd37298	-0.0064528696
88	0xbb95ee3a	-0.004575518
89	0x3b66dc52	0.0035226536
90	0xbc59e545	-0.013299291
91	0xba7246bd	-0.0009242108
92	0xbb3fc2a7	-0.002926031
93	0xba0bcb1f	-0.00053326966
94	0xbad87953	-0.001651565
95	0x3c403d9e	0.011733441
96	0x3c0f0e73	0.008731472
97	0xbbf231d8	-0.0073911957
98	0xbafe82a7	-0.00194176
99	0x3c6b78fb	0.014372106
100	0x3c07ee2f	0.0082965335
101	0xbb6fb61d	-0.0036577054
102	0xbc4bcb2e	-0.0124385785
103	0x3bc666b7	0.006054725
104	0x3c0837d7	0.0083140945
105	0x3b852de6	0.0040643094
106	0xbaeb6b52	-0.0017961061
107	0xba862f4c	-0.0010237484
108	0xbb2aca4d	-0.0026060522
109	0xbab76e2d	-0.0013994627
110	0xbc80f333	-0.015740966
111	0xba5ffae8	-0.0008544163
112	0xbc12e21f	-0.008965044
113	0x3c036983	0.008020761
114	0xbbd841f7	-0.0065996605
115	0xbc13d0e0	-0.009021968
116	0x3c0bb97a	0.008528108
117	0x3ba4e014	0.005031595
118	0x3b22f89a	0.0024867416
119	0x3c3ef2d1	0.011654572
120	0xbc07e706	-0.008294826
121	0xbaf9f99a	-0.001907158
122	0xbb6ed087	-0.003644021
123	0x3b9bf3cb	0.004759287
124	0xbc27820f	-0.0102238795
125	0xbc1dbddb	-0.009627785
126	0xba0a925f	-0.0005286093
127	0x3b9def23	0.004819767
128	0x3c45d0a3	0.012073669
129	0x3ca804b7	0.02051006
130	0xbaa4187a	-0.0012519502
131	0x3c25a330	0.010109708
132	0x3bbe8e99	0.005815339
133	0xbae9f782	-0.0017850252
134	0x3c56e6fa	0.013116593
135	0xbb883bf7	-0.004157539
136	0x3c64e707	0.013971097
137	0xbc245d85	-0.010032062
138	0x3c2b30e6	0.01044867
139	0x3babed9a	0.00524683
140	0x3ba66f39	0.0050791767
141	0xbc12d707	-0.008962399
142	0xbb14b838	-0.002269281
143	0xbc4336a3	-0.011914882
144	0x3c088a03	0.008333686
145	0xbb44ba1b	-0.0030018154
146	0x3bf7e4a0	0.007565096
147	0x394741dc	0.00019002653
148	0x3c2d35eb	0.010571937
149	0x3c115807	0.008871085
150	0xbc8259cb	-0.015911957
151	0x3c40cc8e	0.01176752
152	0x3bb5380f	0.0055303643
153	0xbc99336d	-0.01870128
154	0xbab69a30	-0.001393145
155	0x3bb9f2c3	0.0056746914
156	0xbab2c80f	-0.0013639944
157	0x3c3433e9	0.0109987045
158	0xbb89fdb9	-0.0042111543
159	0xb928d340	-0.00016100425
160	0x3c0baea4	0.008525524
161	0x3bde6150	0.006786503
162	0xbb399871	-0.0028319622
163	0xbb4bbf67	-0.0031089426
164	0xbb8222d8	-0.003971439
165	0x3c06bd5e	0.00822386
166	0x3b13fbe2	0.0022580554
167	0xbc972d3a	-0.018454183
168	0xbbea80a3	-0.007156448
169	0x3c22665c	0.0099121
170	0xbc0dddb8	-0.008658819
171	0xbc6a91c3	-0.014316979
172	0xbbc5937a	-0.0060295435
173	0x3a5c470d	0.00084029214
174	0x3a089097	0.0005209534
175	0xbcb3e4f3	-0.021959757
176	0x3c46a4ce	0.012124253
177	0x3aadbbe5	0.001325485
178	0x3c31a61e	0.010842828
179	0xbb704fa5	-0.0036668566
180	0x3c91ee78	0.017813906
181	0xbb6177f2	-0.0034403768
182	0xbbcd8618	-0.0062720887
183	0xbc6561a7	-0.014000333
184	0x3b42ccc4	0.00297241
185	0x3bcc9456	0.006243269
186	0xbb4a6304	-0.0030881772
187	0xbbeac337	-0.0071643847
188	0xbb6847df	-0.003544323
189	0xbb8cfd7f	-0.00430268
190	0xba50f4f5	-0.0007971072
191	0xbc46e25b	-0.012138928
192	0xbaefb525	-0.0018288238
193	0x3b265946	0.00253828
194	0xbb349ab4	-0.002755803
195	0xbc1187a7	-0.00888244
196	0x3cb207d6	0.021732252
197	0xbb76d39a	-0.0037662745
198	0x3b9b9ddb	0.0047490424
199	0x3b6a40c8	0.003574418
200	0x3c3df08d	0.011592996
201	0xbac4003f	-0.0014953687
202	0xbc228671	-0.009919749
203	0xbb5fb513	-0.0034135028
204	0x3bab6bc0	0.0052313507
205	0x3cedf1ca	0.029045958
206	0xb9a5058b	-0.00031475382
207	0xbad2c06a	-0.0016079072
208	0xbc66c287	-0.014084465
209	0xba79e5d5	-0.0009532844
210	0x3bcfafad	0.006338081
211	0x3c36dd90	0.011161223
212	0xbcf0f2f2	-0.02941272
213	0xb8c78833	-9.5144285e-05
214	0x3bf4b333	0.0074676513
215	0x3b92c54c	0.004479086
216	0xbab45abf	-0.0013759955
217	0x3c95b1d9	0.018273281
218	0x3a93bc8a	0.0011271399
219	0xbc2d38a9	-0.010572591
220	0x393426fb	0.00017180659
221	0x3b52bc02	0.0032155518
222	0xbc43ebfe	-0.01195812
223	0xbb169672	-0.0022977856
224	0xbad7591f	-0.0016429758
225	0xbbe975ab	-0.007124623
226	0x3b7fcc1a	0.0039031566
227	0x3cb183a0	0.021669209
228	0x3c33ae0a	0.010966787
229	0x3bb241ad	0.005439958
230	0x3c465a2a	0.012106458
231	0x3bf9eba0	0.0076269656
232	0xbb46c897	-0.0030331963
233	0xbbc2596f	-0.0059310715
234	0x3ac46a26	0.0014985248
235	0x3b9dff15	0.004821668
236	0x3bc64610	0.0060508326
237	0xbc942f42	-0.01808894
238	0xbbb0d216	-0.005396138
239	0x38b79b9c	8.7551045e-05
240	0xbc03c9dc	-0.0080437325
241	0xbbadfd57	-0.0053097415
242	0xbc4466cf	-0.011987402
243	0x3bd15607	0.006388429
244	0xbbdd325b	-0.0067503876
245	0x3b15a6d5	0.0022835035
246	0xbb861c73	-0.004092747
247	0x3c3074eb	0.010770063
248	0x3bf1ae1b	0.0073754913
249	0x3aba56dc	0.001421656
250	0xbc1da5fb	-0.009622092
251	0x3c35591d	0.01106861
252	0xbc3355f3	-0.010945785
253	0xb88f4363	-6.831323e-05
254	0xbbc39f77	-0.0059699374
255	0x3c0825a3	0.008309755

action_model._discrete_distribution.branches.2.bias f4 [2]
0	0x00000000	0.0
1	0x00000000	0.0

network_body._body_endoder.seq_layers.0.weight f4 [128, 100]
0	0xbd82e7bc	-0.06391856
1	0x3dc35f65	0.095396794
2	0xbd2a0c0c	-0.041515395
3	0x3de4c66d	0.11170659
4	0xbbff1577	-0.007784541
5	0xbce6853f	-0.028139709
6	0xbd949aa3	-0.07256057
7	0x3c31fb5f	0.010863154
8	0x3c38501b	0.011249567
9	0xbb266b4e	-0.0025393548
10	0x3cac6626	0.021044802
11	0xbca08fd3	-0.01959983
12	0x3d894851	0.067032464
13	0x3ddb6817	0.10713213
14	0x3dac0e95	0.08401219
15	0xbda05509	-0.07828719
16	0xb90fb8e9	-0.00013706427
17	0x3c63ee68	0.013911821
18	0x3d8b7573	0.06809511
19	0xbd8894e3	-0.06669023
20	0xbdc44eac	-0.09585318
21	0x3d8b61dc	0.068057746
22	0xbdd6f7f5	-0.10496513
23	0x3d0f3c74	0.034969762
24	0xbd10b188	-0.035325557
25	0xbe45a519	-0.19301261
26	0xbc9e2b62	-0.019307796
27	0x3dbada13	0.091236256
28	0x3d3a8d8b	0.045545142
29	0x3d534387	0.05157807
30	0x3dac8745	0.08424238
31	0x3db38521	0.08765627
32	0x3e5d8d6d	0.21635981
33	0xbd8c31cf	-0.06845438
34	0xbc5e227d	-0.013558027
35	0xbd1ae501	-0.03781605
36	0xbe6ef46d	-0.23335429
37	0x3d073f64	0.03301944
38	0xbc84879b	-0.016177943
39	0x3cc4d56b	0.024027547
40	0x3d2a140c	0.041523024
41	0xbd4031b8	-0.046922415
42	0x3d81b02f	0.063324325
43	0xbdc9b1dc	-0.09848377
44	0xb9b13e51	-0.000338065
45	0xbe259c5f	-0.16172932
46	0xbd86b9c4	-0.06578401
47	0x3d1eb668	0.038748175
48	0x3c46c877	0.0121327555
49	0x3d44e280	0.04806757
50	0x3e1d55f3	0.15364818
51	0x3cd972c8	0.02654399
52	0xbd98542b	-0.07437929
53	0x3e3d6ac2	0.18497756
54	0xbdda1637	-0.106487684
55	0x3d819f91	0.06329263
56	0x3e26d241	0.16291143
57	0xbd716015	-0.05892952
58	0xbc3bb906	-0.011457687
59	0xbd4d8598	-0.050176233
60	0x3e10e353	0.14149217
61	0xbdd68807	-0.10475164
62	0x3e82d8db	0.25556073
63	0x3c615dcb	0.013755272
64	0xbe0cf598	-0.13765562
65	0x3dd8e72f	0.1059097
66	0xbbef696b	-0.007306268
67	0x3df38002	0.1188965
68	0x3d172d23	0.03690828
69	0xbd4f096d	-0.0505461
70	0xbe0526c6	-0.13003072
71	0xbdb312b7	-0.08743804
72	0x3dbdfe73	0.09277048
73	0xbd9e724b	-0.077366434
74	0xbe0dce1b	-0.13848154
75	0xbd9dc23c	-0.07703063
76	0xbd890042	-0.06689502
77	0x3e6375ea	0.2221295
78	0x3d848b28	0.064718544
79	0xbd96b616	-0.07358949
80	0xbbd97b10	-0.0066369846
81	0xbe0467f7	-0.12930284
82	0xbe290537	-0.16505896
83	0x3ce411c0	0.027840495
84	0xbd01c049	-0.031677518
85	0x3e31a5f4	0.17348462
86	0x3cb5904f	0.022163538
87	0xbdc3407b	-0.09533783
88	0xbcc70cfa	-0.02429818
89	0x3d465b14	0.048426703
90	0x3cd688f5	0.026188353
91	0xbe1d94f6	-0.15388855
92	0xbcfbed1d	-0.030752713
93	0x3caeb3b4	0.021325924
94	0x3e14fdd2	0.1454995
95	0x3d8c3b07	0.06847196
96	0x3e1e4c03	0.15458684
97	0x3c0f10e3	0.008732053
98	0xbc7968f0	-0.015222773
99	0x3d2b218f	0.04178005
100	0xbdc2d009	-0.09512336
101	0xbcc2abbf	-0.023763536
102	0xbd8e8973	-0.0695981
103	0xbca3d2ef	-0.019998042
104	0xbda656bf	-0.08122014
105	0xbe01660f	-0.12636589
106	0x3e544bc8	0.20732033
107	0x3dab2581	0.08356763
108	0xbc6f5c75	-0.014609446
109	0x3d1b614b	0.037934583
110	0x3c6b3292	0.014355319
111	0x3d692292	0.056917734
112	0x3dab4c49	0.083641596
113	0x3d8f23ba	0.06989236
114	0x3cfc9c7b	0.030836334
115	0x3dd644a0	0.10462308
116	0xbd9be2ba	-0.07611604
117	0x3ab9ba1f	0.0014169848
118	0x3e2a1052	0.16607788
119	0xbd594aaf	-0.05304974
120	0x3e057edb	0.13036673
121	0xba96bb03	-0.0011499826
122	0xbdb6c87a	-0.089249566
123	0xbcc2a021	-0.023757996
124	0x3db96d34	0.09054032
125	0x3e0714e0	0.13191557
126	0x3d1a8bb9	0.037730906
127	0xbdabc5d9	-0.08387346
128	0x3cc24155	0.023712793
129	0x3d756ba0	0.059917092
130	0x3e547540	0.20747852
131	0xbc062284	-0.00818694
132	0xbdaa192c	-0.083055824
133	0x3e1fd37d	0.1560802
134	0x3d9ef279	0.07761092
135	0xbc948b71	-0.018132897
136	0x3e110898	0.14163435
137	0xbda152a3	-0.0787709
138	0x3d5f780b	0.05455784
139	0x3b6c11e7	0.0036021413
140	0x3c6c95c3	0.014440003
141	0x3e3dc8e3	0.18533663
142	0x3d85a5ed	0.065257885
143	0x3cc4c64b	0.024020335
144	0x3d29a7c2	0.041419752
145	0x3e603b7a	0.21897689
146	0xbd8e1b30	-0.06938779
147	0x3dc1f42b	0.094703995
148	0x3b8a2c71	0.0042167236
149	0xbc1932f8	-0.009350531
150	0xbd953c7b	-0.07286926
151	0x3e10248d	0.14076443
152	0x3caa74b1	0.020807596
153	0xbdc11f7b	-0.094298325
154	0xbd8e4511	-0.06946767
155	0x3d8454be	0.06461476
156	0x3c9efc7a	0.0194075
157	0x3da2fcce	0.07958375
158	0xbdbe6a7b	-0.09297653
159	0xbe39394b	-0.18088262
160	0x3e3af2e5	0.1825672
161	0xbd802da4	-0.06258705
162	0xbe1454f7	-0.14485537
163	0x3d6ff31b	0.058581453
164	0x3e6afa80	0.2294712
165	0x3ddf27eb	0.108962856
166	0xbd398752	-0.045295067
167	0xbe192756	-0.14956412
168	0xbcd9ac98	-0.026571557
169	0xbdf5dfb8	-0.120055616
170	0xbbcd7af8	-0.0062707625
171	0x3cb134cd	0.021631623
172	0xbd041ebc	-0.032255873
173	0xbe65719d	-0.22406621
174	0x3df5cf3d	0.12002418
175	0x3c415a14	0.011801261
176	0xbd61f555	-0.055165607
177	0xbdbd1f77	-0.09234517
178	0xbc9e5d87	-0.019331707
179	0xbd667a80	-0.05626917
180	0x3d240a5b	0.04004894
181	0xbc8cdc75	-0.017194966
182	0x3dbcbd31	0.09215773
183	0x3db00495	0.08594624
184	0xbe094932	-0.13406828
185	0xbd41363c	-0.047170863
186	0x3e0328ab	0.12808482
187	0xbdfcd228	-0.123447716
188	0xbddfd07b	-0.10928436
189	0xbda7649f	-0.08173489
190	0xbd004889	-0.031319175
191	0xbdef0daa	-0.11672528
192	0xbe465193	-0.19367056
193	0x3cedbe6d	0.029021466
194	0xbcfb72ca	-0.030694384
195	0xbd3ead9d	-0.04655229
196	0xbdd41983	-0.103564285
197	0xbd55c4d0	-0.05218965
198	0xbe1e95ac	-0.15486783
199	0xbdf36998	-0.11885375
200	0x3e84bc40	0.25924873
201	0x3d0daf08	0.03459075
202	0x3c0c606b	0.00856791
203	0x3e2df8ac	0.16989392
204	0xbda8e727	-0.08247214
205	0x3d677405	0.05650713
206	0xbd4edc10	-0.050502837
207	0xbe1cca1b	-0.15311472
208	0xbddbd703	-0.107343696
209	0xbb0a6696	-0.0021118275
210	0xbd28a16f	-0.04116958
211	0x3b3c7a6b	0.002875949
212	0x3d5c3942	0.053765543
213	0x3e14bee7	0.14525948
214	0x3de51282	0.11185171
215	0x3bac1999	0.005252075
216	0xbba77e40	-0.0051114857
217	0x3dc0479f	0.09388661
218	0xbdf8cd1f	-0.12148499
219	0xbdecd5e8	-0.11564237
220	0xbb1911fe	-0.0023356671
221	0x3ce99d32	0.02851734
222	0x3cc5a0e3	0.024124568
223	0xbeac6827	-0.33673212
224	0x3dc96fa6	0.098357484
225	0x3df250dd	0.1183183
226	0x3d58dbbb	0.052943926
227	0x3db7f3c6	0.08982043
228	0xbde92648	-0.11384255
229	0x3dc6b538	0.097025335
230	0x3d2db8db	0.04241262
231	0x3e166834	0.14688188
232	0xbc4269c5	-0.011866038
233	0xbe026b08	-0.12736142
234	0x3c224b8d	0.009905708
235	0x3d5ec47b	0.054386597
236	0x3d9360d1	0.07196201
237	0xbdf6370a	-0.120222166
238	0x3dac2acb	0.084065996
239	0x3de42f3b	0.11141821
240	0x3ddc867a	0.10767837
241	0xbd88fd3f	-0.06688928
242	0x3dde3fd0	0.10852015
243	0x3c48e2df	0.0122611215
244	0xbc7c183d	-0.015386638
245	0xbe14a2e5	-0.14515264
246	0xbc2a51a3	-0.01039544
247	0xbc99e62e	-0.018786516
248	0xbdea44d7	-0.114389114
249	0xbdf51e65	-0.11968688
250	0x3e1c8dd8	0.15288484
251	0x3e24a2b4	0.16077691
252	0xbd63bdcd	-0.05560093
253	0x3caa5e83	0.02079702
254	0xbdae77f7	-0.08518975
255	0xbde02733	-0.10944977

network_body._body_endoder.seq_layers.0.bias f4 [128]
0	0x00000000	0.0
1	0x00000000	0.0
2	0x00000000	0.0
3	0x00000000	0.0
4	0x00000000	0.0
5	0x00000000	0.0
6	0x00000000	0.0
7	0x00000000	0.0
8	0x00000000	0.0
9	0x00000000	0.0
10	0x00000000	0.0
11	0x00000000	0.0
12	0x00000000	0.0
13	0x00000000	0.0
14	0x00000000	0.0
15	0x00000000	0.0
16	0x00000000	0.0
17	0x00000000	0.0
18	0x00000000	0.0
19	0x00000000	0.0
20	0x00000000	0.0
21	0x00000000	0.0
22	0x00000000	0.0
23	0x00000000	0.0
24	0x00000000	0.0
25	0x00000000	0.0
26	0x00000000	0.0
27	0x00000000	0.0
28	0x00000000	0.0
29	0x00000000	0.0
30	0x00000000	0.0
31	0x00000000	0.0
32	0x00000000	0.0
33	0x00000000	0.0
34	0x00000000	0.0
35	0x00000000	0.0
36	0x00000000	0.0
37	0x00000000	0.0
38	0x00000000	0.0
39	0x00000000	0.0
40	0x00000000	0.0
41	0x00000000	0.0
42	0x00000000	0.0
43	0x00000000	0.0
44	0x00000000	0.0
45	0x00000000	0.0
46	0x00000000	0.0
47	0x00000000	0.0
48	0x00000000	0.0
49	0x00000000	0.0
50	0x00000000	0.0
51	0x00000000	0.0
52	0x00000000	0.0
53	0x00000000	0.0
54	0x00000000	0.0
55	0x00000000	0.0
56	0x00000000	0.0
57	0x00000000	0.0
58	0x00000000	0.0
59	0x00000000	0.0
60	0x00000000	0.0
61	0x00000000	0.0
62	0x00000000	0.0
63	0x00000000	0.0
64	0x00000000	0.0
65	0x00000000	0.0
66	0x00000000	0.0
67	0x00000000	0.0
68	0x00000000	0.0
69	0x00000000	0.0
70	0x00000000	0.0
71	0x00000000	0.0
72	0x00000000	0.0
73	0x00000000	0.0
74	0x00000000	0.0
75	0x00000000	0.0
76	0x00000000	0.0
77	0x00000000	0.0
78	0x00000000	0.0
79	0x00000000	0.0
80	0x00000000	0.0
81	0x00000000	0.0
82	0x00000000	0.0
83	0x00000000	0.0
84	0x00000000	0.0
85	0x00000000	0.0
86	0x00000000	0.0
87	0x00000000	0.0
88	0x00000000	0.0
89	0x00000000	0.0
90	0x00000000	0.0
91	0x00000000	0.0
92	0x00000000	0.0
93	0x00000000	0.0
94	0x00000000	0.0
95	0x00000000	0.0
96	0x00000000	0.0
97	0x00000000	0.0
98	0x00000000	0.0
99	0x00000000	0.0
100	0x00000000	0.0
101	0x00000000	0.0
102	0x00000000	0.0
103	0x00000000	0.0
104	0x00000000	0.0
105	0x00000000	0.0
106	0x00000000	0.0
107	0x00000000	0.0
108	0x00000000	0.0
109	0x00000000	0.0
110	0x00000000	0.0
111	0x00000000	0.0
112	0x00000000	0.0
113	0x00000000	0.0
114	0x00000000	0.0
115	0x00000000	0.0
116	0x00000000	0.0
117	0x00000000	0.0
118	0x00000000	0.0
119	0x00000000	0.0
120	0x00000000	0.0
121	0x00000000	0.0
122	0x00000000	0.0
123	0x00000000	0.0
124	0x00000000	0.0
125	0x00000000	0.0
126	0x00000000	0.0
127	0x00000000	0.0
