MLBase/results/ppo/CaptureTheFlag/CaptureTheFlag-320.pt (torch, 236090 bytes, 16 tensors)

discrete_act_size_vector f4 [1, 3]
00000000: 0000 4040 0000 4040 0000 0040
3.0 3.0 2.0

network_body._body_endoder.seq_layers.0.weight f4 [128, 86]
00000000: 51fa a2bc e7fe 06be 791a c3bc 66d3 36bd
00000010: 78f6 1dbe 5f52 d1bc 9fd4 b83d 615e 0bbe
00000020: 59cb 61be bb56 b23d c61d a33d 958b 90bc
00000030: d80e 16be dbac 81be 6e26 183d 5de4 2f3c
00000040: 1ff8 f1bd 5210 3cbd 49b1 e1bd 42bd a63d
00000050: 77e6 e3bd 5519 a13d fcff b23c 4c2f 413d
00000060: 7f63 123b ce40 183d f1c7 3e3d 8e95 963b
00000070: c2c5 85bd dd52 103e 2868 c53d 9b6a 10be
00000080: 5d73 813d ebcb b83d 5138 6b3d 2bef 303d
00000090: 5d30 223e 0df5 473d 9d1d e7bd 5ecd 60bd
000000a0: ec09 0abd 70d0 72be dfa5 483d 8361 13be
000000b0: 0c19 07ba d648 43bc e2e5 44bd 0b20 cb3c
000000c0: eae5 613c 5069 8a3e a246 483e 6adb 6cbd
000000d0: 2190 23be 574b dfbc c370 2abe 13dd 883d
000000e0: 5e0b b33d 75cf 403d eb97 4f3d 2fd6 c23d
000000f0: 2f15 a73c 1fec c03d aea4 733d 9da2 163d
00000100: 4322 963d 4ac7 dabd b2f4 1d3e 31d7 9f3d
00000110: 2644 de3c 5ad9 213e 946c 2bbd 4420 74be
00000120: d28e 743c c611 1abd 376e 713d 9cbd 80bd
00000130: 6088 a53d 1de4 0abd 4163 153e 6dc6 91bd
00000140: dda6 473e 7d34 55be aa5f 00be 8ebd ee3d
00000150: 8ef1 1b3d 3c95 10be f5c3 84bb 9581 e9bd
00000160: 0ad6 16be 5290 8dbc 0029 c4bc 3edf 013e
00000170: 2796 183e 0339 83bb 7df1 913c 7c2f e7bd
00000180: 5e35 763e b54b 213e 7c69 7d3c 2326 76bd
00000190: adae 93bb 64aa ecbc 3c49 95bd 3022 cfbd
000001a0: 8af0 6f3e d2f1 91bd e2f6 84bb c6fb ab3d
000001b0: c2f3 bd3d f377 323d 2fb5 45be 16f9 ca3c
000001c0: 60e5 dbbb 0efe d2bb 3be5 56bd a614 36bc
000001d0: 9001 953c 9e5f d13c d91d c7bc 0e1a 3c3e
000001e0: e397 69bd 9e8c 27be fc01 86bd a131 64bc
000001f0: dfa3 403e 3b98 95bd 4071 7ebe 3536 c9bd
00000200: 1183 443d 7c3a 403d 084e 27bd dff4 6abd
00000210: c1b0 09be 9c93 483e 022b 143a abc6 d7bd
00000220: f41b 3abd 8dcb 133e 209a 1abd 11bc cf3d
00000230: d1bd 893d 8099 84bd c5d3 283d c66f 933e
00000240: 2b5d 8d3d 3374 453b b80e 63bd c94b 6fbd
00000250: dbca cd3d da25 0a3d acce 2dbe 8c83 fe3c
00000260: 165e e03d 59e0 b13d 00be 063e 59de 99bc
00000270: 611d c13b b461 8dbc 909f 813d d252 9d3d
00000280: 9d21 923c bb35 f53c c3d3 c93d 1ba1 523d
00000290: b763 0b3b 12f2 833d d6fd 41bd 0163 b23d
000002a0: 6658 78bc 2fb3 d73d f84b a43c 212f 383d
000002b0: b367 713c d80d 123e 2052 17bc 6adc 463c
000002c0: ccdb 9a3d 78c2 f73d 8508 103e d750 cebc
000002d0: d40d 60be 9147 9fbd 946f 08be 2127 cdbd
000002e0: ad36 853d aa2e 11be 6f66 93bc 1607 f43d
000002f0: b3f0 a63c b8d7 0b3d 15c4 ad3d bb05 da3d
00000300: 18ff 02bd e840 b5bd be36 b6bd cfbf ac3d
00000310: f8b0 bb3c ebca 75bd 0d97 243c b5f1 f7bd
00000320: 8a0b db3c c808 b23d a8c6 b23c 2929 82bd
00000330: 6d88 b33b 3c97 0bbc ac66 ec3d 6811 85be
00000340: 8ae0 853d d6c1 06be cde2 273e f2ef bc3c
00000350: f57f 3ebd 238b 813d ef69 05be 6e09 9e3c
00000360: 1e81 813d 72a3 18be 7ad1 a03c 3f09 a8bd
00000370: f2e7 da3d 2f4d e5bd 23fe f73d 61b7 cbbd
00000380: 2611 3bbd 3e4d 4abd 61f1 b1bd 3af3 1dbe
00000390: aa17 c13b 3f26 4a3d bb85 ae3d 3f69 1e3e
000003a0: f860 00be f459 463e 22b3 043e 9ff5 f2bd
000003b0: f815 a23d c5bc 80bd 4b15 8dbd dd37 063e
000003c0: 6118 cd3c 29ae 163e deff 303e 71df d6bd
000003d0: f2fc f5bd c2d0 73bc e15f 203d 6f84 d43d
000003e0: dd35 783c 1b9f c73c 4c1b 9e3b 4e05 f3ba
000003f0: 6f63 0d3e 4d67 09be e717 9c3d 9f96 66bd
-0.01989475 -0.13183175 -0.023816334 -0.0446352 -0.15426052 -0.025551973 0.09024929 -0.13610221
-0.22050227 0.08707949 0.07964663 -0.017644683 -0.146541 -0.2532719 0.037146024 0.010735598
-0.118149035 -0.045914 -0.110201426 0.08141567 -0.11127942 0.0786616 0.021850578 0.047164246
0.0022337136 0.037171178 0.046577398 0.004595465 -0.0653186 0.1409411 0.09639007 -0.14103167
0.06320832 0.09023269 0.057426754 0.04319684 0.15838762 0.048817683 -0.11284945 -0.054883353
-0.03370087 -0.23712325 0.048986312 -0.14392667 -0.00051535736 -0.011919221 -0.048070796 0.024795553
0.013787726 0.27033472 0.19558194 -0.057826437 -0.1597295 -0.027257605 -0.16644578 0.066827916
0.087424025 0.047072846 0.05068199 0.095135085 0.020395843 0.094200365 0.059483223 0.036776174
0.07330754 -0.106825426 0.15425375 0.078047164 0.027132105 0.1580557 -0.041851595 -0.23840433
0.014926629 -0.037614606 0.058943 -0.06286165 0.08082652 -0.033908952 0.14588644 -0.07117925
0.19497247 -0.20820804 -0.12536493 0.116572484 0.03807216 -0.14119428 -0.00405168 -0.11401669
-0.14730087 -0.017280731 -0.023945332 0.12682816 0.14901029 -0.004004599 0.017815346 -0.11288354
0.24043795 0.15751536 0.015467044 -0.060094964 -0.004506907 -0.028889842 -0.07289359 -0.101139426
0.23431602 -0.07126202 -0.004057751 0.08397631 0.09275009 0.043571424 -0.19307397 0.024776977
-0.0067106932 -0.006438977 -0.052464705 -0.011113321 0.018189222 0.02555829 -0.024306225 0.18369314
-0.057029616 -0.16362235 -0.06543347 -0.013927848 0.18812512 -0.07304426 -0.24847889 -0.09824792
0.047976557 0.046930775 -0.0408459 -0.057362434 -0.13446333 0.19587559 0.00056521606 -0.1053594
-0.045436814 0.14433117 -0.03774464 0.10143293 0.06725658 -0.0647459 0.041217584 0.28796214
0.06902536 0.0030129075 -0.05543396 -0.058421884 0.10048457 0.033727504 -0.1697337 0.031068586
0.109554455 0.08685369 0.13158417 -0.018782781 0.005893395 -0.017258503 0.06329262 0.07681812
0.017838294 0.029932847 0.098548435 0.051423173 0.0021269151 0.064426556 -0.047361217 0.0871029
-0.015157795 0.105322234 0.020055756 0.04496682 0.0147341965 0.14263093 -0.009235889 0.012137512
0.07561454 0.12097639 0.1406575 -0.025185032 -0.21880275 -0.07777322 -0.13323814 -0.10017229
0.06504569 -0.14177957 -0.01799318 0.11915414 0.020378446 0.034141272 0.08484665 0.10645624
-0.031981558 -0.088502705 -0.0889716 0.08435022 0.022911534 -0.06000797 0.010045779 -0.12106649
0.0267389 0.08693081 0.021823242 -0.06355507 0.0054789097 -0.008519944 0.115430206 -0.25989842
0.06536968 -0.1315988 0.16395111 0.023063634 -0.046508748 0.06325366 -0.13028692 0.019291606
0.06323455 -0.149061 0.019631136 -0.082048886 0.10688771 -0.11196362 0.121090196 -0.09947086
-0.04567065 -0.04939007 -0.086886175 -0.15424815 0.0058927136 0.04935288 0.08521601 0.15469836
-0.1253699 0.19370252 0.12958959 -0.11863255 0.079143465 -0.06286005 -0.06888827 0.13107248
0.025036039 0.14714874 0.17285106 -0.10491837 -0.12011136 -0.014881315 0.039153937 0.10376822
0.015149561 0.02436786 0.0048250314 -0.001854101 0.13807462 -0.13418312 0.076217465 -0.056295987

network_body._body_endoder.seq_layers.0.bias f4 [128]
00000000: 0000 0000 0000 0000 0000 0000 0000 0000
00000010: 0000 0000 0000 0000 0000 0000 0000 0000
00000020: 0000 0000 0000 0000 0000 0000 0000 0000
00000030: 0000 0000 0000 0000 0000 0000 0000 0000
00000040: 0000 0000 0000 0000 0000 0000 0000 0000
00000050: 0000 0000 0000 0000 0000 0000 0000 0000
00000060: 0000 0000 0000 0000 0000 0000 0000 0000
00000070: 0000 0000 0000 0000 0000 0000 0000 0000
00000080: 0000 0000 0000 0000 0000 0000 0000 0000
00000090: 0000 0000 0000 0000 0000 0000 0000 0000
000000a0: 0000 0000 0000 0000 0000 0000 0000 0000
000000b0: 0000 0000 0000 0000 0000 0000 0000 0000
000000c0: 0000 0000 0000 0000 0000 0000 0000 0000
000000d0: 0000 0000 0000 0000 0000 0000 0000 0000
000000e0: 0000 0000 0000 0000 0000 0000 0000 0000
000000f0: 0000 0000 0000 0000 0000 0000 0000 0000
00000100: 0000 0000 0000 0000 0000 0000 0000 0000
00000110: 0000 0000 0000 0000 0000 0000 0000 0000
00000120: 0000 0000 0000 0000 0000 0000 0000 0000
00000130: 0000 0000 0000 0000 0000 0000 0000 0000
00000140: 0000 0000 0000 0000 0000 0000 0000 0000
00000150: 0000 0000 0000 0000 0000 0000 0000 0000
00000160: 0000 0000 0000 0000 0000 0000 0000 0000
00000170: 0000 0000 0000 0000 0000 0000 0000 0000
00000180: 0000 0000 0000 0000 0000 0000 0000 0000
00000190: 0000 0000 0000 0000 0000 0000 0000 0000
000001a0: 0000 0000 0000 0000 0000 0000 0000 0000
000001b0: 0000 0000 0000 0000 0000 0000 0000 0000
000001c0: 0000 0000 0000 0000 0000 0000 0000 0000
000001d0: 0000 0000 0000 0000 0000 0000 0000 0000
000001e0: 0000 0000 0000 0000 0000 0000 0000 0000
000001f0: 0000 0000 0000 0000 0000 0000 0000 0000
0.0 0.0 0.0 0.0 0.0 0.0 0.0 0.0
0.0 0.0 0.0 0.0 0.0 0.0 0.0 0.0
0.0 0.0 0.0 0.0 0.0 0.0 0.0 0.0
0.0 0.0 0.0 0.0 0.0 0.0 0.0 0.0
0.0 0.0 0.0 0.0 0.0 0.0 0.0 0.0
0.0 0.0 0.0 0.0 0.0 0.0 0.0 0.0
0.0 0.0 0.0 0.0 0.0 0.0 0.0 0.0
0.0 0.0 0.0 0.0 0.0 0.0 0.0 0.0
0.0 0.0 0.0 0.0 0.0 0.0 0.0 0.0
0.0 0.0 0.0 0.0 0.0 0.0 0.0 0.0
0.0 0.0 0.0 0.0 0.0 0.0 0.0 0.0
0.0 0.0 0.0 0.0 0.0 0.0 0.0 0.0
0.0 0.0 0.0 0.0 0.0 0.0 0.0 0.0
0.0 0.0 0.0 0.0 0.0 0.0 0.0 0.0
0.0 0.0 0.0 0.0 0.0 0.0 0.0 0.0
0.0 0.0 0.0 0.0 0.0 0.0 0.0 0.0

network_body._body_endoder.seq_layers.2.weight f4 [128, 128]
00000000: 1015 40bc 2cea c83d 8627 23bc ffdd a53d
00000010: a23a 023d 8c21 f2bd 504f 19bd b588 0b3e
00000020: abe4 3e3b 0ec0 6cbd d977 283e 4e72 263e
00000030: b09b d3bc 27b2 f4bb a533 fbbd 54d9 353d
00000040: 21a2 913d ed01 1fbe 5243 36bc 77c9 283e
00000050: 0bf7 82bd 7b77 383e 00b8 2e3d 9e40 babc
00000060: 8cb4 53bd 86d9 2a3d 4271 eb3c a97c 273d
00000070: cb28 86bd 3271 7dbb f984 b3bc 0d9f bebd
00000080: 7eee 11be 6f44 19bc b1f0 34bd 630f 55bd
00000090: 2bbe b33d ee65 a53c 0fc2 1c3e f676 783c
000000a0: ec03 b8bc be2b 663a f3bc 3e3c 1b8c 76bd
000000b0: 2852 c23d 7e3d 91bd 5e47 9ebd 21f6 26be
000000c0: 72d7 493e dfe8 a2bd b7c7 15be 37e3 06be
000000d0: 89b1 583d fcfb 1bbd eaa0 bebc 2819 aabd
000000e0: 843d 57bd 9ea4 10be ab15 0abe 800d aa39
000000f0: c14e 4c3d 7821 a53d 4272 063d 1c4d 273e
00000100: 8ad7 a03d 2ca2 96bd ae2d 0a3e 71ed 33bd
00000110: 9dc1 01be c269 563d e24a 563d 2bf2 7c3d
00000120: 53f4 e63c 1fcd 8a3c eb49 e6bc 4d25 83bc
00000130: 103b 013e 1c57 b2bd eb54 5f3d 7f2d a13d
00000140: d1fc 5ebd 0cbf 2cbd 7cf1 bf3c 6279 a9bd
00000150: 7394 20be ea37 7c3d a88a bebd 9432 d7bc
00000160: 2350 a3bd dd98 e33d ded3 f03d 5042 033d
00000170: 11d7 e53c 6395 613d 4294 7ebd 41e7 ebbd
00000180: 4a7d 063d 7140 13be 129c 22bd 9032 62bd
00000190: 2e13 88bd 7270 04be 1133 1f3e dbb6 d7bc
000001a0: 2814 dbbd 31da 02bd 68cc 893e 260a 7bbd
000001b0: 09c1 de3d acfd 7cbd 006f afbd 11aa 183c
000001c0: b019 d8bc 5aba 3d3d 6100 3dbd 5feb 553d
000001d0: 066d ce3d 43aa 9f3c 83bf 293e c333 75bd
000001e0: f05f 3d3d e4b5 89bd 2d6b 49bd e630 eabd
000001f0: 7b45 b8bd 1300 193e 1326 b2bd d8f9 e43c
00000200: ebbb a03d aac8 4cbd 3fdf 70bd cc2a e7bc
00000210: 24e8 e33d 4a47 e8bc 6d27 8bbd df05 053e
00000220: f95b ff3d 5a8c 123d 433f 303e f880 0a3d
00000230: 3712 2a3d 9337 fb3c 7f2b 99bc 782c 833b
00000240: 9e64 6b3d 8031 6d3d da3e c2bc 59a0 fa3d
00000250: aaf8 9ebc 5b76 033e 35e6 a8bd 5b7a 03bc
00000260: ae0b e8bc 934b 2bbd bac8 8bbd 7d9a d63d
00000270: 3d0d 78bd 2d2f 9c3c e3cf b3bd 9658 8fbd
00000280: 0bec 68bd 5fb6 f33d 307b bb3c c9b7 b6bd
00000290: f9e9 263d 9cb8 273e 7aea a1bd 1f06 c53d
000002a0: 12d9 c33b 72bf 813d 8681 bdbd 7f15 42bd
000002b0: e0a9 dbbc 8d79 bb3c cc13 443d 499a 283e
000002c0: 593a eebd fe4b a0bd 3464 f43d 44cb ae3d
000002d0: 9e20 8f3c 4d59 203d ecbe 463e 078e 40be
000002e0: eb4d eabd a1ab dc3c eefb ddbd e2bf d83d
000002f0: 672e 103d 04ef d73d a78a 22bd dcb6 b93d
00000300: 77b2 5a3c 4310 473c 18dd 82bd 9671 a4bb
00000310: 539f 39bd 2893 803d 638d a2bd 8190 25be
00000320: b790 8dbd c0d0 c9bd d7ff 88bb 0bbb a23d
00000330: 2b74 d6bc 1900 9cbc c26f 8dbd 9056 06bd
00000340: 685d 413d 9b18 1dbc 06e3 563d 6b86 8fbd
00000350: 5e9d f03c eb0e 32bd ce74 6dbc d9ad 94bd
00000360: e946 ddbc 76c2 4f3c e5ec 6e3d d65f 16bc
00000370: 6ff8 40bd f287 723d c2e5 84bd 3b3f 313d
00000380: 13ef 9abc f054 cd3a daa0 62bd f30f 693d
00000390: 2dd4 1ebe 5467 7c3a 216d ab3d b106 92bc
000003a0: c7e7 35bd 3f14 90bd a4b5 e53d 0f3e 07be
000003b0: 2e8e 4b3e e624 f43d 29e6 593c 9241 b1bd
000003c0: 6bef 20bd 8967 f3bd a17d 89bd 0f81 3cbd
000003d0: b78e 10be e033 113e 4537 e03d eabc 273e
000003e0: 8fbb c63d 8360 b03d 6b07 a3bd 3967 573d
000003f0: e7d7 a7bc 1199 1b3c e407 993d 445e 2ebe
-0.011723772 0.0981029 -0.009958154 0.08098983 0.031794198 -0.11822805 -0.037429154 0.13626368
0.0029127996 -0.057800345 0.16451968 0.16254541 -0.025831074 -0.0074675265 -0.1226571 0.044396713
0.07111002 -0.15528078 -0.011124449 0.16483103 -0.06394776 0.18014328 0.042655945 -0.02273589
-0.051685855 0.041711353 0.028740529 0.04089037 -0.065507494 -0.0038672206 -0.021913992 -0.0930768
-0.14251134 -0.009354695 -0.044174854 -0.052016627 0.08776506 0.020190205 0.15308402 0.015165081
-0.022462808 0.0008780322 0.011641729 -0.06019221 0.09488326 -0.07091807 -0.07728456 -0.16304828
0.19711092 -0.07954573 -0.14626966 -0.13172613 0.052903686 -0.038082108 -0.02327009 -0.083055794
-0.0525489 -0.14125296 -0.13484828 0.00032434985 0.049879793 0.08063024 0.03282381 0.16338009
0.07853611 -0.073551506 0.13493988 -0.043927614 -0.12671514 0.052346952 0.052317508 0.061754387
0.028192675 0.016943512 -0.028111419 -0.016008997 0.12620187 -0.08708021 0.054524343 0.07870006
-0.054440323 -0.042174384 0.023430578 -0.08275105 -0.15681629 0.06157676 -0.0930379 -0.026269235
-0.07974269 0.11113141 0.117591605 0.032045662 0.028056653 0.055074107 -0.06215311 -0.115187176
0.03283433 -0.14380051 -0.03969962 -0.055224 -0.06644283 -0.1293352 0.15546824 -0.02633231
-0.10697204 -0.031946365 0.26913762 -0.061288975 0.10876662 -0.061765358 -0.085660934 0.009317891
-0.026379436 0.046320297 -0.04614294 0.05222642 0.10079388 0.019490367 0.16576962 -0.059863817
0.04623407 -0.06724146 -0.049174476 -0.11435108 -0.08997627 0.14941435 -0.08698668 0.027951166
0.078483425 -0.049996056 -0.058806654 -0.02821865 0.11128262 -0.028354306 -0.06794629 0.12990521
0.12468714 0.03577838 0.17211632 0.0338144 0.041521277 0.030666148 -0.018697498 0.004003104
0.057469003 0.057908535 -0.02371161 0.12237615 -0.019405682 0.12838118 -0.082470335 -0.008024777
-0.028325882 -0.04182012 -0.06825395 0.10478685 -0.0605595 0.019065464 -0.087798856 -0.06999318
-0.056865733 0.11900019 0.022885889 -0.08921773 0.040750477 0.16379017 -0.07906051 0.09620308
0.0059768045 0.063353434 -0.0925322 -0.04738378 -0.026814401 0.022885108 0.047870442 0.16465105
-0.11632223 -0.07826994 0.11933175 0.085348636 0.017471608 0.039147664 0.19408768 -0.18804179
-0.11440643 0.026937308 -0.108390674 0.10583474 0.035200503 0.105436355 -0.03968301 0.09068081
0.013348213 0.012149873 -0.063898265 -0.0050184233 -0.04531796 0.06278068 -0.079371236 -0.16168405
-0.06912368 -0.09854269 -0.004180889 0.07945832 -0.02617844 -0.019043015 -0.06906082 -0.032797396
0.04720822 -0.009588386 0.0524626 -0.0700806 0.029371914 -0.043471258 -0.01449318 -0.07259721
-0.027011352 0.01268064 0.05833139 -0.0091781225 -0.047111925 0.05921168 -0.06489135 0.043273192
-0.018912828 0.0015665572 -0.05532918 0.056899976 -0.15510626 0.0009628434 0.08370424 -0.017825456
-0.044410493 -0.07035112 0.11216286 -0.13207267 0.19878456 0.119211 0.013299503 -0.08655085
-0.039290827 -0.11884982 -0.06713415 -0.046021517 -0.14116941 0.14179945 0.10948042 0.16380659
0.09703743 0.08612158 -0.07960399 0.052588675 -0.020488692 0.009496943 0.07472208 -0.17028147

network_body._body_endoder.seq_layers.2.bias f4 [128]
00000000: 0000 0000 0000 0000 0000 0000 0000 0000
00000010: 0000 0000 0000 0000 0000 0000 0000 0000
00000020: 0000 0000 0000 0000 0000 0000 0000 0000
00000030: 0000 0000 0000 0000 0000 0000 0000 0000
00000040: 0000 0000 0000 0000 0000 0000 0000 0000
00000050: 0000 0000 0000 0000 0000 0000 0000 0000
00000060: 0000 0000 0000 0000 0000 0000 0000 0000
00000070: 0000 0000 0000 0000 0000 0000 0000 0000
00000080: 0000 0000 0000 0000 0000 0000 0000 0000
00000090: 0000 0000 0000 0000 0000 0000 0000 0000
000000a0: 0000 0000 0000 0000 0000 0000 0000 0000
000000b0: 0000 0000 0000 0000 0000 0000 0000 0000
000000c0: 0000 0000 0000 0000 0000 0000 0000 0000
000000d0: 0000 0000 0000 0000 0000 0000 0000 0000
000000e0: 0000 0000 0000 0000 0000 0000 0000 0000
000000f0: 0000 0000 0000 0000 0000 0000 0000 0000
00000100: 0000 0000 0000 0000 0000 0000 0000 0000
00000110: 0000 0000 0000 0000 0000 0000 0000 0000
00000120: 0000 0000 0000 0000 0000 0000 0000 0000
00000130: 0000 0000 0000 0000 0000 0000 0000 0000
00000140: 0000 0000 0000 0000 0000 0000 0000 0000
00000150: 0000 0000 0000 0000 0000 0000 0000 0000
00000160: 0000 0000 0000 0000 0000 0000 0000 0000
00000170: 0000 0000 0000 0000 0000 0000 0000 0000
00000180: 0000 0000 0000 0000 0000 0000 0000 0000
00000190: 0000 0000 0000 0000 0000 0000 0000 0000
000001a0: 0000 0000 0000 0000 0000 0000 0000 0000
000001b0: 0000 0000 0000 0000 0000 0000 0000 0000
000001c0: 0000 0000 0000 0000 0000 0000 0000 0000
000001d0: 0000 0000 0000 0000 0000 0000 0000 0000
000001e0: 0000 0000 0000 0000 0000 0000 0000 0000
000001f0: 0000 0000 0000 0000 0000 0000 0000 0000
0.0 0.0 0.0 0.0 0.0 0.0 0.0 0.0
0.0 0.0 0.0 0.0 0.0 0.0 0.0 0.0
0.0 0.0 0.0 0.0 0.0 0.0 0.0 0.0
0.0 0.0 0.0 0.0 0.0 0.0 0.0 0.0
0.0 0.0 0.0 0.0 0.0 0.0 0.0 0.0
0.0 0.0 0.0 0.0 0.0 0.0 0.0 0.0
0.0 0.0 0.0 0.0 0.0 0.0 0.0 0.0
0.0 0.0 0.0 0.0 0.0 0.0 0.0 0.0
0.0 0.0 0.0 0.0 0.0 0.0 0.0 0.0
0.0 0.0 0.0 0.0 0.0 0.0 0.0 0.0
0.0 0.0 0.0 0.0 0.0 0.0 0.0 0.0
0.0 0.0 0.0 0.0 0.0 0.0 0.0 0.0
0.0 0.0 0.0 0.0 0.0 0.0 0.0 0.0
0.0 0.0 0.0 0.0 0.0 0.0 0.0 0.0
0.0 0.0 0.0 0.0 0.0 0.0 0.0 0.0
0.0 0.0 0.0 0.0 0.0 0.0 0.0 0.0

action_model._discrete_distribution.branches.0.weight f4 [3, 128]
00000000: 28c2 583c fcc8 4239 e108 413b 32f4 1fbc
00000010: e890 ea37 0a6e 8bbc 707c ddbb 30e8 01b8
00000020: 9ade d5bb 1c33 b03b 907c 2a3c 3ae8 063c
00000030: c732 b3bb 6857 77bc 86a8 193c 15cc 14bc
00000040: 9fda 5cbc 7a68 d1bb 036e 13bb f48c 033c
00000050: 890c 0f3b fb02 463c f382 213b 3edc a1bb
00000060: 52b7 ed3a bbb6 02bc 7f27 d0bb 1fc3 7dbb
00000070: 92f4 f53b ed86 f2bb afb2 fcbb 6b5a 923b
00000080: 1eae a4bb f231 7b3a 6f50 5f3c 58d0 49bc
00000090: 0ce5 16bc 52b1 6ebc 1eea 873b 17b5 beba
000000a0: bbc8 bcb8 9b16 3cbc 3a15 a2bb bb40 c9b9
000000b0: 3827 993c 2967 b1bc 4deb 2fba aa55 9aba
000000c0: 7010 19bc 3e68 8a3b c912 243b 9723 203c
000000d0: bd6b ad3b ff9e 893c bc88 81bc af36 033b
000000e0: 7d33 38bb 158f 803a f35f 02bc 0d75 d53b
000000f0: 8859 3b3a 23cd f63b c985 333c df52 0b37
00000100: 25e7 043b cfc4 75bc 1d0d 1bbc 60c7 19bc
00000110: 50a8 8f3a da1d 0cbc 9ba0 7f3c 16eb c8bb
00000120: 747a 093c 4b40 a73b 0ac2 a5bb 7843 86bc
00000130: 5afd 22bc 03e9 c03b 43a6 1dbb cb57 bc3b
00000140: d8c3 d939 fab3 6dbc 8d89 f63b 234e 213c
00000150: 5126 893b 93fa 0b3c e7b0 f53b 0ac4 4f3c
00000160: c98b 36b8 cf1e 65bb fb1f 293c 376c 0f3c
00000170: 8a68 343b af27 54ba 3ff3 c6bb c056 06bc
00000180: 8389 5eb9 df44 01bc 10f1 c43b 8b26 36bb
00000190: 1ede 033a b080 5b3c df81 b23b d86b 6e3c
000001a0: 8263 4a39 a78d 45bb 57db 41bb 5551 663c
000001b0: 1889 e3ba 5d11 f23a fd7d 72bc f95f 93bb
000001c0: 6f8d d6bb f398 4e3b bb6b f2bb b5b3 63ba
000001d0: 72d2 583c f14e 233c 22fe 94bb c5cc 1bbb
000001e0: 4d1d cdbb 5ac2 f63b cbbf 3abc 18b8 90bb
000001f0: afbf 1c3c c042 203c bbe9 2d3b 8ba2 9a3a
00000200: a29d d33b effa 0f3c ed4b edbb 9532 e63a
00000210: d0ea e73a ca85 6b3b 02f7 babb d48a 2ebc
00000220: 72c7 d43b 0374 be3a afc9 df3b 0b00 413c
00000230: 4832 e83b ea70 933b bfc7 27bc 8f6e 3eba
00000240: 8b60 61bc 57c3 f8ba f237 b03b 2a1e 83bc
00000250: 028e e2bb 0ca3 27bb 8548 333c b258 18bc
00000260: e487 933b 7561 eabb 58cd 3139 eb9c 2fbc
00000270: 93fd 1e3c 53f1 303a a465 4cbb 3abd 72bb
00000280: 7df5 553c dc5a 303c ce29 95bb e253 d1ba
00000290: e5b4 5abc 042b 90bb c494 90bb 5e0c 353c
000002a0: 6861 d0bb 7f71 c23c 0578 e13b dae7 6fbc
000002b0: c8c3 503b ce83 033c e25f ff3b 8b80 953b
000002c0: 9890 5f3b 87be 08bc 5df7 a03b 240e b5bb
000002d0: a44b 1cbc aa65 de3b e328 27bc 382f 64bb
000002e0: 223c 6f3c 5274 fdbb 59d0 c3bb f8c2 8ebb
000002f0: 4fe7 be3b 06cc 8cbb 05c1 2d3b c853 623c
00000300: 6768 4cbc 298c 9dbb 036a 27bc 487c bbba
00000310: 1475 0f3c a7ac ad3c b059 733c 2b91 193c
00000320: 7b71 99ba 4894 a93b b94a b03a f866 3dbb
00000330: 40e1 99bb a03a 183c 7acf c3ba 4716 483a
00000340: 8982 06bc 2714 333c 3933 2e3c 1c08 153c
00000350: 44fa 81bc cd9b adba 0a99 663b dc75 813b
00000360: 1b5b c1ba 7372 c5bb db54 933c f70f 26bb
00000370: 2243 e6bb d8e0 3e3a eaf8 50bc cf09 e33a
00000380: 7b6a ebba 3a15 cd3b 4a41 8d3a 2fd2 a13b
00000390: 838e 1eba 9ed0 2d3c 9b08 4d3c 3b86 ec3a
000003a0: d309 043b f0d3 293c 882b 7f3b 791f 283b
000003b0: b57d ceba c545 d9bb 64a1 80bc 67fc e33b
000003c0: b7f7 1dbc b30d 7f3c 4d97 2f3c 934c 093a
000003d0: cf51 c63b 5239 04bc 8e7e 1cbb e5ad 8dbb
000003e0: 6f12 e337 5bca 323c c344 273c 1a6b deba
000003f0: 52d7 2f3c 5a79 7bbb b2ea d5b8 f11b adbb
0.013229884 0.00018576154 0.0029454755 -0.009762811 2.7962451e-05 -0.017020244 -0.006759219 -3.0972238e-05
-0.0065267803 0.0053771865 0.010405675 0.008234078 -0.0054686996 -0.015096523 0.009378558 -0.00908186
-0.013479858 -0.0063906284 -0.0022495992 0.008029211 0.002182754 0.012085672 0.0024644702 -0.004939585
0.0018136299 -0.007978137 -0.0063523646 -0.0038721038 0.0075059617 -0.0074013383 -0.0077117304 0.004466345
-0.005025639 0.00095823326 0.013630017 -0.012317739 -0.0092098825 -0.014568644 0.004147782 -0.0014549819
-9.0019275e-05 -0.011479999 -0.004946378 -0.00038385935 0.018695459 -0.021655636 -0.0006710783 -0.0011774797
-0.009342298 0.0042238524 0.002503561 0.00977411 0.0052923844 0.016799448 -0.01581227 0.0020021608
-0.0028106861 0.0009808267 -0.007957446 0.0065141977 0.0007146825 0.0075317784 0.01095719 8.304341e-06
0.0020279374 -0.015000536 -0.009463576 -0.009385914 0.0010960195 -0.008552039 0.015602256 -0.00613154
0.0083910115 0.0051041 -0.0050585316 -0.016389593 -0.009948099 0.005887152 -0.0024055399 0.0057477704
0.0004153538 -0.014508242 0.0075237215 0.009845289 0.004185476 0.008543628 0.007497895 0.012681017
-4.3522366e-05 -0.003496099 0.010322566 0.008753828 0.002752813 -0.00080930715 -0.0060714777 -0.008199394
-0.00021222797 -0.007889955 0.006010182 -0.002779397 0.00050303515 0.013397381 0.0054476107 0.014552079
0.00019301291 -0.0030144246 -0.00295802 0.014057477 -0.0017359583 0.001846831 -0.014800546 -0.004497525
-0.006547622 0.003152427 -0.0073980964 -0.0008686141 0.013233768 0.009967552 -0.0045468966 -0.0023773175
-0.0062595964 0.0075304927 -0.011398266 -0.004416477 0.009567185 0.009781539 0.002653702 0.0011797709
0.0064580003 0.008787855 -0.007241717 0.0017562682 0.0017693881 0.0035937899 -0.005705715 -0.010653216
0.0064935023 0.0014530424 0.0068294625 0.011779795 0.007086072 0.0044995444 -0.010240494 -0.00072643993
-0.013755928 -0.0018979114 0.005377763 -0.016005594 -0.0069139013 -0.0025579361 0.010942583 -0.00929849
0.0045022834 -0.007152731 0.00016956532 -0.0107185645 0.0097040115 0.00067498273 -0.0031188512 -0.0037039057
0.013059017 0.01076385 -0.0045521026 -0.0015970434 -0.013348793 -0.004399659 -0.0044122655 0.011050312
-0.006359268 0.02373576 0.0068807625 -0.01464268 0.0031854976 0.00802703 0.0077934125 0.0045624427
0.0034113284 -0.0083462065 0.0049123005 -0.0055253673 -0.0095395185 0.0067870216 -0.010202619 -0.0034818184
0.014601739 -0.0077348137 -0.0059757647 -0.004356738 0.005825914 -0.0042967824 0.0026512754 0.01381392
-0.012476063 -0.004807968 -0.010218146 -0.0014304006 0.008755941 0.021200491 0.014852926 0.00937299
-0.0011706793 0.005175147 0.0013450003 -0.0028900485 -0.0046960413 0.009291321 -0.0014939152 0.0007632714
-0.008209833 0.010930098 0.01063233 0.009096172 -0.015866406 -0.0013245285 0.0035186433 0.0039508175
-0.0014751883 -0.0060256063 0.017984798 -0.0025339106 -0.007027046 0.0007281429 -0.012754658 0.0017321649
-0.0017960811 0.006258634 0.0010776904 0.004938386 -0.00060484576 0.01060882 0.012514259 0.0018045375
0.0020147457 0.010365471 0.0038935859 0.0025653525 -0.0015754016 -0.0066306316 -0.015701957 0.006957579
-0.009641579 0.015567231 0.010717225 0.00052375457 0.006052233 -0.008070307 -0.0023879143 -0.0043237084
2.7069093e-05 0.010912503 0.010209265 -0.0016969175 0.010732489 -0.0038371892 -0.00010200347 -0.005282872

action_model._discrete_distribution.branches.0.bias f4 [3]
00000000: 0000 0000 0000 0000 0000 0000
0.0 0.0 0.0

action_model._discrete_distribution.branches.1.weight f4 [3, 128]
00000000: d25b 7bbb 6fc4 46bb 29a7 103c 4331 053c
00000010: d2f4 b3bb 8b46 9dbc 8560 58b8 33aa 033c
00000020: 683f 5c3c 226a 523c 23a0 31bc 48ec 8bbc
00000030: e5ac 46bb 6091 883b e202 0cbc 6500 e03b
00000040: ce89 42bc db91 c43c f33e e13b ed62 e23a
00000050: dbae 11ba b639 223c c193 2fbc abf9 583c
00000060: 609e 4dbc d7fa a13c 8f9f 3f3c 55b9 40bc
00000070: e0ad 52bb cd0b 33bc cf4a a6b9 5f02 e1bb
00000080: bb31 923c 0348 2f3c d2dd d83b 3f60 063c
00000090: e239 623c 296f aeba 7939 0e3c 5d61 0d3c
000000a0: a106 c13b b348 3cbb 800d 7dbc e79a 0b3c
000000b0: 3881 e2bb bb24 b43c 38ab 513b 7e84 17bb
000000c0: 88d0 d5bb eb6f 543b 300e 22bb c710 2d3c
000000d0: a646 a0ba a740 cbbb 5a07 2fbc 12bc 02bc
000000e0: 46c7 38bc cb83 8abc 93a1 b6bb 6ba3 84b8
000000f0: 27d5 aebb 9428 213c 3ac5 263c f03d 31b9
00000100: 0074 57bb b3f4 c73b 3368 8c3b 782e 15ba
00000110: 7ca4 c33b aed0 8bbb e563 393b 4751 593c
00000120: 437e 843b 05dc 07bc ffbc 943a e9aa a13a
00000130: a987 aabb 15e4 de3b 9519 41bb 9f0c cc3b
00000140: 1b6b 043c 2c6e 99bb d814 d0bb d321 b7bb
00000150: 1455 b3b9 5407 8a3b 00a1 663c cf1c 4abc
00000160: 85d9 5b3b b5cb 08bc fbf5 a5bb 75c6 98bb
00000170: 8582 883a 97c6 fa3b 1605 48bb 2fd0 59bc
00000180: 2b70 2d3b ba6a 873c 8506 f7ba 8329 843b
00000190: a1fc aeba d3b7 63bc fa7e 373c 631a 2037
000001a0: 1a68 57bb 15e0 55bc 8cc3 8a3b 22a5 15bc
000001b0: 82eb b8bb 67b8 19bb d04f 4d3b 99ef 07bd
000001c0: b87f 633c da2f 34bc cba1 8f3a 0dc2 52ba
000001d0: 6a51 2b3c ff11 a2bb c026 10bb 20b9 98bc
000001e0: 5fb9 c6bb 7fc3 3e3c 8271 7fbb dd30 cfbb
000001f0: e9d0 9fbb 6711 9ebc 6393 dc3b 0591 663b
00000200: 6516 8dbc c94e 1539 4fc9 a7bb dd9a ccbb
00000210: ee37 933c 4aa3 243b 87e7 723b c08d e5bb
00000220: 17d2 303c 9eb9 15bc ef3e cebb d29f 4a3b
00000230: 16cf b538 ede9 94bb d532 a73b fab2 4c3b
00000240: 4e3c 20bc d4de 193c 913f 82bc 0b78 763a
00000250: 0ba3 2b3c b2c2 303b 8763 8c3c d99f 8f3c
00000260: b753 afbc 46c0 43bc ca9f 15bc 174d 04ba
00000270: 3f7e 6a3c a3cf baba 8fc3 a6ba 351b 39bc
00000280: 8362 153c 0243 d3bb 9ace bfbb c850 7c39
00000290: f8b6 083c 097f 97bb 50ac da3b 2a50 92bb
000002a0: 780d dbbb d24a ccbb 57b2 7f3b 2ffe 6f3c
000002b0: 6702 253c abbb 143c c8c7 80bb 17ca 01bc
000002c0: 5f87 393c 8e02 1a3c ac54 253c 73cb 83bc
000002d0: bf5e eb3a d79d d53a 4b77 77bb 2f39 8739
000002e0: 2aac 21bb 6a0b 5f3c 7eb1 333c 330a 123c
000002f0: 8f06 aebb b8f5 dc3a a946 1cbc 4f60 cebb
00000300: 0b5e 25bc dc88 2b3c 72a7 6a3c 7355 c53b
00000310: 11be 43bb 235a 533c d2af b9bb 33e9 e13b
00000320: 58c2 e73b 8f23 a43c f253 42bc f779 8fb9
00000330: 75bd 583c 275b ff3c 5566 ea3b fdce 903c
00000340: bc60 173c 17a6 7bbb 67dc b83b 63db 003a
00000350: 87c1 14bc c0d3 a5bb d2d6 15bc f5a0 593c
00000360: d71f 35bb a3ce 833b b2d7 3e3b 2fd2 053c
00000370: 0ea2 41ba 5e78 17bc 5bff 6ebb b0f7 3abc
00000380: 1296 693c 7f6c 53bc a3dc 133b 201d 893c
00000390: 102c 32bb d7e9 043c edde ef3a ecfb a33a
000003a0: e0df 5a3b ecbc b2bb a712 063c 5b3a 05bc
000003b0: b7e7 b5bb 918c 29bc 95ee c03b 2e35 8ebb
000003c0: 25c4 76bb 8fd1 68bb 60f3 d3ba d7a3 ea3b
000003d0: d34b 8cbb 4d2f a23b 462d 943c ef7e 353b
000003e0: 6600 8fba cea6 48bc 7b7e 0c3b 8681 b3bb
000003f0: cb57 fe3b 679d 133c d393 6d3c c063 263b
-0.003835429 -0.0030329486 0.008828917 0.008129421 -0.0054918313 -0.019198677 -5.1588304e-05 0.008036184
0.013442852 0.012842687 -0.010841402 -0.017080441 -0.0030315456 0.0041677207 -0.008545609 0.0068359845
-0.0118736755 0.02399533 0.006873959 0.0017271914 -0.00055573665 0.009901455 -0.01071638 0.013243119
-0.012549967 0.01977293 0.011695757 -0.011762937 -0.0032147095 -0.0109281065 -0.00031717724 -0.0068667377
0.017845979 0.010698321 0.00661824 0.008201658 0.013807746 -0.0013308275 0.008680695 0.00862917
0.005890683 -0.0028729856 -0.015445113 0.008520818 -0.0069123767 0.02199017 0.0031992923 -0.0023119743
-0.006525103 0.003241534 -0.0024727695 0.010563082 -0.0012228086 -0.0062027755 -0.010682905 -0.00797941
-0.011277979 -0.016908547 -0.0055734604 -6.3246895e-05 -0.0053354683 0.009836335 0.010178858 -0.00016903109
-0.0032875538 0.0061021685 0.0042848825 -0.00056908233 0.005970536 -0.00426682 0.0028288302 0.013264007
0.004043372 -0.008292203 0.0011347829 0.001233426 -0.00520416 0.006802092 -0.002946471 0.0062270905
0.008082177 -0.004682323 -0.006350141 -0.005588749 -0.0003420493 0.0042122994 0.014076471 -0.01233597
0.00335464 -0.008349349 -0.0050647235 -0.00466233 0.0010414874 0.0076530683 -0.003052061 -0.013294264
0.0026464562 0.016530383 -0.0018846547 0.004033269 -0.0013350436 -0.013898808 0.011199707 9.542887e-06
-0.0032868446 -0.013053914 0.004234737 -0.009133609 -0.005643309 -0.002345586 0.003132809 -0.033187483
0.013885431 -0.010997737 0.0010958252 -0.000803978 0.010456422 -0.004945993 -0.0021995753 -0.018642962
-0.0060645784 0.01164329 -0.0038977568 -0.0063229636 -0.004877199 -0.019295407 0.006731437 0.0035181653
-0.017222593 0.00014239097 -0.0051204334 -0.006244047 0.017971005 0.0025121742 0.003706427 -0.0070054233
0.010792277 -0.009138493 -0.0062941234 0.0030918014 8.669325e-05 -0.0045444877 0.005102495 0.0031234608
-0.009780003 0.009391505 -0.015899451 0.0009402043 0.010475884 0.0026971516 0.017137302 0.017532276
-0.021402223 -0.011947697 -0.009132335 -0.00050468877 0.014312326 -0.0014252554 -0.0012723076 -0.011297991
0.009117725 -0.006447197 -0.0058534862 0.00024062686 0.008344404 -0.004623298 0.0066733733 -0.0044651227
-0.006684955 -0.006234505 0.003901621 0.014648004 0.010071374 0.009077947 -0.003930066 -0.007921717
0.011323779 0.009400023 0.010090988 -0.016088223 0.0017957314 0.001629765 -0.0037760313 0.00025791812
-0.0024669268 0.013613561 0.01096761 0.0089135645 -0.0053108404 0.0016857898 -0.009538331 -0.006298102
-0.010093222 0.010469642 0.014322149 0.006022149 -0.0029867927 0.012899908 -0.0056667114 0.0068942546
0.007072728 0.020036487 -0.011860834 -0.00027365956 0.013228764 0.031171395 0.007153312 0.017676825
0.009239372 -0.0038398558 0.0056415084 0.00049155037 -0.009079344 -0.005060643 -0.009145455 0.013283004
-0.0027637386 0.0040224358 0.0029120264 0.008167787 -0.0007386514 -0.009245006 -0.0036468122 -0.011411592
0.014256971 -0.012904285 0.002256193 0.01673752 -0.0027186908 0.008112392 0.001830069 0.0012510992
0.00333976 -0.00545465 0.008183158 -0.008131589 -0.005551304 -0.010348455 0.005887816 -0.0043398356
-0.0037653532 -0.0035525297 -0.0016170554 0.0071606445 -0.0042815 0.0049494863 0.018087994 0.0027694067
-0.0010910153 -0.012246801 0.0021437693 -0.005478087 0.0077619306 0.009009696 0.014500576 0.0025389045

action_model._discrete_distribution.branches.1.bias f4 [3]
00000000: 0000 0000 0000 0000 0000 0000
0.0 0.0 0.0

action_model._discrete_distribution.branches.2.weight f4 [2, 128]
00000000: 5bf5 f03b 68e2 a6bc 50f5 f73b 755d 743c
00000010: 666b 223c 03b1 a1bb a5f1 cd3b 54d2 a73a
00000020: a7b4 ed3b 554b 97bc 1749 1bbc cdb4 4d3c
00000030: 5afa 463c 3d0e d4bc 4b6e e5bb 9d49 ff3b
00000040: 0b39 36bc 4da4 453c 252f 973b 13e4 ac3b
00000050: e080 6cbc 90ad 52bb 605a 81bc 93e2 043c
00000060: 13cf a53c c1c6 04bc 86f8 4a3c 3fd1 573b
00000070: bac5 523c cb1c 32bc 1db2 4fbc 8bab 09bc
00000080: 25f8 173c 0f00 1e3c 8d36 653c 5502 5a3b
00000090: d86f 3e3c afbd f83b aa93 0a3c 5cbd 393b
000000a0: af6b c4b8 932b f73b a5a4 0d3c d0cb 403c
000000b0: da3f 3cbb 512d 35b9 7bdb 343b b01e bcbb
000000c0: c439 9a3b 82d9 4cbc 1f73 39bc 1f3e 9439
000000d0: 96bc b23b 5b42 8bbb 1cee a1ba 5d42 063c
000000e0: f8d6 af3b 93be 75ba 831b 6bbc 0b29 013c
000000f0: c49d 9d3a 84a3 c63c 95ee fd3a 67bc 853c
00000100: 6269 cfbb 6332 ccbb d7ab 163b c18a a2bb
00000110: 38f8 4f3b 9892 9f3a 9f04 093c 4fc9 363c
00000120: e93e 9cba 4c4a a1b9 128d ecbb 0b31 973c
00000130: 511d 813b a783 20bc fd8a 6d3c 1dd9 ae3a
00000140: 0dd8 81bc 7a3c 773c a96a 28bc db3c 333c
00000150: 1482 12bc d25e d53b 296f 3bbc f40c 06bc
00000160: 3979 97bb 3a60 ac3b 4d9c e9bb 5851 3abc
00000170: 7702 8a3c 779d 86bb 51f7 3fbb 9760 713b
00000180: baf7 c93b 7b91 81bc c365 18bc b23d 90bc
00000190: fd36 9338 9354 b439 9e13 3b3a b3de 2abc
000001a0: cf8a ae3b 2b19 0d3b 67d7 423a 99a4 293b
000001b0: ef1f dc38 8aad 1abc 2740 253c c689 82ba
000001c0: 9766 7fbc bc7a a2ba fbe6 06bc fb26 a1bb
000001d0: 0fbb 1bbb d96e a1ba 9939 32b8 6336 e1bb
000001e0: 8b55 17bb 7518 84bc 4f32 11bb e7e0 36ba
000001f0: d780 09bc e8c9 b5bc b7af 5fbb 188a 503c
00000200: 8379 24bb eee9 c9ba 23a3 0bbc f32b 3b3c
00000210: 77e3 21bb 4d16 26bc 600c 2fbc 9f25 393c
00000220: 52d6 bf3b efd1 8fbb a5bb 51bb f519 233c
00000230: aa31 c63b bbb1 1a3c 8d5a d639 b5a5 18bc
00000240: df8b 073c b735 923a dd44 e83a dd94 cebb
00000250: 8747 123c 630e 133c ab65 ad3c 0302 94bb
00000260: 70c2 6c3b 5bd3 1f3c 6d81 36bb b93c 8abb
00000270: ba1e e5bc 3bab 1b3c 9f4d b0bc 3f9d 163c
00000280: be5e a2bc cae8 9cbb 9b10 b6bb d670 86bc
00000290: b300 b2bb c17d 983b 94d3 a13b 4081 4f3c
000002a0: d2cc f53a 07a3 00bc 9fae 5b3b 1311 823a
000002b0: 044f c83b e2ff 50ba 771b 1bbc d17e 0ebc
000002c0: 9d79 74ba d3b3 82bb c072 683c 0847 e83b
000002d0: 4c18 a4bb 4751 9dbb 13ea 1ebb b317 543a
000002e0: 7499 2dbb 2460 003b bf51 4cbc 32c9 c63b
000002f0: 4391 e03b 02fe 053c 3853 5cbc a86e 9aba
00000300: b79d 8b3c 300a 093c db7f 60bb e24b 343b
00000310: 8ead 913a 0cbd 43bc 23a9 3ebc 79a0 3aba
00000320: ddab 743c e433 30bc 1f02 a53b fb81 843c
00000330: 2a78 f339 4f92 01bc 4f06 613c 2729 0b39
00000340: 8f9c 89bb 45ca c8ba 9277 dbbb b196 9dbc
00000350: 37d3 bdbb d3bf 0c3c 7261 3a3b 12d8 47bc
00000360: d517 cbbb eb74 63bb 6d3e 4d3c 2943 1ebc
00000370: c261 31bc 3f86 383c 8725 5dbc 9f78 84bc
00000380: 1865 41bb 0761 36bc f5c0 a6bc e76e 413a
00000390: a590 203b c811 333c d521 863b 33fe e33b
000003a0: a8df eb3a 57e9 a8bb 938b 803b 80bb 4fbb
000003b0: 63c1 263b 984f 9fba 0586 be3b 9a94 ac3b
000003c0: 480d fb3a ab6c f6ba 83db 56bc 8b83 f73b
000003d0: df24 813c 985e 703b 237c 873a bfda 34bc
000003e0: 6341 543b 387c 213c bb77 083c 1b22 5abc
000003f0: 7259 e13b 2e92 043b de1f 28bb 2c80 33bc
0.0073534674 -0.02037163 0.0075670853 0.01491486 0.009913301 -0.0049344315 0.00628491 0.0012803772
0.0072542015 -0.018468538 -0.009477875 0.012555313 0.012144649 -0.025885696 -0.0070016733 0.007790758
-0.011121999 0.012063098 0.0046137744 0.005276212 -0.014435023 -0.0032146908 -0.015790164 0.00811066
0.020240342 -0.008104027 0.012388354 0.0032931117 0.0128645245 -0.010871123 -0.012676743 -0.008402715
0.009275471 0.009643569 0.013990057 0.003326555 0.011623345 0.0075909714 0.008458057 0.0028341627
-9.366066e-05 0.0075430362 0.008645211 0.011767343 -0.0028724582 -0.00017278387 0.002759664 -0.005740963
0.004706593 -0.01250303 -0.011318951 0.00028275044 0.00545461 -0.0042498535 -0.0012354287 0.008194533
0.0053662024 -0.0009374406 -0.014349821 0.007883321 0.0012025167 0.024247892 0.0019373471 0.016325189
-0.0063297013 -0.0062315925 0.0022990608 -0.0049603884 0.0031733643 0.0012174426 0.008362918 0.011156394
-0.0011920604 -0.00030763668 -0.0072189653 0.018456003 0.0039402624 -0.009797013 0.014498469 0.0013339851
-0.015850091 0.015090102 -0.010279336 0.010939802 -0.008942146 0.0065115476 -0.011440077 -0.008181799
-0.004622605 0.0052604945 -0.007129228 -0.011371933 0.016846878 -0.0041081267 -0.00292917 0.0036831254
0.0061635645 -0.01581644 -0.009301606 -0.017607544 7.0197486e-05 0.00034395288 0.0007136407 -0.010429072
0.005326606 0.0021529894 0.000743261 0.0025885461 0.000104963656 -0.009440789 0.010086096 -0.0009959273
-0.015588424 -0.0012396197 -0.008233781 -0.004917977 -0.0023762619 -0.001231636 -4.249215e-05 -0.0068729385
-0.002309176 -0.016124943 -0.002215523 -0.0006976262 -0.008392534 -0.022191003 -0.0034131834 0.012728237
-0.002509684 -0.00154048 -0.008522782 0.0114240525 -0.002470223 -0.010137153 -0.010684103 0.0113004735
0.0058544064 -0.0043890397 -0.0032002714 0.009954919 0.006048401 0.009441788 0.00040884726 -0.009316851
0.008273094 0.0011154924 0.0017720718 -0.006304367 0.008928186 0.008975598 0.021166643 -0.0045168414
0.0036126636 0.009754981 -0.002784814 -0.0042186645 -0.027968753 0.009501274 -0.021521388 0.009192764
-0.019820567 -0.004788493 -0.0055561787 -0.016411226 -0.0054322123 0.004653663 0.004938552 0.012665093
0.0018753058 -0.007851369 0.003352083 0.0009923301 0.006112935 -0.00079727 -0.009466997 -0.008697228
-0.0009325983 -0.003988722 0.014187515 0.0070885457 -0.005007779 -0.004800949 -0.0024248406 0.00080906897
-0.002648917 0.0019588554 -0.012470662 0.006066465 0.006853254 0.008178236 -0.013447575 -0.0011782246
0.017042978 0.008364245 -0.0034255895 0.002751105 0.0011114345 -0.011946928 -0.011637005 -0.0007119249
0.0149335535 -0.010754559 0.0050356532 0.01617526 0.000464381 -0.007908418 0.013734414 0.00013271403
-0.0041995714 -0.001531907 -0.0066976035 -0.019236894 -0.005793001 0.008590656 0.002843943 -0.012197511
-0.0061979094 -0.003470714 0.0125270905 -0.009659567 -0.01082653 0.0112624755 -0.013497717 -0.016170798
-0.002950972 -0.011131532 -0.020355681 0.00073788915 0.0024500277 0.010929532 0.0040933886 0.006957793
0.0017995732 -0.0051547694 0.0039228885 -0.0031697452 0.0025444857 -0.0012154458 0.005814316 0.005266738
0.0019153738 -0.0018800696 -0.013113859 0.007553523 0.015764652 0.0036677476 0.0010336678 -0.011038481
0.0032387606 0.009856276 0.008329327 -0.013313795 0.006877118 0.0020228731 -0.002565376 -0.0109558515

action_model._discrete_distribution.branches.2.bias f4 [2]
00000000: 0000 0000 0000 0000
0.0 0.0

network_body._body_endoder.seq_layers.0.weight f4 [128, 86]
00000000: 9123 7fbb a112 cfbc de30 0abe 39c5 bb3c
00000010: 0415 e9bd 714f 4dbd d9fa a7bc c61f da3c
00000020: f262 ac3c 323e 44bd 953d 1e3e b463 883d
00000030: d552 b9bb 70ff 043c 3d6c 903d d704 303e
00000040: a9b1 e0bd 8c17 63bd c1ee 0e3e ecc7 94bd
00000050: 2a70 463e 86e8 3bbe 4267 0e3d d350 223b
00000060: 28ef 2fbc 8732 59be b28c 44be 70c0 48bc
00000070: d559 963d 9310 163e 3de2 0a3d ea48 42bc
00000080: 84c3 083c 0c1b c13c 1556 1f3e b5d0 a4bc
00000090: 93d4 cebd 1957 6cbb be93 d5bd a1a4 2a3d
000000a0: e16c 5d3d 0228 a23d b087 90bd 17a0 7abd
000000b0: 55fa b83d 118c 123e 80f5 22be a9b7 d53d
000000c0: 8beb 2ebe 2551 313e 0bc5 9fba ebef b73d
000000d0: a0bf afbe 65ab 0dbe c851 363e f3fd bdbd
000000e0: 67b1 04be 021a e0bd 6b7d 8bbd 543b 923d
000000f0: 6e28 3fbc 6d69 8e3d e8c0 203c 516a e43c
00000100: 5872 01bd 3883 55bd 25d4 ab3d 1ad6 f23d
00000110: 3b68 9bbd 0da8 2d3d 8780 963d 0628 98bc
00000120: 5bc7 e8bd 5af8 2dbe 2a6f 7cbd a74e 50bc
00000130: 0323 04be 3add 0bbd afb0 bf3d 9424 1d3d
00000140: 615d da3c 0aca 4fbe ec48 13be 0972 1c3d
00000150: eb3e 17be ac03 e4bd 0dfc 3fbe 9655 c03c
00000160: 2315 243c 6f43 83bc 1ae4 4c3e 862c 65bd
00000170: e93e 12bd d59e aabd fa24 82bd daab cbbd
00000180: f795 943d ecd8 113e cdc8 22be 8538 5e3c
00000190: ba25 443d afc9 9e3d 4963 003d e3d6 49be
000001a0: 58f5 dfbc f4c4 56bd c6a0 833d 0c53 843e
000001b0: 4f52 473d e133 353e 51a9 253c 776c 733d
000001c0: 11de 85bd 09e4 033e 15e7 203d 7de5 40be
000001d0: 66b4 833d dca2 72bb 64a0 0cbb 31fb afbd
000001e0: adc4 243c 75d1 a9bd 9669 32be 0af2 f0bd
000001f0: c2ce 2fbd 3ee7 51bc 0d06 cdbc 601b ebbc
00000200: d825 5c3c 14f0 3e3d 3ab2 3c3e 6731 25bd
00000210: a1b0 e23c 1d54 b23d e53f 303e 2799 023e
00000220: a723 1fbb d166 b53e ac0f 2abe 79f4 c03d
00000230: ec7c 8dbc 1288 95bb bbfb 64be 7bfa 31be
00000240: 9177 0e3e 5d86 12bd 5a26 5f3e 1fe4 09be
00000250: 5405 8ebd 3e3f 91bd 85f0 8c3d fba2 8b3d
00000260: ccde ecbd 0a19 51be ffb5 9e3d 4a53 e53b
00000270: 5cf4 46bb e32d 76be 89c3 693d bfbd 36be
00000280: 0372 11bd 2764 b5bd 449c 023e f2f4 be3d
00000290: f0a9 d03d 6142 893d 81fa bb3d cf90 d23d
000002a0: 9aa4 20bd d24c d03d 5968 56be 4351 0cbc
000002b0: 5ce3 48bd 1a19 063e bf01 acbd 229e b6bc
000002c0: a6ee f03d 473c 11be 571c 02bd ec11 99bd
000002d0: d356 7fbd 65bc 93bc 4372 953d 8281 143d
000002e0: 77f8 87bd 4c2f 28be 292d 1d3b 54d6 303e
000002f0: 80d7 2f3b 5ae1 973d dce2 993d a823 cc3d
00000300: 8af5 56bd 9f0a ecbb 23d9 97bd afe7 6a3d
00000310: a1ba 57be a5cf 9bbd 9e59 413d 2f1c e3bd
00000320: 94ff bd3a 924e e9bd 8a48 693d 82ab 8a3d
00000330: 4509 ad3c d16c b13c 9530 33bd 21fe 2f3e
00000340: 39c2 0fbe 1d29 39be ec1d 85bd 6ada 93bd
00000350: 0553 a23c e9ac bdbd 418c c7bc fb5c 6d3d
00000360: adef 5f3d 1a35 ec3c 1158 bcbd f7c4 bc3d
00000370: 8dd9 efbd 16c3 843d f671 16bd d790 373e
00000380: 711a b4bc 944b be3c 759a bfbd e96a 33be
00000390: 6d7d d0bc 54be 91bd 7b01 213e bac5 c9bd
000003a0: 5563 203d a369 ed3d 6d4d 75bd 986e 6fbd
000003b0: 2790 9ebd 5249 b2bc b626 e8bc 9ae2 9bbe
000003c0: 8e01 8fbe bde5 fc3d 364b 50be 7dfc d03d
000003d0: bb45 f63d 509e adbc eb10 0a3d af0d 4a3d
000003e0: b615 3bbe 81f9 913d ab1a 1dbe b6ab e73d
000003f0: 2b13 69be 1a4f 243d 6f8e be3d a91f 1cbe
-0.0038931111 -0.025277438 -0.13495204 0.022921192 -0.113809615 -0.05012459 -0.020505356 0.026626479
0.021043275 -0.047910877 0.15453179 0.06659642 -0.0056556263 0.008117542 0.07051895 0.17189346
-0.10971386 -0.055442378 0.13958265 -0.072646946 0.19378725 -0.1835042 0.034766443 0.0024767413
-0.010738172 -0.21210681 -0.19194296 -0.012252912 0.07341353 0.1465476 0.033907164 -0.011858204
0.008347396 0.023572467 0.15560181 -0.02011905 -0.10099139 -0.0036062656 -0.1042857 0.04166091
0.054058913 0.07917787 -0.0705713 -0.06118783 0.09032122 0.14311244 -0.15913963 0.10435421
-0.1708204 0.1731611 -0.0012189461 0.089813076 -0.34325886 -0.13834913 0.17804635 -0.092769526
-0.12958299 -0.109424606 -0.06811031 0.07140222 -0.011667354 0.06953702 0.009811617 0.027882727
-0.031603187 -0.052127093 0.08390073 0.11857243 -0.0758824 0.042396594 0.073487334 -0.018573772
-0.11366149 -0.1698927 -0.06162945 -0.012714065 -0.12903981 -0.034146525 0.093598716 0.03836496
0.026655855 -0.20291916 -0.14383286 0.03819469 -0.14770095 -0.11133513 -0.18748493 0.02347831
0.010014805 -0.016023366 0.20008889 -0.055950664 -0.035704527 -0.08331076 -0.06354709 -0.099448875
0.07255166 0.14242905 -0.15896912 0.01356328 0.04788754 0.07753312 0.031344686 -0.19710879
-0.027338669 -0.052433923 0.064271495 0.2584461 0.04866248 0.17695571 0.010111169 0.059429612
-0.065364964 0.12879957 0.039282877 -0.18837543 0.06430893 -0.0037023341 -0.0021457905 -0.08592833
0.010056657 -0.08291904 -0.1742309 -0.11764915 -0.04292179 -0.01281148 -0.0250273 -0.028699577
0.013436757 0.046615675 0.18427363 -0.040330317 0.027672114 0.087074496 0.17211874 0.12753735
-0.0024282725 0.35430005 -0.16607541 0.094216295 -0.017271481 -0.00456334 -0.22361653 -0.17380707
0.13912798 -0.03577267 0.21791974 -0.13465928 -0.0693461 -0.070921406 0.06881813 0.068181954
-0.11565933 -0.20419708 0.07749557 0.006998454 -0.0030358052 -0.24040942 0.057071242 -0.1784582
-0.03550912 -0.08856993 0.12754923 0.09324063 0.10188663 0.06702114 0.09178639 0.10281526
-0.039219476 0.10170902 -0.20938243 -0.008564296 -0.04904495 0.13095513 -0.083987705 -0.0222922
0.117642686 -0.1418315 -0.03176531 -0.074741215 -0.06233866 -0.01803417 0.07297184 0.03625632
-0.06639188 -0.16424292 0.0023983216 0.1726926 0.002683133 0.07416029 0.07513973 0.099677384
-0.052480258 -0.0072034146 -0.074144624 0.057349857 -0.21067287 -0.076079644 0.047204606 -0.1108936
0.0014495724 -0.11391939 0.056953944 0.06770994 0.021122584 0.021658333 -0.043747503 0.17186786
-0.14038934 -0.1808209 -0.06499848 -0.072193936 0.019814977 -0.092614956 -0.02435887 0.05795
0.054671932 0.028833915 -0.09196485 0.092172556 -0.117114164 0.06482522 -0.036729775 0.17926346
-0.021985264 0.023229398 -0.09355632 -0.17521252 -0.025450433 -0.0711638 0.15723221 -0.098521665
0.03915723 0.11592414 -0.059888292 -0.05845508 -0.07742339 -0.021763477 -0.028338771 -0.3044632
-0.27930874 0.123485066 -0.2034119 0.10204408 0.12025019 -0.021193653 0.03370754 0.049329456
-0.18270001 0.07127667 -0.15342204 0.11312048 -0.22761218 0.0401145 0.09304511 -0.15246452

network_body._body_endoder.seq_layers.0.bias f4 [128]
00000000: 0000 0000 0000 0000 0000 0000 0000 0000
00000010: 0000 0000 0000 0000 0000 0000 0000 0000
00000020: 0000 0000 0000 0000 0000 0000 0000 0000
00000030: 0000 0000 0000 0000 0000 0000 0000 0000
00000040: 0000 0000 0000 0000 0000 0000 0000 0000
00000050: 0000 0000 0000 0000 0000 0000 0000 0000
00000060: 0000 0000 0000 0000 0000 0000 0000 0000
00000070: 0000 0000 0000 0000 0000 0000 0000 0000
00000080: 0000 0000 0000 0000 0000 0000 0000 0000
00000090: 0000 0000 0000 0000 0000 0000 0000 0000
000000a0: 0000 0000 0000 0000 0000 0000 0000 0000
000000b0: 0000 0000 0000 0000 0000 0000 0000 0000
000000c0: 0000 0000 0000 0000 0000 0000 0000 0000
000000d0: 0000 0000 0000 0000 0000 0000 0000 0000
000000e0: 0000 0000 0000 0000 0000 0000 0000 0000
000000f0: 0000 0000 0000 0000 0000 0000 0000 0000
00000100: 0000 0000 0000 0000 0000 0000 0000 0000
00000110: 0000 0000 0000 0000 0000 0000 0000 0000
00000120: 0000 0000 0000 0000 0000 0000 0000 0000
00000130: 0000 0000 0000 0000 0000 0000 0000 0000
00000140: 0000 0000 0000 0000 0000 0000 0000 0000
00000150: 0000 0000 0000 0000 0000 0000 0000 0000
00000160: 0000 0000 0000 0000 0000 0000 0000 0000
00000170: 0000 0000 0000 0000 0000 0000 0000 0000
00000180: 0000 0000 0000 0000 0000 0000 0000 0000
00000190: 0000 0000 0000 0000 0000 0000 0000 0000
000001a0: 0000 0000 0000 0000 0000 0000 0000 0000
000001b0: 0000 0000 0000 0000 0000 0000 0000 0000
000001c0: 0000 0000 0000 0000 0000 0000 0000 0000
000001d0: 0000 0000 0000 0000 0000 0000 0000 0000
000001e0: 0000 0000 0000 0000 0000 0000 0000 0000
000001f0: 0000 0000 0000 0000 0000 0000 0000 0000
0.0 0.0 0.0 0.0 0.0 0.0 0.0 0.0
0.0 0.0 0.0 0.0 0.0 0.0 0.0 0.0
0.0 0.0 0.0 0.0 0.0 0.0 0.0 0.0
0.0 0.0 0.0 0.0 0.0 0.0 0.0 0.0
0.0 0.0 0.0 0.0 0.0 0.0 0.0 0.0
0.0 0.0 0.0 0.0 0.0 0.0 0.0 0.0
0.0 0.0 0.0 0.0 0.0 0.0 0.0 0.0
0.0 0.0 0.0 0.0 0.0 0.0 0.0 0.0
0.0 0.0 0.0 0.0 0.0 0.0 0.0 0.0
0.0 0.0 0.0 0.0 0.0 0.0 0.0 0.0
0.0 0.0 0.0 0.0 0.0 0.0 0.0 0.0
0.0 0.0 0.0 0.0 0.0 0.0 0.0 0.0
0.0 0.0 0.0 0.0 0.0 0.0 0.0 0.0
0.0 0.0 0.0 0.0 0.0 0.0 0.0 0.0
0.0 0.0 0.0 0.0 0.0 0.0 0.0 0.0
0.0 0.0 0.0 0.0 0.0 0.0 0.0 0.0
