MLBase/results/ppo/CaptureTheFlag/CaptureTheFlag-209.onnx (onnx, 124315 bytes, 9 tensors)

discrete_act_size_vector f4 [1, 3]
0	0x40400000	3.0
1	0x40400000	3.0
2	0x40000000	2.0

network_body._body_endoder.seq_layers.0.weight f4 [128, 87]
0	0x3d9e6f4e	0.077360734
1	0x3db63fa2	0.08898856
2	0xbd34a9ec	-0.044107363
3	0xbdbd9c56	-0.09258334
4	0x3c5e428a	0.013565669
5	0xbc91409d	-0.017731005
6	0x3cfd1a30	0.030896276
7	0x3de3d60d	0.11124811
8	0xbd1f9663	-0.03896178
9	0x3d74404a	0.059631623
10	0x3c1d45ac	0.009599131
11	0xbaeefc97	-0.0018233237
12	0xbcd882ad	-0.026429499
13	0xbd453805	-0.048149128
14	0xbd0dcd8a	-0.034619845
15	0x3d47b003	0.048751842
16	0xbdbe753c	-0.092997044
17	0xbdf7b377	-0.12094777
18	0x3d9d385d	0.07676766
19	0x3d2495bd	0.040181864
20	0xbe14b9bc	-0.14523977
21	0xbe06b15f	-0.13153599
22	0xbd94e13c	-0.072695225
23	0xbca2f963	-0.019894307
24	0xbdf65662	-0.12028195
25	0x3d0f4e77	0.03498694
26	0x3e1b92ac	0.1519267
27	0x3df16180	0.11786175
28	0xbd4d6836	-0.05014821
29	0x3dec6070	0.115418315
30	0x3de463da	0.11151858
31	0x3ce66be5	0.02812762
32	0x3df1f578	0.118143976
33	0xbcdc0b89	-0.02686097
34	0xbd8d435b	-0.06897613
35	0xbe42dca6	-0.19029483
36	0x3cdaba88	0.026700273
37	0xbd93a9c6	-0.07210116
38	0xbda32cf5	-0.07967559
39	0x3dc4f6b5	0.09617368
40	0x3e05382d	0.1300971
41	0xbe2d440c	-0.16920489
42	0xbc58d51b	-0.013234402
43	0x3cedf4c7	0.029047383
44	0xbba41e3b	-0.0050084866
45	0xbc3a9503	-0.011388066
46	0x3d2995b1	0.041402522
47	0x3cbbc1b7	0.022919519
48	0xbc104839	-0.008806282
49	0xbdbcb5b3	-0.09214344
50	0xbda0d475	-0.07853023
51	0xbe0bcf6b	-0.13653342
52	0xbda32431	-0.07965887
53	0xbe774079	-0.24145688
54	0x3db0d4a7	0.0863431
55	0x3d2a9ae4	0.04165162
56	0x3e402aa2	0.18766263
57	0xbe336b82	-0.1752148
58	0xbe198460	-0.14991903
59	0x3cf125ae	0.029436912
60	0x3d2dfcea	0.042477526
61	0x3e2ced4d	0.16887398
62	0xbcd22c8b	-0.025656005
63	0xbd93c6fd	-0.072156884
64	0x3c07dd6a	0.008292535
65	0xbd1f1625	-0.038839478
66	0xbe14f111	-0.14545085
67	0x3c137151	0.008999185
68	0x3e5381aa	0.20654932
69	0x3d680563	0.056645762
70	0x3cf36f77	0.029716237
71	0x3e67c21d	0.22632642
72	0x3e61aabd	0.22037788
73	0x3d01b41d	0.03166591
74	0x3c02f6e5	0.007993435
75	0x3da2455f	0.07923388
76	0xbb0a6de2	-0.0021122624
77	0xbd6cfa03	-0.057855617
78	0x3e61437b	0.21998398
79	0xbcea3049	-0.028587477
80	0x3deb3200	0.11484146
81	0x3d76bf88	0.060241252
82	0xbd2b629b	-0.041842084
83	0xbca8606c	-0.02055379
84	0x3dafb46a	0.08579333
85	0x3e0f7057	0.14007698
86	0xbd4482ee	-0.047976427
87	0xbce8a157	-0.028397245
88	0x3c70dbc7	0.0147008365
89	0xbc7ca027	-0.015419043
90	0x3e671770	0.22567534
91	0x3d865338	0.065588415
92	0xbbb13a0b	-0.0054085306
93	0xbd1cd8fa	-0.038292862
94	0xbdd2ab95	-0.10286633
95	0xbd8ef6a1	-0.069806345
96	0xbcd1a61b	-0.0255919
97	0xbe44a53a	-0.19203654
98	0x3b1b2491	0.0023672918
99	0x3db86222	0.09003092
100	0x3dbe6c84	0.092980415
101	0x3d32a1ea	0.043611445
102	0xbcb63186	-0.022240411
103	0xbd6e9dd5	-0.05825599
104	0x3dcdc5f5	0.10047523
105	0xbcaa22ff	-0.02076864
106	0xbcfc85f4	-0.030825593
107	0xbd810ec2	-0.06301643
108	0xbd93b4db	-0.0721223
109	0x3d8101b8	0.06299156
110	0x3ce3cbe5	0.027807185
111	0x3e668137	0.22510229
112	0xbdab4fa9	-0.08364803
113	0xbdc98f45	-0.098417796
114	0xbd82ce11	-0.0638696
115	0xbd47f4f2	-0.048817582
116	0xbd93cc03	-0.072166465
117	0x3e1060c0	0.14099407
118	0xbd7cc372	-0.06170983
119	0xbd95deab	-0.07317861
120	0xbc4d22d0	-0.012520507
121	0xbdbd59dd	-0.09245656
122	0xbd91d7f5	-0.07121269
123	0xbe7f5daa	-0.24938074
124	0xbe23f531	-0.16011502
125	0x3b2cf2f5	0.002638993
126	0xbd81a06a	-0.06329425
127	0x3da6602e	0.081238136
128	0x3e856739	0.26055315
129	0x3d236fea	0.03990165
130	0x3c769a11	0.015051381
131	0xbc64b5f1	-0.013959394
132	0x3dbc5fbc	0.091979474
133	0x3e22bcf7	0.15892397
134	0x3c0fc6b3	0.008775401
135	0x3de9bce5	0.11412982
136	0xbdd4acc2	-0.103845134
137	0x3b0e9108	0.0021753926
138	0xbd4a602d	-0.049408127
139	0x3dc18a46	0.09450202
140	0x3da2615d	0.07928727
141	0x3e0d05df	0.13771771
142	0xbd8155fd	-0.06315229
143	0x3db5df03	0.08880427
144	0xbd9e2cdd	-0.07723401
145	0xbc51fe7d	-0.012817022
146	0xbdc7c8de	-0.09755109
147	0x3d918cd2	0.071069375
148	0x3d2e9f22	0.04263223
149	0xbd8fb020	-0.07016015
150	0xbc89ff2b	-0.016845306
151	0xbdba0a6f	-0.09084021
152	0xbd923e89	-0.07140834
153	0x3d3d4ec8	0.04621771
154	0xbd035b1a	-0.032069303
155	0xbd964e1f	-0.07339119
156	0xbd434c36	-0.047680102
157	0x3e1654ce	0.14680788
158	0xbdcab712	-0.09898199
159	0xbc653548	-0.013989754
160	0xbcc1fc68	-0.023679927
161	0xbd484d76	-0.048901998
162	0xbd028bf0	-0.031871736
163	0xbdd18594	-0.10230556
164	0xbe4f7b53	-0.20261888
165	0xbba8b935	-0.0051490315
166	0xbcd4930e	-0.025949027
167	0xbe2dd244	-0.16974741
168	0xbdf7d5f4	-0.12101355
169	0xbe224334	-0.15845948
170	0xbe491d1a	-0.19640008
171	0xbe54b1cd	-0.2077095
172	0xbd9473d4	-0.07248655
173	0xbe5356ee	-0.2063863
174	0xbc55c3a2	-0.013047131
175	0x3d94e81c	0.07270834
176	0x3ddada50	0.10686171
177	0xbd7a088b	-0.061043303
178	0xbd9d991e	-0.076952204
179	0xbd98ee5c	-0.074673384
180	0xbad7cbf8	-0.0016463986
181	0x3d1d9c4b	0.03847913
182	0x3d491795	0.049094755
183	0xbe6c1af0	-0.23057151
184	0xbe19a150	-0.15002942
185	0x3c71b43a	0.014752442
186	0x3d928477	0.07154172
187	0xbd279433	-0.04091282
188	0x3ce47af5	0.027890662
189	0x3d8efa75	0.06981365
190	0x3df04bd9	0.11733217
191	0x3d1bd8cd	0.038048554
192	0x3da2d2ef	0.07950389
193	0xbd8efb9e	-0.06981586
194	0x3d85d566	0.06534843
195	0xbc98d11b	-0.018654397
196	0x3e4d757d	0.2006435
197	0x3cbcaefe	0.023032662
198	0x3a540d54	0.0008089144
199	0xbdd2d759	-0.102949806
200	0xbcd854d5	-0.026407639
201	0xbc539464	-0.012913797
202	0xbc96979a	-0.018382836
203	0xbdf4bddb	-0.119502746
204	0x3d3aba4d	0.045587827
205	0xbd6442a1	-0.055727605
206	0x3db86337	0.09003299
207	0x3db12752	0.08650078
208	0xbe50904e	-0.20367548
209	0xbcc62d16	-0.02419142
210	0xbd86c220	-0.06579995
211	0xbd3c4aab	-0.045969646
212	0x3da01d2f	0.07818066
213	0x3e80ea6d	0.25178853
214	0x3e0bcd33	0.13652496
215	0xbe1d5ff0	-0.15368629
216	0x3cd1d7ff	0.02561569
217	0x3db6a1f9	0.089176126
218	0x3dbebca7	0.09313326
219	0xbdb621c1	-0.08893157
220	0xbde07fed	-0.109619
221	0x3d879cfd	0.0662174
222	0x3d571eb4	0.052519515
223	0xbd7da01d	-0.061920274
224	0xbd91c677	-0.07117932
225	0x3de90d8c	0.11379537
226	0xbd2bbace	-0.041926198
227	0x3daf5f5e	0.08563112
228	0xbe0523d5	-0.1300195
229	0xbe38c76d	-0.18044825
230	0x3d9fe92c	0.07808146
231	0xbb9f25a5	-0.0048567825
232	0xbd8e6dc7	-0.06954532
233	0xbd6880ba	-0.05676339
234	0x3c3ad0cb	0.011402319
235	0x3d88616f	0.06659209
236	0x3d1ee6c6	0.0387943
237	0x3d40707a	0.046982266
238	0xbd6d06eb	-0.057867926
239	0x3d401c63	0.04690207
240	0xbd0e3067	-0.03471413
241	0x3b04ad0d	0.0020244748
242	0x3c5e1b2d	0.013556284
243	0x3e86b09b	0.26306614
244	0x3c96e8b4	0.018421508
245	0x3de6f7df	0.112777464
246	0x3d81f96c	0.063464016
247	0x3d312ea1	0.04325736
248	0x3cb2e374	0.021836974
249	0x3d794893	0.060860228
250	0x3d7909ab	0.060800236
251	0x3d49191b	0.049096208
252	0x3e0000fa	0.12500373
253	0x3dd56769	0.104201145
254	0xbd2e8954	-0.042611435
255	0x39227730	0.00015493925

network_body._body_endoder.seq_layers.0.bias f4 [128]
0	0x00000000	0.0
1	0x00000000	0.0
2	0x00000000	0.0
3	0x00000000	0.0
4	0x00000000	0.0
5	0x00000000	0.0
6	0x00000000	0.0
7	0x00000000	0.0
8	0x00000000	0.0
9	0x00000000	0.0
10	0x00000000	0.0
11	0x00000000	0.0
12	0x00000000	0.0
13	0x00000000	0.0
14	0x00000000	0.0
15	0x00000000	0.0
16	0x00000000	0.0
17	0x00000000	0.0
18	0x00000000	0.0
19	0x00000000	0.0
20	0x00000000	0.0
21	0x00000000	0.0
22	0x00000000	0.0
23	0x00000000	0.0
24	0x00000000	0.0
25	0x00000000	0.0
26	0x00000000	0.0
27	0x00000000	0.0
28	0x00000000	0.0
29	0x00000000	0.0
30	0x00000000	0.0
31	0x00000000	0.0
32	0x00000000	0.0
33	0x00000000	0.0
34	0x00000000	0.0
35	0x00000000	0.0
36	0x00000000	0.0
37	0x00000000	0.0
38	0x00000000	0.0
39	0x00000000	0.0
40	0x00000000	0.0
41	0x00000000	0.0
42	0x00000000	0.0
43	0x00000000	0.0
44	0x00000000	0.0
45	0x00000000	0.0
46	0x00000000	0.0
47	0x00000000	0.0
48	0x00000000	0.0
49	0x00000000	0.0
50	0x00000000	0.0
51	0x00000000	0.0
52	0x00000000	0.0
53	0x00000000	0.0
54	0x00000000	0.0
55	0x00000000	0.0
56	0x00000000	0.0
57	0x00000000	0.0
58	0x00000000	0.0
59	0x00000000	0.0
60	0x00000000	0.0
61	0x00000000	0.0
62	0x00000000	0.0
63	0x00000000	0.0
64	0x00000000	0.0
65	0x00000000	0.0
66	0x00000000	0.0
67	0x00000000	0.0
68	0x00000000	0.0
69	0x00000000	0.0
70	0x00000000	0.0
71	0x00000000	0.0
72	0x00000000	0.0
73	0x00000000	0.0
74	0x00000000	0.0
75	0x00000000	0.0
76	0x00000000	0.0
77	0x00000000	0.0
78	0x00000000	0.0
79	0x00000000	0.0
80	0x00000000	0.0
81	0x00000000	0.0
82	0x00000000	0.0
83	0x00000000	0.0
84	0x00000000	0.0
85	0x00000000	0.0
86	0x00000000	0.0
87	0x00000000	0.0
88	0x00000000	0.0
89	0x00000000	0.0
90	0x00000000	0.0
91	0x00000000	0.0
92	0x00000000	0.0
93	0x00000000	0.0
94	0x00000000	0.0
95	0x00000000	0.0
96	0x00000000	0.0
97	0x00000000	0.0
98	0x00000000	0.0
99	0x00000000	0.0
100	0x00000000	0.0
101	0x00000000	0.0
102	0x00000000	0.0
103	0x00000000	0.0
104	0x00000000	0.0
105	0x00000000	0.0
106	0x00000000	0.0
107	0x00000000	0.0
108	0x00000000	0.0
109	0x00000000	0.0
110	0x00000000	0.0
111	0x00000000	0.0
112	0x00000000	0.0
113	0x00000000	0.0
114	0x00000000	0.0
115	0x00000000	0.0
116	0x00000000	0.0
117	0x00000000	0.0
118	0x00000000	0.0
119	0x00000000	0.0
120	0x00000000	0.0
121	0x00000000	0.0
122	0x00000000	0.0
123	0x00000000	0.0
124	0x00000000	0.0
125	0x00000000	0.0
126	0x00000000	0.0
127	0x00000000	0.0

network_body._body_endoder.seq_layers.2.weight f4 [128, 128]
0	0xbe453e4a	-0.19262043
1	0x3d921ec7	0.071347766
2	0xbe04d6a3	-0.12972502
3	0xbd69ef2e	-0.057112865
4	0xbe11a96e	-0.14224789
5	0xbd641bd4	-0.0556906
6	0x3d194654	0.037420586
7	0xbe0ca39f	-0.13734291
8	0xbe0d2760	-0.13784552
9	0xbe205f6c	-0.156614
10	0x3d987b68	0.07445413
11	0x3dd88a85	0.105732955
12	0xbdcc0258	-0.099613845
13	0x3e046b3a	0.12931529
14	0xbcfd6b2c	-0.030934893
15	0xbe413b28	-0.18870223
16	0xbd046295	-0.032320578
17	0x3cb0ab04	0.021565922
18	0xbd265012	-0.040603705
19	0x3de3d537	0.11124652
20	0x3c951b3a	0.01820146
21	0xbd9f5eeb	-0.07781776
22	0xbdcf7f7d	-0.10131738
23	0xbd549d92	-0.051908083
24	0x3e24d588	0.1609708
25	0x3d11faee	0.035639696
26	0x3d4deff8	0.05027768
27	0x3c0262d6	0.007958135
28	0x3d3669c3	0.044534456
29	0x3d3c41fa	0.045961358
30	0xbded2988	-0.11580187
31	0xbc2e7a01	-0.010649205
32	0xbd4e035b	-0.05029617
33	0x3ddcdebd	0.107846715
34	0xbe1b48a9	-0.15164436
35	0x3d08dbbd	0.033412684
36	0xbd9322da	-0.07184382
37	0xbd1f96c2	-0.038962133
38	0x3b727862	0.0036998023
39	0x3de04dce	0.1095234
40	0x3cf5405c	0.029937916
41	0xbd567076	-0.052353345
42	0x3d10298c	0.035195872
43	0xbd457eda	-0.04821668
44	0xbdc0f6bc	-0.09422061
45	0x3df6bf14	0.12048164
46	0xbca603bc	-0.020265453
47	0xbac81f96	-0.0015268202
48	0xbc8f2231	-0.017472358
49	0xbcce1a02	-0.025158886
50	0x3e24d617	0.16097294
51	0x3db8fab7	0.09032195
52	0x3da64bff	0.08119964
53	0xbc56ad30	-0.013102815
54	0xbcf873fc	-0.030328743
55	0x3dd1f44d	0.10251675
56	0xbe3a3a82	-0.18186381
57	0x3d95f923	0.0732291
58	0xbc38cbd1	-0.011279062
59	0x3c98302b	0.018577656
60	0xbe0de1bc	-0.13855642
61	0x3bef7112	0.00730718
62	0x3be7a3a7	0.0070690694
63	0x3c7cc9c4	0.015428964
64	0x3da79d15	0.08184258
65	0xbdd8e78f	-0.10591041
66	0x3dfb9e0d	0.12286005
67	0xbda3463e	-0.07972382
68	0xbd820622	-0.06348826
69	0xbcbcc178	-0.023041472
70	0x3d8c96ec	0.068647236
71	0xbd947e97	-0.072507076
72	0xbd8688a4	-0.06569031
73	0xbc6aca15	-0.014330407
74	0x3df26b14	0.1183683
75	0x3dc4abc1	0.09603072
76	0x3c086b73	0.008326399
77	0xbd92a55f	-0.07160448
78	0x3d0e5fcd	0.03475933
79	0x3e13f3ba	0.14448443
80	0x3c14d216	0.0090832915
81	0x3db186f7	0.086683206
82	0xbc0464fc	-0.008080717
83	0xbd503826	-0.050834797
84	0x3d589a09	0.052881274
85	0x3c48903a	0.012241418
86	0xbd0bb70c	-0.034110114
87	0x3abf75a1	0.00146072
88	0x3c372b99	0.011179828
89	0xbd826c77	-0.06368344
90	0xbd0ad4c6	-0.033894323
91	0xbd125964	-0.03572978
92	0x3d007ab3	0.031367015
93	0x3be4b148	0.0069791414
94	0x3e0a1784	0.13485533
95	0x3d061735	0.032736976
96	0xbca46504	-0.0200677
97	0x3ddc9959	0.10771436
98	0xbe5f3781	-0.21798517
99	0xbddcfc6d	-0.10790334
100	0xbd3681d3	-0.044557404
101	0xbc92f242	-0.017937783
102	0x3e1379dc	0.14401954
103	0x3c558ded	0.013034326
104	0xbd6b5166	-0.057450674
105	0xbdde5914	-0.10856834
106	0xbd4147f2	-0.047187753
107	0xbe30f786	-0.17281923
108	0x3e0db581	0.1383877
109	0x3d99d56d	0.07511411
110	0x3d27c405	0.040958423
111	0x3d3f7424	0.04674162
112	0x3b88ac90	0.0041709617
113	0x3a479ff6	0.00076150836
114	0xbe1f923c	-0.15583128
115	0xbceb3691	-0.028712543
116	0xbc671037	-0.014102987
117	0x3db2ff56	0.08740108
118	0xbd5fa96b	-0.05460493
119	0xbc440aa6	-0.011965429
120	0xbe24dd1a	-0.16099969
121	0x3d849baf	0.06475007
122	0xbd5d0255	-0.053957302
123	0xbc1ab7f8	-0.009443276
124	0xbd4dd2db	-0.050249916
125	0x3e007d0a	0.12547699
126	0x3c085515	0.008321066
127	0xbd3c0d26	-0.045910977
128	0x3dee5f4e	0.11639272
129	0x3c30ce54	0.01079138
130	0x3d63622c	0.055513546
131	0x3e2569ca	0.16153637
132	0x3e16df34	0.14733583
133	0x3c0dd2da	0.008656228
134	0xbdbb82ed	-0.091558315
135	0x3e2526c7	0.16128074
136	0xbc5d70f0	-0.013515696
137	0xbd3a87a5	-0.045539517
138	0x3d48006f	0.04882854
139	0x3ae054bf	0.00171151
140	0xbd29b207	-0.041429546
141	0xbd1a7fd4	-0.037719563
142	0xbd73f6e0	-0.05956161
143	0xbdbece65	-0.093167104
144	0xbcf17ab0	-0.029477447
145	0x3df74485	0.12073616
146	0xbde2251b	-0.110422336
147	0xbcdb78a0	-0.026790917
148	0xbdeaccb7	-0.114648275
149	0xbd7ac2a5	-0.061220784
150	0xbcfb7b53	-0.030698454
151	0xbd1e33e1	-0.038623694
152	0xbd8fa40d	-0.07013712
153	0x3d07c566	0.03314724
154	0xbaf42bf1	-0.0018628818
155	0x3c19ea9a	0.009394312
156	0x3ded3ba9	0.11583645
157	0xbcc71576	-0.024302226
158	0x3d21fb4c	0.039546296
159	0x3cd4ec7f	0.025991676
160	0xbb09463c	-0.0020946404
161	0x3cce680a	0.025196094
162	0x3cecd540	0.02891028
163	0x3d044bee	0.032298975
164	0xbc6b57bb	-0.014364178
165	0xbc83bc7b	-0.016081085
166	0x3d1b3f6b	0.037902277
167	0xbdad87d8	-0.08473176
168	0xbc42746a	-0.011868576
169	0xbc3a0423	-0.011353525
170	0x3c575f0e	0.013145221
171	0x3e123dd6	0.14281401
172	0x3c9aaec2	0.01888216
173	0x3d210b08	0.03931716
174	0x3d5ef03a	0.054428317
175	0xbc9a1be9	-0.018812137
176	0xbc3d594d	-0.0115569355
177	0xbb82950d	-0.0039850534
178	0xbe4a8cb5	-0.19780238
179	0xbcaff3c3	-0.02147854
180	0x3cd2a6de	0.025714334
181	0xbd9d3930	-0.07676923
182	0x3dc079d1	0.09398235
183	0xbd8fee58	-0.07027882
184	0xbd0137b4	-0.031547263
185	0x3d2b9f5a	0.041900016
186	0x3d7bb618	0.061452955
187	0xbc921723	-0.017833298
188	0x3d5125ed	0.05106156
189	0x3dab1bbd	0.083549
190	0xbbc72f2f	-0.006078623
191	0x3c5d3405	0.013501172
192	0x3d845b18	0.06462687
193	0x3c936bae	0.017995682
194	0x3db06f88	0.08615023
195	0x3de77dd7	0.11303299
196	0xbe4db08e	-0.20086882
197	0xbc1a682f	-0.009424253
198	0x3e020bce	0.12699816
199	0xbdc0b596	-0.09409635
200	0x3dc05864	0.09391859
201	0x3d8d1317	0.06888407
202	0x3e22f114	0.15912277
203	0x3c99ac8f	0.01875904
204	0xbd4c3f07	-0.049864795
205	0x3c3d6de5	0.011561845
206	0xbe0e6833	-0.13906936
207	0xbdd05ee9	-0.10174353
208	0xbda6b867	-0.08140641
209	0x3d00c63a	0.031439044
210	0x3cd46d50	0.02593103
211	0xbd6dec88	-0.058086902
212	0xbc8efbac	-0.01745399
213	0xbd3e2995	-0.046426374
214	0xbcdbcc3b	-0.026830783
215	0xbce7972f	-0.028270332
216	0x3d93f5d0	0.072246194
217	0xbbef266d	-0.007298282
218	0xbe34b41b	-0.1764683
219	0xbd9ecf3f	-0.07754373
220	0x3d9b3d64	0.07580069
221	0x3d2638c8	0.040581495
222	0xbb11be44	-0.0022238651
223	0xbbbb086c	-0.005707791
224	0x3d6ca921	0.05777848
225	0x3db37f35	0.08764497
226	0x3e2fb560	0.17159033
227	0xbe1b013f	-0.15137194
228	0x3ccd8b4a	0.025090832
229	0xbd9d5201	-0.07681657
230	0xbd664490	-0.05621773
231	0xbda77de4	-0.081783086
232	0x3e33e6fc	0.17568582
233	0xbd8aa7cb	-0.06770285
234	0xbdfb9583	-0.122843765
235	0xbd28edcc	-0.041242406
236	0x3e3b9bff	0.18321227
237	0x3d8d6048	0.0690313
238	0xbc743786	-0.014905816
239	0x3c9a659a	0.018847276
240	0xbe030a3c	-0.12796873
241	0xbe288484	-0.164568
242	0x3def1d18	0.11675471
243	0xbe19483f	-0.14968966
244	0x3d75d445	0.06001689
245	0x3dcb8320	0.099371195
246	0xbdf80fe4	-0.12112406
247	0x3dfda184	0.12384322
248	0xbe20cd62	-0.15703347
249	0xbde10867	-0.10987931
250	0x3d9b0a5e	0.07570337
251	0x3e19e308	0.15028012
252	0xbdc1698e	-0.09443961
253	0xbd0e03e4	-0.03467168
254	0xbdc70a2b	-0.09718736
255	0xbca6649a	-0.020311642

action_model._discrete_distribution.branches.0.weight f4 [3, 128]
0	0xbc6610ef	-0.014042123
1	0xbc8346d7	-0.01602499
2	0x3c405231	0.011738346
3	0xbc87484c	-0.016513966
4	0xbc60736a	-0.013699392
5	0xbba2d253	-0.0049689203
6	0xbb07420e	-0.0020638737
7	0xbc38d460	-0.011281103
8	0xbaab5dd7	-0.0013074231
9	0xbb531647	-0.0032209323
10	0x3b5ee947	0.0034013556
11	0x3c787188	0.015163787
12	0xbb9a20d7	-0.004703622
13	0xbc11b8cc	-0.008894157
14	0xbb9ba5a6	-0.0047499714
15	0x3c4cdf0a	0.0125043485
16	0x3c17582b	0.0092373295
17	0xbae11c12	-0.0017174503
18	0x3c37ab5f	0.011210292
19	0x3c38f291	0.011288301
20	0xbc2251ff	-0.009907245
21	0x3c1625e2	0.009164305
22	0xbba31cc8	-0.004977796
23	0xbbdec55f	-0.006798431
24	0xbc0f9267	-0.008762932
25	0x3bf42313	0.0074504702
26	0xbbb01c7e	-0.0053744903
27	0x3b583363	0.0032989613
28	0x3be6c507	0.0070425305
29	0xbc6fa8da	-0.01462766
30	0xbbbc8e34	-0.0057542566
31	0xbbca607b	-0.006176052
32	0x3aed0f92	0.0018086305
33	0x3bacd414	0.005274305
34	0x3b9f5246	0.0048621027
35	0xbb962e0b	-0.0045831255
36	0x3b7ef9cd	0.0038906217
37	0x3c1ee448	0.009697981
38	0xbc030324	-0.007996354
39	0x3b191893	0.0023360595
40	0x3b07857b	0.0020678926
41	0xbbbcae01	-0.0057580476
42	0xbc96fca8	-0.018431023
43	0x3a21cc36	0.00061720924
44	0xbc74fcca	-0.014952848
45	0x38d636ed	0.00010214546
46	0x3b105685	0.0022024226
47	0xbbdeb988	-0.0067970194
48	0xbb8aaa84	-0.004231753
49	0x3bce4efd	0.006296037
50	0xbc8f1d03	-0.017469889
51	0xbccc60e5	-0.024948547
52	0xbc2f5ddf	-0.010703533
53	0x3c8bb263	0.017052835
54	0x3a8af581	0.001060173
55	0x3b920255	0.0044558444
56	0x3b8fff57	0.0043944526
57	0x3c445ce1	0.011985035
58	0x39ce9b60	0.00039407145
59	0xbb1bc081	-0.0023765864
60	0x39097b68	0.0001311131
61	0x3bd4163b	0.0064723766
62	0x3b34e7f6	0.002760408
63	0xbbecb042	-0.00722316
64	0x3bd08e62	0.0063646296
65	0x3a9ccb03	0.0011962358
66	0xba5a7b2a	-0.0008334393
67	0x3c546253	0.012962895
68	0x3bc34485	0.005959096
69	0x3bd0d2df	0.006372794
70	0x3a4b825a	0.00077632593
71	0xbb2140d2	-0.0024605286
72	0x3c2e1091	0.010624067
73	0xbc2b94b7	-0.010472468
74	0x3c15ba60	0.009138674
75	0x3b521993	0.00320587
76	0xbc4531f6	-0.012035837
77	0x3bb0130b	0.005373364
78	0xb5a4e2cf	-1.2284962e-06
79	0x3b4c4b87	0.0031172947
80	0xb9d3ae40	-0.00040374883
81	0x3be08a0f	0.0068523954
82	0xbc9a8177	-0.018860562
83	0x3cd5d418	0.02610211
84	0x3a78e14a	0.000949402
85	0xbc2c43bf	-0.010514199
86	0xbb70d137	-0.0036745796
87	0xbc460759	-0.012086713
88	0x3bbc3a27	0.005744237
89	0x3b03f5a4	0.0020135427
90	0xbb1db27c	-0.0024062684
91	0xbb47c1f7	-0.0030480602
92	0xbbd3d872	-0.0064650113
93	0xbc38a81d	-0.01127055
94	0xbbaad32c	-0.005213162
95	0x3c535d05	0.012900596
96	0x3b2c8b15	0.0026328017
97	0xbbdd1f8a	-0.0067481445
98	0xbcb1ec73	-0.021719193
99	0xbb2a75b0	-0.0026010089
100	0xbb52e16f	-0.0032177826
101	0x3c840e7b	0.016120186
102	0xbc3a8964	-0.011385296
103	0x3c1a38d0	0.009412959
104	0xbbd22ad7	-0.0064137983
105	0x3b39ce6f	0.0028351804
106	0xbb8509f5	-0.004060025
107	0x3b80f36e	0.003935269
108	0xbb4e63c5	-0.0031492573
109	0x3aa7f9bc	0.0012815516
110	0xbb799da7	-0.0038088353
111	0x3c84cd53	0.016211187
112	0x39e27133	0.0004319042
113	0x3c0d9d50	0.008643463
114	0x3bc3cf85	0.005975666
115	0x3c7f27db	0.015573467
116	0x3c1efbc7	0.009703583
117	0xbc97e6a9	-0.018542605
118	0xbb7aebbf	-0.0038287488
119	0xbb90d50a	-0.0044199275
120	0x3b6c67b7	0.003607256
121	0xbc51517f	-0.012775778
122	0x3abbf664	0.0014340398
123	0xbc6fbbcd	-0.014632178
124	0xbb1f5a3f	-0.0024315265
125	0x3a65e6ef	0.00087700685
126	0x3ba739e5	0.005103337
127	0xb8227edd	-3.874196e-05
128	0xbaee73f0	-0.0018192511
129	0xbbf279aa	-0.0073997574
130	0x3c1afb47	0.009459323
131	0x3c104378	0.008805148
132	0xbc139d03	-0.0090096025
133	0x3b57c76d	0.0032925264
134	0xbb1a06db	-0.0023502621
135	0xbb93813f	-0.0045014913
136	0x3b0eb9b5	0.002177817
137	0x3c1da1f9	0.009621137
138	0xbc4e1340	-0.012577832
139	0x3b2bd4a3	0.002621927
140	0x3c2ab325	0.010418688
141	0xbba3ada7	-0.004995066
142	0xbbe2217b	-0.006900964
143	0xbba7696b	-0.0051090023
144	0xbb18850b	-0.002327266
145	0x3a9699b6	0.0011489901
146	0x3b2dd8b9	0.0026526882
147	0xbb28965f	-0.0025724394
148	0xbcaa7a51	-0.020810278
149	0xbb9f1f2a	-0.00485601
150	0xbc30320b	-0.010754119
151	0xbbb5c72b	-0.0055474243
152	0xbbabd034	-0.0052433256
153	0x3bfc7747	0.0077046487
154	0xbb416be0	-0.0029513761
155	0x3b6093aa	0.0034267702
156	0x3bdb88fb	0.006699679
157	0xbbc492ac	-0.00599893
158	0x3adc96e3	0.0016829636
159	0xbbb70f37	-0.0055865305
160	0xbc1c5e99	-0.009544038
161	0xbb4a683b	-0.003088488
162	0x3b1ef573	0.0024255186
163	0x3b075267	0.002064848
164	0x3c0fa5cf	0.008767559
165	0x39a097b6	0.00030630612
166	0x3c54c8c3	0.012987318
167	0x3c235524	0.00996903
168	0xbb2868af	-0.0025697162
169	0xba14b512	-0.00056727335
170	0xbc36ba4f	-0.011152818
171	0xbc683ca3	-0.014174613
172	0x3c0e1ebc	0.00867432
173	0x3b636a07	0.0034700648
174	0xbb278a3a	-0.0025564567
175	0x3c15545e	0.009114353
176	0x3b68714a	0.0035467916
177	0xbc99b5a9	-0.01876338
178	0x3b963b77	0.0045847255
179	0x3c68a9f0	0.0142006725
180	0xbc926e8b	-0.017874977
181	0xbb7cf3bb	-0.0038597423
182	0xbc13d62c	-0.0090232305
183	0x3a47dc0a	0.0007624036
184	0xbb298c17	-0.0025870854
185	0x3b713e7b	0.0036810923
186	0xb90cdacd	-0.0001343295
187	0xba829682	-0.0009963068
188	0xbc0d2d8b	-0.008616815
189	0xbbe349cb	-0.006936287
190	0xbb458ac7	-0.0030142532
191	0xbb4aaf5d	-0.0030927279
192	0x3b08dea5	0.002088466
193	0xbc0175e0	-0.007901639
194	0xbc25bf3b	-0.010116394
195	0xbad55e12	-0.0016278645
196	0x3c86e24e	0.016465332
197	0xbc588178	-0.0132144615
198	0xbc3a33e8	-0.0113649145
199	0xbb32d934	-0.0027290108
200	0x3b86fd6a	0.004119565
201	0xbb878b52	-0.0041364813
202	0xbc9a25cf	-0.018816857
203	0x3c7ad9f5	0.015310754
204	0xbb3ebe3a	-0.0029105083
205	0x3c2c8ee0	0.010532111
206	0x3bef8195	0.0073091486
207	0xbb0fb40b	-0.0021927382
208	0x3c074d31	0.00825815
209	0xba84f9c3	-0.0010145236
210	0xbc8f6850	-0.017505795
211	0x3c40b51b	0.011761929
212	0x3bde82ba	0.006790486
213	0xbbebf978	-0.00720137
214	0xbc3a876f	-0.011384829
215	0xbb89d00d	-0.00420571
216	0x3be12568	0.0068709143
217	0x3c8d3d66	0.017241191
218	0xbc4b1b08	-0.0123965815
219	0xbc59bc70	-0.013289556
220	0x3c5643a5	0.013077651
221	0xbb8f9b0f	-0.004382498
222	0x3bd9ef00	0.0066508055
223	0x3bb17bb7	0.0054163593
224	0x3b371045	0.0027933281
225	0xbab2003d	-0.0013580393
226	0x3bcd7f73	0.0062712966
227	0xbbf02bc0	-0.007329434
228	0xbb5281ad	-0.003212075
229	0xbc75d2b2	-0.015003847
230	0xbbcfdb98	-0.0063433163
231	0xbc43b74c	-0.011945557
232	0xbc59fef3	-0.013305414
233	0xba303a7b	-0.00067225815
234	0xbbc4f4b4	-0.006010616
235	0x3c8c3e4f	0.017119555
236	0x3b7c7475	0.0038521562
237	0xbad35280	-0.0016122609
238	0xbb417099	-0.0029516576
239	0x3ba28e8c	0.0049608406
240	0x3c461d23	0.012091908
241	0xbbab8936	-0.0052348627
242	0xbad612a2	-0.0016332457
243	0xbc1c496a	-0.009538988
244	0x3c04a8f5	0.008096923
245	0x3b5010bd	0.0031748258
246	0x3aa97854	0.0012929537
247	0x3a29481f	0.0006457585
248	0xbc8117e3	-0.01575846
249	0x39893300	0.00026168674
250	0x3c151317	0.00909879
251	0xbc0bd1d4	-0.008533914
252	0x3a00e661	0.00049171416
253	0x3aab17ae	0.0013053322
254	0xbc1bfcfb	-0.009520764
255	0xbb165080	-0.0022936165

action_model._discrete_distribution.branches.0.bias f4 [3]
0	0x00000000	0.0
1	0x00000000	0.0
2	0x00000000	0.0

action_model._discrete_distribution.branches.1.weight f4 [3, 128]
0	0x3ad3596f	0.0016124676
1	0xbc079f1f	-0.0082776835
2	0x3c7bbb9b	0.015364553
3	0x3bc78b0d	0.006089574
4	0x3bb95171	0.0056554605
5	0x3c557c6a	0.013030151
6	0xbc8fbbbf	-0.017545579
7	0xbb204cb2	-0.0024459776
8	0xb9ff760d	-0.00048725345
9	0x3c196f30	0.009364888
10	0xbb945243	-0.004526408
11	0xbb9b3245	-0.004736217
12	0x3c37fc33	0.011229563
13	0xbbd404a0	-0.006470278
14	0xbb654727	-0.0034985037
15	0xbc2b21c1	-0.010445059
16	0xbbe392a3	-0.0069449707
17	0x3aa0daa3	0.001227219
18	0x3a6e9f10	0.00091026817
19	0xbbc20501	-0.0059210067
20	0x3af5e3b7	0.0018759881
21	0x3b122bea	0.0022304007
22	0xbc9949c4	-0.018711932
23	0xbc5e38b3	-0.013563323
24	0x3bd74838	0.0065698884
25	0xbb478336	-0.0030443198
26	0x3c3edbbf	0.011649071
27	0xbb6cb553	-0.003611882
28	0x3a9ce4eb	0.0011970078
29	0x3af30425	0.0018540664
30	0xbc8462a7	-0.016160322
31	0xbbad3ebf	-0.005287021
32	0xbab4e980	-0.0013802499
33	0xbbccecc3	-0.00625381
34	0xbba6ff53	-0.005096355
35	0xbb30f56a	-0.0027001747
36	0xbbe6f57a	-0.007048306
37	0x3b812e4d	0.003942287
38	0x3c30abf6	0.010783186
39	0x3baac6e3	0.0052116974
40	0xbb67c5a2	-0.00353656
41	0xbc7ecea5	-0.015552198
42	0x3bd10e30	0.006379865
43	0x3c83d813	0.016094243
44	0xbbdb0282	-0.0066836486
45	0x3b91a105	0.004444244
46	0x3c4e841d	0.01260474
47	0x3c23dae7	0.010000921
48	0x3be257bd	0.006907432
49	0x3b0589df	0.0020376367
50	0xbc4aaf9c	-0.01237097
51	0x3ae06303	0.0017119352
52	0xbc20ab8e	-0.009806527
53	0xbc062d93	-0.008189577
54	0x3c45f84d	0.012083125
55	0xbcb27778	-0.021785483
56	0xbb84a78b	-0.004048293
57	0x3b8d6d07	0.0043159756
58	0xbba1277f	-0.0049180384
59	0xbbabda99	-0.0052445647
60	0xbc75b183	-0.014995935
61	0xbb018297	-0.0019761676
62	0x3c2e5a2e	0.010641618
63	0x3c1d0a93	0.009585041
64	0x3b36960b	0.0027860429
65	0x3c008ed7	0.007846556
66	0x3c01dda4	0.007926378
67	0x3c22d865	0.009939288
68	0x3c00408a	0.007827887
69	0x3c22c90a	0.009935627
70	0x38013146	3.0801886e-05
71	0xbc51c9f7	-0.0128045
72	0x3b8ac3e3	0.0042347773
73	0xbb66cc97	-0.003521716
74	0xbc360146	-0.011108702
75	0xbc8e1452	-0.017343674
76	0x3b2a7a8d	0.0026012987
77	0x3b69b3c3	0.0035660125
78	0x3b92572c	0.004465958
79	0xbc314597	-0.010819814
80	0xba7a7980	-0.0009554848
81	0x3c7e0b30	0.015505597
82	0x3af12b5b	0.0018399762
83	0x3af81287	0.001892642
84	0x3b310620	0.0027011707
85	0xbc1711a4	-0.009220514
86	0x3c4801f0	0.012207493
87	0x3a9e11db	0.0012059765
88	0x3c150394	0.009095091
89	0xbb44f8b3	-0.0030055463
90	0xbb77d2e8	-0.003781492
91	0xbba536e6	-0.005041945
92	0xbc0ff7f7	-0.008787147
93	0x3b6490f0	0.0034876429
94	0x3c2516d7	0.010076246
95	0xbc28f417	-0.010312102
96	0x3b2d00a5	0.002639809
97	0xbb971b2b	-0.004611393
98	0x3c83b801	0.01607895
99	0x3c1f0db8	0.009707861
100	0xb8febde5	-0.000121470344
101	0x3aeb5e28	0.0017957138
102	0x3b0af580	0.0021203458
103	0x3ca72213	0.02040199
104	0x3c2c7205	0.010525231
105	0xbbde5e3f	-0.0067861374
106	0xbbcc79df	-0.006240114
107	0x3bdd2630	0.006748937
108	0xbba860ca	-0.0051384913
109	0x3b84a1d4	0.0040476117
110	0x3ba42f63	0.0050105317
111	0x3a7cf5c5	0.00096496596
112	0x3bd17ac0	0.006392807
113	0xbcd0d030	-0.025489897
114	0x3c1ecfd7	0.009693108
115	0xbbf3b0ed	-0.0074368627
116	0xbb8be71b	-0.0042694933
117	0x3c27d2f8	0.01024317
118	0xbc3d5a3d	-0.011557159
119	0xbbb43d7a	-0.0055004926
120	0xbc4615ca	-0.012090156
121	0xbb2a915c	-0.0026026582
122	0x3b2c3603	0.002627731
123	0xbb50107a	-0.0031748102
124	0xbc1b2d3e	-0.009471236
125	0x3b4ab6c7	0.0030931698
126	0xbc076c19	-0.008265519
127	0xbb636f5f	-0.0034703834
128	0xbc8c1ae5	-0.017102668
129	0xbd047e9e	-0.032347314
130	0xbbe9966a	-0.0071285265
131	0x3c7b4800	0.01533699
132	0x3c69b23a	0.014263684
133	0xb8a95331	-8.0740436e-05
134	0xbb3aeb5c	-0.0028521633
135	0xbbab4832	-0.005227112
136	0x3bed9efa	0.0072516175
137	0x3c92a95d	0.017903024
138	0xbc659332	-0.014012145
139	0x3b471463	0.0030377142
140	0x3b026ef6	0.0019902564
141	0xbbb3b78f	-0.0054845284
142	0xbb346582	-0.0027526324
143	0xbbf629e2	-0.007512317
144	0x3c2aa39e	0.010414986
145	0x3baf9510	0.005358346
146	0x3aa5d147	0.001265087
147	0x3b2e441a	0.0026590885
148	0xbc64ef9b	-0.013973142
149	0xbb830900	-0.0039988756
150	0xbbc5edfe	-0.006040334
151	0x3b9c2963	0.004765676
152	0xbbd63538	-0.006537106
153	0x3b2d337a	0.0026428388
154	0xbca76ad7	-0.020436687
155	0x3b695a0b	0.0035606648
156	0xbc873e36	-0.016509157
157	0x3c43025d	0.011902419
158	0x3b808a4e	0.003922737
159	0x3b2db4b7	0.002650542
160	0xba84c18d	-0.0010128483
161	0x3c6739a0	0.01411286
162	0x3c365037	0.011127523
163	0x3bec91cb	0.0072195283
164	0xbbdbb502	-0.0067049274
165	0x3bb16ff7	0.0054149586
166	0xbb8e4c70	-0.004342608
167	0xb9f13fe3	-0.000460147
168	0xbc651882	-0.013982894
169	0x3c3c3c57	0.0114889955
170	0x3c89322b	0.016747555
171	0xbc7db87b	-0.015485878
172	0xbc484f9b	-0.012226011
173	0xbc5d4bcf	-0.013506844
174	0x3bf6ce35	0.007531906
175	0x39228bb4	0.00015501567
176	0xbb949f05	-0.004535558
177	0xbbe829c7	-0.0070850584
178	0xbb85b0dc	-0.004079921
179	0xbb844410	-0.004036434
180	0xba1bd848	-0.0005945009
181	0xbc05a40c	-0.008156788
182	0x3c863ef2	0.016387437
183	0x3c8124a7	0.015764548
184	0x3c5cef7d	0.013484833
185	0xbc3bb37f	-0.011456369
186	0xbc37206b	-0.011177163
187	0x3c089a2b	0.008337538
188	0xbae424e8	-0.0017406018
189	0x3b37d448	0.0028050113
190	0x3b94302d	0.0045223446
191	0x3bf88360	0.0075840205
192	0xbba3fc7e	-0.0050044646
193	0xbba01da1	-0.0048863445
194	0x3b2d707b	0.0026464749
195	0xbbbcc608	-0.005760912
196	0x3c492e2d	0.012279076
197	0xbbd959a3	-0.006633
198	0xbc73dcaf	-0.014884158
199	0xbb956ddd	-0.004560216
200	0xbaf0c120	-0.0018368103
201	0x3c2b2dae	0.010447903
202	0x3a7756b3	0.00094352214
203	0x3c318393	0.010834592
204	0x3a93baab	0.0011270841
205	0x3b180f53	0.0023202493
206	0xb7b3ee44	-2.1449414e-05
207	0xb8d4cc22	-0.000101469705
208	0x3a6d7cfb	0.0009059456
209	0x3bae3fec	0.0053176787
210	0x3c7681ea	0.015045622
211	0x3b1e22bb	0.0024129588
212	0xbbf3016d	-0.0074159415
213	0x3cae0a3b	0.021245113
214	0xbb758555	-0.0037463505
215	0x3cd700e0	0.026245534
216	0x3b1e73f3	0.0024177998
217	0xbb62c335	-0.0034601216
218	0xbad958d0	-0.0016582254
219	0x3aea6b1a	0.0017884702
220	0x3c0ddf95	0.008659263
221	0xbbe2c41f	-0.006920352
222	0xbcae15b6	-0.021250587
223	0x3bf4b145	0.0074674212
224	0x3b39f965	0.002837741
225	0xbbb83443	-0.0056214645
226	0xbad8954d	-0.0016523987
227	0x3bd5573a	0.0065106424
228	0xb9ad6aea	-0.00033076789
229	0xbba4f97e	-0.0050346246
230	0x3c5686a7	0.013093627
231	0x3cb9a700	0.02266264
232	0x3bbfcf4f	0.0058535705
233	0x3c5e3868	0.013563253
234	0x3c08d52c	0.008351605
235	0xbc1f6aa2	-0.009730013
236	0xbc397a8d	-0.011320722
237	0xbbafcf7b	-0.00536531
238	0x3c16bf6f	0.009200915
239	0x3c40b6db	0.011762346
240	0x3c719bc0	0.014746606
241	0xbb1fda23	-0.0024391494
242	0x3c20c648	0.009812899
243	0x39f4289f	0.00046569572
244	0x3c02ba93	0.007979053
245	0xbafad89b	-0.001913804
246	0xbbd540f7	-0.0065079886
247	0xbb48789b	-0.0030589465
248	0xbad9d165	-0.001661819
249	0x3aac88d9	0.0013163342
250	0x3c15788b	0.009122978
251	0x3ac08e2f	0.0014690812
252	0xbc1df2b7	-0.009640387
253	0x3c97ec03	0.018545156
254	0xbb6540ea	-0.0034981319
255	0x3c39bc2f	0.01133637

action_model._discrete_distribution.branches.2.weight f4 [2, 128]
0	0x3bdea5f2	0.0067946846
1	0xbc31c92b	-0.010851185
2	0xbc1e4f40	-0.009662449
3	0x3bc8c186	0.0061265854
4	0xbc94fecc	-0.018187903
5	0xbc51103a	-0.012760216
6	0xba04602a	-0.000504973
7	0x3bb5b5d3	0.005545357
8	0xbb567d60	-0.0032728538
9	0xbb98e26a	-0.0046656625
10	0xbb39ab28	-0.0028330777
11	0x3b81e202	0.00396371
12	0x3be96305	0.0071223998
13	0x3a7a1a7b	0.0009540689
14	0x3bbe04ba	0.0057989033
15	0xbad48022	-0.0016212503
16	0xba7ba687	-0.00095997046
17	0x3c893c45	0.016752372
18	0xbc20f03d	-0.009822902
19	0x3b953b04	0.0045541544
20	0xbb6c547b	-0.0036061096
21	0x3a1fe8ce	0.0006100059
22	0xbc2a2a54	-0.010386068
23	0x3c5fbddf	0.013656109
24	0x3bbb56a2	0.0057171145
25	0x3c98b4b4	0.018640853
26	0xbb0128cb	-0.0019708152
27	0x3c88eaba	0.016713489
28	0xbb4f4342	-0.0031625782
29	0x3be07f30	0.0068510994
30	0xbc2fecdf	-0.010737627
31	0x3bef342d	0.007299921
32	0xbb0249f7	-0.0019880512
33	0xbb9905c7	-0.004669878
34	0xbb3c9396	-0.0028774492
35	0xbc2b9444	-0.010472361
36	0xbb01c974	-0.0019803913
37	0xbbf91c00	-0.007602215
38	0xbaa1c470	-0.0012341868
39	0xbb78f37b	-0.0037986923
40	0x3a6537eb	0.0008743989
41	0xbb21c48f	-0.0024683808
42	0xbb48bd57	-0.0030630433
43	0x3c0c3dbc	0.0085596405
44	0x3c5896da	0.01321956
45	0xbc9f9d92	-0.019484315
46	0xbb11bf26	-0.0022239177
47	0xbb99a40b	-0.004688745
48	0x3c2d1d6a	0.010566095
49	0x3c405016	0.011737844
50	0xbb45f880	-0.0030207932
51	0xba4d67c7	-0.00078355934
52	0xbabe3ff0	-0.0014514904
53	0x3c88b42e	0.016687479
54	0x3c31559b	0.010823633
55	0xbb94c1d2	-0.0045397067
56	0x3a0fc4a8	0.0005484321
57	0x3c4e8ba8	0.012606539
58	0x3ae58788	0.0017511705
59	0xb9b2b0f5	-0.0003408265
60	0xbaa08d7b	-0.0012249196
61	0xba30fba3	-0.0006751364
62	0xbadbe3d8	-0.0016776277
63	0x3bbf860c	0.005844837
64	0xbc0555e9	-0.008138158
65	0xba77f623	-0.00094589795
66	0xbc89fa27	-0.016842915
67	0xbc4a87e0	-0.012361497
68	0xbbd33b98	-0.006446313
69	0x3c25b2a3	0.010113391
70	0xbc8359ef	-0.016034095
71	0xbc938bac	-0.018010937
72	0x3bd300e3	0.0064393147
73	0xbc103116	-0.0088007655
74	0xbcb43e47	-0.022002352
75	0xbabe4472	-0.0014516248
76	0x3c55e80f	0.013055815
77	0x3a155da1	0.0005697851
78	0x3be2531b	0.0069068796
79	0x3c16da83	0.009207371
80	0x3c1bd4f1	0.009511218
81	0xbbf04032	-0.0073318714
82	0xbb0bcb85	-0.0021331024
83	0x3b96ceec	0.0046023037
84	0xbc997554	-0.018732704
85	0xbb2dd186	-0.002652259
86	0xbbe7d91d	-0.0070754425
87	0x3c3c399d	0.011488345
88	0x3c5b81cb	0.013397644
89	0xbba9023d	-0.0051577375
90	0xbba4c9cd	-0.0050289393
91	0x3b3b9a37	0.0028625855
92	0x3b71c58f	0.0036891436
93	0x3c36fd87	0.011168844
94	0xbbc2c67f	-0.0059440727
95	0x3b3e01f3	0.002899286
96	0x3c2153f1	0.009846673
97	0x3c085ef1	0.008323417
98	0x3add68a8	0.0016892152
99	0x3a864383	0.0010243509
100	0xbbfd9af0	-0.0077394173
101	0x3c3270bb	0.010891135
102	0xbbd57f02	-0.0065153847
103	0xbca0d204	-0.019631393
104	0xb9bf984c	-0.0003654383
105	0x3b76df97	0.003766989
106	0x3c58bc67	0.013228512
107	0xbb661e82	-0.00351134
108	0x3ab47ea9	0.0013770658
109	0x3bebe377	0.007198747
110	0xbbb32fe4	-0.0054683555
111	0x3aaf0022	0.001335148
112	0xbc12be49	-0.0089565
113	0xbb523de8	-0.0032080356
114	0x3b4b871f	0.003105588
115	0x3bb6bdd0	0.0055768266
116	0xbaa5df67	-0.001265508
117	0xbc789d60	-0.01517424
118	0x3ac86ea0	0.0015291758
119	0xb9be7227	-0.00036324674
120	0xbc020eef	-0.007938131
121	0x3b25a499	0.002527511
122	0xbb369b5b	-0.0027863595
123	0x3b84726c	0.0040419605
124	0x3b62c2f2	0.003460106
125	0x3b04eb0f	0.0020281707
126	0xbb4c1a2f	-0.0031143536
127	0xbc70ae07	-0.014689929
128	0x3b85165f	0.0040615047
129	0xbbd2c0e8	-0.0064316876
130	0xba80f9dc	-0.0009840089
131	0xbc0ae947	-0.008478469
132	0xbcbe7f54	-0.023254074
133	0xbbcda233	-0.006275439
134	0xbc44e2eb	-0.012016992
135	0x3a8aa6b1	0.0010578242
136	0x3bb7e6c0	0.0056122243
137	0xbb8168f3	-0.0039492785
138	0xbc852d84	-0.016257055
139	0xbb7dcd35	-0.003872705
140	0xbc3d6feb	-0.011562328
141	0x3b6cc2e7	0.0036126913
142	0x3be676e8	0.0070332177
143	0x3c2221e7	0.009895778
144	0xbb561fe0	-0.0032672808
145	0xbbc9fbe0	-0.006164059
146	0x3c951d7b	0.018202534
147	0x3b27c0c0	0.0025597066
148	0xbba9ccb7	-0.0051818746
149	0x3ac75162	0.0015206749
150	0x3b7b62bb	0.0038358408
151	0x3c389cc9	0.011267849
152	0x3bd957c3	0.0066327765
153	0xbbd43ff3	-0.00647735
154	0xbb1f5eb2	-0.0024317917
155	0x3bcb665d	0.006207271
156	0x3c754318	0.01496961
157	0x3b6b9ddb	0.0035952243
158	0x3c028e0f	0.00796844
159	0xbbd1c7bb	-0.0064019836
160	0xbb0db2ac	-0.002162139
161	0x3b26850b	0.002540889
162	0xbbf8bc85	-0.0075908327
163	0x3bf57fe7	0.007492054
164	0x3c315ff4	0.0108261
165	0x3c4f5830	0.012655303
166	0xba553b62	-0.0008134154
167	0xbc83e074	-0.016098239
168	0xbbd1e598	-0.0064055435
169	0xbc654135	-0.013992597
170	0xb981b7f2	-0.00024741847
171	0x3c031208	0.007999904
172	0x3b906c5e	0.0044074496
173	0xb9dc44f2	-0.00042013038
174	0xb94ee91d	-0.00019732532
175	0x3c41d70b	0.011831055
176	0x3b709c18	0.0036714133
177	0x3bd8d35d	0.0066169933
178	0xbbd1dc3a	-0.006404427
179	0xbbde8abb	-0.0067914403
180	0xbbbc9d18	-0.0057560317
181	0xbc146c37	-0.009059004
182	0xbc49ade6	-0.012309527
183	0x3b30235a	0.002687654
184	0xbb31155f	-0.0027020795
185	0xbc090f96	-0.008365532
186	0x3b678d4d	0.0035332025
187	0x3ae63c22	0.0017565528
188	0x3c6037b0	0.013685152
189	0xbb6fd573	-0.0036595732
190	0x3ca71478	0.020395502
191	0x3bf8054f	0.007568992
192	0xba9352eb	-0.0011239921
193	0x3c830c87	0.015997184
194	0x3c959180	0.018257856
195	0x3c53fe43	0.012939039
196	0x3b973a28	0.004615087
197	0x3ba835de	0.0051333746
198	0xbb979b6e	-0.004626683
199	0xbb9f1407	-0.0048546824
200	0x3bec828f	0.0072177122
201	0x3aabe69c	0.0013114992
202	0x3a1c1d38	0.00059552817
203	0xbaa596e9	-0.0012633476
204	0xbbef2d18	-0.0072990768
205	0x3bc9c20e	0.0061571663
206	0x39574058	0.00020527968
207	0x3c079d37	0.008277229
208	0x3b2fdb2e	0.0026833522
209	0xbb652c62	-0.0034969081
210	0xbc152f68	-0.009105541
211	0x3c28b2c6	0.010296529
212	0x3b99aae1	0.00468956
213	0x3bb0ada3	0.005391793
214	0xbb508a95	-0.0031820883
215	0xbace7ed7	-0.0015754354
216	0xbc48c494	-0.012253899
217	0x3a7158d5	0.00092066574
218	0xbbd8dbdb	-0.0066180057
219	0x3a64b8eb	0.00087250647
220	0xbc2737f2	-0.0102062095
221	0xbc327eac	-0.010894459
222	0xbb52f2a0	-0.0032188073
223	0x3b766525	0.0037596908
224	0x3beb247b	0.0071759797
225	0xbb3639eb	-0.0027805518
226	0xbba3f9b1	-0.005004131
227	0x3b89ecd6	0.0042091412
228	0xbc142de9	-0.009044149
229	0x3a96699a	0.0011475564
230	0xbbcecbf5	-0.0063109347
231	0xbc6aa5d0	-0.014321759
232	0x3bac7ed8	0.0052641444
233	0x3cb5b053	0.022178805
234	0x3bf95f47	0.007610235
235	0xbc1eb236	-0.0096860435
236	0xbb9cd2ee	-0.004785887
237	0x3c80b1ae	0.015709724
238	0xbbaf8d0a	-0.0053573893
239	0x3a520c9a	0.0008012742
240	0x3c3218e1	0.010870189
241	0x3c2b807f	0.010467648
242	0xbbbaa22e	-0.005695603
243	0xbabfa0f0	-0.0014620107
244	0xbb438419	-0.0029833375
245	0xbab9fd83	-0.0014189932
246	0xba675010	-0.0008823881
247	0xbc15cdef	-0.009143337
248	0xbbe9ef75	-0.007139141
249	0xbbf7640d	-0.007549769
250	0xbbb04d5e	-0.0053803166
251	0xbc5aeefd	-0.013362643
252	0x3c346525	0.011010443
253	0xbb91438f	-0.0044331024
254	0xbb4935bf	-0.0030702201
255	0x38f32c82	0.00011595433

action_model._discrete_distribution.branches.2.bias f4 [2]
0	0x00000000	0.0
1	0x00000000	0.0
