MLBase/results/ppo/CaptureTheFlag/CaptureTheFlag-256.pt (torch, 237114 bytes, 16 tensors)

discrete_act_size_vector f4 [1, 3]
0	0x40400000	3.0
1	0x40400000	3.0
2	0x40000000	2.0

network_body._body_endoder.seq_layers.0.weight f4 [128, 87]
0	0xbdd7709f	-0.10519528
1	0xbd828b47	-0.06374221
2	0xbd8e2b1d	-0.06941817
3	0x3ca92a75	0.020650128
4	0x3d3d2620	0.046178937
5	0x3d7c20b1	0.061554614
6	0xbb18a3a5	-0.00232909
7	0x3cb615f1	0.02222726
8	0xbccfb3fa	-0.025354374
9	0x3dde2c7b	0.10848328
10	0x3d202efa	0.0391073
11	0xbdfff5cf	-0.12498056
12	0xbe056b1a	-0.13029137
13	0x3de4a9cf	0.11165201
14	0x3d3d9a9f	0.046290036
15	0xbcc9e716	-0.024646323
16	0xbd526973	-0.051370095
17	0x3e34f0d6	0.17669997
18	0xbd09f98c	-0.033685252
19	0x3da0678c	0.0783225
20	0x3d88292d	0.06648479
21	0x3cb5cf0d	0.022193456
22	0x3cdee84a	0.027210373
23	0x3e20b83e	0.15695283
24	0xbe115fa9	-0.14196648
25	0x3e85ebba	0.26156408
26	0x3e6e1e53	0.23253755
27	0x3cbc60cb	0.022995373
28	0x3d877f6b	0.066161
29	0x3db93763	0.09043767
30	0x3db0f1ab	0.086398445
31	0x3e1de97a	0.15421095
32	0xbe744daa	-0.23857751
33	0xbd43c7d1	-0.04779798
34	0xbe41a723	-0.18911414
35	0x3e0466e3	0.12929873
36	0x3e732650	0.23745084
37	0xbccd9abb	-0.025098195
38	0xbd9fccc3	-0.07802727
39	0xbd5dd4c7	-0.054158
40	0xbdc1f77a	-0.094710305
41	0xbde88d02	-0.1135502
42	0xbe8a706a	-0.2703889
43	0xbe70162b	-0.23445956
44	0xbe971fbc	-0.295164
45	0x3df3a8ab	0.11897405
46	0xbe46a851	-0.19400145
47	0x3d9dabc4	0.07698777
48	0xbdcc6827	-0.09980803
49	0xbdb86f88	-0.09005648
50	0x3d8178ed	0.06321893
51	0x3d760217	0.060060587
52	0x3c57efd1	0.013179735
53	0x3e3a3a3a	0.18186274
54	0x3d9168e3	0.07100084
55	0x3ecde5e2	0.4021445
56	0x3e0c950f	0.13728736
57	0xbb8b447b	-0.004250107
58	0xbda9f680	-0.08298969
59	0xbdaa1cf8	-0.083063066
60	0x3e0f6e85	0.14007004
61	0x3db259b5	0.087085165
62	0xbe0cd8c9	-0.13754572
63	0xbcff803c	-0.031189077
64	0x3cfd2782	0.030902628
65	0x3dd68c90	0.10476029
66	0x3e0eada3	0.13933425
67	0x3cd6a491	0.026201518
68	0x3e405936	0.18784031
69	0xbd68c10e	-0.056824736
70	0xbca355d4	-0.019938387
71	0x3daee791	0.085402615
72	0xbdfe8f99	-0.12429733
73	0xbcff1a60	-0.031140506
74	0x3c73b5c8	0.014874883
75	0xbe6aa858	-0.2291578
76	0xbe027241	-0.12738897
77	0xbe484a2a	-0.19559541
78	0x3d5cb690	0.053885043
79	0x3d6290c1	0.05531383
80	0xbdbf7ab0	-0.09349573
81	0x3e16d159	0.14728297
82	0xbc0edcb1	-0.008719609
83	0x3c673ce2	0.014113637
84	0xbdb0bbbe	-0.08629559
85	0xbd6e9381	-0.05824614
86	0xbb7e135f	-0.003876887
87	0xbd1329c3	-0.0359285
88	0x3de201f8	0.11035532
89	0x3d129b9a	0.035792924
90	0x3e100d45	0.14067562
91	0x3e877d63	0.2646285
92	0xbe17fcdf	-0.14842556
93	0xbcb771a0	-0.022393048
94	0xbde7d1a8	-0.11319286
95	0xbde4a38b	-0.11164006
96	0xbd4c6911	-0.049904887
97	0x3bc05424	0.0058694053
98	0x3e45f438	0.19331443
99	0xbd5817f3	-0.052757215
100	0x3d267fca	0.040649213
101	0xbc0d063e	-0.008607445
102	0x3e0eb75c	0.13937134
103	0xbd8d2855	-0.06892458
104	0xbd357296	-0.04429873
105	0xbd8b89b1	-0.06813372
106	0xbe121cba	-0.14268771
107	0xbe140535	-0.14455111
108	0x3c6fc4ab	0.014634292
109	0x3df37a9a	0.11888619
110	0x3e3b5a28	0.1829611
111	0xbc171b8d	-0.009222877
112	0x3dab8454	0.08374849
113	0xbde4d07f	-0.1117258
114	0xbcf3410c	-0.029694103
115	0x3d955f4f	0.07293569
116	0x3e3f2da2	0.18669751
117	0xbde4db22	-0.11174609
118	0xbdd7a237	-0.10528987
119	0x3d30e1c8	0.04318407
120	0xbd4e1e27	-0.050321724
121	0xbac415b6	-0.0014960084
122	0x3d8bd0b0	0.06826913
123	0xba90297f	-0.0010998695
124	0xbe83f934	-0.25776064
125	0xbd726ea9	-0.059187565
126	0x3d72fb12	0.05932147
127	0xbc409ced	-0.011756164
128	0xbc4bd3d2	-0.012440639
129	0x3ca4689b	0.020069411
130	0xbd5844f3	-0.05280013
131	0xbd80787c	-0.062729806
132	0xbdbaf44a	-0.09128626
133	0xbde6c16a	-0.112673596
134	0x3b0fc0c8	0.0021934975
135	0xbd22a48e	-0.039707713
136	0x3c036071	0.008018599
137	0xbce6d4de	-0.028177675
138	0x3c93c8cc	0.018040083
139	0x3c1c2131	0.009529398
140	0xbd4cbbf0	-0.04998392
141	0x3e4ca79b	0.19985811
142	0x3b5d0c31	0.003372919
143	0x3d4431d3	0.04789908
144	0xbe065b1d	-0.13120694
145	0xbb3b84b6	-0.0028613037
146	0x3dc3cfc7	0.09561115
147	0xbd5b74b0	-0.05357808
148	0x3d761bef	0.060085233
149	0xbe3503a0	-0.17677164
150	0xbe5faf85	-0.21844299
151	0xbd88aa71	-0.06673134
152	0xbd2bdb85	-0.041957397
153	0x3d7c2682	0.06156016
154	0xbcfc523b	-0.03080093
155	0xbd98a5e2	-0.07453515
156	0xbb02b646	-0.001994507
157	0x3d078532	0.03308601
158	0xbc0acd6e	-0.00847183
159	0x3d50fd3b	0.05102275
160	0xbd94495e	-0.07240556
161	0xbd08d2ed	-0.03340428
162	0xbe318cbf	-0.17338847
163	0xbde54c03	-0.11196139
164	0xbdeaf4ca	-0.11472471
165	0x3e29a917	0.16568409
166	0xbcebdc6f	-0.028791634
167	0xbc74dfa7	-0.014945901
168	0xbdd1686a	-0.102249935
169	0x3de0f0a7	0.10983401
170	0x3d97fee7	0.07421666
171	0xbde6697f	-0.112505905
172	0xbdef69c8	-0.11690098
173	0x3d86346a	0.06552966
174	0x3d26da8f	0.040735777
175	0x3e4aad0a	0.19792572
176	0x3c684e92	0.014178889
177	0x3d0d88d4	0.034554318
178	0xbd6eafb3	-0.05827303
179	0x3de61ab5	0.11235563
180	0xbe45f44a	-0.1933147
181	0x3d2c9c38	0.04214117
182	0xbc45b4a1	-0.012066991
183	0x3d902af1	0.070394404
184	0xbd00f223	-0.03148092
185	0x3ad0a538	0.001591838
186	0xbdda2c29	-0.10652954
187	0xbe64ec12	-0.22355679
188	0xbe52edac	-0.20598477
189	0x3e10eac8	0.14152062
190	0xbd36629d	-0.04452764
191	0x3d575ff9	0.05258176
192	0xbd941210	-0.07230008
193	0xbc24e8c3	-0.01006526
194	0xba552ec2	-0.00081322726
195	0x3dfbeefb	0.12301441
196	0x3afc557d	0.0019251552
197	0xbe8a41ca	-0.27003318
198	0xbde78dde	-0.11306356
199	0x3df6c440	0.120491505
200	0xbd9b9760	-0.07597232
201	0xbc6a116e	-0.014286382
202	0x3e89125a	0.26771814
203	0x3e045c65	0.1292587
204	0xbd76689e	-0.060158364
205	0xbe6258f5	-0.22104247
206	0x3d29f2e8	0.04149142
207	0xbc10ff83	-0.008849981
208	0x3d55e89b	0.052223783
209	0xbdc10bbd	-0.09426067
210	0xbd086cb5	-0.033306796
211	0x3e1be6e5	0.15224798
212	0xbc085a4c	-0.00832231
213	0xbdec46dc	-0.11536953
214	0xbe6dc729	-0.23220505
215	0x3d15c6e9	0.03656665
216	0xbd559cd9	-0.052151535
217	0x3c876c5d	0.016531164
218	0x3c894c83	0.016760116
219	0xbc512b2a	-0.012766639
220	0xbd6f3b70	-0.058406293
221	0xbc445b9d	-0.011984733
222	0xbdf14ac3	-0.11781838
223	0x3e49cdb3	0.19707374
224	0x3d4d2bb2	0.0500905
225	0x3db93b8b	0.0904456
226	0x3dc93000	0.098236084
227	0xbd6f30db	-0.0583962
228	0xbdf042cd	-0.11731491
229	0x3cc8e933	0.02452526
230	0xbdca387e	-0.09874056
231	0xbd451160	-0.048112273
232	0xbdacf634	-0.08445397
233	0xbd43baaa	-0.04778544
234	0x3c7cbc07	0.015425689
235	0xbe7e3844	-0.24826151
236	0x3d666865	0.056251902
237	0xbd6ad782	-0.05733443
238	0x3e2dd226	0.16974697
239	0xbe72af1d	-0.23699613
240	0x3e5f44ba	0.21803561
241	0x3cca8b19	0.02472453
242	0xbe003e27	-0.12523709
243	0xbe39ba1f	-0.18137406
244	0xbdc77f0a	-0.09741028
245	0x3dacae9a	0.0843174
246	0x3c7b226a	0.015328029
247	0x3d2d9bea	0.04238502
248	0x3e2efd0d	0.17088719
249	0xbe109b7f	-0.14121817
250	0x3dbe015e	0.092776045
251	0x3cfbf41f	0.030756054
252	0xbd88e0e5	-0.0668352
253	0xbdcf63cf	-0.10126459
254	0x3dc7c111	0.09753621
255	0xbc3aed03	-0.011409047

network_body._body_endoder.seq_layers.0.bias f4 [128]
0	0x00000000	0.0
1	0x00000000	0.0
2	0x00000000	0.0
3	0x00000000	0.0
4	0x00000000	0.0
5	0x00000000	0.0
6	0x00000000	0.0
7	0x00000000	0.0
8	0x00000000	0.0
9	0x00000000	0.0
10	0x00000000	0.0
11	0x00000000	0.0
12	0x00000000	0.0
13	0x00000000	0.0
14	0x00000000	0.0
15	0x00000000	0.0
16	0x00000000	0.0
17	0x00000000	0.0
18	0x00000000	0.0
19	0x00000000	0.0
20	0x00000000	0.0
21	0x00000000	0.0
22	0x00000000	0.0
23	0x00000000	0.0
24	0x00000000	0.0
25	0x00000000	0.0
26	0x00000000	0.0
27	0x00000000	0.0
28	0x00000000	0.0
29	0x00000000	0.0
30	0x00000000	0.0
31	0x00000000	0.0
32	0x00000000	0.0
33	0x00000000	0.0
34	0x00000000	0.0
35	0x00000000	0.0
36	0x00000000	0.0
37	0x00000000	0.0
38	0x00000000	0.0
39	0x00000000	0.0
40	0x00000000	0.0
41	0x00000000	0.0
42	0x00000000	0.0
43	0x00000000	0.0
44	0x00000000	0.0
45	0x00000000	0.0
46	0x00000000	0.0
47	0x00000000	0.0
48	0x00000000	0.0
49	0x00000000	0.0
50	0x00000000	0.0
51	0x00000000	0.0
52	0x00000000	0.0
53	0x00000000	0.0
54	0x00000000	0.0
55	0x00000000	0.0
56	0x00000000	0.0
57	0x00000000	0.0
58	0x00000000	0.0
59	0x00000000	0.0
60	0x00000000	0.0
61	0x00000000	0.0
62	0x00000000	0.0
63	0x00000000	0.0
64	0x00000000	0.0
65	0x00000000	0.0
66	0x00000000	0.0
67	0x00000000	0.0
68	0x00000000	0.0
69	0x00000000	0.0
70	0x00000000	0.0
71	0x00000000	0.0
72	0x00000000	0.0
73	0x00000000	0.0
74	0x00000000	0.0
75	0x00000000	0.0
76	0x00000000	0.0
77	0x00000000	0.0
78	0x00000000	0.0
79	0x00000000	0.0
80	0x00000000	0.0
81	0x00000000	0.0
82	0x00000000	0.0
83	0x00000000	0.0
84	0x00000000	0.0
85	0x00000000	0.0
86	0x00000000	0.0
87	0x00000000	0.0
88	0x00000000	0.0
89	0x00000000	0.0
90	0x00000000	0.0
91	0x00000000	0.0
92	0x00000000	0.0
93	0x00000000	0.0
94	0x00000000	0.0
95	0x00000000	0.0
96	0x00000000	0.0
97	0x00000000	0.0
98	0x00000000	0.0
99	0x00000000	0.0
100	0x00000000	0.0
101	0x00000000	0.0
102	0x00000000	0.0
103	0x00000000	0.0
104	0x00000000	0.0
105	0x00000000	0.0
106	0x00000000	0.0
107	0x00000000	0.0
108	0x00000000	0.0
109	0x00000000	0.0
110	0x00000000	0.0
111	0x00000000	0.0
112	0x00000000	0.0
113	0x00000000	0.0
114	0x00000000	0.0
115	0x00000000	0.0
116	0x00000000	0.0
117	0x00000000	0.0
118	0x00000000	0.0
119	0x00000000	0.0
120	0x00000000	0.0
121	0x00000000	0.0
122	0x00000000	0.0
123	0x00000000	0.0
124	0x00000000	0.0
125	0x00000000	0.0
126	0x00000000	0.0
127	0x00000000	0.0

network_body._body_endoder.seq_layers.2.weight f4 [128, 128]
0	0x3d827c83	0.06371405
1	0x3b77d1a0	0.0037814155
2	0x3d271a8c	0.0407968
3	0xbd50595d	-0.050866473
4	0xbcbe1894	-0.02320508
5	0x3cfc3b71	0.030790063
6	0xbd8eea95	-0.06978337
7	0xbbdda4ca	-0.006764029
8	0x3cb7669d	0.022387797
9	0x3dd57902	0.10423471
10	0xbca5a80a	-0.020221729
11	0xbe0a3c96	-0.13499674
12	0xbd90cde8	-0.070705235
13	0x3d8de7ab	0.06928953
14	0x3dd35c3b	0.10320326
15	0x3acdb661	0.0015694612
16	0xbd4af909	-0.049553905
17	0xbddfad4d	-0.109217264
18	0xbd583abe	-0.052790396
19	0xbd5a7eee	-0.053343706
20	0xbe027a56	-0.1274198
21	0xbd71be3a	-0.059019305
22	0x3dbf7f72	0.0935048
23	0xbe1ab132	-0.15106657
24	0x3c46a44f	0.012124135
25	0xbd1569f6	-0.036478005
26	0xbe41c0cd	-0.18921204
27	0x3ce46733	0.02788124
28	0x3c12edc3	0.00896782
29	0xbd354b1a	-0.044261076
30	0xbd01a0e0	-0.031647563
31	0x3d5ad63c	0.053426966
32	0x3d818fa8	0.063262284
33	0x3da7132c	0.081579536
34	0xbcd10e06	-0.025519382
35	0x3dcbb8af	0.09947335
36	0x3d078cd4	0.03309329
37	0x3cfb5c51	0.030683668
38	0xbe40587e	-0.18783757
39	0xbd05f4a2	-0.032704003
40	0x3e6ece08	0.23320782
41	0xbd798832	-0.0609209
42	0xbddcb861	-0.10777355
43	0x3da6f0f0	0.08151424
44	0xbdc9f63a	-0.09861417
45	0xbd1eae3d	-0.038740385
46	0xbdd69fa0	-0.10479665
47	0xbdc84d2f	-0.097803466
48	0x3da51b4f	0.08061849
49	0xbd2750c4	-0.04084851
50	0x3c9ee04d	0.019394064
51	0xbd22c567	-0.03973904
52	0xbc9f4b10	-0.019444972
53	0xbc953dc3	-0.018217927
54	0x3cd456ce	0.025920298
55	0x3e0b8d09	0.1362802
56	0xbe40826d	-0.18799753
57	0x3d530228	0.05151573
58	0xbbb5a91c	-0.005543841
59	0x3c36396d	0.01112209
60	0x3ca3fef4	0.020019032
61	0x3ca3e053	0.020004427
62	0x3cd9dd86	0.026594888
63	0xbe3f01eb	-0.18653075
64	0xbc09d0c2	-0.008411588
65	0x3d8d2a72	0.068928614
66	0x3d8e6598	0.06952971
67	0x3de3f16c	0.11130032
68	0xbdd18c61	-0.10231853
69	0xbd81f12e	-0.063448295
70	0x3bb711e7	0.005586851
71	0x3cf8e9b3	0.030384874
72	0xbc424179	-0.01185643
73	0xbcb05fb9	-0.02153002
74	0x3d5a13f9	0.053241704
75	0x3bece0f9	0.0072289673
76	0x3d0822d1	0.03323633
77	0x3da4ba8f	0.08043396
78	0x3cd5837b	0.026063671
79	0xbe09c4fe	-0.13454053
80	0x3cc802bd	0.024415368
81	0xbe2fbcb9	-0.17161836
82	0xbe071096	-0.13189921
83	0xbd2a27bc	-0.0415418
84	0x3d00e604	0.03146936
85	0xbbad2b7d	-0.005284725
86	0x3e2f79dd	0.17136331
87	0x3dee016e	0.116213664
88	0xbba94e94	-0.005166838
89	0xbdd4697c	-0.10371682
90	0xbe0d1ab0	-0.13779712
91	0xbd62c65c	-0.05536495
92	0xbd7149a9	-0.05890814
93	0x3bfe3fbf	0.007759064
94	0xbc90f57d	-0.017695183
95	0x3d5e7a26	0.05431571
96	0x3d5d9fd7	0.054107513
97	0x3c4c7e17	0.012481234
98	0x3dd881d1	0.105716355
99	0xbca71044	-0.020393498
100	0x3df6688e	0.12031661
101	0xbc141b85	-0.009039764
102	0xbe0ee679	-0.13955106
103	0x3d72f451	0.05931503
104	0xbbe63b18	-0.0070260875
105	0xbcd21e86	-0.02564932
106	0x3e349fbb	0.17639057
107	0x3c4ba0e1	0.012428493
108	0x3ae146f1	0.001718728
109	0x3d82d914	0.063890606
110	0x3d7da187	0.061921623
111	0x3d1a8d2a	0.03773228
112	0x3e2e93d5	0.17048581
113	0xbcfd6745	-0.030933032
114	0xbd625691	-0.055258337
115	0xbdba84dc	-0.09107372
116	0x39dbc896	0.00041920383
117	0x3be9d070	0.0071354434
118	0xbd4cd160	-0.050004363
119	0xbdacd3d7	-0.08438843
120	0x3d8ac661	0.06776119
121	0x3c1bf3fa	0.009518618
122	0x3d423149	0.047410283
123	0x3d9b92ca	0.07596357
124	0xbe1eafb0	-0.15496707
125	0xbd5b684c	-0.053566262
126	0xbd89210e	-0.06695758
127	0xbd428944	-0.047494188
128	0xbc83f7e3	-0.016109413
129	0x3d88163f	0.06644868
130	0x3ca79d11	0.020460637
131	0x3d897597	0.067118816
132	0x3d754ff7	0.059890714
133	0x3e8eb671	0.27873567
134	0xbc78f679	-0.015195482
135	0x3c8f8e5c	0.017523937
136	0xbd41f450	-0.047352135
137	0x3c318644	0.010835234
138	0xbd2d2ec0	-0.042280912
139	0x3c48c110	0.012253061
140	0x3d06c740	0.032904863
141	0xbd17ef74	-0.037093595
142	0xbd6b56f5	-0.057455976
143	0x3dcaec42	0.09908344
144	0xbdde0ab5	-0.10841886
145	0xbdb97f26	-0.09057455
146	0xbda98a64	-0.08278349
147	0xbe015b8f	-0.12632583
148	0xbd929e49	-0.07159097
149	0xbd4fd726	-0.05074229
150	0x3d65e014	0.0561219
151	0x3d41dc0c	0.047328994
152	0x3e2462ca	0.1605331
153	0x3cce7945	0.02520431
154	0x3d86d00b	0.0658265
155	0x3d6c01e2	0.057618983
156	0xbd84e5e5	-0.064891614
157	0x3d810241	0.06299258
158	0x3cc07e8d	0.023497844
159	0xbe52b033	-0.20575027
160	0x3db9e943	0.09077694
161	0x3d43d886	0.047813915
162	0xbdcabac9	-0.09898908
163	0x3dcdbc87	0.10045724
164	0xbda0e20d	-0.07855616
165	0x3d92bb6b	0.071646534
166	0xbe239d64	-0.15978009
167	0xbcc5a61a	-0.024127055
168	0xbdd38930	-0.10328901
169	0x3d237f4a	0.039916314
170	0x3db1f26a	0.08688815
171	0x3e35805e	0.1772475
172	0xbd462069	-0.048370752
173	0xbe2d4943	-0.16922478
174	0xbdc15711	-0.09440435
175	0xbd320fe2	-0.04347218
176	0xbe3878c0	-0.18014812
177	0xbdabaa77	-0.08382123
178	0xbdb1921d	-0.08670447
179	0xbe1c0697	-0.15236889
180	0x3e56c787	0.20974551
181	0xbd1d960e	-0.03847318
182	0x3d139ec4	0.036040083
183	0xbdb29244	-0.08719304
184	0x3e0292f6	0.12751374
185	0xbce35a51	-0.027753027
186	0x3ded2148	0.115786135
187	0x3c91ceba	0.01779877
188	0xbc095d9e	-0.0083841365
189	0xbc8e2353	-0.017350828
190	0xbd0b8fa1	-0.034072522
191	0xbe166ad5	-0.1468919
192	0x3e07c068	0.13256991
193	0xbd5422a7	-0.05179086
194	0x3c8e4bae	0.017370071
195	0x3e221490	0.15828156
196	0xbd24b87a	-0.040214993
197	0xbd8a0088	-0.067383826
198	0xbdd12130	-0.10211408
199	0x3dcd7687	0.10032373
200	0x3da1e6a9	0.07905323
201	0xbe026bc4	-0.12736422
202	0x3a7123d7	0.0009198761
203	0xbd480a0f	-0.048837718
204	0x3db358c3	0.08757164
205	0x3cf7b397	0.030237002
206	0x3c8d6c56	0.017263573
207	0xbccb28b8	-0.02479969
208	0xbd2bd296	-0.041948877
209	0xbcb6c558	-0.022310898
210	0xbdba9fc0	-0.09112501
211	0xbd5b17f8	-0.053489655
212	0x3d95ad8b	0.07308491
213	0xbc9c3cc1	-0.019071938
214	0xbe665b9e	-0.22495887
215	0x3e4ab7e7	0.19796716
216	0x3db71861	0.08940197
217	0x3de85ef6	0.11346237
218	0xbd16c275	-0.036806542
219	0xbdd015e1	-0.10160423
220	0xbd50022f	-0.050783332
221	0x3c5d1bfb	0.013495441
222	0x3de2f894	0.11082569
223	0x3d2aaec7	0.041670587
224	0x3e2eb808	0.1706239
225	0xbd851397	-0.06497877
226	0x3b0fb0fb	0.0021925557
227	0x3e03c58e	0.1286833
228	0xbe2a3062	-0.16620019
229	0x3d1328ea	0.03592769
230	0x3db1bb1c	0.086782664
231	0xbd2f74e8	-0.0428361
232	0x3c43e0b0	0.011955425
233	0xbdcb7b89	-0.09935672
234	0xbe2361c6	-0.15955266
235	0x3d0d3803	0.034477245
236	0x3cb3e23a	0.02195846
237	0xbc4e41b9	-0.012588912
238	0x3e27334e	0.16328165
239	0x3e0e1a62	0.13877252
240	0x3d105b16	0.035243116
241	0x3e194205	0.1496659
242	0x3e027c2a	0.12742677
243	0x3c676e02	0.014125349
244	0x3ccb93ff	0.024850843
245	0xbe139dce	-0.14415666
246	0xbd10b1bf	-0.035325762
247	0x3c54a1a4	0.012977991
248	0xbc6c30d2	-0.014415937
249	0x3c1591ff	0.009129046
250	0xbc95c769	-0.018283563
251	0xbcc7fb75	-0.024411896
252	0x3d8f5533	0.06998672
253	0xbd43cc68	-0.04780236
254	0xbbf74ad5	-0.0075467625
255	0x3d9dd5b3	0.077067755

network_body._body_endoder.seq_layers.2.bias f4 [128]
0	0x00000000	0.0
1	0x00000000	0.0
2	0x00000000	0.0
3	0x00000000	0.0
4	0x00000000	0.0
5	0x00000000	0.0
6	0x00000000	0.0
7	0x00000000	0.0
8	0x00000000	0.0
9	0x00000000	0.0
10	0x00000000	0.0
11	0x00000000	0.0
12	0x00000000	0.0
13	0x00000000	0.0
14	0x00000000	0.0
15	0x00000000	0.0
16	0x00000000	0.0
17	0x00000000	0.0
18	0x00000000	0.0
19	0x00000000	0.0
20	0x00000000	0.0
21	0x00000000	0.0
22	0x00000000	0.0
23	0x00000000	0.0
24	0x00000000	0.0
25	0x00000000	0.0
26	0x00000000	0.0
27	0x00000000	0.0
28	0x00000000	0.0
29	0x00000000	0.0
30	0x00000000	0.0
31	0x00000000	0.0
32	0x00000000	0.0
33	0x00000000	0.0
34	0x00000000	0.0
35	0x00000000	0.0
36	0x00000000	0.0
37	0x00000000	0.0
38	0x00000000	0.0
39	0x00000000	0.0
40	0x00000000	0.0
41	0x00000000	0.0
42	0x00000000	0.0
43	0x00000000	0.0
44	0x00000000	0.0
45	0x00000000	0.0
46	0x00000000	0.0
47	0x00000000	0.0
48	0x00000000	0.0
49	0x00000000	0.0
50	0x00000000	0.0
51	0x00000000	0.0
52	0x00000000	0.0
53	0x00000000	0.0
54	0x00000000	0.0
55	0x00000000	0.0
56	0x00000000	0.0
57	0x00000000	0.0
58	0x00000000	0.0
59	0x00000000	0.0
60	0x00000000	0.0
61	0x00000000	0.0
62	0x00000000	0.0
63	0x00000000	0.0
64	0x00000000	0.0
65	0x00000000	0.0
66	0x00000000	0.0
67	0x00000000	0.0
68	0x00000000	0.0
69	0x00000000	0.0
70	0x00000000	0.0
71	0x00000000	0.0
72	0x00000000	0.0
73	0x00000000	0.0
74	0x00000000	0.0
75	0x00000000	0.0
76	0x00000000	0.0
77	0x00000000	0.0
78	0x00000000	0.0
79	0x00000000	0.0
80	0x00000000	0.0
81	0x00000000	0.0
82	0x00000000	0.0
83	0x00000000	0.0
84	0x00000000	0.0
85	0x00000000	0.0
86	0x00000000	0.0
87	0x00000000	0.0
88	0x00000000	0.0
89	0x00000000	0.0
90	0x00000000	0.0
91	0x00000000	0.0
92	0x00000000	0.0
93	0x00000000	0.0
94	0x00000000	0.0
95	0x00000000	0.0
96	0x00000000	0.0
97	0x00000000	0.0
98	0x00000000	0.0
99	0x00000000	0.0
100	0x00000000	0.0
101	0x00000000	0.0
102	0x00000000	0.0
103	0x00000000	0.0
104	0x00000000	0.0
105	0x00000000	0.0
106	0x00000000	0.0
107	0x00000000	0.0
108	0x00000000	0.0
109	0x00000000	0.0
110	0x00000000	0.0
111	0x00000000	0.0
112	0x00000000	0.0
113	0x00000000	0.0
114	0x00000000	0.0
115	0x00000000	0.0
116	0x00000000	0.0
117	0x00000000	0.0
118	0x00000000	0.0
119	0x00000000	0.0
120	0x00000000	0.0
121	0x00000000	0.0
122	0x00000000	0.0
123	0x00000000	0.0
124	0x00000000	0.0
125	0x00000000	0.0
126	0x00000000	0.0
127	0x00000000	0.0

action_model._discrete_distribution.branches.0.weight f4 [3, 128]
0	0xb9c3bdd2	-0.00037334725
1	0x3beff817	0.007323276
2	0xbc1769ac	-0.009241503
3	0xbbb1cc76	-0.005425985
4	0x3c9d3d3d	0.01919424
5	0x3c49548b	0.012288223
6	0xbcb7ecd6	-0.0224518
7	0x3aec82e3	0.0018044378
8	0x3c48cbf2	0.012255656
9	0xba25413b	-0.00063039706
10	0x3c35c8e5	0.01109526
11	0x3c19882f	0.009370848
12	0xb9cc2e54	-0.0003894443
13	0xbceda723	-0.029010361
14	0xbc94c471	-0.018160077
15	0x3b0362fc	0.0020048013
16	0x3c566e1b	0.013087775
17	0x3bf204dd	0.0073858337
18	0xbb905edf	-0.0044058408
19	0xbc230350	-0.00994952
20	0x3c651ca2	0.013983877
21	0x3c129bff	0.008948325
22	0x3c56216d	0.013069493
23	0xbc10da73	-0.008841145
24	0x3bd02a68	0.0063527115
25	0xbb95af2d	-0.0045680017
26	0xbbc2f0c3	-0.005949111
27	0xba437857	-0.00074565917
28	0xbba122fb	-0.0049175
29	0x3c1db54a	0.009625742
30	0x3aa26746	0.0012390397
31	0xbbd350d8	-0.0064488463
32	0x3b1836e2	0.0023226072
33	0x3b552f5a	0.0032529444
34	0x3c5a68c3	0.013330641
35	0xbbdd30a3	-0.0067501827
36	0x3c939bff	0.01801872
37	0x3c513470	0.01276885
38	0x3bf8865d	0.0075843767
39	0x3c13fe45	0.009032791
40	0x3b5dbf67	0.0033836009
41	0x3b785462	0.0037892093
42	0xbb3a4975	-0.0028425131
43	0x3c013a91	0.0078874985
44	0xbb43757d	-0.0029824667
45	0xbc001f9f	-0.007820039
46	0x3c30eb61	0.010798306
47	0x3c2ff2a3	0.010739001
48	0xbc25e265	-0.010124777
49	0x3c339846	0.010961598
50	0x3bbf2ca4	0.005834179
51	0xbbfcc51f	-0.0077139284
52	0x3c447e77	0.011993042
53	0x390ab08d	0.00013226476
54	0xbc06627e	-0.008202193
55	0x3bc9e557	0.0061613726
56	0xbb0a1dee	-0.0021074968
57	0xbba38caf	-0.004991136
58	0x3b1160f7	0.002218304
59	0x3b814b7d	0.0039457665
60	0x3cadd289	0.021218555
61	0xbbd78320	-0.0065769106
62	0x3bb331ff	0.0054686065
63	0x3b8513cc	0.004061198
64	0x3abffa12	0.001464667
65	0x3c162cbf	0.009165942
66	0x3c47aeea	0.012187699
67	0xbc1b0a37	-0.009462885
68	0xbbc3312b	-0.005956789
69	0x3bfe60b8	0.0077629946
70	0xbc7b058a	-0.015321145
71	0x3bc83d17	0.006110798
72	0x39ad417b	0.00033045918
73	0xbbdc1cd5	-0.0067173042
74	0x3b080400	0.0020754337
75	0xbb53dcaf	-0.0032327583
76	0x3c9bc9b7	0.019017084
77	0xbc5e9363	-0.013584944
78	0xbc339811	-0.010961548
79	0x39eb7ad3	0.00044914204
80	0x3c127498	0.008938931
81	0xbbf28972	-0.0074016387
82	0x3b5b9603	0.0033506162
83	0xbc419909	-0.011816272
84	0x3b43ad53	0.0029857948
85	0xbb1b06ac	-0.00236551
86	0xbc933bc1	-0.017972829
87	0x3b6ae462	0.0035841693
88	0xbb4a9833	-0.0030913472
89	0xbc0c46b3	-0.008561778
90	0xbc081e9b	-0.008308078
91	0xbbc5024f	-0.006012238
92	0xbbf0eab5	-0.007352198
93	0x3c2e6d56	0.010646185
94	0x3c3cfa89	0.011534342
95	0xbacf80ed	-0.001583127
96	0x3bb5d7f9	0.0055494276
97	0xbc5fa64b	-0.013650487
98	0xbc14f607	-0.009091861
99	0xbc8a071c	-0.016849093
100	0xbc4500f6	-0.012024155
101	0xbbe4d028	-0.006982822
102	0xbbefca02	-0.0073177824
103	0x3a243dc7	0.0006265309
104	0x3b831f07	0.0040015015
105	0xbb217b89	-0.0024640283
106	0x3c33f210	0.010983005
107	0x3c4a2c81	0.012339712
108	0xbb18abed	-0.0023295835
109	0x3c508118	0.012726091
110	0xbbb1fe56	-0.0054319305
111	0x3c350a88	0.011049874
112	0xbc8a7c7f	-0.016905067
113	0xbaf99237	-0.0019040768
114	0xbbb00c25	-0.0053725415
115	0x3b081d66	0.0020769476
116	0xbb86ad25	-0.004109996
117	0x3c2b0445	0.01043803
118	0xbb4240f9	-0.0029640778
119	0xbb083f3a	-0.002078964
120	0x3c9eb1eb	0.019371947
121	0x3b6f2510	0.0036490597
122	0xbc3093f1	-0.0107774595
123	0xbba74897	-0.005105089
124	0xbc6c7d08	-0.014434107
125	0xbbb47f2f	-0.0055083255
126	0x3b3d899b	0.002892113
127	0x3b71484a	0.003681677
128	0xb893ee05	-7.053841e-05
129	0xbc88048d	-0.016603732
130	0xbb6e503b	-0.003636374
131	0xbbd2fd22	-0.006438867
132	0xbc90e804	-0.017688759
133	0x3c32cf46	0.010913676
134	0x3b0cd7bf	0.00214909
135	0x3c629c3b	0.013831194
136	0xbb97e7bc	-0.004635779
137	0xbb4abc43	-0.0030934967
138	0x3bf27c67	0.007400084
139	0x3b26270f	0.002535287
140	0xbb9e208e	-0.004825658
141	0x3c319839	0.010839515
142	0xbbfcd233	-0.0077154874
143	0x3a396392	0.0007072027
144	0x3bd493e7	0.006487358
145	0x3bc19d87	0.0059086713
146	0x3bb24e60	0.005441472
147	0xbb2ba446	-0.0026190444
148	0xbaa7fc5f	-0.0012816301
149	0xbc4acbd8	-0.012377702
150	0x3a4e38a8	0.0007866719
151	0xbc895fd3	-0.016769325
152	0x3b84a1bf	0.004047602
153	0x3c02b8db	0.007978643
154	0xbc8ae89f	-0.016956626
155	0x3b33457f	0.0027354655
156	0xbb271c22	-0.0025498946
157	0x3c1df756	0.009641489
158	0xb9f962a5	-0.00047566477
159	0xbcd1152f	-0.025522796
160	0xbb4e4bd2	-0.0031478298
161	0xbb98ad4e	-0.0046593314
162	0x3b255aeb	0.0025231193
163	0x3c0f8b1f	0.008761196
164	0xbcbaabc8	-0.02278699
165	0x39538b07	0.0002017432
166	0xbc61ffa0	-0.013793856
167	0xbad202b3	-0.0016022533
168	0xbac5dffd	-0.0015096661
169	0x3c25a5b8	0.010110311
170	0x3bf06428	0.0073361583
171	0x3b09e227	0.0021039338
172	0x3c6687cb	0.0140704615
173	0xbbd23b5b	-0.006415767
174	0xbc853738	-0.016261682
175	0xbc113521	-0.008862765
176	0x3bbe0d97	0.00579996
177	0x3bc5057f	0.006012618
178	0x3c0105a7	0.007874883
179	0xbbdcceea	-0.0067385333
180	0x3aa4335d	0.0012527514
181	0xbc5ecc48	-0.013598509
182	0xb937f64b	-0.00017543991
183	0x3ba65e5e	0.0050771674
184	0x3bb4f3ea	0.005522241
185	0xbc12c77e	-0.008958695
186	0xb907d22f	-0.00012952903
187	0xba3bdb4d	-0.0007166162
188	0x3c1acfcf	0.0094489595
189	0x3be62585	0.0070235156
190	0xbb0eab11	-0.0021769444
191	0xbbd626ab	-0.0065353713
192	0xbbcdcc60	-0.006280467
193	0x3c0f15c1	0.008733214
194	0xbafa9a53	-0.0019119479
195	0x3ca25db7	0.019820077
196	0xbb5732bd	-0.003283664
197	0xbc0a6d0a	-0.0084488485
198	0xbb34519d	-0.0027514466
199	0xbba7f81f	-0.005126014
200	0x3bb81617	0.0056178677
201	0x3acc8ae3	0.0015605356
202	0x3cb61c06	0.02223016
203	0x3889dfd5	6.574361e-05
204	0x3bf5ff15	0.007507215
205	0x3c3bfad8	0.01147338
206	0xbc02fa41	-0.0079942355
207	0xbc4dfcbb	-0.012572463
208	0x3b78b485	0.0037949395
209	0xbc5c2ab8	-0.013437919
210	0x389eb69e	7.568042e-05
211	0x3bba00a9	0.005676348
212	0xbbec2590	-0.0072066262
213	0xbbe86865	-0.007092523
214	0xbb9ce1c4	-0.0047876555
215	0x3c0a4dcb	0.008441399
216	0xba042834	-0.0005041391
217	0x3b87fffd	0.004150389
218	0x3a5ef663	0.00085053424
219	0xbc279e3e	-0.010230599
220	0x3bdeffaa	0.00680538
221	0xbb98f42d	-0.00466778
222	0x3adf6a50	0.0017045233
223	0xbc77d15a	-0.015125597
224	0xbc2c635a	-0.010521734
225	0xb972f837	-0.00023171386
226	0xbc117a2e	-0.008879228
227	0xbc26f235	-0.010189583
228	0x3b5fb7e2	0.0034136702
229	0xbbc48aeb	-0.0059980056
230	0x3b075604	0.0020650635
231	0x3b088dd3	0.0020836487
232	0x3c057a18	0.008146785
233	0x3c12e553	0.008965808
234	0x3bd69a97	0.0065491903
235	0xbc0dcd5f	-0.008654921
236	0xb983872d	-0.0002508698
237	0x3a97d6e7	0.0011584432
238	0xbb7e7130	-0.003882479
239	0x3c309258	0.010777079
240	0x3c2c4352	0.010514097
241	0x3b76f907	0.0037685053
242	0x3c76d67a	0.015065784
243	0x3b4af7cf	0.003097046
244	0xbc1edacf	-0.009695723
245	0xbb96b3ef	-0.0045990865
246	0xbca957b0	-0.020671695
247	0x3c861061	0.016365232
248	0xbb3259ff	-0.0027214286
249	0x3c780c85	0.015139704
250	0xbb341a93	-0.002748166
251	0x3c33dbdc	0.0109777115
252	0x3c165ce3	0.009177419
253	0x39c705bb	0.00037960507
254	0x3b91c743	0.0044488027
255	0x39efbe2b	0.00045727319

action_model._discrete_distribution.branches.0.bias f4 [3]
0	0x00000000	0.0
1	0x00000000	0.0
2	0x00000000	0.0

action_model._discrete_distribution.branches.1.weight f4 [3, 128]
0	0xbc45589f	-0.012045055
1	0x3c718e15	0.014743348
2	0x3c9d4b79	0.019201027
3	0xbb76b812	-0.0037646336
4	0x382ff5b3	4.1952077e-05
5	0xbc8ebf33	-0.017425155
6	0xbc51d31b	-0.012806679
7	0x3b209e7c	0.0024508527
8	0x3bc98698	0.006150078
9	0x3b8cb5b1	0.0042941202
10	0x3a621100	0.0008623749
11	0xbb4f4010	-0.0031623878
12	0x3a3e5bae	0.0007261586
13	0x399b6cc1	0.00029644932
14	0xbb8f397f	-0.0043708677
15	0x3bb2001f	0.0054321433
16	0xbad0e522	-0.0015937428
17	0xbc19aab3	-0.009379077
18	0xbbfdcdc7	-0.007745478
19	0x3be7ada0	0.0070702583
20	0x3c69a980	0.014261603
21	0x3c03f170	0.008053169
22	0xbc0465f8	-0.008080952
23	0x3af76a00	0.0018876195
24	0xbbc3bce1	-0.005973444
25	0xb9be5ace	-0.0003630728
26	0xbc758478	-0.014985196
27	0xbbaf65ac	-0.0053526964
28	0x3c1ee71a	0.009698654
29	0x3b0ee80a	0.0021805787
30	0x3bab5e83	0.0052297725
31	0xbc88ba09	-0.016690271
32	0xbc590d1f	-0.013247757
33	0xbb359981	-0.0027709904
34	0xbb7d4583	-0.0038646169
35	0xbbd5f647	-0.0065296027
36	0xbae74857	-0.001764546
37	0x3bd4f7bf	0.00649926
38	0x3c0a9455	0.008458217
39	0x3aa6de38	0.0012731021
40	0x3c62a9c2	0.013834419
41	0x3ba26799	0.0049561975
42	0xbc5e1b20	-0.013556272
43	0xba3eb89f	-0.00072754355
44	0x3c34ea9a	0.0110422615
45	0xbb59deb2	-0.003324431
46	0xb8b02ba1	-8.4004605e-05
47	0xbbd15baf	-0.0063891034
48	0xbba7f07f	-0.005125105
49	0x3bd46938	0.0064822696
50	0x3c48f885	0.012266283
51	0x3c6696ba	0.014074022
52	0x3c97cf7f	0.018531559
53	0xbb27dbed	-0.0025613264
54	0xb988b4ab	-0.0002607455
55	0xbc493e6d	-0.01228295
56	0xbb9af255	-0.0047285953
57	0xbc009683	-0.007848385
58	0xbadb781d	-0.001674417
59	0x3b0b4f1b	0.0021256867
60	0x3c20ec55	0.009821971
61	0x3b8d389a	0.004309726
62	0xbbedb6e2	-0.0072544673
63	0xbc8a11b6	-0.016854148
64	0xbc56fcdb	-0.013121809
65	0x3d00a5a6	0.031407975
66	0xbbe5e88b	-0.0070162467
67	0x3c842e4e	0.016135361
68	0x3c228db7	0.009921483
69	0x3bb71dd6	0.0055882735
70	0xbb0dca5b	-0.0021635506
71	0xbbf6d2c8	-0.0075324513
72	0xbc2781a9	-0.0102237845
73	0x3bbbdf7c	0.0057334285
74	0xbc8e9ce2	-0.017408792
75	0xba829ee9	-0.0009965572
76	0x3aeac29b	0.001791078
77	0x3b3bf8af	0.0028682163
78	0xbc8c0df3	-0.017096495
79	0xbbbca8ef	-0.005757443
80	0xb837060b	-4.3636228e-05
81	0x3c7a4dea	0.015277365
82	0xbc77963b	-0.015111501
83	0x3acc337c	0.0015579308
84	0xbce9a98f	-0.028523235
85	0x3ba2a8f3	0.004963988
86	0x3bd61905	0.0065337443
87	0xba93af99	-0.0011267542
88	0x3c27c722	0.010240348
89	0x3b00beea	0.0019645044
90	0xbc3b3ae3	-0.011427614
91	0xbbc1e8bd	-0.005917637
92	0xbb3dbd87	-0.0028952078
93	0x3b88bf65	0.0041732066
94	0xbb5a4d93	-0.0033310398
95	0x3bfc7eb7	0.0077055353
96	0x3b8efab9	0.0043633846
97	0x3945ee58	0.00018876174
98	0xbb22e90c	-0.0024858145
99	0xbc02c7f5	-0.007982244
100	0xbca7f2a7	-0.020501448
101	0xbc517827	-0.012784994
102	0x3c73fa53	0.014891225
103	0xbc4c3438	-0.012463622
104	0xbb94f1da	-0.0045454325
105	0x3bc1de4f	0.005916394
106	0xbc10c3c0	-0.008835733
107	0x3c05a95b	0.008158053
108	0xbb363a97	-0.0027805918
109	0xbba683be	-0.005081623
110	0xbb6b6e88	-0.0035924036
111	0x3c1d81eb	0.009613494
112	0x3c852423	0.016252583
113	0xbb118be4	-0.0022208625
114	0x3bbdd37f	0.0057930346
115	0xbc308f55	-0.0107763605
116	0x3bacc6f5	0.005272741
117	0x3c3f2892	0.011667388
118	0x3c608a4b	0.013704847
119	0x3b15b7ac	0.0022845073
120	0x3c4f5697	0.012654922
121	0x3bfc2510	0.007694848
122	0x3c2e217d	0.010628101
123	0xbc0cc2e3	-0.0085913865
124	0x3bb4703c	0.0055065434
125	0x3b1ac4a4	0.0023615742
126	0x3aeb50d2	0.0017953163
127	0x3c57d3f5	0.013173093
128	0xbb19180f	-0.0023360287
129	0xba9048d3	-0.0011008031
130	0xbc492a71	-0.012278185
131	0x3c27f09f	0.01025024
132	0xbb6c2c15	-0.0036037017
133	0xbc7b0f20	-0.01532343
134	0xbc8b02a0	-0.016969025
135	0xbbeb1f17	-0.007175337
136	0x3bdc3572	0.0067202384
137	0x3c24b615	0.010053177
138	0xbbe3db95	-0.0069536665
139	0xbb9205ed	-0.004456273
140	0xbc8ec658	-0.017428562
141	0xbbbb370a	-0.0057133483
142	0x3c0b0b70	0.008486614
143	0xbbd41d0f	-0.0064731906
144	0x3c22a9d5	0.009928186
145	0x3bea0d03	0.0071426644
146	0x3b925f96	0.004466961
147	0xbb949fa2	-0.0045356313
148	0x3ba97718	0.005171668
149	0x3c6c6a05	0.014429574
150	0xbc52a5df	-0.01285693
151	0x3bb90ca4	0.005647259
152	0x3b84e6bd	0.0040558265
153	0xbb1138cb	-0.0022159095
154	0xbc418e83	-0.011813763
155	0x3b3ae3ef	0.0028517207
156	0xbb8c4299	-0.0042804
157	0x3bde54eb	0.0067850254
158	0x3a2d58ae	0.00066126406
159	0x3c9b2afa	0.018941391
160	0xbc89c313	-0.016816651
161	0x3c195568	0.009358741
162	0x3b8e5483	0.0043435707
163	0xb9f3d80d	-0.00046509542
164	0xbc1d78ef	-0.009611352
165	0x3c365f17	0.01113107
166	0xbaf49ff3	-0.0018663391
167	0x3bbba4ae	0.0057264185
168	0x3b38bec7	0.0028189884
169	0x3a403233	0.0007331699
170	0xbc60dc68	-0.013724424
171	0xbbbf8c0f	-0.0058455537
172	0xbb021ec0	-0.0019854754
173	0x3a201401	0.00061064964
174	0xb989f286	-0.0002631137
175	0x3c0149bf	0.007891118
176	0xbc0944fa	-0.008378262
177	0xbc08ff5f	-0.008361666
178	0x3c05ee0e	0.008174432
179	0x3a685957	0.00088634103
180	0xbb175893	-0.0023093566
181	0xbc412729	-0.011789122
182	0xbb3b30c3	-0.0028563
183	0x39d9847d	0.00041488177
184	0xbb239a9c	-0.002496398
185	0xbb8c1000	-0.0042743683
186	0x3ba5f256	0.005064289
187	0x3c2a35cb	0.010388802
188	0x3bd0479f	0.006356194
189	0xbbbc5f4b	-0.0057486645
190	0xbac206a4	-0.0014803004
191	0xbc8cfce3	-0.01721043
192	0x3be6794d	0.007033503
193	0xbb92f346	-0.004484567
194	0x3bbcfdaf	0.005767546
195	0x3c33e6dc	0.010980334
196	0x3c0034a4	0.0078250505
197	0x3bebad2a	0.0071922736
198	0x3bcaf967	0.006194282
199	0xbb58111b	-0.003296918
200	0x3c0e1b59	0.008673512
201	0x3c5cbe90	0.013473168
202	0x3baa0984	0.0051891226
203	0xba1be3cc	-0.0005946725
204	0x3c035d7c	0.008017894
205	0x3bd9aa42	0.0066426108
206	0x3ab7d2a4	0.0014024568
207	0xbc3816cf	-0.011235907
208	0x3c32ce03	0.010913375
209	0x3b403022	0.0029325564
210	0x3a78cd5a	0.0009491049
211	0x3ba8893f	0.005143314
212	0xbbacf944	-0.005278738
213	0x3abf1ad5	0.001458014
214	0x3c9d21e4	0.0191812
215	0xbafc8cba	-0.0019268014
216	0xbb836a49	-0.004010473
217	0x3bf49985	0.00746459
218	0xba81823a	-0.000988073
219	0xbb66a188	-0.0035191495
220	0xbb2fdfb0	-0.002683621
221	0x3bd10f8b	0.0063800267
222	0x3b21e698	0.0024704095
223	0x3c39cce8	0.011340357
224	0x3c1093d0	0.008824304
225	0x3c43ce3a	0.011951024
226	0xb7b9a700	-2.2131484e-05
227	0x3960672f	0.00021400744
228	0x3b9f6e17	0.0048654187
229	0xbbf0692d	-0.0073367567
230	0x3bcc96b3	0.0062435507
231	0xbac724c1	-0.0015193449
232	0x3b3544a7	0.0027659328
233	0xbbd185f8	-0.006394144
234	0xbbe8d53f	-0.007105499
235	0xbb89d92f	-0.0042067985
236	0xba61d63f	-0.0008614994
237	0xba01edd4	-0.00049563986
238	0x3ab091b3	0.0013471156
239	0x3be63c12	0.007026204
240	0x3b35dd31	0.0027750249
241	0xbc8bcb05	-0.01706458
242	0xbc04e11c	-0.008110311
243	0x3c39d687	0.011342651
244	0xbb8c47bf	-0.0042810137
245	0xbc973f33	-0.018462753
246	0xbc6f4ec7	-0.014606184
247	0xbb543450	-0.0032379813
248	0xba439ee0	-0.0007462334
249	0xbb77d420	-0.0037815645
250	0x3be2fb55	0.006926934
251	0x3bbb0f72	0.0057086283
252	0xbb969614	-0.0045955274
253	0x3bbb0505	0.0057073855
254	0xbac409b3	-0.0014956504
255	0x3c2874ed	0.0102817835

action_model._discrete_distribution.branches.1.bias f4 [3]
0	0x00000000	0.0
1	0x00000000	0.0
2	0x00000000	0.0

action_model._discrete_distribution.branches.2.weight f4 [2, 128]
0	0x3bd6ae60	0.006551549
1	0x3c533488	0.012890942
2	0x3ca3ae87	0.019980682
3	0x3bcf74f2	0.0063310796
4	0xbb4d75f3	-0.003135082
5	0xbaea9208	-0.0017896304
6	0xba13b1d3	-0.0005634103
7	0xbbad108c	-0.0052815136
8	0xbbb4bb07	-0.0055154595
9	0x3c84f668	0.016230777
10	0xbc800183	-0.01562572
11	0xbcb3e237	-0.021958454
12	0xbb8b6dc5	-0.004255029
13	0x3bb49277	0.005510624
14	0xbb1025a4	-0.0021995092
15	0xbc682e08	-0.014171131
16	0xbbb81f7f	-0.005618989
17	0x3b00b891	0.001964126
18	0x3c096f59	0.008388364
19	0x3b8bc77f	0.004265725
20	0x3b6b7abd	0.0035931312
21	0x3c666cf8	0.014064066
22	0xbc014fff	-0.007892608
23	0xbb7133dd	-0.0036804595
24	0xbc8e468c	-0.017367624
25	0x3b720f20	0.0036935285
26	0xbb81e1bd	-0.0039636777
27	0x3c43d2d3	0.01195212
28	0xbc199c43	-0.009375635
29	0x3c4ab9ca	0.012373397
30	0xba2f2c92	-0.00066823617
31	0x3af50a50	0.001869509
32	0x3c725e9f	0.014793067
33	0xbc5b0d4b	-0.0133698685
34	0x3c23974f	0.009984805
35	0x3c06a725	0.008218561
36	0x3b47dbef	0.003049608
37	0xbc29fb88	-0.010374911
38	0x3b125213	0.0022326752
39	0xbb94bee0	-0.0045393556
40	0xbc4ffa9f	-0.01269403
41	0x3c19215d	0.009346333
42	0x3b2d5366	0.0026447414
43	0xbb1706eb	-0.0023044895
44	0xba8e799f	-0.0010869986
45	0x39776c75	0.00023596159
46	0x3b913deb	0.00443243
47	0x3c3e512c	0.011616033
48	0x3bf53c97	0.0074840295
49	0x3ba778d0	0.0051108375
50	0x3c5e5218	0.013569377
51	0xba1d0dba	-0.000599112
52	0xbbc69b0b	-0.006060963
53	0x3bd25643	0.0064189746
54	0xbc7ef580	-0.015561461
55	0xbc066abb	-0.008204157
56	0xba080e58	-0.00051901257
57	0xbb835a1b	-0.004008544
58	0x3bc6f5c0	0.006071776
59	0xbbf7bf25	-0.007560628
60	0xbad47fd3	-0.0016212411
61	0x3c009f77	0.007850519
62	0x3b286fa5	0.002570131
63	0xbb42591b	-0.0029655162
64	0x3b71ceb8	0.0036896896
65	0xbacedd67	-0.0015782536
66	0xbc661f03	-0.01404548
67	0x3abb1cb9	0.0014275528
68	0xbb128ceb	-0.0022361826
69	0xbb942694	-0.0045212004
70	0x3a05dde3	0.0005106611
71	0xbc54e1c8	-0.012993284
72	0x3af1e090	0.0018453766
73	0xbb71281d	-0.003679759
74	0xbbd7b112	-0.0065823877
75	0x3c1ab8f5	0.009443511
76	0xbc4c398a	-0.01246489
77	0xbbdc0eca	-0.00671563
78	0xbc2e0433	-0.010621118
79	0xbb4bd361	-0.0031101333
80	0xbb1396ab	-0.0022520225
81	0xbb9c1e8a	-0.0047643827
82	0xbbcfa2ed	-0.006336561
83	0x3bee8c4a	0.0072799074
84	0xbbe15bd7	-0.0068774032
85	0x3c947db5	0.018126348
86	0xbb862560	-0.004093811
87	0xbb3f9fc0	-0.0029239506
88	0x3b867413	0.0041031926
89	0xb962c668	-0.00021626952
90	0xba138d7a	-0.00056286866
91	0x3c46c1c5	0.012131159
92	0xbb095533	-0.0020955324
93	0x3a3fb6a3	0.0007313287
94	0xbb35c0b9	-0.002773328
95	0x3c395a14	0.01131298
96	0xbba4143f	-0.0050072963
97	0x3c4522d7	0.012032232
98	0xb909d50c	-0.00013144704
99	0xba86dd5a	-0.0010289357
100	0x3ba2d164	0.004968809
101	0xbb7409ef	-0.0037237366
102	0xbb87892f	-0.0041362266
103	0xbb315b8c	-0.0027062623
104	0x3bea0075	0.0071411678
105	0xbb897674	-0.004195029
106	0xbb6438d2	-0.0034823907
107	0xbc095659	-0.008382403
108	0x3b3463bc	0.0027525267
109	0xbcb85611	-0.022501977
110	0x3b63f1c5	0.0034781557
111	0x3ba0882a	0.0048990445
112	0xbaa45024	-0.0012536091
113	0x3a2a92e9	0.00065068767
114	0x3c0caa37	0.008585504
115	0x3c602d82	0.013682725
116	0xbb9a8393	-0.004715392
117	0x3c8c120b	0.017098447
118	0x3b24202e	0.0025043595
119	0xbb8ca2c9	-0.0042918664
120	0xbb038733	-0.0020069599
121	0xbc92f15c	-0.017937355
122	0xbbffe5b8	-0.007809367
123	0xbbf8d752	-0.0075940276
124	0x3c367f11	0.011138693
125	0xbc12bb16	-0.008955738
126	0x3bb8beed	0.0056379945
127	0xbc13718a	-0.008999238
128	0x3a9ca94e	0.0011952312
129	0xbc04ecce	-0.008113099
130	0x3c3b79a3	0.011442575
131	0xbc88b187	-0.016686214
132	0x3b9b2eb9	0.0047357944
133	0x3bb661e3	0.005565868
134	0x3b23e943	0.002501086
135	0x3beb876a	0.0071877735
136	0xbc66f7e0	-0.014097184
137	0xbbb5560f	-0.0055339406
138	0xbb25062d	-0.0025180683
139	0xbbb7ea93	-0.00561268
140	0xbb5e9c22	-0.0033967574
141	0xbba3a083	-0.0049934997
142	0x3c049004	0.008090977
143	0xbaaa2010	-0.0012979526
144	0xbb69c88b	-0.0035672511
145	0xbaf5e4ab	-0.0018760165
146	0xbc7156e7	-0.014730192
147	0xbbe50d80	-0.0069901347
148	0x3c202808	0.009775169
149	0xbc03f544	-0.008054081
150	0xbc98a8a1	-0.018635096
151	0x3c87488f	0.01651409
152	0xba50ef7f	-0.0007970258
153	0x3adf2dba	0.0017027177
154	0xbc91da37	-0.017804248
155	0xbbf4baf5	-0.007468576
156	0xbc0edb6f	-0.008719309
157	0x3bd24aab	0.0064175925
158	0xbc9f1721	-0.019420208
159	0xbb0e6431	-0.00217272
160	0xbbc0129f	-0.005861595
161	0xbb98d48f	-0.004664011
162	0xbc89d3b2	-0.016824577
163	0x3bb1dead	0.0054281563
164	0xbb88532e	-0.0041603064
165	0xba82b3bb	-0.0009971777
166	0x3c0cc3b8	0.008591585
167	0x3c81637b	0.015794506
168	0xbc8a9a1f	-0.016919194
169	0xbaef11c3	-0.0018239546
170	0x3c19708d	0.009365213
171	0x3cc038f3	0.023464656
172	0xbbd2c3b7	-0.0064320224
173	0xbb52b7d0	-0.0032153018
174	0xbbaeeb46	-0.0053381054
175	0xbbd784a2	-0.0065770904
176	0xbc4bbf29	-0.012435713
177	0xbc14ab17	-0.009073994
178	0xbc5525ed	-0.0130095305
179	0xbc49c967	-0.0123160845
180	0x3b567d45	0.0032728475
181	0xba908472	-0.00110258
182	0xbbeae3f5	-0.007168288
183	0x39d0a633	0.0003979668
184	0x3c53e8cb	0.01293392
185	0x3b8cd36a	0.0042976635
186	0xbbeb3bbd	-0.007178752
187	0x3bd1f885	0.0064077997
188	0xbae8b2a7	-0.0017753438
189	0x3c299c93	0.010352272
190	0x3c1443eb	0.009049396
191	0x3c696ff8	0.014247887
192	0xbaf8869b	-0.0018961014
193	0xb755d4eb	-1.2745363e-05
194	0xb9be845b	-0.00036338237
195	0x3c4889e1	0.012239904
196	0xbb0fa6fe	-0.0021919603
197	0x39f2c583	0.00046304995
198	0xbb881596	-0.004152964
199	0xbc0cead0	-0.008600906
200	0xbc229ccb	-0.009925078
201	0x3b8f2fe0	0.004369721
202	0xbc79e842	-0.0152531285
203	0x3c315bb3	0.010825085
204	0xbc19b00f	-0.009380355
205	0xbc1dd870	-0.009634122
206	0xbb3f7055	-0.0029211242
207	0x3be9f2a3	0.0071395203
208	0x3bd2aa70	0.006429009
209	0x3ada00a8	0.0016632276
210	0x3c7457e8	0.014913537
211	0x3bfe4448	0.0077596046
212	0xbc8a155b	-0.016855886
213	0xbb02d763	-0.0019964806
214	0xbb544e0a	-0.0032395148
215	0xbc0db6cc	-0.008649539
216	0x3bc5b58b	0.0060336045
217	0xbb2ebedc	-0.0026664054
218	0xbba8f04e	-0.0051555997
219	0xbbab0746	-0.005219373
220	0xbb943593	-0.004522988
221	0x3c38ecce	0.011286927
222	0x3cab2550	0.020891815
223	0xbb62699d	-0.0034547814
224	0x39cbbd1a	0.0003886007
225	0x3c1b82f0	0.009491667
226	0xbb10523e	-0.0022021676
227	0x3a3fe7be	0.0007320604
228	0xbc5fea17	-0.013666651
229	0x3c440644	0.0119643845
230	0x3c943d83	0.018095737
231	0xbaf8224f	-0.0018931123
232	0x3bfd2fb2	0.007726633
233	0x3c5e2cb0	0.013560459
234	0xba50984b	-0.0007957264
235	0x3b5e631d	0.0033933588
236	0x3c444256	0.011978706
237	0xbc9128d3	-0.017719662
238	0x3c09c467	0.008408642
239	0x3ba39d0d	0.004993087
240	0xbb8565a7	-0.004070956
241	0x3bfdd053	0.0077457814
242	0x3bcd7ecf	0.0062712203
243	0x3b5de5a8	0.003385881
244	0x3c5b41c7	0.013382382
245	0xbb0b8d8f	-0.0021294092
246	0xbca58009	-0.020202653
247	0x3c0fb396	0.008770844
248	0x3cfeae7d	0.031089062
249	0xbc3eb6a0	-0.011640221
250	0x3bd52050	0.006504096
251	0x3c280a28	0.010256328
252	0x3c91f50a	0.017817039
253	0xbb909ae2	-0.0044129947
254	0x3be7f393	0.007078597
255	0x3c0c4447	0.0085612

action_model._discrete_distribution.branches.2.bias f4 [2]
0	0x00000000	0.0
1	0x00000000	0.0

network_body._body_endoder.seq_layers.0.weight f4 [128, 87]
0	0xbdadbe0b	-0.084835134
1	0x3cd6af6d	0.026206696
2	0xbe446cc0	-0.1918211
3	0xbd1d83ac	-0.03845565
4	0xbce3c2b3	-0.0278028
5	0x3ddca6a4	0.10773972
6	0x3df9e641	0.122021206
7	0x3cdde1e9	0.027085261
8	0x3e2dcce1	0.16972686
9	0xbbe2d4ef	-0.0069223563
10	0xbd9390bb	-0.072053395
11	0xbe86c245	-0.2632009
12	0x3de22c10	0.110435605
13	0xbdc20759	-0.09474058
14	0x3a1c582e	0.00059640675
15	0x3d9c1fd9	0.07623262
16	0x3d841db4	0.06450978
17	0x3db51446	0.088417575
18	0x3c1be31a	0.009514594
19	0x3d8c82e8	0.06860906
20	0xbde6c9e4	-0.11268976
21	0xbd625cba	-0.055264212
22	0xbdee25c8	-0.116283
23	0x3ccf4ddb	0.025305679
24	0x3e183a07	0.14865886
25	0x3ded8145	0.11596922
26	0x3e3b016d	0.18262263
27	0x3dfe5460	0.12418437
28	0x3b48f918	0.003066605
29	0x3e0f371d	0.13985868
30	0xbda41915	-0.080125965
31	0x3dbd58eb	0.092454754
32	0x3dad195e	0.08452104
33	0xbd470bff	-0.048595425
34	0x3e0e1102	0.13873675
35	0x3de1576f	0.11003005
36	0x3cbd95ae	0.023142662
37	0xbd3f8776	-0.046760045
38	0xbdbfdff7	-0.0936889
39	0x3d809104	0.062776595
40	0x3cc3aeff	0.023887156
41	0xbca8454c	-0.020540856
42	0xbdf38da0	-0.11892247
43	0xbc1000d1	-0.008789257
44	0x3d85f8b3	0.06541576
45	0x3bdfbbf5	0.006827826
46	0x3d60fc87	0.05492833
47	0xbda3f0b1	-0.080048926
48	0x3e1db2d3	0.15400247
49	0xbd3a9993	-0.045556616
50	0xbe3b0c6e	-0.1826646
51	0x3d941894	0.072312504
52	0xbde55789	-0.11198337
53	0x3d710031	0.058838073
54	0x3ca2cdda	0.019873548
55	0x3e6cf756	0.23141226
56	0xbe4a0c89	-0.19731344
57	0xbce466cd	-0.02788105
58	0x3d6fde08	0.058561355
59	0xbcbd061c	-0.023074202
60	0xbceef530	-0.029169649
61	0x3e0bd442	0.13655189
62	0xbdae879a	-0.08521958
63	0x3d18743e	0.037220232
64	0x3e4dbeb5	0.2009228
65	0xbd9ed36f	-0.077551715
66	0xbd30c1af	-0.04315346
67	0xbd356bbf	-0.044292208
68	0xbe023b3f	-0.12717913
69	0xbd84c058	-0.06481999
70	0x3c530414	0.01287939
71	0x3d8e1752	0.06938042
72	0xbe25e5d7	-0.16200958
73	0x3c8633ef	0.016382186
74	0x3db23f7f	0.08703517
75	0xbe047a3c	-0.12937254
76	0x3d96f4c7	0.07370906
77	0x3cb817a7	0.022472216
78	0x3d7551ae	0.05989235
79	0xbdc39b64	-0.09551123
80	0x3dfe89a2	0.12428595
81	0x3e109040	0.14117527
82	0xbdbc07ca	-0.09181173
83	0x3c23df81	0.010002018
84	0xbe1287e8	-0.14309657
85	0x3d121e43	0.03567339
86	0x3adec9ee	0.0016997436
87	0xbbcb3f61	-0.0062026237
88	0xbdbb768a	-0.09153469
89	0xbd9d0263	-0.07666471
90	0x3e18ae3b	0.14910214
91	0x3dd8106c	0.10550007
92	0x3e216dd9	0.1576456
93	0xbdcbd081	-0.09951878
94	0x3d122ae2	0.035685427
95	0x3d8e3309	0.06943328
96	0xbd91540b	-0.07096108
97	0xbd82e65b	-0.06391593
98	0x3df049f7	0.11732858
99	0xbda066b8	-0.07832092
100	0xbe076293	-0.13221197
101	0x3cba1d27	0.022718979
102	0x3c699889	0.014257559
103	0x3dee6fee	0.11642443
104	0x3e28e847	0.16494857
105	0xbe6aedde	-0.22942302
106	0xbcf6845b	-0.030092409
107	0xbd055e37	-0.032560553
108	0x3d616420	0.055027127
109	0xbe154590	-0.14577317
110	0xbd766043	-0.060150396
111	0x3e30c5da	0.17262974
112	0x3d8eb761	0.069685705
113	0xbb99e476	-0.004696424
114	0x3cc6a147	0.024246825
115	0xbd39ccd9	-0.045361374
116	0x3e2e2c95	0.17009194
117	0xbd9b0bea	-0.07570632
118	0xbd4feb5a	-0.050761558
119	0xbbcbc386	-0.0062183766
120	0xbd1d3358	-0.038379043
121	0x3d86d8b8	0.065843046
122	0x3dadbe81	0.08483601
123	0x3bcfefa6	0.006345707
124	0xbd988dc9	-0.07448918
125	0xbdd449ad	-0.10365615
126	0x3a4fa986	0.00079216843
127	0xbe4c4246	-0.19947156
128	0xbd723e6c	-0.05914156
129	0xbd7d6b31	-0.061869804
130	0x3e1d0ca9	0.1533686
131	0xbccfc58d	-0.025362754
132	0x3dcdc9a9	0.10048229
133	0xbe0a1d98	-0.13487852
134	0xbccf51a3	-0.025307482
135	0xbd3a4ecb	-0.0454853
136	0x3c336648	0.010949679
137	0xbcde5e35	-0.02714453
138	0x3d4bc359	0.049746845
139	0x3de606a7	0.112317376
140	0xbe2e8d20	-0.17046022
141	0x3e095550	0.1341145
142	0xbe0a3d06	-0.13499841
143	0xbc85898e	-0.016300943
144	0xbe0158d0	-0.12631536
145	0x3e0e3431	0.13887097
146	0xbd460a25	-0.04834952
147	0xbbfa612b	-0.007640978
148	0x3e253520	0.16133547
149	0xbdf798f1	-0.12089718
150	0xbe1c18f3	-0.15243892
151	0xbd99534e	-0.07486592
152	0xbdc9ba6e	-0.09850012
153	0x3dc44473	0.09583368
154	0x3e248482	0.16066173
155	0x3d136d1e	0.035992734
156	0x3d2476eb	0.04015247
157	0xbd560bd5	-0.052257378
158	0x3c3f683b	0.011682565
159	0x3c933d7f	0.01797366
160	0xbe643a35	-0.22287829
161	0x3d050e69	0.032484446
162	0xbd39afcd	-0.045333672
163	0x3b8fe94a	0.004391824
164	0x3cf2af2e	0.029624548
165	0xbe1fd353	-0.15607958
166	0x3c54ab8b	0.012980352
167	0xbcc60075	-0.02417014
168	0x3e55ecdd	0.20891137
169	0x3d1064dc	0.035252437
170	0x3e16f009	0.14740004
171	0x3d9805c0	0.07422972
172	0x3dc010ca	0.09378202
173	0xbc5552f1	-0.013020263
174	0x3d3401ec	0.043947145
175	0x3e844b24	0.25838578
176	0x3de366b8	0.111035764
177	0xbcc531c8	-0.02407159
178	0x3bdc9839	0.0067320135
179	0x3d2b694c	0.041848466
180	0xbe2eb327	-0.17060529
181	0xbc6d72a0	-0.014492661
182	0x3dc4cc44	0.09609273
183	0x3cfc11bb	0.030770173
184	0x3e3f35fa	0.18672934
185	0x3d92421a	0.07141514
186	0x3dc132b7	0.09433501
187	0x3cbfe852	0.023426209
188	0xbdeca9c2	-0.11555816
189	0x3e4a5242	0.19757941
190	0x3de6a3ca	0.11261709
191	0x3cd09b07	0.025464548
192	0xbb971ef8	-0.004611846
193	0xbdfb3dab	-0.122676216
194	0xbda625df	-0.08112692
195	0xbe7ea0d7	-0.24866043
196	0xbe4de9dd	-0.20108743
197	0xbdcb9854	-0.09941164
198	0x3e1bf40e	0.15229818
199	0xbd62f714	-0.055411413
200	0x3de23051	0.11044372
201	0xbd3886cf	-0.04505044
202	0x3d4ed16b	0.050492685
203	0xbdb24d6e	-0.08706175
204	0xbdd654af	-0.10465371
205	0xbc919bba	-0.017774452
206	0xbd23a5be	-0.039952986
207	0xbe9df1f3	-0.30848655
208	0xbd9dc473	-0.07703485
209	0xbe2b5ed8	-0.16735399
210	0xbe2699fe	-0.16269681
211	0xbc5b34d5	-0.013379295
212	0x3d9a1c13	0.07524886
213	0x3d44f6cb	0.048086923
214	0xbdae7be9	-0.08519728
215	0x3dd88aac	0.105733246
216	0xbe5d870e	-0.2163355
217	0x3e0e65ed	0.13906069
218	0xbd727c69	-0.059200678
219	0xbe15805c	-0.14599746
220	0xbc027d39	-0.007964426
221	0x3db859b2	0.09001483
222	0xbd9f027e	-0.07764147
223	0x3d74f6df	0.059805747
224	0x3e22f227	0.15912686
225	0x3c241936	0.010015776
226	0x3e8591ed	0.26087895
227	0x3e748f5f	0.23882817
228	0x3db2bc96	0.08727376
229	0x3d73a5ef	0.05948442
230	0xbe0809ec	-0.13285035
231	0xbe2c97ed	-0.1685483
232	0xbe60cae8	-0.21952403
233	0xbd7fad28	-0.062420994
234	0xbdacb7d2	-0.084334984
235	0xbd9679ed	-0.07347474
236	0x3e7f00dc	0.24902672
237	0x3d1168cc	0.035500333
238	0x3daea450	0.08527434
239	0xbd4b48d3	-0.049629997
240	0x3cfd38b0	0.03091082
241	0x3c54dc85	0.012992029
242	0xbe02a1e8	-0.12757075
243	0x3c4d35ef	0.012525066
244	0x3e387dac	0.1801669
245	0xbb526a73	-0.0032106906
246	0x3d9cf21a	0.07663365
247	0xbd92f880	-0.07176304
248	0xbe852985	-0.2600824
249	0xbc807a9b	-0.015683463
250	0xbd1bcf35	-0.038039405
251	0xbd36edee	-0.0446605
252	0x3b5d0002	0.0033721928
253	0x3d85cfaf	0.06533753
254	0xbddf4a87	-0.10902887
255	0x3cfb9237	0.03070937

network_body._body_endoder.seq_layers.0.bias f4 [128]
0	0x00000000	0.0
1	0x00000000	0.0
2	0x00000000	0.0
3	0x00000000	0.0
4	0x00000000	0.0
5	0x00000000	0.0
6	0x00000000	0.0
7	0x00000000	0.0
8	0x00000000	0.0
9	0x00000000	0.0
10	0x00000000	0.0
11	0x00000000	0.0
12	0x00000000	0.0
13	0x00000000	0.0
14	0x00000000	0.0
15	0x00000000	0.0
16	0x00000000	0.0
17	0x00000000	0.0
18	0x00000000	0.0
19	0x00000000	0.0
20	0x00000000	0.0
21	0x00000000	0.0
22	0x00000000	0.0
23	0x00000000	0.0
24	0x00000000	0.0
25	0x00000000	0.0
26	0x00000000	0.0
27	0x00000000	0.0
28	0x00000000	0.0
29	0x00000000	0.0
30	0x00000000	0.0
31	0x00000000	0.0
32	0x00000000	0.0
33	0x00000000	0.0
34	0x00000000	0.0
35	0x00000000	0.0
36	0x00000000	0.0
37	0x00000000	0.0
38	0x00000000	0.0
39	0x00000000	0.0
40	0x00000000	0.0
41	0x00000000	0.0
42	0x00000000	0.0
43	0x00000000	0.0
44	0x00000000	0.0
45	0x00000000	0.0
46	0x00000000	0.0
47	0x00000000	0.0
48	0x00000000	0.0
49	0x00000000	0.0
50	0x00000000	0.0
51	0x00000000	0.0
52	0x00000000	0.0
53	0x00000000	0.0
54	0x00000000	0.0
55	0x00000000	0.0
56	0x00000000	0.0
57	0x00000000	0.0
58	0x00000000	0.0
59	0x00000000	0.0
60	0x00000000	0.0
61	0x00000000	0.0
62	0x00000000	0.0
63	0x00000000	0.0
64	0x00000000	0.0
65	0x00000000	0.0
66	0x00000000	0.0
67	0x00000000	0.0
68	0x00000000	0.0
69	0x00000000	0.0
70	0x00000000	0.0
71	0x00000000	0.0
72	0x00000000	0.0
73	0x00000000	0.0
74	0x00000000	0.0
75	0x00000000	0.0
76	0x00000000	0.0
77	0x00000000	0.0
78	0x00000000	0.0
79	0x00000000	0.0
80	0x00000000	0.0
81	0x00000000	0.0
82	0x00000000	0.0
83	0x00000000	0.0
84	0x00000000	0.0
85	0x00000000	0.0
86	0x00000000	0.0
87	0x00000000	0.0
88	0x00000000	0.0
89	0x00000000	0.0
90	0x00000000	0.0
91	0x00000000	0.0
92	0x00000000	0.0
93	0x00000000	0.0
94	0x00000000	0.0
95	0x00000000	0.0
96	0x00000000	0.0
97	0x00000000	0.0
98	0x00000000	0.0
99	0x00000000	0.0
100	0x00000000	0.0
101	0x00000000	0.0
102	0x00000000	0.0
103	0x00000000	0.0
104	0x00000000	0.0
105	0x00000000	0.0
106	0x00000000	0.0
107	0x00000000	0.0
108	0x00000000	0.0
109	0x00000000	0.0
110	0x00000000	0.0
111	0x00000000	0.0
112	0x00000000	0.0
113	0x00000000	0.0
114	0x00000000	0.0
115	0x00000000	0.0
116	0x00000000	0.0
117	0x00000000	0.0
118	0x00000000	0.0
119	0x00000000	0.0
120	0x00000000	0.0
121	0x00000000	0.0
122	0x00000000	0.0
123	0x00000000	0.0
124	0x00000000	0.0
125	0x00000000	0.0
126	0x00000000	0.0
127	0x00000000	0.0
