MLBase/results/ppo/CaptureTheFlag/CaptureTheFlag-98734.pt (torch, 704080 bytes, 46 tensors)

discrete_act_size_vector f4 [1, 3]
3.0 3.0 2.0
00000000: 0000 4040 0000 4040 0000 0040

network_body._body_endoder.seq_layers.0.weight f4 [128, 87]
-0.10528639 0.07227997 0.028109409 -0.033310596 -0.08912003 0.07269888 0.09494606 -0.059359595
0.058125205 0.12467642 0.12763247 0.008189401 0.036269654 -0.05156046 -0.067978926 -0.13923784
-0.18760878 0.094582915 0.08842107 -0.099401824 0.039296813 0.06581605 -0.009057358 0.058628395
0.08509375 0.045346256 0.06232851 -0.03163662 0.123894885 0.09584853 -0.17644246 0.011329292
0.14414582 -0.043872338 -0.13144378 -0.07446021 -0.011976508 0.17401335 0.032459922 -0.12229547
-0.1119093 0.026467457 0.115129486 0.12564828 0.05029215 0.079837926 -0.14745215 -0.21060988
-0.034648374 -0.1337055 -0.16496636 -0.011817443 -0.16555908 0.0764707 0.04669691 0.07627068
-0.25086284 0.003722141 0.024554977 0.059759177 -0.01618186 -0.17152621 -0.007899419 0.124172136
-0.06683615 -0.035640355 0.1075497 -0.011754865 0.0990858 0.0022108264 -0.09093284 -0.06978405
0.124230616 0.0078886645 -0.15812382 -0.020242723 0.0702656 0.11230762 -0.12372679 -0.029765196
0.076008044 0.07709849 -0.040045973 0.14712474 -0.29360202 -0.0008216115 0.013810486 -0.13092372
0.042105783 -0.11223151 -0.070226334 0.03494538 -0.0027704192 0.13674022 -0.033033058 0.11988792
0.10755453 -0.049963847 -0.031589136 0.054378353 0.061495364 -0.13394226 -0.09273892 -0.051133912
-0.11772146 0.039994806 0.054706365 0.05628095 -0.004460277 -0.028174846 0.012639847 0.18891078
-0.035857182 0.095889814 -0.0732562 -0.20949514 -0.015607803 -0.0050096055 0.11125745 -0.15918672
0.11678858 0.0016740555 0.010703304 -0.1046002 -0.07912799 -0.011440826 0.041624103 -0.11088812
-0.039604854 -0.027022384 0.15298429 -0.09591275 0.19913296 -0.07684852 -0.0076751234 -0.053981643
-0.08291905 0.017149104 0.08188955 -0.041040316 0.07796957 0.11761936 0.15894832 0.0794844
0.18489037 -0.03860014 -0.0046628146 0.1704058 -0.13145243 0.21806167 -0.0641731 -0.046681445
0.052628417 0.04428541 -0.02825239 -0.004881881 -0.0046903323 0.18938908 0.050376307 0.085206635
-0.066171534 -0.069428176 -0.0071503446 -0.13410787 0.09843544 0.041196056 -0.05519414 -0.027204564
0.0735645 0.0067942124 -0.11423209 -0.042859975 0.034393996 0.14406678 0.2445242 0.030043218
0.008675563 0.055631585 -0.04038398 0.090295576 -0.10124107 -0.005695762 -0.03519523 0.06340541
-0.10309242 0.05043698 -0.10120074 -0.0042758444 0.017408138 0.06300423 0.0015674422 0.15744418
-0.18706585 -0.13562457 0.15599188 0.11513054 0.027413253 0.1195962 0.025233334 -0.08692464
0.07707626 0.049648024 -0.02418098 -0.17217658 0.15655954 0.017468689 -0.13993698 0.12123502
0.03865533 0.11772214 0.1089814 0.18208073 -0.17463988 0.10653215 0.020825198 -0.19756636
-0.17140587 0.05636866 -0.13608496 0.09890207 -0.055344176 0.28024006 -0.00585091 0.10369154
0.051984217 0.13135096 0.102016315 -0.03506811 -0.06782785 -0.014731841 -0.06174184 0.04728153
0.03308933 0.077361405 0.073786944 -0.053063907 -0.27166432 -0.006683205 0.024201185 0.04703439
-0.21367486 -0.0064385724 0.0122978985 0.035783615 0.1599107 0.10855271 0.006726025 0.1737278
0.06937068 0.04440451 0.11133918 0.09190951 0.17235674 -0.2771424 -0.11580909 -0.1922614
00000000: 64a0 d7bd 8507 943d b445 e63c b170 08bd
00000010: 9084 b6bd 27e3 943d 1473 c23d 0c23 73bd
00000020: b214 6e3d 5a56 ff3d 16b2 023e d62c 063c
00000030: 7d8f 143d 1031 53bd 8938 8bbd 5d94 0ebe
00000040: 841c 40be b0b4 c13d 1b16 b53d 2f93 cbbd
00000050: b2f5 203d 91ca 863d 5065 14bc 5424 703d
00000060: a245 ae3d ffbc 393d 2e4c 7f3d 6795 01bd
00000070: 9abc fd3d 3c4c c43d 55ad 34be 7f9e 393c
00000080: f69a 133e 7bb3 33bd 3399 06be 987e 98bd
00000090: 1e39 44bc 8e30 323e b2f4 043d 0c76 fabd
000000a0: b430 e5bd 48d2 d83c 02c9 eb3d f1a9 003e
000000b0: 24ff 4d3d 1182 a33d b2fd 16be 1eaa 57be
000000c0: 74eb 0dbd 18ea 08be f1ec 28be f39d 41bc
000000d0: 5288 29be ac9c 9c3d 4245 3f3d cd33 9c3d
000000e0: 1871 80be 2aef 733b 8527 c93c 0ac6 743d
000000f0: d28f 84bc 91a4 2fbe 916c 01bc f64d fe3d
00000100: 64e1 88bd 9ffb 11bd 0443 dc3d 7a97 40bc
00000110: 7fed ca3d 83e3 103b ff3a babd f1ea 8ebd
00000120: 9f6c fe3d 753f 013c 36eb 21be 11d4 a5bc
00000130: 69e7 8f3d 8a01 e63d 7964 fdbd 24d6 f3bc
00000140: 1baa 9b3d d0e5 9d3d 3f07 24bd dea7 163e
00000150: 0153 96be 6a61 57ba 6045 623c de10 06be
00000160: 1d77 2c3d a2d9 e5bd d3d2 8fbd e322 0f3d
00000170: ec8f 35bb a105 0c3e ac4d 07bd cc87 f53d
00000180: 8d45 dc3d e4a6 4cbd 9c63 01bd d6bb 5e3d
00000190: 90e2 7b3d 2928 09be e7ed bdbd cb71 51bd
000001a0: f317 f1bd 98d1 233d c813 603d da86 663d
000001b0: 8427 92bb efce e6bc 5c17 4f3c d471 413e
000001c0: fbde 12bd e161 c43d 5907 96bd e585 56be
000001d0: dfb7 7fbc 9e27 a4bb f2da e33d d801 23be
000001e0: da2e ef3d fb6b db3a e95c 2f3c a138 d6bd
000001f0: db0d a2bd 4d72 3bbc 097e 2a3d 5019 e3bd
00000200: b338 22bd 0c5e ddbc eaa7 1c3e e76d c4bd
00000210: 83e9 4b3e c262 9dbd 9a7f fbbb db1b 5dbd
00000220: 76d1 a9bd 477c 8c3c b5b5 a73d e419 28bd
00000230: 83ae 9f3d 6be2 f03d 59c3 223e b8c8 a23d
00000240: e753 3d3e 2e1b 1ebd 86ca 98bb dc7e 2e3e
00000250: 779b 06be 8f4b 5f3e 306d 83bd 0b35 3fbd
00000260: e590 573d 9e64 353d 8e71 e7bc 30f8 9fbb
00000270: 5cb1 99bb 36ef 413e 6357 4e3d d180 ae3d
00000280: f184 87bd 5c30 8ebd 704d eabb 9353 09be
00000290: 8598 c93d 32bd 283d 4013 62bd 1bdc debc
000002a0: fca8 963d fca1 de3b 84f2 e9bd f18d 2fbd
000002b0: b8e0 0c3d 3e86 133e 8d64 7a3e 321d f63c
000002c0: f323 0e3c f2dd 633d ac69 25bd e3ec b83d
000002d0: 7a57 cfbd 84a3 babb e028 10bd b2da 813d
000002e0: 1e22 d3bd 0297 4e3d 5542 cfbd 621c 8cbb
000002f0: 839b 8e3c 5d08 813d a272 cd3a 0c39 213e
00000300: 318e 3fbe 2be1 0abe 56bc 1f3e 90c9 eb3d
00000310: c291 e03c daee f43d 23b6 ce3c 8c05 b2bd
00000320: 28da 9d3d ba5b 4b3d 3117 c6bc 0f4f 30be
00000330: 2551 203e 7f1a 8f3c a44b 0fbe 114a f83d
00000340: 0d55 1e3d 4e18 f13d a431 df3d 5f73 3a3e
00000350: ccd4 32be 872d da3d 9b99 aa3c d64e 4abe
00000360: 0585 2fbe d3e2 663d db59 0bbe 2b8d ca3d
00000370: 93b0 62bd a07b 8f3e feb8 bfbb 3b5c d43d
00000380: 67ed 543d de80 063e eeed d03d 94a3 0fbd
00000390: 54e9 8abd d25d 71bc 03e5 7cbd 47aa 413d
000003a0: ad88 073d a86f 9e3d 9c1d 973d 8a59 59bd
000003b0: 9617 8bbe c9fe dabb 9041 c63c 22a7 403d
000003c0: 95cd 5abe a9fa d2bb 207d 493c d791 123d
000003d0: a1bf 233e e250 de3d fd65 dc3b b3e5 313e
000003e0: 3712 8e3d 81e1 353d cc05 e43d 0e3b bc3d
000003f0: 497e 303e 9ce5 8dbe 512d edbd 2ce0 44be

network_body._body_endoder.seq_layers.0.bias f4 [128]
-0.0011650149 -0.010031271 0.024920374 -0.007399384 -0.0033954957 -0.026913106 0.0038305542 0.008419193
0.016293615 0.0010991384 0.009736173 0.007212648 0.0055832746 0.009082442 0.018925676 -0.012640055
0.010547585 0.026619786 0.017370345 0.0022932484 0.03184186 0.018198248 0.0030673824 -0.0032121825
0.020361237 0.037530854 -0.0027132747 -0.021115005 0.033504233 0.003689513 -0.007891819 0.016243976
0.023838827 0.0066476585 0.014843887 0.027878692 0.0024856748 -0.005796521 0.0013019367 -0.023332044
0.017893342 0.0034892778 0.03363769 0.0437062 -0.0045971563 0.02048237 0.019021166 -0.013972238
-0.0070206057 -0.019293852 0.0215906 0.027284686 -0.011336976 0.028584693 0.011185047 0.032892972
0.028710606 0.012323983 0.014567087 0.0056908205 0.010609821 0.006661349 -0.00030289043 0.0033439007
0.00066405983 0.0048251357 -0.009340336 0.025112564 0.018280696 0.018033719 -0.0035235935 0.0031630304
0.009303586 0.00525767 -0.009908546 -0.009265655 0.009747253 -0.0059942887 0.019529201 -0.0035801828
0.002594231 0.01492616 0.016963458 0.0028125187 -0.011350303 0.012227041 -0.020656545 0.013607969
0.017099006 0.009155278 0.008467553 0.0080447765 -0.013317919 0.013655112 0.025631428 0.011881728
0.009573399 -0.00432246 0.027735692 0.035829943 0.025767913 -0.010293607 -0.002204411 -0.0028483528
0.017463993 0.011594575 0.034859873 0.015380826 -0.005787071 0.002978921 -0.008646024 0.010389216
0.028743781 0.0033174923 -0.0006743334 -0.0018671482 -0.005372727 0.005634586 0.024498051 0.006626642
0.01542991 0.014805953 0.01817942 -0.0064914897 -0.007957167 0.008773949 0.007671431 -0.00685281
00000000: 6ab3 98ba 335a 24bc d025 cc3c 8876 f2bb
00000010: f786 5ebb e078 dcbc 090a 7b3b a8f0 093c
00000020: 307a 853c f710 903a 7884 1f3c 1458 ec3b
00000030: e7f3 b63b 86ce 143c 050a 9b3c 3c18 4fbc
00000040: c7cf 2c3c bd11 da3c 414c 8e3c 534a 163b
00000050: 9c6c 023d 7e14 953c 2306 493b 7b83 52bb
00000060: 9ccc a63c f4b9 193d 32d1 31bb 60f9 acbc
00000070: bc3b 093d c2cb 713b b04c 01bc 1612 853c
00000080: a549 c33c 9ad4 d93b c633 733c db61 e43c
00000090: b4e6 223b bef0 bdbb bfa5 aa3a d822 bfbc
000000a0: 0f95 923c 5eac 643b adc7 093d 4605 333d
000000b0: bea3 96bb a5ca a73c 47d2 9b3c d0eb 64bc
000000c0: 1c0d e6bb 240e 9ebc c5de b03c 2284 df3c
000000d0: b9be 39bc 722a ea3c 7d41 373c c8ba 063d
000000e0: 8132 eb3c 88ea 493c cbaa 6e3c 107a ba3b
000000f0: d1d4 2d3c 7247 da3b 44cd 9eb9 5825 5b3b
00000100: 4d14 2e3a 2c1c 9e3b 3508 19bc ddb8 cd3c
00000110: 66c1 953c 73bb 933c 17ec 66bb d84a 4f3b
00000120: 116e 183c 8848 ac3b 7457 22bc f9ce 17bc
00000130: f1b2 1f3c bd6b c4bb b4fb 9f3c 80a1 6abb
00000140: f903 2a3b da8c 743c f3f6 8a3c 3c52 383b
00000150: 9ff6 39bc ed53 483c ea37 a9bc f5f3 5e3c
00000160: 3713 8c3c 0500 163c 7ebb 0a3c 3dce 033c
00000170: 6733 5abc b1b9 5f3c 00f9 d13c 94ab 423c
00000180: bfd9 1c3c 6ca3 8dbb f635 e33c 6bc2 123d
00000190: 3b17 d33c 84a6 28bc e177 10bb 6eab 3abb
000001a0: a610 8f3c 2cf7 3d3c 3ac9 0e3d dcff 7b3c
000001b0: 78a1 bdbb 003a 433b 0ea8 0dbc 8837 2a3c
000001c0: 1478 eb3c 496a 593b c0c5 30ba 19bb f4ba
000001d0: b30d b0bb 55a2 b83b 23b0 c83c 4d24 d93b
000001e0: bccd 7c3c ab94 723c 02ed 943c 90b6 d4bb
000001f0: c75e 02bc 9cc0 0f3c a160 fb3b 898d e0bb

network_body._body_endoder.seq_layers.2.weight f4 [128, 128]
-0.09523014 -0.06492509 0.0374268 -0.0823524 0.020452298 0.08230174 0.032333747 -0.14693415
0.0030651735 -0.00087054365 0.09485142 -0.0015431117 -0.039364103 -0.019753601 0.020475488 -0.16343372
-0.0970748 -0.0055417875 0.04295901 -0.13810232 -0.032850828 -0.05147918 -0.03280502 0.14549068
0.06457026 0.08611226 0.14787489 0.00069938437 -0.023586094 0.22124518 -0.106314264 0.058392964
-0.047133286 0.038037844 -0.1459731 0.084076956 0.07622873 0.10223708 0.08969177 0.09887047
-0.039381593 -0.10871773 -0.016424712 -0.14955021 -0.08189823 0.035904244 -0.036307834 0.17697236
0.05135091 0.19815384 -0.1920315 0.060907897 0.13339013 -0.032930326 -0.10122864 0.012485855
0.086308524 -0.00709802 -0.017817564 -0.066816546 -0.18876974 0.02470582 0.08128596 0.08238629
-0.075582124 -0.06649245 -0.07251809 0.017210893 -0.019827357 -0.11423158 0.043846574 -0.17415258
0.07775425 -0.033558223 -0.111755736 -0.08146649 0.15581776 -0.025877437 -0.004734061 0.010787176
-0.085263796 -0.048261266 -0.070195444 0.0050204955 0.16879295 0.0052004647 -0.023451837 0.017762698
0.0345968 -0.048750564 0.10095804 -0.008291937 -0.048142605 -0.10434475 0.17230034 -0.0048715416
0.057923652 0.012198101 0.049965262 0.017585494 -0.00459116 0.03494683 -0.020447811 0.04345084
0.028725412 -0.001265385 0.10620571 0.020809874 0.17886597 -0.08202386 -0.122078344 0.10151198
0.01924446 0.12766555 0.1899327 0.21517886 -0.041145433 0.0061485125 0.06396958 -0.19439776
0.035852645 -0.029020468 0.03927432 -0.018208303 -0.041642606 0.071426995 0.065350935 -0.19790678
-0.003842103 -0.027848393 0.05062022 0.11818942 0.040996976 -0.18695518 -0.054642998 0.07569455
-0.03677872 -0.054331396 0.06007461 -0.046899702 -0.05848097 -0.0679531 -0.0320008 -0.27987748
-0.051783763 0.063079454 0.13465574 -0.13567314 0.032655038 0.0726427 0.02457406 -0.002562797
-0.033892147 0.04706741 -0.0764962 -0.08751865 0.07681495 -0.14107494 -0.030209318 0.02182741
0.0041919528 -0.12041989 -0.07946844 0.05734355 0.057554033 0.08103804 -0.122358695 0.11779601
-0.011547691 0.05196423 0.20448646 -0.08013622 0.14505091 -0.02766835 0.07889182 0.032788333
0.0071997317 0.034049146 -0.014813501 0.08157736 0.007155541 -0.08996108 0.14442885 0.1386009
0.055253275 -0.12035815 -0.024521682 0.07519148 0.16969208 -0.14463885 0.090895995 0.027789164
-0.011044232 0.1550532 0.14029224 0.112605326 -0.08515188 -0.07246717 -0.010034228 0.022556761
0.026262095 -0.08698986 0.10829794 -0.021694582 0.16570877 0.061703365 0.102850445 -0.022005793
0.008694131 -0.1006882 -0.079301335 -0.11331179 0.09056045 -0.10145212 -0.022741184 0.034276865
-0.011494197 0.053872827 -0.15021902 -0.07393627 -0.0007488977 -0.019582562 -0.04129644 -0.09604436
0.0814669 -0.15810543 -0.018308453 0.025120076 0.08466268 0.011117105 0.021556549 -0.037223574
0.09824046 0.03834402 0.02683953 0.030475978 0.026133938 -0.055316396 0.080853686 -0.008956286
-0.13289276 -0.14132345 -0.18627174 0.11919848 0.14865398 -0.1483265 0.07901298 -0.062413048
0.008421295 0.030180108 -0.042435538 0.03718037 -0.0816002 -0.18019204 -0.049671646 0.111862026
00000000: 0508 c3bd 72f7 84bd d84c 193d 60a8 a8bd
00000010: 948b a73c d18d a83d 6470 043d e875 16be
00000020: 14e1 483b 3235 64ba 7641 c23d 3d42 caba
00000030: 413c 21bd 4ed2 a1bc 36bc a73c 2b5b 27be
00000040: 27cf c6bd e297 b5bb c9f5 2f3d b26a 0dbe
00000050: 978e 06bd d5db 52bd 8f5e 06bd 82fb 143e
00000060: 6a3d 843d a05b b03d 846c 173e e456 373a
00000070: a037 c1bc 198e 623e 4bbb d9bd 762d 6f3d
00000080: d50e 41bd 92cd 1b3d f979 15be 8a30 ac3d
00000090: cf1d 9c3d ad61 d13d 52b0 b73d 9a7c ca3d
000000a0: 984e 21bd 67a7 debd 1e8d 86bc b123 19be
000000b0: 42ba a7bd 5410 133d 86b7 14bd 3e38 353e
000000c0: 5555 523d d7e8 4a3e e8a3 44be 8f7a 793d
000000d0: 6c97 083e f3e1 06bd f650 cfbd 7991 4c3c
000000e0: 86c2 b03d 8296 e8bb 24f6 91bc 1dd7 88bd
000000f0: db4c 41be dc63 ca3c 4179 a63d 25ba a83d
00000100: cdca 9abd 322d 88bd 5d84 94bd dcfd 8c3c
00000110: fb6c a2bc 3ff2 e9bd 7798 333d 0e55 32be
00000120: 9f3d 9f3d 5974 09bd 31e0 e4bd e7d7 a6bd
00000130: b18e 1f3e ebfc d3bc 2f20 9bbb b2bc 303c
00000140: c99e aebd 9bad 45bd a1c2 8fbd f882 a43b
00000150: 0fd8 2c3e a968 aa3b 111e c0bc 1483 913c
00000160: 60b5 0d3d acae 47bd 17c3 ce3d e8da 07bc
00000170: 2e31 45bd b3b2 d5bd 806f 303e 74a1 9fbb
00000180: 5a41 6d3d 8bda 473c 60a8 4c3d 740f 903c
00000190: 7171 96bb 6824 0f3d 2b82 a7bc 82f9 313d
000001a0: 8e51 eb3c 46db a5ba 6182 d93d 7879 aa3c
000001b0: a428 373e 20fc a7bd 3604 fabd 83e5 cf3d
000001c0: 8fa6 9d3c c2ba 023e b87d 423e d957 5c3e
000001d0: 1d88 28bd 7679 c93b 7c02 833d 3510 47be
000001e0: 39da 123d 55bc edbc 1cde 203d 9429 95bc
000001f0: 7091 2abd 5148 923d b6d6 853d 13a8 4abe
00000200: cbcb 7bbb 5022 e4bc 2657 4f3d 4b0d f23d
00000210: 72ec 273d 2e71 3fbe 56d1 5fbd bf05 9b3d
00000220: 48a5 16bd 998a 5ebd cb10 763d e719 40bd
00000230: be89 6fbd ff2a 8bbd 4513 03bd 1a4c 8fbe
00000240: 361b 54bd cd2f 813d 32e3 093e e6ed 0abe
00000250: 4ac1 053d b2c5 943d 8a4f c93c 99f4 27bb
00000260: 7ed2 0abd c2c9 403d 0aaa 9cbd fa3c b3bd
00000270: 2851 9d3d f375 10be 8879 f7bc 66cf b23c
00000280: a65c 893b b49e f6bd 59c0 a2bd 12e1 6a3d
00000290: c7bd 6b3d 46f7 a53d 3297 fabd 093f f13d
000002a0: 8732 3dbc 72d8 543d e664 513e 751e a4bd
000002b0: 3a88 143e bca8 e2bc 0992 a13d 0f4d 063d
000002c0: baeb eb3b 1e77 0b3d 54b4 72bc 0812 a73d
000002d0: 0779 ea3b 843d b8bd 28e5 133e 65ed 0d3e
000002e0: 4251 623d 557e f6bd b2e1 c8bc fefd 993d
000002f0: c3c3 2d3e 351c 14be ae27 ba3d 1aa6 e33c
00000300: def2 34bc 44c6 1e3e c5a8 0f3e 9f9d e63d
00000310: 1c64 aebd ab69 94bd 9a66 24bc f5c8 b83c
00000320: 9b23 d73c bd27 b2bd 4fcb dd3d d6b8 b1bc
00000330: 8faf 293e abbc 7c3d 41a3 d23d 7e45 b4bc
00000340: d471 0e3c 9d35 cebd bd68 a2bd 0310 e8bd
00000350: c277 b93d 21c6 cfbd b84b babc e665 0c3d
00000360: 2852 3cbc c1a9 5c3d 04d3 19be e66b 97bd
00000370: ad51 44ba 9c6b a0bc 7526 29bd e8b2 c4bd
00000380: 1ed8 a63d 64e6 21be 9cfb 95bc 9ec8 cd3c
00000390: a163 ad3d 8524 363c 5c97 b03c bf77 18bd
000003a0: 4b32 c93d 9e0e 1d3d 93de db3c c2a8 f93c
000003b0: d716 d63c 7293 62bd 9e96 a53d 63bd 12bc
000003c0: 0a15 08be 18b7 10be 05be 3ebe 551e f43d
000003d0: c038 183e e7e2 17be 8fd1 a13d d3a4 7fbd
000003e0: 79f9 093c 463c f73c e3d0 2dbd 724a 183d
000003f0: 011e a7bd 4384 38be 7f74 4bbd eb17 e53d

network_body._body_endoder.seq_layers.2.bias f4 [128]
0.00010231346 -0.009147537 0.011043333 0.011149985 0.0039142487 0.014068394 -0.013718204 0.02028673
0.018893974 -0.0011494458 -0.012134322 0.011751101 -0.011093573 0.024037141 0.010106237 0.003166914
0.007226611 0.01773457 0.01871107 0.02737162 -0.0015106112 -0.0052937944 0.0058755735 0.0057688104
-0.0067795827 0.019652259 0.008917158 -0.016415173 0.018742165 0.0106175775 0.029272301 0.013572635
-0.0012923524 0.032041177 0.0046730847 -0.010716281 0.0064400397 0.006683676 0.011748577 -0.009440243
0.0060971696 -0.009187726 0.0038065214 0.008486028 -0.0034264673 0.019275453 -0.009906129 0.016907461
0.026248772 -0.009115511 -0.017731523 -0.00799173 0.0051645017 0.019996496 0.0035016502 0.011411846
-0.00076158985 0.0006072894 0.016431807 1.3389363e-05 -0.008504172 0.016370092 0.0063116373 -0.015524097
0.006159222 0.017771417 0.0046530645 0.02231857 -0.017407767 -0.006871055 -0.01773497 0.020349683
0.0022066939 -0.0060571334 0.0009173069 0.0043300535 0.009669642 -0.009882352 -0.016199017 0.03486195
-0.01556979 0.018839758 0.0020689534 0.021603381 0.015298796 -0.01441604 -0.0047448995 -0.003960719
-0.0025411216 -0.021114007 -0.020236185 0.006938027 -0.0024988768 0.0067696064 0.007466195 -0.0073313946
0.009643587 0.0044159847 0.003567594 0.01312854 0.0037306228 -0.0036459318 0.01985271 -0.0123543255
0.013814509 0.02340044 -0.008025026 0.008906336 0.01992417 0.021751404 0.01662082 0.013881979
0.0014491659 -0.019359402 0.013540144 -0.00018024715 -0.009033837 0.015928455 0.004756507 0.009314596
0.013018702 0.015948681 0.01051673 -0.009237874 0.024449293 0.0010988375 0.018343875 -0.00106373
00000000: 1f91 d638 8ddf 15bc 19ef 343c 6dae 363c
00000010: 1943 803b 1f7f 663c 51c2 60bc 5b30 a63c
00000020: 89c7 9a3c 00a9 96ba 09cf 46bc b187 403c
00000030: d1c1 35bc 8ae9 c43c a194 253c 008c 4f3b
00000040: 35cd ec3b 1748 913c f547 993c 733a e03c
00000050: b3ff c5ba 9177 adbb e287 c03b 4a08 bd3b
00000060: 4327 debb c6fd a03c 4519 123c 1d79 86bc
00000070: 2b89 993c 59f5 2d3c 77cc ef3c c25f 5e3c
00000080: 2764 a9ba 9c3d 033d ad20 993b 5793 2fbc
00000090: f806 d33b bd02 db3b 1a7d 403c 40ab 1abc
000000a0: c4ca c73b 1e88 16bc d576 793b fb08 0b3c
000000b0: 958e 60bb 8ee7 9d3c 514d 22bc 8481 8a3c
000000c0: aa07 d73c 3959 15bc b341 91bc bfef 02bc
000000d0: fb3a a93b b1cf a33c f17b 653b c0f8 3a3c
000000e0: 6ea5 47ba 8032 1f3a ff9b 863c e0a2 6037
000000f0: 1555 0bbc 921a 863c dad1 ce3b c858 7ebc
00000100: 4dd3 c93b 5d95 913c bc78 983b 6fd5 b63c
00000110: bc9a 8ebc 9626 e1bb ee48 91bc 61b4 a63c
00000120: 2e9e 103b eb7a c6bb 6d77 703a 1fe3 8d3b
00000130: 6b6d 1e3c 97e9 21bc cdb3 84bc 67cb 0e3d
00000140: 6f18 7fbc d655 9a3c 4797 073b 93f9 b03c
00000150: cda7 7a3c 4131 6cbc 1a7b 9bbb ebc8 81bb
00000160: f288 26bb 48f7 acbc 5bc6 a5bc 6458 e33b
00000170: 32c4 23bb 93d3 dd3b fca6 f43b 323c f0bb
00000180: 2300 1e3c f7b3 903b 4cce 693b 1619 573c
00000190: 777d 743b 96f0 6ebb 27a2 a23c cc69 4abc
000001a0: 4056 623c 48b2 bf3c 667b 03bc e1eb 113c
000001b0: 0338 a33c 0030 b23c 6328 883c 3d71 633c
000001c0: f0f1 bd3a 9c97 9ebc 7bd7 5d3c ba00 3db9
000001d0: a902 14bc 647c 823c 79dc 9b3b 3f9c 183c
000001e0: 654c 553c cfa6 823c 5d4e 2c3c 745a 17bc
000001f0: e249 c83c de06 903a e545 963c db6c 8bba

action_model._discrete_distribution.branches.0.weight f4 [3, 128]
0.0060132705 -0.019027658 0.0056169485 0.020650735 0.005722862 -0.001045906 -0.018023212 -0.0037637514
0.0036876078 0.013103432 -0.021167634 -0.010992889 -0.02467019 0.01068263 0.03810473 -0.031731587
0.011983418 0.0153047675 -0.0010253816 0.016726969 -0.01847738 0.021244125 0.00023324172 0.03367846
-0.026911316 -0.009672005 -0.007794109 -0.009594975 -0.0034525816 0.0014765413 0.048723377 -0.010496129
-0.0110742925 0.024136752 0.007840986 -0.018814562 -0.015279857 -0.010903536 0.008064694 -0.007243193
0.01436744 0.017096527 0.030145625 0.0009932842 0.0016854833 -0.011827697 0.012983711 -0.049510848
0.0061813337 -0.006497444 0.020712283 -0.015998486 -0.0017665771 0.0056891274 -0.002971783 0.00068224984
-0.009200179 -0.02148661 0.037169177 -0.011019434 -0.01949585 0.049681418 -0.029564979 -0.017916122
0.024654172 -0.030265335 0.015735643 0.0112989815 -0.00815486 -0.032037463 -0.010900664 0.013787625
0.00045849878 -0.00846714 -0.0077258986 -0.0099115465 -0.0049040606 -0.019469313 -0.019111915 0.019182151
0.003660952 0.019390706 0.017297683 0.014181731 -0.014503045 0.0026313567 -0.0034974 -0.0109850075
-0.0406596 -0.02105373 -0.01628715 -0.007463584 0.016775971 0.00033362483 0.022496395 -0.031321343
-0.032308348 -0.018721377 0.0034487387 -0.016635349 0.007841613 -0.023236161 0.03751903 -0.0108498065
0.012889414 0.03616626 0.0069358414 0.00589474 -0.015763171 -0.029679248 0.03635029 0.018491825
-0.010080374 -0.0106911 -0.021594498 -0.0058087083 -0.012788951 0.0019395665 -0.020177746 -0.0040016323
0.0010420795 0.014828914 0.03285423 -0.0022176763 0.016886188 -0.0053111915 0.014659517 -0.019906962
0.00041735265 -0.0038380339 0.017838396 -0.011748986 -0.006699748 0.0007041588 0.00086240034 0.008164808
0.014014837 -0.0030913479 -0.0034195848 0.016372496 5.7574987e-05 0.019418478 -0.015029973 0.020106262
-0.0020465094 0.0021166974 0.00020040589 -0.013091456 0.013069892 -0.021874636 0.0069834627 -0.009264218
-0.0012203832 0.011704304 -0.0076847402 0.01046479 0.0100164 0.0045894054 0.0075144 0.017844476
0.009027621 -0.025568396 -0.0019492498 0.0021578823 0.022290427 -0.00045960624 0.003842753 -0.008291417
-0.0054271333 -0.004663552 -0.012373648 -0.00298624 -0.0053361645 0.012493469 -0.0067916396 0.025054237
0.0062610195 -0.0043313745 0.0051793377 -0.005064257 -0.008237372 0.0025993786 -0.017844962 0.013276666
-0.010589359 -0.002120614 -0.00837268 0.014525337 -0.018219056 0.005520755 -0.0026478644 -0.008357908
-0.015889456 0.013044405 -0.012128382 0.0012911927 0.0014789165 -0.0027016702 0.00150079 0.013483843
0.01284831 -0.004850635 -0.010585593 0.0058774757 -0.001315219 0.006053421 0.0065032174 -0.02667451
-0.0047525656 -0.0042599393 -0.00015807341 -0.010921249 -0.0012342815 0.002110818 0.01494943 0.011180708
0.009252263 -0.010320146 -0.0037311423 0.01191415 -0.02238814 -0.0029438767 -0.013426591 -0.0042403094
0.016516447 0.0027839656 -0.003048949 0.01831184 -0.026329027 0.01248606 -0.026327427 -0.0048376345
0.0014192563 -0.0033170334 0.004220688 -0.002155436 0.01861343 0.0020226547 -0.01225353 8.7072025e-05
0.012401748 -0.012841288 0.0035586574 0.0061870986 0.0112679405 -0.002864913 0.011284217 0.018521218
-0.0043493835 -0.0053074476 -0.014815897 0.003937515 -0.0020679375 0.0042624655 -0.0063159964 -0.00033945107
00000000: f80a c53b e4df 9bbc 610e b83b bb2b a93c
00000010: d986 bb3b c816 89ba 6aa5 93bc 45a9 76bb
00000020: cbab 713b c7af 563c bf67 adbc 851b 34bc
00000030: 2319 cabc 3306 2f3c b513 1c3d fbf8 01bd
00000040: 1956 443c d9c0 7a3c 1966 86ba ff06 893c
00000050: e05d 97bc 2908 ae3c 5992 7439 6df2 093d
00000060: 1f75 dcbc 5477 1ebc ba65 ffbb 3e34 1dbc
00000070: b544 62bb 8188 c13a 2a92 473d f5f7 2bbc
00000080: f370 35bc 70ba c53c 7b77 003c ff20 9abc
00000090: 5e58 7abc bfa4 32bc c721 043c 4f58 edbb
000000a0: 6965 6b3c 040e 8c3c f5f3 f63c 1631 823a
000000b0: 6feb dc3a f5c8 41bc a2b9 543c e3cb 4abd
000000c0: c98c ca3b 83e8 d4bb ceac a93c 420f 83bc
000000d0: 7e8c e7ba dc6b ba3b 3fc2 42bb 03d9 323a
000000e0: 59bc 16bc b004 b0bc b53e 183d db8a 34bc
000000f0: c3b5 9fbc be7e 4b3d 4132 f2bc d5c4 92bc
00000100: 8cf7 c93c 02ef f7bc 09e8 803c 5d1f 393c
00000110: f69b 05bc b739 03bd b398 32bc 7ee5 613c
00000120: aa62 f039 c2b9 0abc 8929 fdbb 0a64 22bc
00000130: 3eb2 a0bb 1c7e 9fbc 9790 9cbc e323 9d3c
00000140: 95ec 6f3b 42d9 9e3c dfb3 8d3c 7e5a 683c
00000150: 2e9e 6dbc d772 2c3b a334 65bb 76fa 33bc
00000160: ae8a 26bd df78 acbc a16c 85bc 1591 f4bb
00000170: c36d 893c 5eea ae39 5c4a b83c cf4a 00bd
00000180: c255 04bd 935d 99bc 3c04 623b db46 88bc
00000190: 1c7a 003c c359 bebc 8ead 193d 63c3 31bc
000001a0: 1f2e 533c 1223 143d 0e46 e33b aa28 c13b
000001b0: c421 81bc e521 f3bc 0be4 143d 2b7c 973c
000001c0: 2728 25bc b929 2fbc f2e6 b0bc fa56 bebb
000001d0: c088 51bc 0d39 fe3a cd4b a5bc 2020 83bb
000001e0: 6396 883a f9f4 723c 2892 063d 6f56 11bb
000001f0: e754 8a3c 8109 aebb 792e 703c ed13 a3bc
00000200: 20d0 da39 8687 7bbb d421 923c d27e 40bc
00000210: 8f89 dbbb 4c97 383a b512 623a b0c5 053c
00000220: 7d9e 653c 3698 4abb 1d1b 60bb 9d1f 863c
00000230: ac7c 7138 8013 9f3c 4740 76bc e3b5 a43c
00000240: bb1e 06bb 4ab8 0a3b 0c24 5239 8c7d 56bc
00000250: 1a23 563c 7032 b3bc 88d5 e43b f2c8 17bc
00000260: 44f5 9fba 69c3 3f3c 46d0 fbbb 8374 2b3c
00000270: d41b 243c b962 963b 5b3b f63b 942e 923c
00000280: 96e8 133c d074 d1bc f87d ffba 426b 0d3b
00000290: 6a9a b63c 4ef7 f0b9 b2d6 7b3b b9d8 07bc
000002a0: 18d6 b1bb b6d0 98bb d7ba 4abc cbb4 43bb
000002b0: feda aebb 68b1 4c3c 678c debb 8b3e cd3c
000002c0: 3d29 cd3b 34ee 8dbb 6fb7 a93b 11f2 a5bb
000002d0: 0bf6 06bc 565a 2a3b 992f 92bc 6086 593c
000002e0: fe7e 2dbc 00fa 0abb 912d 09bc aefb 6d3c
000002f0: 2140 95bc 73e7 b43b cb87 2dbb 9bef 08bc
00000300: 9b2a 82bc 33b8 553c 1fb6 46bc 3d3d a93a
00000310: 34d8 c13a 810e 31bb 28b6 c43a 56eb 5c3c
00000320: b881 523c 13f2 9ebb 326f 2dbc d797 c03b
00000330: 6d63 acba c75b c63b f118 d53b 8184 dabc
00000340: 69bb 9bbb f696 8bbb 82c0 25b9 0aef 32bc
00000350: 9dc7 a1ba a655 0a3b 74ee 743c 4a2f 373c
00000360: ce96 173c d415 29bc 2e86 74bb 9133 433c
00000370: 5567 b7bc 0eee 40bb 34fb 5bbc 4bf2 8abb
00000380: 804d 873c 3173 363b e0d0 47bb b602 963c
00000390: f9af d7bc 5592 4c3c 9eac d7bc 0585 9ebb
000003a0: 5706 ba3a 9662 59bb b24d 8a3b 3742 0dbb
000003b0: 317b 983c 848e 043b 08c3 48bc 709a b638
000003c0: b430 4b3c 4464 52bc 5d38 693b 25bd ca3b
000003d0: 2b9d 383c 44c1 3bbb 70e1 383c cfb9 973c
000003e0: 4685 8ebb 19ea adbb 60be 72bc 4506 813b
000003f0: 3c86 07bb 27ac 8b3b 6bf6 cebb 5af8 b1b9

action_model._discrete_distribution.branches.0.bias f4 [3]
0.010647403 0.003036177 -0.016175987
00000000: 7272 2e3c 99fa 463b 8183 84bc

action_model._discrete_distribution.branches.1.weight f4 [3, 128]
0.00068025873 -0.032718547 -0.014507191 0.005492843 -0.04187959 0.014212835 -0.021458142 0.015507287
0.021868214 0.012322425 -0.0070411763 -0.026348135 -0.011750906 0.030615212 0.004554839 0.019888207
-0.0475757 0.02526375 0.030844878 -0.04999471 0.0146088125 -0.00088961667 -0.005664812 -0.0010345001
-0.006108351 -0.022871606 0.017460028 0.008556546 0.015502508 -0.017412597 0.022997044 0.010724026
-0.01751808 -0.045918845 0.008314934 0.016065916 -0.007186874 -0.035351593 0.012946424 -0.025314622
0.008752431 -0.0035291745 0.0089305695 0.006509154 -0.01588476 0.028998783 -0.04238212 0.02314823
-0.040958326 -0.006980128 -0.014366704 -0.03207811 -0.036144126 0.020051667 0.014975244 -0.005962877
0.009376693 -0.012689465 0.011764203 -0.023742722 -0.025954312 -0.03975091 0.017892156 -0.011432379
-0.0062214984 0.029739223 0.018681467 0.031737104 -0.027190773 -0.034021728 -0.0066457833 0.028904786
-0.0027390597 0.014228598 0.020297516 0.011715926 0.0170802 -0.028655907 -0.011069713 -0.0025941038
-0.02914583 0.039151106 -0.038329624 0.029085433 0.02326458 -0.017625306 -0.036301706 -0.038394473
-0.0036877813 -0.022448447 -0.04258397 0.010313115 -0.009889325 -0.0018840947 -0.009308631 -0.006147636
0.012490369 0.016103106 -0.042801447 0.018307356 0.01022769 0.011014798 0.019246697 -0.011494121
0.029443502 0.02627637 -0.0021367602 -0.04180188 0.023554021 0.030606851 -0.022027355 0.022097545
0.0060400856 -0.016175974 0.025163863 -0.025991859 -0.023020541 0.02506839 0.026212474 0.01838157
0.020995174 0.029614186 0.011027703 -0.0052575967 -0.015583055 -0.0052805715 0.021359967 0.0035451015
-0.00013552626 0.012819883 -0.0058056423 -0.0069196466 0.01382241 -0.022144984 0.013150525 -0.024255268
-0.014640297 0.00014135231 0.006433413 0.014882887 -0.0009983181 -0.019405095 -0.0019149715 0.006956141
0.0016632429 -0.00058267324 -0.0046706353 -0.0003369918 0.011117915 0.0074793184 -0.026166558 0.0022416646
-0.01253163 -0.018300395 -0.0035063673 0.015347671 -0.00076928025 0.014493359 -0.028910533 -0.0032354163
-0.0070198914 0.01097959 -0.00545298 0.019853858 -0.00017696514 -0.009607875 -0.015720239 -0.0100631295
0.000472222 0.0039552688 -0.009563128 0.0015200726 4.4175395e-06 -0.013507977 0.017227078 -0.010173654
0.01167553 0.002966203 0.0021067008 0.011616021 0.0010983818 -0.017294757 0.004687883 -0.021636216
-0.00028775446 0.008893259 0.0032310619 0.018522441 0.004900778 -0.01228149 0.022376493 0.015319744
-0.012777422 -0.0037919143 -0.0020933158 -0.017705813 0.021139355 -0.018863225 0.008132424 -0.01650445
-0.01360388 -0.00064015377 -0.01761654 -0.018967763 0.016728954 0.021289973 0.011186787 -0.0019094513
0.01250663 0.003930244 0.021621224 -0.014912587 0.006229527 0.023693647 0.018908968 0.01181659
0.0048709367 0.009827223 0.020166434 -0.010188982 0.0013515194 0.0046880357 -0.013253487 0.016975
-0.02135044 0.0006760877 0.026747156 -0.0028499588 -0.00946328 0.010759943 -0.013860978 0.00309825
-0.001265399 -0.022963539 0.009159499 0.024800748 -0.015618824 -0.014016379 -0.013221868 0.012895487
-0.016706185 0.007772515 -0.0073517286 0.01924537 0.0075085605 -0.0050389883 0.007617023 -0.0008186096
-0.007733492 0.0023925775 -0.007488223 0.017106 -0.0052878223 0.019456575 -0.022187203 -0.0038731238
00000000: 6453 323a e203 06bd 92af 6dbc 4ffd b33b
00000010: ef89 2bbd f3dc 683c fcc8 afbc 4712 7e3c
00000020: f824 b33c ffe3 493c abb9 e6bb 0bd8 d7bc
00000030: df86 40bc c1cc fa3c c240 953b 98ec a23c
00000040: bdde 42bd edf5 ce3c 66ae fc3c 41c7 4cbd
00000050: cd59 6f3c 2a35 69ba e39f b9bb 1098 87ba
00000060: 9028 c8bb 3c5d bbbc 5508 8f3c c130 0c3c
00000070: 3bfe 7d3c dda4 8ebc 4c64 bc3c d3b3 2f3c
00000080: 1482 8fbc 6615 3cbd 5c3b 083c ab9c 833c
00000090: de7f ebbb d5cc 10bd 3d1d 543c 9c60 cfbc
000000a0: 5b66 0f3c b949 67bb 8651 123c be4a d53b
000000b0: c220 82bc db8e ed3c e098 2dbd 5ba1 bd3c
000000c0: ebc3 27bd 8fb9 e4bb 5362 6bbc 5664 03bd
000000d0: dd0b 14bd 6543 a43c ba5a 753c 3d64 c3bb
000000e0: b3a0 193c 79e7 4fbc a5be 403c 1980 c2bc
000000f0: 239e d4bc dad1 22bd 9292 923c df4e 3bbc
00000100: b6dd cbbb ac9f f33c e009 993c c4fe 013d
00000110: 2fbf debc 5e5a 0bbd dfc4 d9bb bbc9 ec3c
00000120: cc81 33bb 111f 693c fa46 a63c 28f4 3f3c
00000130: c7eb 8b3c cbbf eabc be5d 35bc d701 2abb
00000140: 3cc3 eebc e95c 203d 86ff 1cbd 9344 ee3c
00000150: 5c95 be3c f262 90bc 19b1 14bd 8643 1dbd
00000160: b4ae 71bb cee5 b7bc 876c 2ebd 57f8 283c
00000170: d606 22bc baf3 f6ba 3a83 18bc 1c72 c9bb
00000180: 68a4 4c3c a9ea 833c 9250 2fbd 4ff9 953c
00000190: 0b92 273c 6977 343c 40ab 9d3c d651 3cbc
000001a0: 8033 f13c 8b41 d73c e308 0cbb 7338 2bbd
000001b0: 5df4 c03c 38bb fa3c b672 b4bc e905 b53c
000001c0: e9eb c53b 7a83 84bc 7224 ce3c e1ec d4bc
000001d0: 9395 bcbc 395c cd3c 8bbb d63c f294 963c
000001e0: 12fe ab3c 7399 f23c 8aad 343c eb47 acbb
000001f0: 1250 7fbc a508 adbb 19fb ae3c ef54 683b
00000200: 0e1c 0eb9 7d0a 523c 423d bebb 34be e2bb
00000210: 6477 623c 6669 b5bc 4d75 573c fcb2 c6bc
00000220: dbdd 6fbc f937 1439 61cf d23b 5ad7 733c
00000230: ffd9 82ba 6ff7 9ebc c8ff faba 57f0 e33b
00000240: 2c01 da3a 8abe 18ba 210c 99bb 46ae b0b9
00000250: ea27 363c 1215 f53b 405b d6bc e4e8 123b
00000260: 7751 4dbc b6ea 95bc 15cb 65bb cc74 7b3c
00000270: 86a9 49ba 8e75 6d3c c8d5 ecbc 4709 54bb
00000280: 1e07 e6bb bde3 333c e9ae b2bb 8fa4 a23c
00000290: b88f 39b9 596a 1dbc bbc7 80bc d3df 24bc
000002a0: 9094 f739 339b 813b abae 1cbc 2c3d c73a
000002b0: 603a 9436 9050 5dbc cd1f 8d3c 66af 26bc
000002c0: b94a 3f3c a164 423b 9310 0a3b 2051 3e3c
000002d0: 94f7 8f3a bcad 8dbc d09c 993b 6f3e b1bc
000002e0: c0dd 96b9 08b5 113c 39c0 533b 60bc 973c
000002f0: b596 a03b 4d38 49bc e84e b73c aaff 7a3c
00000300: 6458 51bc c481 78bb 0330 09bb c80b 91bc
00000310: 712c ad3c 0d87 9abc dc3d 053c 5734 87bc
00000320: cfe2 5ebc fecf 27ba 9050 90bc 4862 9bbc
00000330: 290b 893c 4f68 ae3c c948 373c 8e46 faba
00000340: 9ce8 4c3c 47c9 803b fe1e b13c ec53 74bc
00000350: 0f21 cc3b 2e19 c23c fbe6 9a3c 5f9a 413c
00000360: 619c 9f3b 5c02 213c 1434 a53c b0ef 26bc
00000370: 7725 b13a 189e 993b 2725 59bc 280f 8b3c
00000380: 1ee7 aebc 7a3b 313a da1c db3c 60c6 3abb
00000390: e00b 1bbc 794a 303c 2819 63bc 020c 4b3b
000003a0: bfdb a5ba 081e bcbc b911 163c f02a cb3c
000003b0: 19e6 7fbc f4a4 65bc 89a0 58bc 9847 533c
000003c0: 69db 88bc 95b0 fe3b c5e6 f0bb 77a8 9d3c
000003d0: 5f0a f63b 191e a5bb 3898 f93b f697 56ba
000003e0: 3c69 fdbb cacc 1c3b c45f f5bb e221 8c3c
000003f0: 7845 adbb 6563 9f3c f0c1 b5bc 3cd4 7dbb

action_model._discrete_distribution.branches.1.bias f4 [3]
0.021358497 -0.01555234 -0.011352689
00000000: 04f8 ae3c 3ecf 7ebc a100 3abc

action_model._discrete_distribution.branches.2.weight f4 [2, 128]
0.0008530504 -0.012524165 -0.0019648834 -0.01672777 -0.018225713 0.01644843 0.0030046396 0.015326349
0.016379774 0.013709452 0.014544045 -0.008458513 0.0018226478 0.012250951 0.008796199 0.00012184776
-0.008678193 -0.008267239 5.2351068e-05 -0.0046523125 0.0050483164 -0.0055831955 -0.01033751 0.0074428404
-0.01633024 -0.0071148863 -0.010224161 0.00037273904 0.012266594 0.008704963 -0.025091395 0.009787063
-0.025942847 -0.008528567 0.003722216 -0.004700786 -0.0025219435 -0.009540199 -0.0034681715 -0.0030222728
0.0070902077 -0.0020204196 -0.015616367 0.00017554092 0.0037896303 0.008361559 0.014911615 0.006961823
0.0074241003 0.012316771 -0.006884879 -0.0033250244 -0.017334806 0.003013482 0.0030004226 0.011044405
0.018206049 -0.008582349 0.001975581 0.00974076 -0.0036034475 -0.019846834 0.01918196 -0.014727543
-0.0049303467 0.02155141 -0.0038034094 0.0113796545 0.001861279 -0.022621507 -0.0061078663 -0.0072664553
0.0087724 0.00084178103 0.00080076203 0.010369246 -0.00892979 -0.0036759402 0.0025754054 -0.009964451
-0.0012181082 0.002258151 0.0072930097 0.014312007 -0.0050905067 -4.144192e-05 0.0064499485 -0.0006031945
-0.01974894 -0.0027436132 -0.0040697665 0.011704849 -0.00046256746 0.011028566 0.0054996023 -0.00014454151
-0.0023183445 0.008687331 0.0031628096 0.0140288295 -0.0109076565 -0.017335583 0.0045653703 -0.01022616
-0.0021745896 -0.009994303 0.0029080824 -0.0022198411 0.004381882 0.0057977135 -0.018313486 0.014107592
-0.002575844 -0.006365652 0.018803967 -0.008998037 -0.005092583 -0.011410258 -0.001682351 -0.0060511576
-0.0025670596 0.0017136255 -0.0027238016 0.003411561 3.03142e-05 0.007340713 -0.0076002865 0.024602776
-0.0016864502 0.015679957 0.0023154556 -0.013403724 0.011700318 0.01602953 0.009391962 -0.011357497
0.0086624455 0.0012745342 0.003858474 0.0076336353 0.007890658 -0.022224747 -0.010724776 -0.0052671726
-0.020485228 -0.014921819 0.0048841652 0.014975763 -0.014114848 0.006259458 -0.008024922 -0.0135383215
0.016014561 0.020516982 0.010187229 0.010217284 -0.009507852 -0.009496993 0.017999252 -0.017558848
-0.0050986027 0.001783753 0.013607855 -0.003934199 0.009011547 0.0025376012 -0.0016057331 0.008454815
-0.0027044436 -0.009111731 0.010742217 0.005705744 -0.011132003 0.016670356 0.0009237949 -0.017533781
0.005408564 -0.009895875 0.0031043908 0.011192239 0.008234454 -0.013500593 -0.012682283 -0.002767872
-0.020250864 0.0065067234 -0.018600674 -0.0080033345 0.021306543 0.0192506 0.008497354 0.0070152213
-0.020338988 -0.001167651 0.023569616 -0.0079571735 0.0010547624 0.028342858 0.0016190781 -0.0035926697
-0.0073584933 0.002114095 0.006178372 -0.014539485 0.0061879903 0.0015404788 -0.002158385 0.0015630905
0.01156588 -0.009558265 0.008364213 -0.0008222284 0.0018287197 0.022751082 0.013362841 0.01140516
-0.0033706594 0.012677967 0.015563821 0.0074611143 -0.012368855 0.00357466 -0.00081632985 0.005902773
0.00031873496 0.0037950908 -0.008783319 -0.012348147 0.009998092 0.0063690217 0.006817785 -0.013008427
0.003673404 0.007151321 -0.0068411557 -0.0030556952 0.0038048702 -0.011733004 0.0057356027 0.004710425
-0.009283729 0.0051669925 -0.004503029 0.0009542975 -0.0057029366 0.015863208 0.0015656141 0.004627189
0.0139893275 -0.017662425 0.0027902075 -0.003716466 -0.003608355 0.005847271 -0.00070191774 0.008267234
00000000: 3e9f 5f3a 2832 4dbc 46c5 00bb ad08 89bc
00000010: 174e 95bc dcbe 863c 7de9 443b 5e1b 7b3c
00000020: e02e 863c 9c9d 603c 254a 6e3c 9395 0abc
00000030: e9e5 ee3a 36b8 483c ef1d 103c 8588 ff38
00000040: fb2e 0ebc 5073 07bc 8893 5b38 6d72 98bb
00000050: 596c a53b 3df3 b6bb a95e 29bc 12e3 f33b
00000060: ffc6 85bc fe23 e9bb 3d83 27bc 306c c339
00000070: d3f9 483c 439f 0e3c 788c cdbc eb59 203c
00000080: 1886 d4bc 67bb 0bbc 6cf0 733b 0d09 9abb
00000090: 3147 25bb 7f4e 1cbc 434a 63bb 5311 46bb
000000a0: f954 e83b 0469 04bb cadb 7fbc 6811 3839
000000b0: 725b 783b ecfe 083c d94f 743c 0120 e43b
000000c0: de45 f33b 48cc 493c 8d9a e1bb a7e8 59bb
000000d0: b901 8ebc d77d 453b bda2 443b 98f3 343c
000000e0: da24 953c fb9c 0cbc c078 013b b597 1f3c
000000f0: d127 6cbb d495 a2bc 7c23 9d3c cb4b 71bc
00000100: bf8e a1bb 958c b03c 9f42 79bb bb71 3a3c
00000110: 29f6 f33a bd50 b9bc 7f24 c8bb 721b eebb
00000120: 1dba 0f3c f8aa 5c3a 3bea 513a c5e3 293c
00000130: 414e 12bc 0be8 70bb 22c8 283b f041 23bc
00000140: eea8 9fba 7dfd 133b 33fa ee3b e97c 6a3c
00000150: 44ce a6bb ecd1 2db8 175a d33b b31f 1eba
00000160: 87c8 a1bc 31ce 33bb ad5b 85bb b2c5 3f3c
00000170: c184 f2b9 29b1 343c 0236 b43b 1190 17b9
00000180: 5eef 17bb 4f55 0e3c 2447 4f3b 2dd9 653c
00000190: 07b6 32bc 5a03 8ebc 1a99 953b a08b 27bc
000001a0: 8f83 0ebb 25bf 23bc 8795 3e3b c17a 11bb
000001b0: e495 8f3b bffa bd3b 2a06 96bc 8823 673c
000001c0: 7ecf 28bb f696 d0bb c70a 9a3c 816c 13bc
000001d0: afdf a6bb 17f2 3abc 5582 dcba ca48 c6bb
000001e0: 1d3c 28bb bb9b e03a cf81 32bb 7f94 5f3b
000001f0: 404b fe37 5d8a f03b d30b f9bb c38b c93c
00000200: e10b ddba 4173 803c e6be 173b 4b9b 5bbc
00000210: b1b2 3f3c 5c50 833c bee0 193c cc14 3abc
00000220: eeec 0d3c 450e a73a 74de 7c3b 9323 fa3b
00000230: d247 013c ac10 b6bc f9b6 2fbc 3f98 acbb
00000240: a3d0 a7bc a57a 74bc 590b a03b e75c 753c
00000250: f741 67bc 241c cd3b f67a 03bc d6cf 5dbc
00000260: f830 833c 3b13 a83c 56e8 263c 6566 273c
00000270: d2c6 1bbc 4799 1bbc 2b73 933c 93d7 8fbc
00000280: 2e12 a7bb d2cc e93a 7bf3 5e3c 74ea 80bb
00000290: 2ba5 133c e24d 263b 7677 d2ba 1086 0a3c
000002a0: 093d 31bb 5f49 15bc 2000 303c 40f7 ba3b
000002b0: 0163 36bc 4590 883c d42a 723a 01a3 8fbc
000002c0: 533a b13b 4f22 22bc 0973 4b3b a75f 373c
000002d0: cee9 063c 9731 5dbc 5ac9 4fbc 3065 35bb
000002e0: 24e5 a5bc 5a36 d53b 7160 98bc 6b20 03bc
000002f0: 0f8b ae3c 6fb3 9d3c 7c38 0b3c f1df e53b
00000300: f39d a6bc de0b 99ba 1115 c13c ce5e 02bc
00000310: f43f 8a3a 482f e83c 3f37 d43a ff72 6bbb
00000320: 841f f1bb a18c 0a3b f173 ca3b 0537 6ebc
00000330: a0c4 ca3b e4e9 c93a b173 0dbb 9de0 cc3a
00000340: d17e 3d3c 459a 1cbc 0d0a 093c d08a 57ba
00000350: a7b1 ef3a 7a60 ba3c d1ef 5a3c b5dc 3a3c
00000360: 48e6 5cbb 3fb7 4f3c 66ff 7e3c 5d7c f43b
00000370: bda6 4abc d844 6a3b f8fe 55ba 0c6c c13b
00000380: e21b a739 0fb7 783b e9e7 0fbc e24f 4abc
00000390: 0acf 233c 3ab3 d03b ba67 df3b 4c21 55bc
000003a0: 7ebd 703b a155 ea3b c62b e0bb 0f42 48bb
000003b0: 215b 793b c93b 40bc b9f1 bb3b e959 9a3b
000003c0: c81a 18bc e04f a93b 258e 93bb d229 7a3a
000003d0: b3df babb 8ff3 813c 4b35 cd3a ad9f 973b
000003e0: 7e33 653c cab0 90bc eadb 363b f48f 73bb
000003f0: 277a 6cbb 779a bf3b e700 38ba 4b73 073c

action_model._discrete_distribution.branches.2.bias f4 [2]
0.001331708 -0.0013317096
00000000: b58c ae3a c28c aeba

exp_avg f4 [128, 87]
0.0 -2.5581862e-06 -2.1520183e-11 1.4886261e-06 -5.1135676e-12 3.5813343e-09 0.0 -4.416526e-06
1.2117428e-06 -7.295024e-06 -2.2476186e-07 3.8356498e-07 0.0 -7.447122e-06 -2.8932504e-06 5.388142e-06
8.045074e-07 1.3994074e-06 0.0 -7.283429e-07 1.6956225e-06 -7.90314e-06 -2.7521043e-07 -1.7696362e-06
4.4183765e-19 -2.2857996e-06 1.6188703e-07 -5.8671947e-07 -1.2234143e-06 -1.3393098e-06 0.0 -6.314476e-10
2.0170023e-06 -5.2963674e-06 -2.2465467e-09 -3.9568904e-06 0.0 -3.0277408e-07 6.837689e-07 -1.3335572e-06
-5.6501796e-07 -4.623791e-06 0.0 1.28094655e-08 -4.4544686e-06 -2.6854655e-06 -2.2465467e-09 -3.7169616e-06
0.0 -9.416287e-07 -4.957708e-06 -8.4345857e-07 -5.446591e-07 -4.1192734e-06 0.0 -1.4300724e-06
-5.394479e-06 -1.0374231e-06 -2.2465467e-09 -5.415355e-06 0.0 1.0185751e-06 -9.23891e-06 -3.494082e-09
-8.3999277e-07 -4.2236256e-06 0.0 -9.245233e-06 -1.5940875e-06 2.535074e-07 1.5219903e-06 -4.301221e-06
0.0 -9.245233e-06 -1.5940875e-06 2.535074e-07 1.5219903e-06 -4.301202e-06 0.0 -2.2390908e-05
-1.8993e-05 4.313835e-05 0.0 -2.2390908e-05 -1.8993e-05 4.313835e-05 -1.0270349e-05 0.0
8.51689e-06 4.399953e-11 1.748439e-05 1.4309423e-11 -1.3695569e-06 0.0 -1.2779149e-06 1.061324e-05
3.8629587e-05 -3.563504e-08 -1.720482e-05 0.0 3.351607e-06 -1.8344818e-06 -5.720149e-06 6.888005e-06
8.433763e-06 0.0 5.864384e-06 -1.0591758e-05 3.2045646e-05 -3.3037688e-07 -7.1703826e-06 -8.972752e-19
1.2701643e-05 -4.6533887e-07 1.5279752e-06 -1.20939085e-05 6.681077e-06 0.0 6.8972805e-09 -8.876983e-06
1.4993928e-05 -7.836321e-09 5.3955077e-06 0.0 3.6497058e-06 -1.43534135e-05 -5.9791287e-06 1.4831648e-05
2.2413351e-05 0.0 6.8695867e-09 1.0334023e-05 6.0011894e-06 -7.836321e-09 6.8209697e-06 0.0
9.837958e-06 1.2469582e-05 -6.193599e-06 3.7366772e-06 1.7460142e-07 0.0 -1.5477016e-06 7.11567e-06
2.8677252e-06 -7.836321e-09 1.7499959e-05 0.0 9.088709e-06 2.6223277e-05 5.6695337e-09 -1.38291325e-05
-1.4283127e-05 0.0 8.419317e-06 1.5451065e-05 -5.18972e-07 -1.8628805e-06 3.5594921e-06 0.0
8.419317e-06 1.5451065e-05 -5.18972e-07 -1.8628805e-06 3.5594778e-06 0.0 -1.164433e-05 5.186914e-05
-2.36081e-05 0.0 -1.164433e-05 5.186914e-05 -2.36081e-05 2.3272547e-05 0.0 -1.1534717e-05
7.222214e-12 5.13352e-07 -2.498602e-11 -1.1928282e-05 0.0 -1.8473626e-06 1.5447971e-05 2.5982763e-06
-3.0956198e-08 -2.5476036e-05 0.0 -3.8574984e-07 -7.825783e-07 1.5837917e-05 6.032403e-08 -2.3192548e-05
0.0 8.100175e-07 -1.2510054e-06 1.8657034e-06 5.843015e-08 -1.7738608e-05 -6.284939e-21 -1.2744527e-05
8.35808e-07 -5.9401475e-05 4.2066094e-05 8.733266e-06 0.0 -6.036657e-09 8.12905e-06 2.1937856e-07
-2.6027136e-08 -1.4336403e-05 0.0 -6.8086956e-06 3.14214e-05 -4.0153547e-05 -5.6421086e-05 -5.328449e-05
0.0 -5.7414233e-09 -9.739693e-06 8.3028374e-07 -2.6027136e-08 -1.6473685e-05 0.0 -5.8642204e-06
-4.0558538e-05 3.62294e-06 -2.1160777e-05 -4.809334e-05 0.0 2.2756255e-06 -2.0207308e-05 2.8590744e-06
-2.6027136e-08 -1.9460234e-05 0.0 -5.5316914e-06 -6.4879474e-05 -3.5087189e-09 8.625447e-06 -3.930324e-06
0.0 7.896854e-06 -8.837313e-05 1.5634372e-06 1.7123608e-05 1.6953618e-05 0.0 7.896854e-06
-8.837313e-05 1.5634372e-06 1.7123608e-05 1.6953632e-05 0.0 0.0006460827 -8.333158e-05 4.364252e-05
00000000: 0000 0000 4ead 2bb6 254b bdad cecc c735
00000010: ecea b3ac 801b 7631 0000 0000 ab31 94b6
00000020: 2aa3 a235 c7c7 f4b6 1256 71b4 c5ec cd34
00000030: 0000 0000 4ae2 f9b6 aa29 42b6 cacb b436
00000040: 54f5 5735 46d3 bb35 0000 0000 5883 43b5
00000050: 2595 e335 ba97 04b7 a2c0 93b4 3d84 edb5
00000060: 4f68 0221 bd65 19b6 2bd3 2d34 0e7f 1db5
00000070: 3234 a4b5 56c2 b3b5 0000 0000 2d92 2db0
00000080: d65b 0736 73b7 b1b6 ab61 1ab1 6ec5 84b6
00000090: 0000 0000 f48c a2b4 3e8c 3735 adfc b2b5
000000a0: bdab 17b5 1026 9bb6 0000 0000 a010 5c32
000000b0: 9877 95b6 f237 34b6 ab61 1ab1 ea70 79b6
000000c0: 0000 0000 3bc4 7cb5 635a a6b6 086a 62b5
000000d0: b034 12b5 4a38 8ab6 0000 0000 eaf0 bfb5
000000e0: 3902 b5b6 963d 8bb5 ab61 1ab1 8cb5 b5b6
000000f0: 0000 0000 f9b5 8835 d100 1bb7 8a1c 70b1
00000100: dd7b 61b5 abb8 8db6 0000 0000 f91b 1bb7
00000110: 6ef4 d5b5 cb19 8834 3047 cc35 3553 90b6
00000120: 0000 0000 f91b 1bb7 6ef4 d5b5 cb19 8834
00000130: 3047 cc35 0b53 90b6 0000 0000 1cd4 bbb7
00000140: 2853 9fb7 73ef 3438 0000 0000 1cd4 bbb7
00000150: 2853 9fb7 73ef 3438 d04e 2cb7 0000 0000
00000160: c4e3 0e37 1183 412e 71ab 9237 e9bb 7b2d
00000170: 9ed1 b7b5 0000 0000 d284 abb5 850f 3237
00000180: 3406 2238 240d 19b3 1253 90b7 0000 0000
00000190: 2bec 6036 5138 f6b5 b5ef bfb6 831f e736
000001a0: bc7e 0d37 0000 0000 adc6 c436 41b3 31b7
000001b0: c068 0638 a75e b1b4 1e99 f0b6 196a 84a1
000001c0: 2419 5537 b0d3 f9b4 d414 cd35 f1e6 4ab7
000001d0: 042e e036 0000 0000 1ffd ec31 5aee 14b7
000001e0: 6e8e 7b37 81a0 06b2 0f0b b536 0000 0000
000001f0: 78ed 7436 71cf 70b7 53a0 c8b6 71d5 7837
00000200: 4e04 bc37 0000 0000 8609 ec31 4a60 2d37
00000210: d35d c936 81a0 06b2 afdf e436 0000 0000
00000220: b50d 2537 7234 5137 9cd2 cfb6 a0c3 7a36
00000230: 137a 3b34 0000 0000 9fba cfb5 24c3 ee36
00000240: 2573 4036 81a0 06b2 e0cc 9237 0000 0000
00000250: b57b 1837 0ffa db37 bfcd c231 ac03 68b7
00000260: 90a1 6fb7 0000 0000 b140 0d37 e99c 8137
00000270: 7c4f 0bb5 1608 fab5 9cdf 6e36 0000 0000
00000280: b140 0d37 e99c 8137 7c4f 0bb5 1608 fab5
00000290: 5ddf 6e36 0000 0000 045c 43b7 118e 5938
000002a0: 020a c6b7 0000 0000 045c 43b7 118e 5938
000002b0: 020a c6b7 6a39 c337 0000 0000 3b85 41b7
000002c0: ec1b fe2c 48cd 0935 84c7 dbad 951f 48b7
000002d0: 0000 0000 e5f2 f7b5 4496 8137 0c5e 2e36
000002e0: b3f4 04b3 5fb5 d5b7 0000 0000 0e19 cfb4
000002f0: 5f12 52b5 abdb 8437 7c8b 8133 9e8d c2b7
00000300: 0000 0000 fb6f 5935 38e8 a7b5 1569 fa35
00000310: a1f4 7a33 5fcd 94b7 3370 ed9d 54d1 55b7
00000320: 4a5c 6035 d925 79b8 2070 3038 1885 1237
00000330: 0000 0000 ff6a cfb1 0162 0837 528e 6b34
00000340: 4792 dfb2 6286 70b7 0000 0000 4076 e4b6
00000350: 79ca 0338 8b6a 28b8 aea5 6cb8 c97d 5fb8
00000360: 0000 0000 1846 c5b1 aa67 23b7 aae0 5e35
00000370: 4792 dfb2 f830 8ab7 0000 0000 45c5 c4b6
00000380: 661d 2ab8 a321 7336 6c82 b1b7 d5b7 49b8
00000390: 0000 0000 f3b6 1836 dd82 a9b7 86de 3f36
000003a0: 4792 dfb2 893e a3b7 0000 0000 de9c b9b6
000003b0: e70f 88b8 091e 71b1 03b6 1037 3ae1 83b6
000003c0: 0000 0000 bb7c 0437 f754 b9b8 4bd7 d135
000003d0: aba4 8f37 9e37 8e37 0000 0000 bb7c 0437
000003e0: f754 b9b8 4bd7 d135 aba4 8f37 a637 8e37
000003f0: 0000 0000 e05d 293a 4dc2 aeb8 cd0c 3738
