MLBase/results/ppo/CaptureTheFlag/CaptureTheFlag-540.onnx (onnx, 123803 bytes, 9 tensors)

discrete_act_size_vector f4 [1, 3]
000000 00 00 40 40 00 00 40 40 00 00 00 40
       3.0 3.0 2.0

network_body._body_endoder.seq_layers.0.weight f4 [128, 86]
000000 d9 5d cd 3c b5 35 04 3d 66 4f eb 3d 50 17 b9 3c
       0.025069164 0.03227778 0.114897534 0.022594124
000010 7b 5e 38 3d fa 59 58 be 07 cf 08 be c8 99 d5 3d
       0.04501198 -0.21128073 -0.13360225 0.10429722
000020 0b 38 a5 3d fd 35 4d 3e 55 3f 97 3d 4c 74 d1 bd
       0.0806733 0.20040126 0.073851265 -0.1022726
000030 95 82 a6 bd 08 bb a8 3c 66 ba 11 bc f1 a1 87 3e
       -0.08130375 0.020596996 -0.0088945385 0.2649074
000040 3c 29 23 3e fb 3c 49 3d 3e 7a 28 3e 25 0f 43 bd
       0.15933698 0.04913042 0.16452882 -0.047621865
000050 da 6f 47 3e 65 b8 ac bd a4 2a 72 bd 95 da 6b 3d
       0.19476262 -0.08433608 -0.059122697 0.057581503
000060 a9 30 b3 bd 01 dd 89 bd 89 d0 41 3c d8 ce 7c 3e
       -0.087495156 -0.06731606 0.011829504 0.2468828
000070 6b fd 18 bd 4a 49 5b 3c ed 86 1a be 59 07 8b 3d
       -0.037351053 0.013384173 -0.15090533 0.06788511
000080 88 4e 13 be 44 16 f3 bd fa 54 28 3d 77 00 df bd
       -0.14385426 -0.11869481 0.041096665 -0.108887605
000090 62 2f 16 be 7e 95 cb bd b0 3d e5 bb f9 62 68 bd
       -0.14666513 -0.09940623 -0.006995879 -0.056735013
0000a0 c5 c2 e1 bd a4 f8 bf 3d 53 be 1d be 5d 74 62 3d
       -0.110234775 0.09373596 -0.15404634 0.055286754
0000b0 4c 38 1b 3e cf 52 ca 3d f8 f2 34 be 41 90 65 bd
       0.15158194 0.09879076 -0.1767081 -0.056045774
0000c0 6e 3b aa bc 61 9d 02 3e 9a 3f 1a bc 4e fd c9 3d
       -0.020780291 0.12755348 -0.009414578 0.09862767
0000d0 21 37 07 be cd 20 7b bd 34 8a c4 3d 3a 9a 93 3d
       -0.13204624 -0.06131058 0.09596673 0.07207151
0000e0 c2 92 b2 3d c8 6a 80 3d 95 6d 29 3d 5b b4 96 bc
       0.08719398 0.06270367 0.04136427 -0.018396547
0000f0 02 69 95 bd 5b 4d 87 3c 75 c9 e3 bd 04 ce 6b 3c
       -0.07295419 0.016516378 -0.11122409 0.01439238
000100 a3 e6 1c 3e e7 0b 27 3e ba c2 94 3c 8c ac a8 bd
       0.15322356 0.16313134 0.01815926 -0.08236036
000110 cb 52 6a 3d c3 00 11 3d 62 8e 01 be ec cc d2 bc
       0.057207864 0.035401117 -0.12651971 -0.02573248
000120 fe 02 fa 3d 51 32 45 3e c7 30 3e 3d 19 37 54 3e
       0.12207602 0.19257475 0.046433236 0.20724143
000130 c6 db 03 3d f9 82 28 3d 5b c8 a8 bd 1e 4a b3 3d
       0.032192014 0.04114053 -0.0824134 0.08754371
000140 40 e8 7a bd 76 e5 2a bd 90 aa 2f bc 40 56 46 3d
       -0.061256647 -0.041722737 -0.010721818 0.0484221
000150 3b 8e 72 bd 30 39 59 bd 41 88 8e bb f7 ac a2 bd
       -0.059217673 -0.053033054 -0.004349739 -0.07943147
000160 29 4a 14 3e 7a 06 73 3d ee 26 6c 3d 34 16 b0 bd
       0.14481415 0.05933235 0.057654314 -0.08597985
000170 b6 d5 8a bd 14 cb 93 3d 01 ae 18 be f7 d0 7a 3c
       -0.067790434 0.072164685 -0.14910127 0.01530861
000180 16 81 11 3e a0 a8 3b be 10 8f 93 bd 85 da b9 bd
       0.14209399 -0.18326044 -0.072050214 -0.090748824
000190 5c 9d d0 3c ec 65 89 b9 a5 71 a7 3c b8 2a 44 3d
       0.02546566 -0.00026206614 0.020439932 0.047892302
0001a0 a7 fc bb 3d 0c f3 ea 3d 4c 42 16 3e 4d 30 c2 3d
       0.09179049 0.11472139 0.14673728 0.09481869
0001b0 7d 5d 18 be 08 6e f5 3d 93 16 04 bc ed c1 11 3e
       -0.14879413 0.119838774 -0.008062023 0.14234133
0001c0 6d c6 3f be 54 07 2a 3c 04 4a 18 be 30 a3 d5 3c
       -0.18728037 0.010377724 -0.14871985 0.02607879
0001d0 7a ef db 3d 4b 05 09 3e 0a 84 11 3a 8e 77 b5 3b
       0.10739036 0.13380925 0.00055509864 0.0055379337
0001e0 73 f4 04 be e3 e5 4b 3e aa 32 a2 3c 14 dd 67 be
       -0.12983875 0.19911914 0.01979955 -0.22642928
0001f0 26 fe e8 bd 7f f5 3d 3e 3b 4c 6c 3d 6d 66 99 bd
       -0.113766 0.1855068 0.057689887 -0.07490239
000200 91 c9 26 be a4 95 4e 3d 5a bc 2d be 61 7f 85 3c
       -0.16287829 0.050435677 -0.16966382 0.01629609
000210 e5 65 2a be 62 5f fe bd 8d bf b8 3d 75 f9 5c bb
       -0.16640432 -0.124205366 0.090209104 -0.0033718024
000220 59 58 10 3e 3a 8a 2a be 2f b6 73 bc ee c2 7f 3d
       0.14096202 -0.16654292 -0.014874979 0.06244176
000230 d6 39 a9 3b da 5f 57 bd d2 b3 55 bd 60 f4 d7 bc
       0.0051643653 -0.052581646 -0.052173443 -0.026361644
000240 5b a3 bd 3d 9e a5 e3 bd 3c 22 c1 3b 38 6a d1 bc
       0.09259673 -0.11115573 0.0058939736 -0.025563344
000250 cd 9c de bc 01 ff d8 3b b4 16 37 be 99 ed 27 3d
       -0.027174378 0.0066221957 -0.17879754 0.040998075
000260 d6 d0 2b 3e 9d 2e 78 3d 19 6f b4 3c ab da ad bd
       0.16778883 0.06059133 0.022025632 -0.08488973
000270 ae 6f 04 bc b2 3e ac bd 77 71 1c be 61 8b 8b bd
       -0.008083267 -0.08410396 -0.15277658 -0.06813694
000280 37 a2 14 be 52 ee 34 3e f4 c6 73 be 4e b1 63 3d
       -0.14515005 0.17669037 -0.23806363 0.055589013
000290 4b 22 68 bd a0 ca fc bd fe 1b c5 3d 96 e1 5f 3c
       -0.05667333 -0.12343335 0.0962448 0.013664624
0002a0 4f 98 3d bc 7a f1 f7 bd e8 d8 96 bd ee 2f c7 bd
       -0.011571958 -0.12106605 -0.0736559 -0.09725939
0002b0 90 7f 07 be 8f f3 a6 bd d8 9a 7c 3c 69 0a 31 bd
       -0.13232255 -0.08151924 0.015417777 -0.04322282
0002c0 9c fc 21 3c de 0d 33 be 7a 31 b0 3c 53 9b 93 3e
       0.009886887 -0.17485759 0.021507967 0.2882944
0002d0 3b 3f 25 be 97 1b 0b be 94 8f 36 3d b6 f1 98 3c
       -0.16137402 -0.13584743 0.04457052 0.018669944
0002e0 f9 4b a7 3d f2 cb 3c bc c3 c0 55 3e 65 1d 14 3e
       0.081687875 -0.011523234 0.20874314 0.14464338
0002f0 0a a6 c7 bd be 3a 95 bb 08 2f 12 be fd 81 74 be
       -0.09748466 -0.0045541218 -0.14275753 -0.23877712
000300 e1 b8 8f 3d 4a 2d d3 3c 87 06 8b 3d e8 c5 b5 3d
       0.07017685 0.025778431 0.06788354 0.08875638
000310 9f 09 71 3d 75 08 da 3d 57 63 c7 bd 8c bb fd 3d
       0.058847066 0.10646144 -0.097357444 0.12389287
000320 43 18 6c 3c f4 e0 88 be ac 31 f1 3d 54 e1 1b be
       0.014410081 -0.26734126 0.11777052 -0.15222675
000330 01 a8 03 3e 13 9b d7 bd 68 89 5f 3e d5 92 c7 3d
       0.12857057 -0.10527625 0.2182976 0.09744803
000340 9f 00 f0 bd 08 df 1e be 58 53 49 3c 25 b9 b1 bd
       -0.117188685 -0.15514767 0.012287937 -0.08677892
000350 a2 7b b1 3d 14 f3 59 bd 28 d5 34 3d 7e a7 3c bc
       0.08666159 -0.053210333 0.044148594 -0.011514543
000360 b1 a5 74 bd 22 39 b1 3d 71 e6 bf bd c6 54 5c 3d
       -0.05972833 0.08653475 -0.09370125 0.053791784
000370 97 dd 46 3d b2 92 ec 3b e8 5a 30 3e 02 97 34 3d
       0.04855117 0.007219636 0.17222178 0.044089325
000380 f5 4f a6 3d f7 71 22 3c 84 1e e0 bc 84 62 de bc
       0.08120719 0.009914867 -0.027358301 -0.027146585
000390 fb 03 31 3e e0 a6 db bd d9 cd 69 ba fa 5c 90 3d
       0.17286675 -0.10725188 -0.00089189183 0.07048984
0003a0 d5 db bf 3d d1 77 b2 bd 5e 34 c0 3d 95 31 90 3d
       0.093681015 -0.087142594 0.09384988 0.07040707
0003b0 b6 e5 f6 3d c5 88 a4 bd 7e 8b 54 bd 98 cd 98 3d
       0.12055533 -0.08033899 -0.051890843 0.07461089
0003c0 70 a6 e9 bd f8 48 88 bd 67 71 19 3e 3e 71 a4 3d
       -0.114086986 -0.06654543 0.14984666 0.08029412
0003d0 39 6b d8 b9 f6 11 bf bd d5 35 1f 3e 04 e8 f0 bb
       -0.00041278618 -0.09329598 0.15547879 -0.007351877
0003e0 82 18 dd 3d fa 27 ea bc 19 25 0a be 61 84 f8 bd
       0.1079569 -0.028583515 -0.13490714 -0.12134624
0003f0 fd 2c 27 bc 52 ce 9c 3c 4f 5a 66 3d 38 2a a1 3e
       -0.010203597 0.01914135 0.05623847 0.31477523

network_body._body_endoder.seq_layers.0.bias f4 [128]
000000 00 00 00 00 00 00 00 00 00 00 00 00 00 00 00 00
       0.0 0.0 0.0 0.0
000010 00 00 00 00 00 00 00 00 00 00 00 00 00 00 00 00
       0.0 0.0 0.0 0.0
000020 00 00 00 00 00 00 00 00 00 00 00 00 00 00 00 00
       0.0 0.0 0.0 0.0
000030 00 00 00 00 00 00 00 00 00 00 00 00 00 00 00 00
       0.0 0.0 0.0 0.0
000040 00 00 00 00 00 00 00 00 00 00 00 00 00 00 00 00
       0.0 0.0 0.0 0.0
000050 00 00 00 00 00 00 00 00 00 00 00 00 00 00 00 00
       0.0 0.0 0.0 0.0
000060 00 00 00 00 00 00 00 00 00 00 00 00 00 00 00 00
       0.0 0.0 0.0 0.0
000070 00 00 00 00 00 00 00 00 00 00 00 00 00 00 00 00
       0.0 0.0 0.0 0.0
000080 00 00 00 00 00 00 00 00 00 00 00 00 00 00 00 00
       0.0 0.0 0.0 0.0
000090 00 00 00 00 00 00 00 00 00 00 00 00 00 00 00 00
       0.0 0.0 0.0 0.0
0000a0 00 00 00 00 00 00 00 00 00 00 00 00 00 00 00 00
       0.0 0.0 0.0 0.0
0000b0 00 00 00 00 00 00 00 00 00 00 00 00 00 00 00 00
       0.0 0.0 0.0 0.0
0000c0 00 00 00 00 00 00 00 00 00 00 00 00 00 00 00 00
       0.0 0.0 0.0 0.0
0000d0 00 00 00 00 00 00 00 00 00 00 00 00 00 00 00 00
       0.0 0.0 0.0 0.0
0000e0 00 00 00 00 00 00 00 00 00 00 00 00 00 00 00 00
       0.0 0.0 0.0 0.0
0000f0 00 00 00 00 00 00 00 00 00 00 00 00 00 00 00 00
       0.0 0.0 0.0 0.0
000100 00 00 00 00 00 00 00 00 00 00 00 00 00 00 00 00
       0.0 0.0 0.0 0.0
000110 00 00 00 00 00 00 00 00 00 00 00 00 00 00 00 00
       0.0 0.0 0.0 0.0
000120 00 00 00 00 00 00 00 00 00 00 00 00 00 00 00 00
       0.0 0.0 0.0 0.0
000130 00 00 00 00 00 00 00 00 00 00 00 00 00 00 00 00
       0.0 0.0 0.0 0.0
000140 00 00 00 00 00 00 00 00 00 00 00 00 00 00 00 00
       0.0 0.0 0.0 0.0
000150 00 00 00 00 00 00 00 00 00 00 00 00 00 00 00 00
       0.0 0.0 0.0 0.0
000160 00 00 00 00 00 00 00 00 00 00 00 00 00 00 00 00
       0.0 0.0 0.0 0.0
000170 00 00 00 00 00 00 00 00 00 00 00 00 00 00 00 00
       0.0 0.0 0.0 0.0
000180 00 00 00 00 00 00 00 00 00 00 00 00 00 00 00 00
       0.0 0.0 0.0 0.0
000190 00 00 00 00 00 00 00 00 00 00 00 00 00 00 00 00
       0.0 0.0 0.0 0.0
0001a0 00 00 00 00 00 00 00 00 00 00 00 00 00 00 00 00
       0.0 0.0 0.0 0.0
0001b0 00 00 00 00 00 00 00 00 00 00 00 00 00 00 00 00
       0.0 0.0 0.0 0.0
0001c0 00 00 00 00 00 00 00 00 00 00 00 00 00 00 00 00
       0.0 0.0 0.0 0.0
0001d0 00 00 00 00 00 00 00 00 00 00 00 00 00 00 00 00
       0.0 0.0 0.0 0.0
0001e0 00 00 00 00 00 00 00 00 00 00 00 00 00 00 00 00
       0.0 0.0 0.0 0.0
0001f0 00 00 00 00 00 00 00 00 00 00 00 00 00 00 00 00
       0.0 0.0 0.0 0.0

network_body._body_endoder.seq_layers.2.weight f4 [128, 128]
000000 72 1c 26 be 6c b5 4d bd fb 91 7d bd 90 f9 34 be
       -0.16221789 -0.050221846 -0.061906796 -0.17673326
000010 d1 e9 a3 3c 16 dc 04 bd 28 18 a6 3d 40 7f d6 3c
       0.020008953 -0.032436453 0.08110076 0.026183724
000020 c8 2a b2 3d 0b ab e4 b9 78 e2 89 bd 41 91 5e 3c
       0.08699566 -0.00043614986 -0.067326486 0.013584436
000030 0d e8 03 bb 7b 98 db bc 0c c0 66 3e f2 9b 9e 3d
       -0.0020127327 -0.026806107 0.22534198 0.07744588
000040 a5 6c 99 bd 4d 31 bf bd 05 4d 35 3d 04 bf c4 bd
       -0.074914254 -0.09335575 0.044262905 -0.09606746
000050 21 95 39 3c eb 71 d5 3d b1 93 af bc 93 fb 1d be
       0.011327059 0.10422119 -0.02143273 -0.15427999
000060 d6 46 3f 3d 82 96 39 3e f1 24 bf bd ef b6 e7 3c
       0.046698414 0.1812382 -0.09333218 0.028285472
000070 f9 2b 88 3d d1 76 33 bd ad 66 44 be f8 c5 97 bd
       0.06649012 -0.043814484 -0.19179793 -0.074108064
000080 5a cd c9 bc 63 c6 0e 3e fd 5c c4 bc 87 57 f8 3c
       -0.024634052 0.13942866 -0.023970122 0.030315174
000090 0b fb bf bc 83 9c a7 3d c5 f5 05 be 24 7c 6a be
       -0.023435136 0.08184149 -0.13082035 -0.22898918
0000a0 05 d7 30 be 83 10 83 3b 4f 66 12 be 87 c5 92 3d
       -0.17269523 0.003999771 -0.1429684 0.071665816
0000b0 31 27 cd 3d b6 57 a0 3d 3a 59 2e bd b1 e6 c3 3b
       0.10017241 0.078292295 -0.04256556 0.0059784283
0000c0 1d 18 1c 3e dd c5 a8 3d b7 7d 27 3e 84 60 89 3d
       0.15243573 0.082408644 0.1635655 0.06707862
0000d0 8e ce ce 3c 09 0e b3 3c e5 05 37 bd 68 ec 38 3d
       0.025244977 0.021857278 -0.044683356 0.04514733
0000e0 1a 76 82 3d be c9 68 3d d3 11 a9 bd 0a c4 13 be
       0.06370182 0.05683302 -0.08255353 -0.14430252
0000f0 ec 62 0f be 66 69 97 bc 84 41 1d bd 1c 78 cb 3d
       -0.1400258 -0.018482875 -0.03839256 0.099350184
000100 5c e9 0a be c0 bc d2 3d cb 31 9f 3c af 9b da 3d
       -0.13565582 0.102899075 0.019432923 0.106742255
000110 77 d8 3d 3d 55 63 b5 3c 7e e3 3e bc 27 21 b3 bc
       0.046349015 0.022142092 -0.011650918 -0.021866394
000120 69 7f 7d 3e c8 4a 9a 3c ec 62 81 3e 00 0b f5 3c
       0.24755634 0.018834487 0.25270784 0.029912472
000130 2c 48 12 3e 7e 90 aa 3d 70 f5 8b 3d 05 c2 52 3c
       0.14285344 0.08328341 0.06833923 0.012863641
000140 b2 b2 17 3e 79 17 e0 3d dd dc 45 bc 5d 50 00 3e
       0.1481426 0.10941977 -0.012076584 0.12530656
000150 64 76 b4 bd 0f 64 9e bd 09 b4 d8 3c 2f 87 44 bd
       -0.08811644 -0.077339284 0.026453035 -0.047980484
000160 6c 79 72 3d 79 d8 25 bd 32 f4 16 3b d7 f7 17 3e
       0.05919783 -0.040489648 0.0023033735 0.14840637
000170 60 3a 90 bd c0 d2 58 bd 00 23 0d bd da b0 49 bc
       -0.07042384 -0.05293536 -0.034457207 -0.012310231
000180 83 fe 7b 3c 7c 42 ca bc 46 3f a1 3c 51 15 7e bd
       0.015380505 -0.024689905 0.019683491 -0.062032048
000190 01 f6 06 bd 40 0f a4 3d 3f f2 96 bd 6a b3 3e bd
       -0.03294945 0.08010721 -0.073704235 -0.04655782
0001a0 d6 0e 42 bd 6d b5 c3 bd e0 14 c1 3d e0 bd 8f 3d
       -0.04737743 -0.095560886 0.0942781 0.07018638
0001b0 be 25 2a bd 7c a6 05 bd 89 50 8a 3d 5e 12 91 3b
       -0.0415399 -0.032629475 0.06753642 0.0044272384
0001c0 dd 26 03 bd e4 09 31 3d d5 61 78 3e 58 9c e4 3c
       -0.032019485 0.043222323 0.2425607 0.027906582
0001d0 20 93 a2 3d c9 b5 f1 bc 07 4e 00 bc e5 37 92 bd
       0.07938218 -0.029505627 -0.007831103 -0.07139567
0001e0 af 31 f0 3d cf 0d 0f bd f5 0e e4 bc 29 4c 5a bd
       0.117282264 -0.03492528 -0.027839163 -0.05329529
0001f0 7e 8a 85 bd 3d 4a 95 3d 07 1e 5c bc 94 2d 50 3e
       -0.06520556 0.072895505 -0.013434893 0.20329887
000200 7f cb 05 3c 7a b5 f4 3d 69 ca 17 3e d2 1b 08 bd
       0.008166193 0.119486764 0.14823307 -0.033229657
000210 c1 ae 88 bd 0c ed ce bd fe bc 19 be f7 6a 0e 3d
       -0.06673957 -0.10103807 -0.15013501 0.03476998
000220 37 8a 88 3d 01 4f 1a be c2 ff 1d 3d 25 5f 66 bd
       0.066669874 -0.150692 0.038573988 -0.05624308
000230 d3 1c 9c bd 82 73 95 3c fd 9a c4 bc 2d 42 a8 3d
       -0.07622685 0.018243555 -0.023999685 0.08215747
000240 3c f0 5b be ea 51 b8 bd 1f db 61 3d 30 ed 83 bd
       -0.21478361 -0.08999999 0.05514061 -0.06441724
000250 d5 91 e6 bd 0e 80 54 3d 9f ed 25 bc 6b 7f 0b 3e
       -0.11258284 0.051879935 -0.010127454 0.13622825
000260 ca 04 ec 3d b2 54 ab 3d c3 0f f3 bc d7 63 a1 3d
       0.11524351 0.08365764 -0.029670602 0.07880371
000270 f1 fe 1e 3d d2 c2 24 be 4b a5 04 3e c5 25 15 bd
       0.03881735 -0.16089943 0.1295368 -0.036412973
000280 6b 9f 8b 3d 6d c1 ff bd 4c a8 f8 ba c3 01 da bd
       0.06817516 -0.12488065 -0.0018971055 -0.10644867
000290 9b ec 52 bd 80 a0 c7 3c 1f db 12 bd 08 c3 ef bc
       -0.051495176 0.024368525 -0.0358535 -0.029267803
0002a0 af 55 ab bd ee 51 25 3e df ba 2c be 31 36 8b 3d
       -0.08365952 0.16144535 -0.1686816 0.067974456
0002b0 d3 2f 3d 3e bd 02 81 3a 8f 19 e9 3d 08 18 bc bd
       0.18475275 0.0009842735 0.11381828 -0.09184271
0002c0 2d 31 04 3d cb 03 34 3d a5 1a ca bc 1b 7d d0 bc
       0.03227346 0.04394893 -0.024670908 -0.02545028
0002d0 57 6c b3 3d 46 0a 59 3d 4b 64 38 3d 69 19 8d 3d
       0.087608986 0.052988313 0.04501752 0.06889612
0002e0 8f 5c bc bd a1 02 b7 3a 60 49 43 3c 98 7d b6 bc
       -0.09197342 0.0013962575 0.011919349 -0.022276685
0002f0 17 ec b3 3d b9 58 81 bc 70 78 41 3e 3a 6c 1e 3e
       0.08785265 -0.015789377 0.188936 0.15470973
000300 32 17 35 be 2a 0e 29 be a3 36 06 3e c6 e4 0d 3c
       -0.1768463 -0.1650931 0.1310678 0.008660501
000310 db 7d 1a be b6 02 56 3d 9e db 59 3d e3 e4 9a 3d
       -0.15087073 0.05224868 0.05318796 0.07563188
000320 f8 1c 3b 3d 1e ff 82 bd 94 47 b5 3c 3a 8c 72 3d
       0.045681924 -0.06396316 0.022128858 0.05921576
000330 07 00 b7 3c 1e 01 00 be 03 b9 92 3c bc 50 ee 3d
       0.02233888 -0.12500426 0.017910486 0.116364926
000340 b6 67 97 3d d4 f8 49 bd 38 0d 21 be ff bb 47 3e
       0.07392828 -0.049309567 -0.15727699 0.19505309
000350 26 e1 e7 3d ae 9e 23 be ec ff 75 3d 78 35 4f 3c
       0.113222405 -0.159785 0.06005852 0.012647025
000360 88 89 93 3c 6b e7 10 3d aa eb 08 be c0 34 c4 3d
       0.018009916 0.035376947 -0.13371149 0.09580374
000370 c1 e8 92 bd 65 ba ef bc ea 74 0e bc 1c 9b f6 bd
       -0.071733005 -0.029263685 -0.008694867 -0.120413035
000380 3a 8e b9 3d c1 c1 4a 3d 5f ff 98 be de 4a 22 3d
       0.09060331 0.049501184 -0.29882333 0.03962218
000390 8d 1f 7b 3d 2d 68 ed 3c 44 8f 73 bb f7 c5 2a 3d
       0.061309386 0.028980339 -0.003716425 0.0416927
0003a0 ac 99 3c 3d a9 69 42 be 72 42 05 3e 10 aa c3 bd
       0.04604499 -0.18985619 0.13013628 -0.09553921
0003b0 6b 58 3f 3d 43 ae 04 3c 5b 11 3f 3d 14 52 ca 3c
       0.04671518 0.008098188 0.04664741 0.024697341
0003c0 92 30 4f bd 36 50 f1 3d 10 46 89 bd 26 0b 09 be
       -0.05058343 0.11782877 -0.067028165 -0.13383159
0003d0 00 81 34 bd 1c e2 10 bd e6 46 93 bd 7d 24 29 be
       -0.044068336 -0.035371885 -0.07191257 -0.16517825
0003e0 9b 45 5d 3d 75 e2 8b 3d d2 7a f8 bd 7c ab b5 3c
       0.05402146 0.068303026 -0.12132801 0.022176497
0003f0 c1 a9 4d bd 71 62 cb bc 20 68 af bc 58 aa d3 3d
       -0.050210718 -0.024827214 -0.021411955 0.10335225

action_model._discrete_distribution.branches.0.weight f4 [3, 128]
000000 1a 89 d1 bb a6 95 0f 3c 26 a0 ba 3b 52 20 6c bc
       -0.0063945176 0.008763706 0.0056953607 -0.014412003
000010 0b e9 90 bb b3 db 00 bc 28 7b 67 bc ed 53 0a bb
       -0.004422312 -0.00786488 -0.014128484 -0.0021107153
000020 db 30 ca bb 17 d2 5f 3c c8 54 e3 bb 1a 9f dc 39
       -0.006170375 0.013660929 -0.006937597 0.0004208021
000030 bb 92 ca 3b 14 31 81 3c ed 7a 01 bc 07 38 d0 38
       0.0061820424 0.015770473 -0.007902843 9.928649e-05
000040 05 a2 50 ba 05 91 06 3c eb cf 83 bb 13 45 75 bb
       -0.0007958713 0.008213286 -0.0040225885 -0.0037425205
000050 d0 dc 1d 39 6d 39 85 38 eb 5e f4 bb 31 6a 27 bb
       0.00015054946 6.3526306e-05 -0.007457604 -0.0025545473
000060 e3 80 0c 3b f2 b9 04 3b 9b 0b 6d 3c fb 3f 77 bb
       0.0021439127 0.0020252434 0.014468099 -0.0037727344
000070 d6 f0 3a 3c 5b e0 99 3b 65 f5 92 3c e9 0f c0 3b
       0.011409959 0.0046959347 0.017939279 0.0058612716
000080 3f 31 1d 3c cc 59 85 bb 0e 34 3c bb a4 ec 35 bb
       0.009594261 -0.0040695425 -0.002871755 -0.0027759457
000090 65 1f 15 3c aa 1a 96 39 ba 22 29 3b f3 06 af 3b
       0.009101723 0.00028630096 0.0025808052 0.0053414046
0000a0 83 b1 cc bb 4b 3e 74 3a 92 b2 73 ba 08 f9 ad 3a
       -0.006246747 0.00093171437 -0.00092963234 0.001327307
0000b0 4b b7 b0 3c ed 22 4f 3c 7f be b9 bb 35 e9 78 bb
       0.021571776 0.012642604 -0.005668461 -0.00379808
0000c0 95 e9 26 bc 10 10 b5 3b e5 34 32 3b 0b 90 fb 39
       -0.010187526 0.0055255964 0.0027192172 0.0004798177
0000d0 43 48 28 bc 6d 8e 50 bb ad a4 05 3a eb 27 fd bb
       -0.010271135 -0.0031823174 0.0005098086 -0.007725706
0000e0 f9 ab 1b bc 9a 41 03 3c 90 13 5b bc 8f 21 3a 3b
       -0.009501451 0.008011246 -0.013371363 0.002840135
0000f0 b0 39 de 3a 93 ea 0e bc ef 22 9f 3b 1d 2a 29 3b
       0.0016954448 -0.008722919 0.0048564593 0.0025812455
000100 e9 52 a2 3a fb 9a 15 bc ad 3e 7f 3c e7 80 b6 bb
       0.0012384328 -0.0091311885 0.015578908 -0.0055695656
000110 6b f3 2d 3b 60 2b 46 3a e7 7d de 39 10 53 86 ba
       0.0026542793 0.0007559564 0.00042436944 -0.0010248143
000120 5f f5 f4 bb 2d 15 4f bb 90 49 42 bb 2a 04 1f 3b
       -0.0074755396 -0.0031598315 -0.0029645897 0.0024263957
000130 67 eb d2 bb 4f 20 f6 3b 22 ab 42 bc 1f 07 ef bb
       -0.0064367536 0.0075111757 -0.011881622 -0.00729455
000140 ca 60 0e 3c 65 f7 af 3b a8 b3 59 bc 86 58 a2 bc
       0.0086900685 0.005370068 -0.013287462 -0.019817602
000150 e7 20 09 3c 8a 8e 5f 3b 1b 3b 38 3a 54 15 b8 3a
       0.008369661 0.003411206 0.00070278504 0.0014044442
000160 a3 f3 62 3c e1 c1 15 39 d2 9e 64 3c 64 06 9a bb
       0.013852033 0.00014281973 0.013953881 -0.004700469
000170 7a db 0c 3b 7b e6 88 bb 1a d5 ff ba fe 5b 01 ba
       0.0021493123 -0.004177866 -0.0019518465 -0.00049346674
000180 fe 83 a9 3a a0 e5 82 3c 1f 77 76 bc 0b 9d 02 3b
       0.0012933013 0.015978634 -0.015043049 0.001993003
000190 eb 61 b6 3b 53 27 d5 3b 73 4c 30 bc 54 5a a6 3b
       0.005565872 0.006504932 -0.010760414 0.005076686
0001a0 09 78 42 bb 36 eb 80 bb ab c0 e7 b8 68 d0 4e 3c
       -0.0029673597 -0.0039342893 -0.000110508256 0.01262293
0001b0 6d e4 c1 3b 6d e7 52 3b 6e 30 89 3b 5b a6 0a bc
       0.005917123 0.0032181398 0.0041866815 -0.008462514
0001c0 e8 68 0c 38 78 69 69 bb a7 63 fb 3b 40 36 f5 bb
       3.3476303e-05 -0.0035615843 0.0076717916 -0.0074832737
0001d0 c8 90 97 bc 17 6d 6a bb 4b 84 be 3b 16 01 47 3b
       -0.018501654 -0.003577059 0.0058141104 0.0030365638
0001e0 5e 6a b6 bb da e7 96 3b d7 12 19 bc 8f 33 3b 3b
       -0.005566879 0.0046052756 -0.009342871 0.0028564667
0001f0 df ba 22 3c 89 a9 3d bc ca a4 e6 3b 43 a6 41 3c
       0.009932249 -0.011576065 0.0070386874 0.011819425
000200 63 02 0c 3a e4 eb 85 bc 08 32 8c ba df c2 96 bc
       0.0005340932 -0.016347833 -0.0010696063 -0.018403469
000210 e3 6c 57 bc 4a ae 27 3b 2b d6 10 3b 0a 4c bd bb
       -0.013148519 0.0025586062 0.002210031 -0.005776887
000220 43 80 f0 bc 62 c9 dc bb 90 56 f0 bb 30 11 57 bb
       -0.029358035 -0.006737874 -0.007334538 -0.003281664
000230 82 6e 2a 3c 95 c0 76 bc 88 e4 f8 bb 20 fb 98 3c
       0.010402324 -0.015060564 -0.0075956024 0.018674433
000240 5c 48 00 bc 1b 47 a5 3b 4b 04 87 bc fa f3 f1 bb
       -0.007829752 0.005043877 -0.01648154 -0.0073838206
000250 7f f6 ab 3c 1a 5d 0e 3a bd 14 91 3c bd 45 4f 3b
       0.020991562 0.00054307433 0.017710084 0.003162726
000260 bd a2 22 bc 76 66 0e 3b ad 2b a7 3b 07 8f 14 3b
       -0.009926495 0.0021728552 0.005101642 0.0022668259
000270 62 58 0c 3c 24 b6 40 3c 13 d4 fe 3b 3d 82 da bb
       0.008565994 0.011762176 0.007776746 -0.0066683576
000280 4f ad 16 3c ef 7b 21 bc 22 6a 27 3c e3 9e f1 bb
       0.009196593 -0.009856208 0.010218175 -0.007373677
000290 4b f6 cf 3a ab 43 e3 bb f5 5c 7e 3a f1 1c 08 bb
       0.0015866248 -0.006935557 0.0009703183 -0.0020769204
0002a0 f1 27 8e 3c 4d 07 7c ba ab 88 a9 bb 1c b3 20 3c
       0.01735303 -0.0009614125 -0.005173763 0.009808328
0002b0 4f 25 20 39 aa 32 d4 ba 4d ea 8b 39 c4 29 32 3c
       0.00015272688 -0.0016189415 0.00026686714 0.0108742155
0002c0 20 89 91 3b 33 f0 5c bc 4b 8a 42 3a c3 ef 0b bc
       0.0044413954 -0.013485002 0.000742112 -0.00854105
0002d0 f3 5d a1 bb 5f 5d 8a bb 47 ab 1e bc cc 06 08 ba
       -0.0049245297 -0.0042225565 -0.00968439 -0.0005189001
0002e0 eb 5c d6 ba 82 48 6d 3a 4a ef b5 ba ff 9f 74 bc
       -0.0016354596 0.0009051637 -0.0013880518 -0.014930724
0002f0 3f 59 93 3b 48 26 9b 3b 72 38 ce 3b 18 8b b9 ba
       0.004496723 0.004734788 0.00629335 -0.0014155833
000300 a0 2d 64 bb cb ac ce 3a cb f6 84 bc 1f 4c 2b bb
       -0.0034817234 0.0015768049 -0.016230961 -0.00261379
000310 82 83 9e 3c 1d 6c d4 3a b0 85 2e ba 7b 06 21 3b
       0.019349817 0.0016206537 -0.0006657494 0.0024570513
000320 e7 ab 89 bb 5f 7c d5 3a 0c 9f 39 bb d1 c2 96 b9
       -0.0042014006 0.0016287676 -0.002832356 -0.0002875538
000330 2a 72 60 3c b0 85 db bb 54 df 1d 3b b6 91 97 3c
       0.013699094 -0.0066992864 0.0024089413 0.018502098
000340 fb 68 68 3b 65 53 49 bc 63 1b 76 bc 08 b8 f7 3b
       0.0035462964 -0.012287949 -0.015021178 0.00755978
000350 33 46 dc bb 4b 7f 8e 3b b4 69 25 3b db 64 c9 ba
       -0.0067222356 0.0043486706 0.0025240006 -0.001536514
000360 3e 38 4a 3c 78 37 6f bb 52 58 7b 3c c7 77 15 bc
       0.012342511 -0.0036501568 0.015340881 -0.009122795
000370 62 fb 29 3c 77 87 fd bb 36 89 89 bc df c9 c1 3b
       0.010374876 -0.007737096 -0.01678906 0.0059139575
000380 2b 5d ff 3b ba d8 58 3c f9 55 06 bb e3 68 7e 3c
       0.007793089 0.013235265 -0.002049802 0.015527937
000390 59 46 25 bc c2 72 37 3b ef 0d 0d 3a a4 03 44 bb
       -0.010087573 0.0027991985 0.00053807994 -0.0029909397
0003a0 fc b7 04 bc 63 80 88 bb 13 4b 0a 3b c7 e2 c3 bc
       -0.008100506 -0.0041656955 0.0021101877 -0.023911847
0003b0 95 c9 80 bb 19 1a 35 3c f7 9e 35 3c f4 64 2e 3b
       -0.0039302805 0.011053585 0.011085263 0.0026610466
0003c0 2c 3f 93 3b 1b 39 46 3b 9b 87 c8 bb 9f ae 97 bc
       0.0044936147 0.003024644 -0.006119681 -0.018515883
0003d0 4e cf 31 bb 38 a1 86 3c 0f 99 82 ba b8 32 8b bc
       -0.002713162 0.016434297 -0.0009963828 -0.016991958
0003e0 13 dd dc 3a f3 f6 60 3c cb 47 0b 3c ff 4f ae 39
       0.0016850553 0.013730752 0.0085010035 0.00033247468
0003f0 0f da a6 3b d5 49 d6 bb cc 56 c5 bb c3 cf 28 3a
       0.0050919126 -0.006539563 -0.00602231 0.00064396503

action_model._discrete_distribution.branches.0.bias f4 [3]
000000 00 00 00 00 00 00 00 00 00 00 00 00
       0.0 0.0 0.0

action_model._discrete_distribution.branches.1.weight f4 [3, 128]
000000 31 2a a0 3b dd 46 97 bb 3b 67 1d bc 71 d7 18 bb
       0.004887842 -0.004616602 -0.009607132 -0.0023321772
000010 2b 9b b6 3b ad ed 7a 3c a0 63 b5 3b 83 cb a6 3b
       0.0055726967 0.015315455 0.005535558 0.0050901785
000020 a8 40 c4 bb bf 9f d8 3c d8 82 ee bb 59 f9 1c 3b
       -0.005989153 0.02644336 -0.0072787814 0.0023952334
000030 64 7e be 3b d2 66 fa 3b 88 79 f9 bb 9f ba 7c bc
       0.005813407 0.0076416517 -0.0076133646 -0.015425353
000040 f4 9e 20 ba bf e3 a2 ba 8b 6c e4 39 7b bf c1 bb
       -0.00061272015 -0.0012427493 0.0004356842 -0.005912719
000050 d8 c5 8e 3b 46 f5 82 39 95 24 db b9 7f 83 e8 bb
       0.004357081 0.00024978275 -0.0004179819 -0.0070957537
000060 e2 27 d6 bb 5e 7e 2d bc 9d 5b 21 3c 49 ed 3c 3c
       -0.006535516 -0.01058921 0.009848502 0.011531183
000070 1b c0 66 bb c0 58 17 bb b2 8d 79 3c ab 73 19 bc
       -0.0035209719 -0.002309367 0.015231537 -0.009365956
000080 ef e7 4c 3b 3d 26 76 3b ff 75 13 bc 8a 70 80 3b
       0.0031266173 0.0037559413 -0.0090003 0.0039196657
000090 bd 1c b5 bb 43 49 df 3a f0 d1 6d 3b 3d 1a e5 39
       -0.0055271075 0.0017035383 0.0036288463 0.00043697833
0000a0 83 96 0b 3c 37 13 88 bc 6b 33 46 b9 ab 53 e7 bb
       0.0085197715 -0.016610725 -0.00018901906 -0.0070595345
0000b0 a7 a2 4b bb 43 7e 25 bb e3 a3 c7 3b 81 87 20 bc
       -0.003107229 -0.002525226 0.006092535 -0.009797932
0000c0 a3 9a 17 3c 71 84 89 bb 23 91 40 3c 48 ba 4a bc
       0.009253177 -0.0041966964 0.011753353 -0.0123735145
0000d0 65 81 40 bc 70 e0 91 bb a7 95 aa 39 12 bc 8f bb
       -0.0117496 -0.004451804 0.00032536426 -0.0043864334
0000e0 5e a5 8c 39 cd bc 03 3b cd f5 fe bb 27 97 60 3a
       0.0002682609 0.0020101548 -0.0077807666 0.00085674453
0000f0 ef 76 99 3b 35 34 3f bc 3d a8 ec bb 1a 1b b3 3b
       0.0046833674 -0.011670162 -0.007222204 0.0054658772
000100 53 58 e3 bb 8a 16 4e ba d8 5a ee bb 27 94 12 3b
       -0.0069380193 -0.0007861635 -0.007274013 0.0022366138
000110 47 fd 35 3b d1 60 29 3c 81 dd a4 ba 4d 0a 63 3c
       0.0027769373 0.010338024 -0.001257822 0.013857436
000120 53 d2 4a bc 0c f4 03 3b d6 c7 11 bb ec 83 2b bb
       -0.012379247 0.0020134477 -0.0022244356 -0.002617116
000130 88 47 63 bb 8b 9b d9 ba ca 43 46 3b f7 d1 25 bb
       -0.0034680087 -0.0016602142 0.0030252808 -0.002530215
000140 b0 c2 7a 3b 52 2b 52 ba f0 35 8b 3b 0c 61 28 3b
       0.0038263015 -0.00080173195 0.004248373 0.002569261
000150 ec 73 af 3b 9f 1f 01 bc b2 68 8f ba 31 3a 3b 3b
       0.005354395 -0.007881074 -0.0010941236 0.002856862
000160 cb 41 f7 bb af 67 6e 3b c2 b5 47 3b be 05 88 bb
       -0.007545685 0.0036377718 0.0030473326 -0.004151075
000170 fd 6c 3a bc 9b 72 f4 3b 40 96 47 bc 1b 39 de b9
       -0.011378524 0.007459951 -0.0121818185 -0.00042385687
000180 87 07 6d 3a 5a 19 e1 b8 5f a5 ab bb 85 84 59 ba
       0.0009041954 -0.00010733558 -0.0052382196 -0.000829764
000190 05 c0 af 3a c5 59 5f bc c2 f8 2b bc b7 b8 17 bb
       0.0013408667 -0.013632243 -0.01049632 -0.002315087
0001a0 cf 65 2f bc 73 73 eb bb e3 1a b2 bb 4a 09 69 bc
       -0.010705425 -0.0071853935 -0.005435334 -0.014223406
0001b0 c9 e1 29 bb 30 1b 11 3c 0d 8b db 3b 41 ba 1a bc
       -0.0025921932 0.00885658 0.0066999258 -0.00944382
0001c0 b3 9e 0b bc 33 1f 71 3a cf 71 18 3b 3a 76 55 3b
       -0.008521724 0.00091980695 0.0023261195 0.003257169
0001d0 08 7c 58 3b a0 63 b6 bb 0b d6 88 3c 4c 74 96 bc
       0.0033032913 -0.0055660754 0.016703626 -0.018366002
0001e0 72 09 5b bc cb 5b 2c 3b 5b a7 5a bc 67 92 a2 bb
       -0.013368951 0.002629983 -0.013345565 -0.0049613
0001f0 22 a1 bb 3b 26 e2 c2 ba 38 08 41 3c 9b 36 32 3c
       0.0057259956 -0.0014868423 0.011781745 0.010877277
000200 3b 8e 48 ba 5c 00 44 3b ea 9e 59 b9 70 92 f8 3a
       -0.00076505885 0.002990744 -0.00020753933 0.001896454
000210 ea 3a ff b9 90 c0 71 3b ab dc 46 3c ab 5c 26 bc
       -0.00048681285 0.0036888458 0.012137572 -0.01015393
000220 3f 5d 4b bb 2d f7 63 3c 0b b0 24 bc dd d6 f8 38
       -0.003103092 0.013913912 -0.010051738 0.00011865583
000230 4d 48 36 bb 09 8d ae 3a eb 9b 16 bb 2b 00 57 bb
       -0.002781409 0.0013317178 -0.0022981118 -0.0032806497
000240 0c 4d 22 3c 15 d2 d5 3b de 31 af 3b e3 b4 96 3b
       0.009906065 0.006525288 0.005346521 0.0045992
000250 76 71 be bb a7 59 39 bb ed 0f 12 3c 56 0a 39 3b
       -0.0058118654 -0.0028282197 0.00891493 0.002823492
000260 73 2c f9 3b f0 62 e9 bb 17 9b c3 3b 08 fb 55 bb
       0.0076041757 -0.00712239 0.005969416 -0.0032650847
000270 db 12 a1 ba f7 23 48 3b 98 f5 a2 bb 5e 90 9a bc
       -0.0012288945 0.0030539015 -0.0049731247 -0.018867668
000280 87 df 29 bc 4a 53 8f bb e8 b5 ac 3b 72 4f c0 bb
       -0.0103682345 -0.0043739425 0.0052707084 -0.0058688456
000290 06 77 03 3c 62 a2 5b 3c a2 e3 79 bb 4a 74 27 bc
       0.008023983 0.013405414 -0.0038130064 -0.010220597
0002a0 37 73 f8 bb bf 5a 06 bb d7 01 a9 3b a6 ed 41 bc
       -0.007582094 -0.0020500866 0.00515769 -0.011836445
0002b0 4e c7 b9 3b 97 35 69 bb 53 e7 77 3a 87 53 2b 3b
       0.005669511 -0.003558492 0.0009456772 0.0026142315
0002c0 a3 31 47 bb 49 fc 09 bc 73 df 22 bb df e3 12 bc
       -0.0030394576 -0.008421966 -0.0024852424 -0.0089654615
0002d0 37 14 04 ba 92 7d 19 3c ff 79 16 bc 93 ce f2 bb
       -0.00050384126 0.009368317 -0.00918436 -0.0074098795
0002e0 ca 52 97 ba 45 ab 3a bc f3 dc d4 bb 23 5d 51 3a
       -0.0011545059 -0.011393373 -0.0064960658 0.0007986596
0002f0 b3 af 2f 3b a1 8a 96 bb 7f 4a f3 bb dd e1 a4 3c
       0.0026807606 -0.0045941626 -0.007424652 0.020127231
000300 1f 34 c5 b9 27 1c 95 3b 45 9d 94 3b 98 e8 55 bc
       -0.000376136 0.004550475 0.0045353496 -0.013055943
000310 50 b4 eb 3b 08 2c a8 3b fb 4a 48 3b c0 07 dc bb
       0.007193126 0.005132202 0.003056227 -0.006714791
000320 f5 84 37 bb 50 28 ee bb 5f 4b 7f bb 4c c7 c7 3b
       -0.0028002833 -0.007267989 -0.0038954837 0.006096756
000330 f3 4a 2f bc 64 8c bf 3a d7 92 60 3c 37 7a 8d bb
       -0.010699022 0.0014613983 0.013706884 -0.0043175477
000340 df 9d 77 b9 ff 3d c4 3c e0 59 77 3c 6d e2 50 bb
       -0.00023614567 0.023955343 0.015097111 -0.0031873242
000350 f3 29 16 3c 67 eb 49 3b 48 5e 43 bc 66 d5 83 bb
       0.009165275 0.0030810477 -0.011924334 -0.004023242
000360 17 42 5e bc b3 db 2a 3c bf 78 a0 bc 10 cc 77 bb
       -0.013565562 0.010428357 -0.019588826 -0.003781084
000370 2b f2 12 3b 8d e2 a4 bc 55 5b 35 3c 60 39 33 3c
       0.0022422175 -0.02012756 0.011069139 0.010938972
000380 1a 14 a4 3a 81 ee 14 bc fd bf 53 bc d2 45 b4 ba
       0.0012518198 -0.009090067 -0.012924192 -0.0013753718
000390 18 a9 55 3b 6b e5 a0 bb 90 69 52 3a 77 ea 1d 3b
       0.0032602008 -0.0049101613 0.00080265943 0.002409605
0003a0 8c e5 38 3b eb b3 3f bb 97 32 f0 3b a0 67 d9 3b
       0.0028212992 -0.0029251527 0.0073302495 0.0066346675
0003b0 45 3b fe bb cb ca b1 3b ed aa 86 3a 15 e4 70 3b
       -0.0077585303 0.005425786 0.0010274329 0.0036757041
0003c0 23 11 0b 3b 87 39 5b bc f4 69 12 bc 1b 6b db bb
       0.002121993 -0.013380415 -0.008936394 -0.0066961176
0003d0 e5 1e 38 3b 47 f9 93 3b f4 ee 23 bc 3f 01 3f ba
       0.0028094586 0.0045158 -0.010005701 -0.00072862575
0003e0 d9 45 a2 b9 a3 49 72 bc ba d7 5a bb 13 df a4 3c
       -0.00030951088 -0.014788064 -0.0033392743 0.020125901
0003f0 0b e6 ec bb f7 60 91 bb 86 0e 16 bc 4a 1a 61 37
       -0.0072295717 -0.004436608 -0.009158736 1.3417166e-05

action_model._discrete_distribution.branches.2.weight f4 [2, 128]
000000 82 13 0c bc d0 45 2a 3b ca e1 c6 3b df 9b 80 3b
       -0.008549573 0.0025981553 0.0060693966 0.0039248313
000010 59 55 c6 3b 7c ec a7 3a bf 5f af 3b cb 39 63 3a
       0.0060526547 0.0012811567 0.00535199 0.00086679746
000020 4e 8a b3 bb e0 8c fd 3b 08 c3 ad bb 73 57 84 ba
       -0.0054791337 0.007737741 -0.0053027906 -0.0010096863
000030 0f 41 3b bc 76 19 05 bc 7a ee cf bb 1b 0b b9 ba
       -0.011429085 -0.008123746 -0.0063455673 -0.001411769
000040 aa ab 82 bc 85 5c e9 bb fa bd 31 bc 5b ad 11 bb
       -0.015950996 -0.007121625 -0.010848517 -0.0022228572
000050 70 3b d4 bb ef 8b f2 bb 65 a1 da 3b fc ac 31 bb
       -0.006476812 -0.0074019353 0.0066720718 -0.0027111163
000060 78 6d d8 bb 26 1e 80 bb 2f dd 98 bb 65 45 06 3c
       -0.0066048466 -0.003909844 -0.004665039 0.008195256
000070 b3 80 d0 3b 82 ed 13 b9 cf 1d c5 ba c0 c7 2c bc
       0.0063629984 -0.00014107491 -0.0015038791 -0.010545671
000080 bb 52 b3 ba 57 5c e4 3a 6d e8 ab bb 55 09 dc 38
       -0.0013681272 0.0017422539 -0.005246213 0.00010492156
000090 53 5a 04 3c e7 5c 0b bc e8 73 20 3c 78 d3 f1 3b
       0.008078176 -0.008506036 0.009793259 0.0073799454
0000a0 bb be 00 3c bd 4f 92 3b 27 80 09 bc 3e 99 42 bb
       0.007857974 0.004465072 -0.00839237 -0.002969339
0000b0 53 9e 14 3c 3a db d3 bc f7 7c 08 bc f3 aa 1b bb
       0.009070951 -0.025861371 -0.008330575 -0.0023753017
0000c0 68 0b b5 3b c2 de b6 3b 04 c0 8e bc 0f 7f 03 3b
       0.0055250414 0.005580754 -0.017425545 0.0020064746
0000d0 8b 49 77 bb 52 3b ff 39 b6 20 02 3b 6f 34 cb 3b
       -0.0037733044 0.00048681587 0.0019855923 0.006201319
0000e0 d2 c0 1f 3c 98 5d 6c bb 6b 03 5d bc 07 4c 4f 3b
       0.009750562 -0.0036066528 -0.013489584 0.003163101
0000f0 c7 d9 97 ba bf fa 18 bb 27 bb 3f bc 6d f2 5a ba
       -0.0011585288 -0.0023342816 -0.011702335 -0.00083521643
000100 a4 25 03 3c 5d 6c 53 bc ce b9 9b 3c 44 13 1f 3c
       0.00800458 -0.012904254 0.019009497 0.009709183
000110 1b 79 f9 3b fb 83 90 3b cf bb f3 b9 6a ee e6 bb
       0.007613314 0.0044102645 -0.000464885 -0.007047464
000120 93 10 85 3c b3 ce cf 3a a4 23 8b 3b 94 dd bb 3b
       0.016243255 0.0015854448 0.004246192 0.0057332013
000130 8e 2f 2f bc 1f 5c 6f bc ea 7a b5 39 00 d2 b0 3b
       -0.01069249 -0.014609366 0.00034614588 0.0053961277
000140 42 0f ba bb 53 7b d9 3b 0d b6 6a bc c1 c3 3b bc
       -0.0056780884 0.006637016 -0.014325631 -0.011460246
000150 b3 a0 6f 3b a4 40 ac 3c af 5b b7 ba dd ca d6 3b
       0.003656429 0.021026917 -0.0013989116 0.006554945
000160 b2 55 da 3b 05 a7 33 bc d3 60 02 bc 7b 80 15 3b
       0.0066630477 -0.0109651135 -0.007957655 0.0022812176
000170 f5 3c 40 3b 96 63 85 bc 4f e3 0a 3c 07 20 d8 3a
       0.0029333208 -0.016282838 0.008477046 0.0016489037
000180 47 7f 0a bc ba ed 8e 3b 28 df ff bb a0 ec 88 bb
       -0.008453197 0.0043618353 -0.0078085847 -0.0041785985
000190 e4 f3 1d bc 4f d7 25 bb 05 c6 17 bc 7c f4 82 bb
       -0.009640668 -0.0025305336 -0.00926352 -0.00399643
0001a0 db bd a5 bb 6a 9f 9c bb d8 4f fb ba e6 78 b0 ba
       -0.005058033 -0.004779746 -0.0019173576 -0.0013463765
0001b0 a2 10 1e 3c 07 cd 78 3b 44 7c 06 bc 2f 74 84 3c
       0.00964752 0.0037964003 -0.008208338 0.016168682
0001c0 7f e1 a4 3a ff be 82 bb fa 4f a7 bc a5 15 e5 3a
       0.001257941 -0.0039900537 -0.020423878 0.0017477764
0001d0 d4 e6 81 b9 da 00 21 bc 97 60 1a bc 6a 0a 52 3b
       -0.00024776778 -0.009826863 -0.009422443 0.0032049664
0001e0 31 16 a9 3b e4 de 89 bb 1f 86 b7 3b d9 f1 83 bb
       0.005160116 -0.004207479 0.0056007053 -0.004026633
0001f0 3b d5 5e 3c 42 41 1c 3b 6f 34 3e 3a dd 50 e2 bb
       0.013600643 0.0023842608 0.0007255738 -0.0069066123
000200 48 48 f4 ba 8f 41 9c 3c 5e f3 36 bb 6d 47 e4 ba
       -0.0018637264 0.01907423 -0.0027916054 -0.0017416306
000210 59 39 24 bb 4c 27 14 3c 1b b7 fa ba 37 81 72 bc
       -0.0025058596 0.009042572 -0.0019128056 -0.014801315
000220 5b 95 81 3c ed 60 a8 3b 3c af 30 39 53 ab 1c bb
       0.015818289 0.0051385076 0.00016849948 -0.0023905828
000230 b1 f8 15 bc 15 c9 3c bc 0b 6a dc bb 0c d9 80 3b
       -0.009153531 -0.011522551 -0.0067265085 0.003932124
000240 60 c8 4d bb 25 cf dc bb b3 50 7b 3b cb c2 84 bb
       -0.003139995 -0.0067385607 0.003834766 -0.0040515414
000250 60 d6 d5 3b 07 ab 6a bb b7 e5 70 bc 9b 54 34 3c
       0.0065257996 -0.0035807507 -0.014703206 0.0110065
000260 33 ae 6b 3b bf 61 87 3c 99 64 9e bb 0b 01 9f 3c
       0.0035961985 0.016526101 -0.0048337695 0.019409677
000270 ee 0b 43 bc 5e 7b 89 3b 17 1e 77 bc a7 37 d8 bc
       -0.0119047 0.0041956147 -0.015082858 -0.026393725
000280 03 ca 9c 3b 52 98 a1 3b e7 a2 c4 bb ad d1 3a bb
       0.004784824 0.004931488 -0.006000865 -0.0028506324
000290 8b 4d 39 bc 9c 9c 95 3c 0d bb 1b 3c da 1c 29 3c
       -0.011309992 0.018263154 0.009505046 0.01032182
0002a0 5f de 4a 3b a5 17 cf 3b 50 7c 2a bc c8 6b 73 3b
       0.0030955297 0.0063199573 -0.010405615 0.00371431
0002b0 50 a8 fe bb b5 85 4a 3b 15 90 19 bc ac 90 10 bc
       -0.0077715293 0.003090245 -0.009372731 -0.008823555
0002c0 43 96 48 bc 17 af 49 3c 4f 1d 3f b9 38 e3 e8 ba
       -0.012242856 0.012309811 -0.00018226098 -0.0017767912
0002d0 27 bc 0a bc fe 63 b1 3b 72 dc ce 3b af bd 5a 3c
       -0.008467711 0.0054135313 0.0063129 0.013350888
0002e0 a8 96 26 bc bf da 18 3a 2a 94 19 3c 7a 44 ad b9
       -0.010167755 0.00058309356 0.009373704 -0.0003304815
0002f0 93 51 c9 bb 34 11 0c bc ed ed 2d 3b a3 04 cf bc
       -0.0061437576 -0.008549023 0.002653952 -0.025270766
000300 d5 ac 2a bb 3f d4 a3 bb 77 da bc 3b ea bb 80 bc
       -0.0026042957 -0.004999667 0.0057633477 -0.015714604
000310 77 b8 b0 bb 0b 9a ba b9 e5 8d 6e bc dd f7 99 bb
       -0.0053930837 -0.00035591456 -0.0145601975 -0.004698737
000320 1a e9 74 bc 8f 65 59 bb 97 ce 74 b9 3e 5c 30 3c
       -0.014948154 -0.0033172106 -0.00023346614 0.01076418
000330 95 8b 53 3c 51 ff 23 3b 57 3a 11 bc cf 74 1a bc
       0.012911697 0.0025024007 -0.008864007 -0.009427263
000340 4a 85 45 bb b2 c4 79 3b b7 13 b7 3b 82 f7 23 3b
       -0.003013926 0.0038111624 0.005587067 0.0025019352
000350 5d 6d 29 bb 0f 1e cb bb 52 c1 ec bb 0a 03 a3 bc
       -0.002585254 -0.0061986516 -0.007225194 -0.01989891
000360 7f 68 6f bb c5 7d 93 3a ec fe 9d 3b 1e 3c 97 bc
       -0.003653079 0.0011252692 0.004821649 -0.018461283
000370 a6 a6 cc bc a8 ee a4 39 eb 61 aa bb 13 59 a4 3a
       -0.024981808 0.0003145833 -0.005199661 0.0012538753
000380 19 97 37 3c 2f 94 79 bb b7 3e e2 ba 77 20 9a bc
       0.011205458 -0.003808271 -0.0017261122 -0.018814309
000390 cb fc 1d bc 47 10 e2 bb bd 40 ff bb a8 d1 39 bc
       -0.00964279 -0.006898913 -0.0077897 -0.01134149
0003a0 47 78 4e 3c bb f2 f2 bb 39 43 8a bb f3 b3 99 bb
       0.012601919 -0.0074141896 -0.0042194393 -0.004690641
0003b0 88 4b 35 3c 51 40 48 3c f6 a5 b4 3a ab 6d a2 bb
       0.011065371 0.0122223655 0.001378237 -0.004956921
0003c0 9c 77 3e 3c 5c 8c c4 bb 92 a8 73 3c 94 d1 23 3b
       0.011625197 -0.0059981775 0.014871733 0.0024996744
0003d0 5f 19 2a 3c da 01 6e bc 47 9b 07 3c bf ed 5b 3c
       0.0103820255 -0.014526809 0.008276767 0.013423382
0003e0 48 35 e4 3b 5b 1b 00 bb 5a 90 5e bc f9 8a 90 3b
       0.0069643594 -0.0019547555 -0.013584221 0.004411098
0003f0 73 86 36 3c 6f 3e 75 3b 6c e6 17 3c af 65 7b 3b
       0.011140454 0.0037421247 0.009271245 0.0038360169

action_model._discrete_distribution.branches.2.bias f4 [2]
000000 00 00 00 00 00 00 00 00
       0.0 0.0
