MLBase/results/ppo/CaptureTheFlag/CaptureTheFlag-326.onnx (onnx, 124315 bytes, 9 tensors)

discrete_act_size_vector f4 [1, 3]
3.0 3.0 2.0
00000000: 0000 4040 0000 4040 0000 0040

network_body._body_endoder.seq_layers.0.weight f4 [128, 87]
-0.15088205 0.061042037 0.2596761 -0.028475903 -0.012765351 -0.08144494 -0.047384284 -0.12956545
-0.094676085 0.21359277 0.09987699 0.085176125 0.2010682 0.07128013 0.07458776 -0.103245184
0.09174569 -0.14987679 -0.10585985 -0.0018830096 -0.13133237 -0.116792224 -0.0010004126 -0.122993544
0.003181753 -0.043897975 -0.030559478 0.29081285 0.063405156 0.004072698 0.09602621 0.012601582
-0.10439986 -0.12818253 -0.12487515 0.09421417 -0.08401397 -0.059426274 -0.04593842 0.12792975
0.03808177 0.053297866 0.0767718 0.0348988 -0.02076923 -0.0067540007 -0.12851967 -0.016293788
0.105853245 0.08833835 -0.23400185 -0.065617554 -0.04154217 -0.058360703 0.06304429 0.004659988
0.16719781 -0.038092263 -0.012493856 -0.13982506 0.081441045 -0.09183418 -0.1173399 -0.12076374
0.1597404 -0.025200319 -0.098164946 0.062860824 0.1872792 -0.087798655 0.15984538 0.0812977
-0.067244984 -0.11079594 -0.11606536 0.11511039 -0.03939069 0.00502554 -0.042533014 -0.0069377613
0.03744001 -0.041229695 -0.05088309 0.02729385 0.040950995 -0.14264907 0.040428214 -0.13143437
-0.11879463 -0.028762104 0.02689566 -0.014278223 0.12463458 0.09176156 0.19556592 0.018178038
0.07538361 -0.17969954 0.07228439 -0.010992847 0.05260966 -0.14139712 -0.089327626 0.10043264
-0.22667159 0.037454166 0.16737121 0.014454601 -0.06092415 0.0012402728 -0.07243527 -0.017094485
-0.025973879 0.11614744 0.033398367 0.008725125 0.03526133 0.046703126 0.1177266 0.04786731
-0.0836893 -0.08132867 -0.015239432 0.005201577 -0.0629403 0.086937755 -0.108732976 -0.15299205
-0.10305598 -0.059971485 -0.090534404 -0.02600712 0.22026175 0.04680995 0.12720205 0.09647994
-0.21066022 -0.028091732 -0.023395814 -0.15658411 0.2628768 -0.06379949 -0.07925148 0.059620667
-0.16478917 0.050625257 0.0061417595 0.10074901 -0.03338121 -0.21888682 -0.04993285 -0.19880705
-0.07261373 0.14274077 0.08399063 0.184424 -0.13292597 0.044212785 0.06741646 0.09073245
-0.112513095 0.0936936 -0.06960851 -0.11558229 -0.06736323 -0.1819837 0.13571401 0.1647133
-0.17162606 0.10197324 0.088089265 -0.13184871 -0.07338637 -0.001939763 -0.0987906 0.028802983
-0.043784797 0.08202232 0.0055417763 0.024913423 0.16371767 0.14893639 0.19525601 0.03825145
0.010712422 0.02034363 0.03481205 0.0207423 0.1691735 0.028665656 -0.04272804 0.0013448239
0.082323544 0.14128177 0.16284877 0.23906691 0.0943604 0.1086292 0.059019845 0.046334814
0.062267773 -0.0353876 0.025999224 -0.044613946 0.030469446 -0.18855478 -0.06057919 -0.049825724
0.07818104 0.03094714 0.13925576 -0.25295195 0.07499009 -0.058780085 -0.14454143 -0.032092363
-0.12567595 -0.02636357 -0.22917485 -0.07901466 -0.09310053 -0.07626173 -0.13161336 0.050943628
-0.06387829 -0.08970881 0.010411147 0.017056739 0.23100056 0.18716288 0.113759495 0.039960388
0.05071596 -0.19507366 0.027791621 -0.071187854 -0.229187 0.09172959 0.019952897 0.10363423
-0.053861864 0.08580878 0.094311826 0.14238931 -0.16475 0.21733057 -0.104512565 0.13617325
0.010112858 -0.061524574 0.0010581389 -0.0447613 -0.089935176 0.024424624 0.06312483 -0.012711655
00000000: d380 1abe 3707 7a3d 44f4 843e 4c46 e9bc
00000010: c325 51bc 9bcc a6bd 0616 42bd ceac 04be
00000020: 89e5 c1bd 10b8 5a3e 4f8c cc3d d270 ae3d
00000030: d2e4 4d3e 51fb 913d 78c1 983d 3672 d3bd
00000040: 2ae5 bb3d 4d79 19be 0dcd d8bd 51cf f6ba
00000050: fe7b 06be c330 efbd 4720 83ba 0ae4 fbbd
00000060: f584 503b 5dce 33bd df57 fabc 6ce5 943e
00000070: 90da 813d 4474 853b 64a9 c43d de76 4e3c
00000080: 98cf d5bd 4842 03be 8bbe ffbd 5cf3 c03d
00000090: 840f acbd f768 73bd ed29 3cbd 0400 033e
000000a0: a1fb 1b3d dd4e 5a3d 893a 9d3d 0bf2 0e3d
000000b0: 3b24 aabc aa50 ddbb a99a 03be 8d7a 85bc
000000c0: 96c9 d83d bdea b43d 2e9e 6fbe 7f62 86bd
000000d0: 1f28 2abd a20b 6fbd 5d1d 813d d0b2 983b
000000e0: e735 2b3e a206 1cbd 08b3 4cbc 4d2e 0fbe
000000f0: 90ca a63d 8f13 bcbd e74f f0bd fb52 f7bd
00000100: fd92 233e e670 cebc b40a c9bd 2dbd 803d
00000110: 1ec6 3f3e c8cf b3bd 82ae 233e 697f a63d
00000120: bdb7 89bd fbe8 e2bd adb3 edbd ffbe eb3d
00000130: 2258 21bd 49ad a43b 1937 2ebd 2956 e3bb
00000140: b25a 193d 78e0 28bd c96a 50bd 5a97 df3c
00000150: 3bbc 273d 9912 12be 0e98 253d bb96 06be
00000160: 994a f3bd 819e ebbc 4a54 dc3c 35ef 69bc
00000170: 6a40 ff3d 7ced bb3d 6f42 483e 1cea 943c
00000180: b962 9a3d 2803 38be d709 943d 581b 34bc
00000190: 3a7d 573d 68ca 10be 67f1 b6bd a1af cd3d
000001a0: 991c 68be 8a69 193d 5c63 2b3e fed2 6c3c
000001b0: 9a8b 79bd a690 a23a f158 94bd bc09 8cbc
000001c0: 2cc7 d4bc b6de ed3d bacc 083d d4f3 0e3c
000001d0: 2f6e 103d c74b 3f3d a51a f13d 8310 443d
000001e0: 4c65 abbd a58f a6bd d0ae 79bc fe71 aa3b
000001f0: d8e6 80bd 6c0c b23d 65af debd f3a9 1cbe
00000200: 030f d3bd a9a4 75bd 1a6a b9bd e20c d5bc
00000210: 4c8c 613e cabb 3f3d 4141 023e 4697 c53d
00000220: 50b7 57be a220 e6bc 94a8 bfbc 9657 20be
00000230: ca97 863e 4fa9 82bd 9a4e a2bd cd34 743d
00000240: 7ebe 28be 6e5c 4f3d d040 c93b 7f55 ce3d
00000250: bcba 08bd de23 60be 6386 4cbd 1394 4bbe
00000260: 82b6 94bd a32a 123e 4803 ac3d a5d9 3c3e
00000270: bf1d 08be 7718 353d a411 8a3d efd1 b93d
00000280: 446d e6bd 6ee2 bf3d e88e 8ebd 68b6 ecbd
00000290: bcf5 89bd ef59 3abe 9df8 0a3e 9aaa 283e
000002a0: bebe 2fbe 59d7 d03d 2568 b43d 5903 07be
000002b0: 984b 96bd a53f feba ba52 cabd 3cf4 eb3c
000002c0: b057 33bd 51fb a73d ca97 b53b 3c17 cc3c
000002d0: 9ba5 273e c882 183e 31f1 473e 8dad 1c3d
000002e0: 2883 2f3c afa7 a63c 1597 0e3d c2eb a93c
000002f0: d13b 2d3e 3dd4 ea3c 9903 2fbd cd44 b03a
00000300: 3f99 a83d 2bac 103e d4c1 263e f5cd 743e
00000310: 0740 c13d fc78 de3d cbbe 713d 93c9 3d3d
00000320: 7e0c 7f3d 97f2 10bd 53fc d43c 1dbd 36bd
00000330: 0f9b f93c 8114 41be e221 78bd 0f16 4cbd
00000340: 621d a03d db84 fd3c 1099 0e3e eb82 81be
00000350: 6894 993d 63c3 70bd ab02 14be 4873 03bd
00000360: 32b1 00be 6af8 d7bc d0ac 6abe 70d2 a1bd
00000370: 7eab bebd 1c2f 9cbd a7c5 06be 44aa 503d
00000380: 9fd2 82bd 41b9 b7bd 8493 2a3c 93ba 8b3c
00000390: 698b 6c3e a0a7 3f3e bdfa e83d 81ad 233d
000003a0: 8abb 4f3d 64c1 47be 41ab e33c f0ca 91bd
000003b0: ffaf 6abe b9dc bb3d 4274 a33c 2f3e d43d
000003c0: 429e 5cbd 83bc af3d 8f26 c13d 81ce 113e
000003d0: 39b4 28be e88b 5e3e af0a d6bd 0071 0b3e
000003e0: 67b0 253c 3101 7cbd 40b1 8a3a a057 37bd
000003f0: ef2f b8bd 2616 c83c 9747 813d 8c44 50bc

network_body._body_endoder.seq_layers.0.bias f4 [128]
0.0 0.0 0.0 0.0 0.0 0.0 0.0 0.0
0.0 0.0 0.0 0.0 0.0 0.0 0.0 0.0
0.0 0.0 0.0 0.0 0.0 0.0 0.0 0.0
0.0 0.0 0.0 0.0 0.0 0.0 0.0 0.0
0.0 0.0 0.0 0.0 0.0 0.0 0.0 0.0
0.0 0.0 0.0 0.0 0.0 0.0 0.0 0.0
0.0 0.0 0.0 0.0 0.0 0.0 0.0 0.0
0.0 0.0 0.0 0.0 0.0 0.0 0.0 0.0
0.0 0.0 0.0 0.0 0.0 0.0 0.0 0.0
0.0 0.0 0.0 0.0 0.0 0.0 0.0 0.0
0.0 0.0 0.0 0.0 0.0 0.0 0.0 0.0
0.0 0.0 0.0 0.0 0.0 0.0 0.0 0.0
0.0 0.0 0.0 0.0 0.0 0.0 0.0 0.0
0.0 0.0 0.0 0.0 0.0 0.0 0.0 0.0
0.0 0.0 0.0 0.0 0.0 0.0 0.0 0.0
0.0 0.0 0.0 0.0 0.0 0.0 0.0 0.0
00000000: 0000 0000 0000 0000 0000 0000 0000 0000
00000010: 0000 0000 0000 0000 0000 0000 0000 0000
00000020: 0000 0000 0000 0000 0000 0000 0000 0000
00000030: 0000 0000 0000 0000 0000 0000 0000 0000
00000040: 0000 0000 0000 0000 0000 0000 0000 0000
00000050: 0000 0000 0000 0000 0000 0000 0000 0000
00000060: 0000 0000 0000 0000 0000 0000 0000 0000
00000070: 0000 0000 0000 0000 0000 0000 0000 0000
00000080: 0000 0000 0000 0000 0000 0000 0000 0000
00000090: 0000 0000 0000 0000 0000 0000 0000 0000
000000a0: 0000 0000 0000 0000 0000 0000 0000 0000
000000b0: 0000 0000 0000 0000 0000 0000 0000 0000
000000c0: 0000 0000 0000 0000 0000 0000 0000 0000
000000d0: 0000 0000 0000 0000 0000 0000 0000 0000
000000e0: 0000 0000 0000 0000 0000 0000 0000 0000
000000f0: 0000 0000 0000 0000 0000 0000 0000 0000
00000100: 0000 0000 0000 0000 0000 0000 0000 0000
00000110: 0000 0000 0000 0000 0000 0000 0000 0000
00000120: 0000 0000 0000 0000 0000 0000 0000 0000
00000130: 0000 0000 0000 0000 0000 0000 0000 0000
00000140: 0000 0000 0000 0000 0000 0000 0000 0000
00000150: 0000 0000 0000 0000 0000 0000 0000 0000
00000160: 0000 0000 0000 0000 0000 0000 0000 0000
00000170: 0000 0000 0000 0000 0000 0000 0000 0000
00000180: 0000 0000 0000 0000 0000 0000 0000 0000
00000190: 0000 0000 0000 0000 0000 0000 0000 0000
000001a0: 0000 0000 0000 0000 0000 0000 0000 0000
000001b0: 0000 0000 0000 0000 0000 0000 0000 0000
000001c0: 0000 0000 0000 0000 0000 0000 0000 0000
000001d0: 0000 0000 0000 0000 0000 0000 0000 0000
000001e0: 0000 0000 0000 0000 0000 0000 0000 0000
000001f0: 0000 0000 0000 0000 0000 0000 0000 0000

network_body._body_endoder.seq_layers.2.weight f4 [128, 128]
0.051054925 -0.12130959 0.04814862 -0.12308527 0.046366263 -0.029699156 -0.010872107 0.07802635
-0.093810536 0.13485551 0.022797849 0.087383725 0.042870697 0.10418395 0.0736911 0.0549963
0.12225931 -0.11025164 -0.052315492 -0.10659707 -0.16270126 -0.024254395 0.004160086 0.053291216
0.05622827 0.12270633 0.020857852 0.006436884 0.053488564 0.21629523 -0.081604846 0.0077536996
0.105989195 -0.112892404 -0.09813912 -0.018014578 -0.08077508 0.036559757 -0.010320323 0.027629826
-0.10339608 0.034478407 0.12403334 0.07973145 0.011421104 -0.027482819 0.035071954 0.14040054
-0.1078445 -0.053657636 -0.005233063 -0.0413049 -0.004699367 -0.13494496 -0.009941548 -0.0073204576
0.06451987 0.05982285 -0.011626495 -0.06882557 0.111631714 0.029815815 0.035586324 -0.102227546
-0.01500034 0.069831565 -0.15870632 -0.0012888777 0.02349779 0.18488115 0.1491009 0.09071436
0.08830901 -0.08518099 0.20361182 -0.018131712 -0.016092181 -0.1058487 -0.043109644 -0.043785956
0.0078638485 -0.066288464 0.12200579 -0.14858486 0.10359908 0.14061971 0.08177837 -0.053770855
-0.045000147 0.051832773 0.18578784 0.0039615193 -0.15572724 0.0004945609 0.055794045 0.068813235
-0.08594621 -0.0004799618 0.011933355 0.059011545 -0.0054883403 -0.055703707 0.06151609 0.2362083
0.03275855 -0.057654433 -0.03508402 -0.027119616 -0.0077751703 -0.033812188 0.032220785 0.018166887
-0.022542527 -0.13399681 0.1241073 0.07354726 0.10787703 -0.021356719 -0.059853043 -0.1931363
0.043954443 -0.013030449 0.15516245 0.0703267 0.0038866932 0.0057254974 -0.014193037 -0.10660211
0.12034688 -0.16779836 0.04414052 0.077941254 0.15381709 -0.011569154 0.07400474 0.017931703
0.15582976 -0.021613361 -0.06968033 -0.21053682 -0.16728765 0.097168796 -0.067262426 -0.08635949
0.14201824 0.11340482 -0.095559545 0.087932914 0.20515858 -0.05261738 0.048908826 0.0344232
-0.14351162 0.15468004 0.043925527 -0.044280127 0.07010366 0.117515095 0.0020290045 -0.17255557
-0.011428035 0.043756727 -0.032627244 0.11811685 0.025942236 0.01048744 -0.042090014 -0.06377149
-0.02887139 -0.114401735 -0.09823289 -0.06314611 -0.026995327 0.12322416 -0.016053243 0.059254132
-0.12576142 -0.089324415 -0.0026153438 -0.0443147 0.056638137 -0.09498009 -0.023083525 0.023486236
-0.050732076 -0.03975909 -0.13907817 -0.017761469 -0.0667005 0.076285176 -0.04456282 0.08025217
0.015296112 -0.11695464 -0.1004097 0.037196502 -0.008880585 -0.0397325 0.028332742 -0.07397769
0.016095966 -0.05053725 0.020184502 -0.016218182 -0.060900293 0.037522215 -0.11783953 -0.16502064
0.055742167 0.021830533 0.028072692 0.019321622 0.029111817 -0.021578599 -0.037081514 0.090320386
-0.040663768 0.11356933 -0.10541771 -0.07788879 -0.031694908 0.15539813 -0.06457534 0.05349995
-0.030671526 0.0054771374 0.11733093 -0.026542686 -0.029417997 0.024227517 0.049928505 0.109687835
-0.046866532 0.09783953 0.003709614 -0.14421418 0.010164241 0.028220931 0.014085672 0.020331586
-0.05329854 -0.14438628 -0.048508808 0.05165169 0.052975494 0.017077632 0.089527294 0.038687583
0.103412315 -0.0071986993 0.09287783 -0.12151581 -0.024639448 -0.117688395 0.14336658 0.08354346
00000000: f81e 513d 2a71 f8bd 7d37 453d 2114 fcbd
00000010: 8dea 3d3d a54b f3bc ec20 32bc 47cc 9f3d
00000020: bd1f c0bd 9017 0a3e 8ec2 ba3c 3df6 b23d
00000030: 2f99 2f3d 655e d53d 5ceb 963d cd43 613d
00000040: 1763 fa3d 9dcb e1bd c548 56bd 914f dabd
00000050: 299b 26be 27b1 c6bc 5551 883b e447 5a3d
00000060: 9d4f 663d 754d fb3d 16de aa3c 7fec d23b
00000070: d316 5b3d 7f7c 5d3e 7120 a7bd bf12 fe3b
00000080: dd10 d93d 2234 e7bd 2afd c8bd 4f93 93bc
00000090: 686d a5bd afbf 153d 9216 29bc f257 e23c
000000a0: 53c1 d3bd 3b39 0d3d 3105 fe3d 3e4a a33d
000000b0: 951f 3b3c a623 e1bc 9ca7 0f3d 29c5 0f3e
000000c0: 94dd dcbd 1cc8 5bbd 1d7a abbb 542f 29bd
000000d0: 26fd 99bb 032f 0abe e0e1 22bc 73e0 efbb
000000e0: fe22 843d ce08 753d 0e7d 3ebc 6cf4 8cbd
000000f0: 2b9f e43d 4c40 f43c f7c2 113d ad5c d1bd
00000100: fcc3 75bc da03 8f3d e983 22be 8fef a8ba
00000110: 707e c03c 7c51 3d3e e8ad 183e 73c8 b93d
00000120: 5bdb b43d 5f73 aebd 9e7f 503e f588 94bc
00000130: c0d3 83bc 34c7 d8bd bd93 30bd e758 33bd
00000140: 5fd7 003c 3fc2 87bd 2cde f93d a126 18be
00000150: c12b d43d 9dfe 0f3e 6b7b a73d d43e 5cbd
00000160: 1352 38bd 9a4e 543d 2b3f 3e3e a2cf 813b
00000170: f676 1fbe 6ca5 013a 4c88 643d f4ed 8c3d
00000180: 9104 b0bd 62a3 fbb9 1e84 433c 17b6 713d
00000190: 89d7 b3bb 9229 64bd 4cf8 7b3d 97e0 713e
000001a0: d42d 063d 0e27 6cbd 43b4 0fbd f529 debc
000001b0: dbc6 febb a67e 0abd f1f9 033d b9d2 943c
000001c0: 1bab b8bc 7636 09be f82b fe3d f29f 963d
000001d0: a2ee dc3d 49f4 aebc 7728 75bd 86c5 45be
000001e0: 9309 343d aa7d 55bc e8e2 1e3e 7207 903d
000001f0: e4b7 7e3b f49c bb3b e989 68bc 3552 dabd
00000200: 6d78 f63d 55d3 2bbe b1cc 343d aa9f 9f3d
00000210: 3a82 1d3e 8d8c 3dbc cc8f 973d 82e5 923c
00000220: d691 1f3e 810e b1bc 90b4 8ebd f796 57be
00000230: 744d 2bbe 6f00 c73d e2c0 89bd 3fdd b0bd
00000240: 3b6d 113e c940 e83d b9b4 c3bd 2c16 b43d
00000250: 1715 523e 5285 57bd 9f54 483d 57ff 0c3d
00000260: b6f4 12be 7264 1e3e 41eb 333d 145f 35bd
00000270: 8292 8f3d c1ab f03d 0cf9 043b 68b2 30be
00000280: a73c 3bbc 413a 333d 25a4 05bd 3fe7 f13d
00000290: d084 d43c 83d3 2b3c 9466 2cbd a09a 82bd
000002a0: b183 ecbc 754b eabd 532e c9bd bf52 81bd
000002b0: 4e25 ddbc f35c fc3d 1782 83bc 76b4 723d
000002c0: 9ac7 00be b8ef b6bd 3066 2bbb 5583 35bd
000002d0: 64fd 673d ec84 c2bd a919 bdbc 3566 c03c
000002e0: 70cc 4fbd 6dda 22bd 826a 0ebe 8080 91bc
000002f0: 469a 88bd 673b 9c3d 8187 36bd 405b a43d
00000300: 8b9c 7a3c ea85 efbd 9aa3 cdbd 5c5b 183d
00000310: e07f 11bc 8cbe 22bd 111a e83c 9d81 97bd
00000320: b0db 833c 2600 4fbd f859 a53c fedb 84bc
00000330: 9672 79bd e5b0 193d da55 f1bd 2cfb 28be
00000340: e651 643d f2d5 b23c b4f8 e53c 6148 9e3c
00000350: e87b ee3c 9ac5 b0bc c9e2 17bd e5f9 b83d
00000360: 0d8f 26bd 0997 e83d 3ee5 d7bd 2884 9fbd
00000370: 85d2 01bd b020 1f3e 1340 84bd c322 5b3d
00000380: da42 fbbc 8f79 b33b 334b f03d 0c70 d9bc
00000390: 03fe f0bc c978 c63c d581 4c3d 04a4 e03d
000003a0: 1ff7 3fbd 1760 c83d ff1c 733b e2ac 13be
000003b0: eb87 263c 952f e73c 97c7 663c 6d8e a63c
000003c0: 924f 5abd ffd9 13be 2cb1 46bd b990 533d
000003d0: d5fc 583d 64e6 8b3c 165a b73d df76 1e3d
000003e0: d6c9 d33d 11e3 ebbb bb36 be3d 48dd f8bd
000003f0: abd8 c9bc 9d06 f1bd b0ce 123e d518 ab3d

action_model._discrete_distribution.branches.0.weight f4 [3, 128]
-0.0013569205 -0.017973578 -0.00785746 0.026267732 -0.014088887 -0.003727865 0.0065988437 0.006225892
0.0017497645 0.005284926 -0.0028831006 0.007964856 0.0021102796 -0.004413999 0.015502954 0.0015396861
-0.00506324 -0.00471816 0.0110352365 0.013033151 -0.0010707559 -0.010573986 -4.034642e-05 0.02058414
0.0042076497 0.0039339676 0.0034001905 0.0045173177 0.0008642098 -0.0027810198 0.001395937 7.1762486e-05
-0.00230683 -0.0036828795 0.0007848001 0.00057380804 0.007767107 0.011806031 -0.003341873 -0.013177216
0.011872362 -0.014284718 0.0017398767 0.003896064 -0.0013125018 -0.010983551 -0.0060589793 -0.0033666082
-0.0015035244 -0.019481119 0.007362974 -0.0030814148 0.011357929 0.013136282 -0.0008885731 -0.016358044
0.0010192309 -0.0060901092 0.014193058 0.012133993 -0.0066221864 -0.0015875383 0.014245115 -0.0010240492
-0.012746732 -0.016599266 0.0009231674 0.01743338 0.007511607 -0.010123308 -0.002143244 -0.016450109
0.0034428344 -0.0061933 -0.003495963 0.0024421194 -0.0030678434 0.011249526 -0.011841802 -0.0040692384
0.012821721 -0.010843245 0.0045080963 0.002432688 -0.004583272 -0.01516106 0.008094671 0.008186477
-0.015179177 -0.0030765277 -0.03075845 -0.013670559 -0.0020570615 -0.009042756 -0.0056322007 0.0014832641
-0.00041333647 0.007378419 0.016856572 -0.0042768135 -0.008107561 -0.01679516 0.0010118138 -0.00039525158
0.010571531 -0.0064036413 -0.009683856 -0.007963593 0.00610859 0.0049337232 -0.016285023 0.016690005
-0.0021811144 0.0009797902 0.019545002 0.007114087 0.011813114 0.014044215 0.007859466 0.013932287
-0.003823035 -0.0018806782 0.0025138564 0.003249796 -0.0086638965 0.010600511 0.0023676797 0.0014337823
-0.0024644085 -0.009578629 -0.015250968 -0.00042323364 -0.00065040955 -0.007387401 0.002245171 -0.008970069
0.0064084153 0.0043120114 0.0033962305 -0.008558306 -0.0020255935 -0.016364621 -0.005280725 -0.0065519325
-0.004139595 0.0006264213 -0.00524727 0.0038029458 -0.014776431 0.0075653256 -0.001441546 0.0013354458
0.0077979513 0.0062749684 -0.002241705 0.0004455225 -0.002889646 0.012465342 -0.00782467 0.0027445597
0.006901567 0.021024125 -0.006037817 0.0011161135 -0.01612611 0.00028289892 -0.016061898 0.0022311339
0.003373072 -0.01095331 0.013039857 0.007518173 -0.007821246 -0.0029237706 -0.0007754511 0.002097893
-0.003559956 0.0012499902 -0.009258183 -0.0025262984 0.0066070217 0.01663392 0.0010937988 -0.018127725
0.0055051693 0.0013976253 -9.678219e-05 0.00041990328 0.008302361 -2.8408365e-05 -0.0032668703 0.005861614
-0.016594183 0.00075503846 -0.0026199704 0.008792794 -0.017241947 -0.0049536587 -0.00888706 -0.0060355267
0.0056354455 0.01288336 0.0035540124 0.003405055 -0.011451743 0.0025386198 0.018954122 -0.00897982
0.015087548 0.0038431261 0.0051580495 -0.0022725137 0.012961516 -0.005199432 -0.010900976 -0.004284574
-0.008073858 -0.0019345165 0.0016513307 0.01513199 0.00074116566 0.005398809 -0.0009757963 0.005905574
-0.010025736 -0.0006631601 -0.011785808 0.0008723139 -0.003336639 -0.002102878 -0.0006647654 0.008926046
0.014111939 0.012460356 0.0071571134 -0.0035932139 0.009141526 0.008813897 -0.004738916 0.008631647
0.00423706 0.008043976 -0.0025211473 0.00060379243 -0.013328547 0.021671046 0.010125814 -0.0012212612
-0.007471862 -0.00083484076 -0.0030467135 0.007249871 0.0013810283 -0.002687183 -0.012017258 0.009194332
00000000: b2da b1ba 533d 93bc 93bc 00bc 6d2f d73c
00000010: 13d5 66bc 324f 74bb 1d3b d83b 9102 cc3b
00000020: 5b58 e53a 2c2d ad3b 67f2 3cbb 077f 023c
00000030: 9e4c 0a3b 4fa3 90bb 1a00 7e3c 4bcf c93a
00000040: 89e9 a5bb cb9a 9abb 23cd 343c ff88 553c
00000050: 9b58 8cba 833e 2dbc a339 29b8 12a0 a83c
00000060: 53e0 893b 83e8 803b bbd5 5e3b 0206 943b
00000070: 238c 623a c541 36bb e0f7 b63a 317f 9638
00000080: 2f2e 17bb 775c 71bb 0bbb 4d3a 9b6b 163a
00000090: 3783 fe3b 156e 413c 5303 5bbb 40e5 57bc
000000a0: 4c84 423c 730a 6abc 930c e43a 1b55 7f3b
000000b0: 4108 acba 5af4 33bc 678a c6bb 50a2 5cbb
000000c0: e811 c5ba de96 9fbc 1a45 f13b 90f1 49bb
000000d0: 9b16 3a3c 8f39 573c 22ef 68ba 4e01 86bc
000000e0: b797 853a 8a8f c7bb 008a 683c a8cd 463c
000000f0: edfe d8bb f214 d0ba 5864 693c 6439 86ba
00000100: abd7 50bc 2ffb 87bc b700 723a 73d0 8e3c
00000110: ed23 f63b 3bdc 25bc ab75 0cbb 61c2 86bc
00000120: 2da1 613b 2af1 cabb 871c 65bb f70b 203b
00000130: df0d 49bb ef4f 383c 1e04 42bc 3f57 85bb
00000140: 3212 523c dea7 31bc a7b8 933b bb6d 1f3b
00000150: 462f 96bb 1866 78bc 839f 043c 9320 063c
00000160: 15b2 78bc 929f 49bb 25f9 fbbc 7bfa 5fbc
00000170: c4cf 06bb 1128 14bc 538e b8bb 166a c23a
00000180: 15b5 d8b9 aac6 f13b cb16 8a3c 8324 8cbb
00000190: 93d5 04bc 0196 89bc d69e 843a c539 cfb9
000001a0: 3734 2d3c a3d5 d1bb 09a9 1ebc bb79 02bc
000001b0: 912a c83b 12ab a13b 2b68 85bc 7ab9 883c
000001c0: 07f1 0ebb 4e6c 803a d71c a03c 4a1d e93b
000001d0: cb8b 413c b519 663c fdc4 003c 3f44 643c
000001e0: e28b 7abb 1781 f6ba 83bf 243b 88fa 543b
000001f0: 04f3 0dbc c4ad 2d3c 132b 1b3b c0ed bb3a
00000200: ea81 21bb afef 1cbc 32df 79bc 75e5 ddb9
00000210: 3f80 2aba 0312 f2bb b823 133b 32f7 12bc
00000220: affd d13b c64b 8d3b 4b93 5e3b 2338 0cbc
00000230: d2bf 04bb 190f 86bc ef09 adbb 98b1 d6bb
00000240: 71a5 87bb 6c36 243a 4bf1 abbb d83a 793b
00000250: d818 72bc 8de6 f73b 42f2 bcba 200a af3a
00000260: f585 ff3b 409e cd3b 92e9 12bb 0595 e939
00000270: 3760 3dbb 6f3b 4c3c 0b33 00bc 12de 333b
00000280: 8a26 e23b c93a ac3c e1d8 c5bb 8e4a 923a
00000290: e71a 84bc 0d52 9439 3e94 83bc 3738 123b
000002a0: c20e 5d3b 8375 33bc 20a5 553c 025b f63b
000002b0: af24 00bc bb9c 3fbb a447 4bba ce7c 093b
000002c0: 274e 69bb b6d6 a33a a2af 17bc 4190 25bb
000002d0: b77f d83b dc43 883c cc5d 8f3a 9880 94bc
000002e0: b564 b43b 8630 b73a 8bf7 cab8 7726 dc39
000002f0: a006 083c 804e eeb7 fd18 56bb c812 c03b
00000300: 86f0 87bc c6ed 453a cfb3 2bbb a70f 103c
00000310: fc3e 8dbc 4d52 a2bb 089b 11bc abc5 c5bb
00000320: 8ba9 b83b ba14 533c 6fea 683b 5827 5f3b
00000330: 17a0 3bbc f95e 263b ad45 9b3c 1820 13bc
00000340: c331 773c f5dc 7b3b db04 a93b 74ee 14bb
00000350: 8a5c 543c ff5f aabb 029a 32bc 9d65 8cbb
00000360: 3748 04bc 9a8f fdba 7771 d83a 2bec 773c
00000370: c94a 423a 7ee8 b03b 95cc 7fba 8c83 c13b
00000380: fc42 24bc ecd7 2dba 4319 41bc ffab 643a
00000390: 83ab 5abb 70d0 09bb a743 2eba 8d3e 123c
000003a0: c335 673c 8526 4c3c 3886 ea3b 207c 6bbb
000003b0: 57c6 153c 2a68 103c e948 9bbb c06b 0d3c
000003c0: 09d7 8a3b e1ca 033c d539 25bb d347 1e3a
000003d0: fa5f 5abc 7a87 b13c bee6 253c ba12 a0ba
000003e0: 85d6 f4bb 37d9 5aba 5fab 47bb 5390 ed3b
000003f0: 9f03 b53a 731b 30bb 09e4 44bc d3a3 163c

action_model._discrete_distribution.branches.0.bias f4 [3]
0.0 0.0 0.0
00000000: 0000 0000 0000 0000 0000 0000

action_model._discrete_distribution.branches.1.weight f4 [3, 128]
0.007666862 -0.0058924314 0.013610472 0.0018562371 -0.00043691995 -0.0011343932 -0.002177878 -0.0058199004
0.012309209 0.007714797 0.0020958094 0.0027180973 -0.0074030044 0.009202914 0.005512545 0.0005959083
-0.00278634 -0.0062268265 -0.0053269505 0.00063649553 -0.010229184 -0.0005179336 0.017797671 -0.0052092983
0.0072148554 -0.01042452 -0.01598138 -0.022100268 0.012279406 0.0029992042 0.011162514 0.0035774258
-0.0025440499 0.0021625655 0.010263285 0.010087244 -0.023363527 0.0008175407 0.00066675595 -0.008274044
-0.0023881493 -0.01059968 -0.004208058 -0.013019741 -0.010822068 0.018382818 0.014518241 6.775453e-06
-0.0152263045 -0.0043338775 0.0094730845 -0.011158248 0.004553738 0.003583828 0.008468746 0.016271038
0.0060516926 0.009178026 0.0057512852 -0.0047316295 0.0051316055 -0.01320707 -0.009843014 -0.0019312622
0.009725185 0.0043269894 -0.009791814 0.007298006 -0.0015020944 -0.011187728 0.0010908794 0.004611959
0.00063275633 0.012643571 0.0011101429 -0.00529897 -0.012467329 0.003467751 0.001813837 -0.008659611
-0.003272871 -0.0045052483 0.007003666 0.0074222423 0.001181478 -0.0007068683 0.011416182 0.015983481
-0.0038264033 -0.00878435 -0.021214461 0.0043934975 0.007746264 -0.010157049 -0.011071384 -0.0077073905
0.012608356 -0.0030475992 0.0074673677 -7.1093687e-06 -0.0034292303 -0.0025435116 -0.013858278 0.009249768
-0.004188613 0.001716624 0.01606117 0.003930157 -0.0026941425 0.009139742 -0.0190488 -0.00032816798
0.012563676 0.00060790486 -0.0024350062 -0.0016462569 -0.0035559933 0.0006125052 0.003506417 -0.003029102
-0.00029750398 -0.006799073 0.0017802675 3.0444702e-05 -0.009525586 0.0060781 -0.0015000849 -0.011997265
0.0023592159 -0.002467819 0.0040250085 -0.0161616 -0.0006125124 0.005919363 -0.0045706867 0.008336069
-0.0024254785 0.0032820813 0.0035885677 -0.0053214575 0.0010115656 0.005904966 -0.014198919 -0.010713701
0.009627672 0.00815302 0.0023624543 0.00478439 -0.004819719 -0.0020578797 0.0034680944 0.009855742
-0.011655322 0.0043573505 0.0016953152 -0.01581521 -0.006537128 0.0016517484 -0.0016366277 -0.00058459624
0.008443521 -0.003497991 -0.0031645875 0.0042908373 0.0025104505 0.009893998 -0.010043883 -0.014643985
-0.007245707 -0.0057695336 -0.0009097354 0.017029835 0.010957818 0.006640515 -0.004557995 -0.0069820317
-0.0025297762 -0.00822597 0.010521067 0.008815129 -0.0027725624 -0.0013312915 -0.0109677 0.014337592
-0.012066494 -0.0061401245 -0.008046779 0.00019141134 -0.011471911 0.0059357374 -0.00074679166 -0.009594171
-0.01029974 0.0068602427 -0.013350852 -0.003942084 0.014215722 -0.00070476823 0.00036147912 -0.025430022
-0.0020728086 0.018670108 0.005135509 0.0072992346 -0.0026907364 0.015895324 -0.00091375783 -0.0018219706
-0.0108069945 0.0029097495 -0.0030769724 0.003308493 -0.013112622 -0.006887357 0.01217487 0.009135506
0.017919399 -7.452466e-05 0.014993518 -0.0038719059 0.017860984 -0.0033530672 -0.00118853 0.0003471906
0.0010486511 -0.015604398 -0.014522656 0.016978746 0.0008232401 -0.004358341 0.013387077 0.0008614609
0.0062916796 0.003952704 -0.010130092 -0.0023520945 -0.0056475415 -0.0066301334 -0.00037371196 0.0001682242
0.005035246 -0.0056180963 0.006683651 0.0011313001 0.009410851 -0.00332751 0.009529154 0.0055601853
-0.006460858 0.0025116983 -0.009212113 0.004480875 -0.009621602 0.0065228133 0.008993042 -0.013108476
00000000: 4d3a fb3b 4c15 c1bb 75fe 5e3c fb4c f33a
00000010: 6712 e5b9 ebaf 94ba bbba 0ebb ddb4 bebb
00000020: 91ac 493c 68cc fc3b d959 093b 1b22 323b
00000030: e794 f2bb d2c7 163c 94a2 b43b bb36 1c3a
00000040: 079b 36bb 680a ccbb b38d aebb 7eda 263a
00000050: 4f98 27bc efc5 07ba 6ccc 913c c3b2 aabb
00000060: 986a ec3b 9bcb 2abc 62eb 82bc 9f0b b5bc
00000070: 902f 493c 4c8e 443b fae2 363c 3f73 6a3b
00000080: 13ba 26bb d4b9 0d3b 5627 283c f844 253c
00000090: de64 bfbc 3a50 563a 3cc9 2e3a db8f 07bc
000000a0: 7f82 1cbb 48aa 2dbc c0e3 89bb c050 55bc
000000b0: 0b4f 31bc 9097 963c ebdd 6d3c b358 e336
000000c0: c077 79bc 3303 8ebb ff34 1b3c 16d1 36bc
000000d0: 8637 953b a8de 6a3b 7fc0 0a3c d74a 853c
000000e0: 474d c63b 6e5f 163c 4775 bc3b c90b 9bbb
000000f0: 0727 a83b 7762 58bc 9844 21bc 6822 fdba
00000100: 6256 1f3c 6bc9 8d3b d86d 20bc 1d24 ef3b
00000110: ede1 c4ba bb4c 37bc d7fb 8e3a eb1f 973b
00000120: 8fdf 253a fb26 4f3c 3782 913a fba2 adbb
00000130: c543 4cbc 3543 633b 45be ed3a 0be1 0dbc
00000140: aa7d 56bb c3a0 93bb 027f e53b 4836 f33b
00000150: d3db 9a3a 214d 39ba f00a 3b3c caef 823c
00000160: 65c4 7abb 3cec 0fbc f3c9 adbc 54f7 8f3b
00000170: 5fd4 fd3b c069 26bc c064 35bc 478e fcbb
00000180: 4793 4e3c 3bba 47bb d2b0 f43b 038d eeb6
00000190: f0bc 60bb 0bb1 26bb d50d 63bc 578c 173c
000001a0: a240 89bb 5800 e13a b792 833c 8cc8 803b
000001b0: 3690 30bb dbbe 153c 3b0c 9cbc f60d acb9
000001c0: e0d7 4d3c ce5b 1f3a a094 1fbb 37c7 d7ba
000001d0: ab0b 69bb 8790 203a eacb 653b e683 46bb
000001e0: 4ffa 9bb9 c2ca debb dd57 e93a 8063 ff37
000001f0: 3411 1cbc cc2a c73b 7f9e c4ba 2d90 44bc
00000200: 139d 1a3b 22bb 21bb 38e4 833b 5565 84bc
00000210: 0391 20ba 37f7 c13b b3c5 95bb 0294 083c
00000220: c7f4 1ebb 3018 573b 2d2e 6b3b 9f5f aebb
00000230: 8296 843a 727e c13b 95a2 68bc 8588 2fbc
00000240: 62bd 1d3c 3f94 053c 68d3 1a3b 5fc6 9c3b
00000250: bcee 9dbb 7edd 06bb f848 633b fa79 213c
00000260: f7f5 3ebc 1bc8 8e3b 5735 de3a e68e 81bc
00000270: 6735 d6bb 7b7f d83a 1d84 d6ba 973f 19ba
00000280: b256 0a3c 8d3e 65bb f864 4fbb 279a 8c3b
00000290: 5f86 243b 6f1a 223c 198f 24bc 53ed 6fbc
000002a0: 656d edbb 5b0e bdbb 4f7b 6eba 2782 8b3c
000002b0: 6b88 333c ad98 d93b 3c5b 95bb 87c9 e4bb
000002c0: 9aca 25bb 38c6 06bc 8e60 2c3c 556d 103c
000002d0: e1b3 35bb bb7e aeba deb1 33bc 38e8 6a3c
000002e0: 8bb2 45bc 1933 c9bb a3d6 03bc 97b5 4839
000002f0: aff4 3bbc 9380 c23b 57c4 43ba df30 1dbc
00000300: 3ec0 28bc e3cb e03b 88bd 5abc 992c 81bb
00000310: 0fe9 683c 32c0 38ba e884 bd39 9f52 d0bc
00000320: f5d7 07bb 0ef2 983c c647 a83b 6b2e ef3b
00000330: 1157 30bb e936 823c 4089 6fba 30cf eeba
00000340: d20f 31bc 7fb1 3e3b 08a7 49bb 4dd3 583b
00000350: 53d6 56bc 57af e1bb 1b79 473c 17ad 153c
00000360: b4cb 923c 1f4a 9cb8 5fa7 753c cdbf 7dbb
00000370: 3351 923c 22bf 5bbb 73c8 9bba 2207 b639
00000380: e472 893a 97a9 7fbc 6ff0 6dbc 0317 8b3c
00000390: b5ce 573a 6ad0 8ebb 7855 5b3c aad3 613a
000003a0: 6f2a ce3b af85 813b aff8 25bc 9925 1abb
000003b0: 030f b9bb 9741 d9bb c5ee c3b9 5765 3039
000003c0: b4fe a43b 0218 b8bb 8702 db3b 2248 943a
000003d0: f82f 1a3c 5b12 5abb 2b20 1c3c 3732 b63b
000003e0: 9bb5 d3bb 4e9b 243b 67ee 16bc 4ed4 923b
000003f0: eca3 1dbc 53bd d53b 8d57 133c efc4 56bc

action_model._discrete_distribution.branches.2.weight f4 [2, 128]
0.0076930583 -0.0016884179 0.010028958 -0.0017690562 -0.006912728 -0.0029421456 -0.0022326205 0.014332338
0.008245938 -0.0010701785 -0.015403378 -0.0106169265 -0.001729885 0.0002878212 0.011604851 -0.0053840843
-9.290531e-05 -0.02265632 0.003883743 0.011943256 -0.0012877098 -0.01862467 -0.020717097 0.011521838
-0.011825969 -0.0037011206 -0.0048593427 0.005493146 0.0034952469 0.0008340888 -0.009051367 -0.00092478824
0.0012243665 0.0047920514 0.006251345 0.0114939865 -0.0024864168 0.00071856193 -0.016410952 0.0021090102
-0.017887328 0.0018613705 -0.009738636 -0.0004618249 0.0038282946 -0.0074945437 -0.0019944354 0.01050422
0.005428516 0.003917986 0.010480388 0.0055696745 -0.003858386 -0.006988981 0.009405702 0.01013421
0.005767406 -0.0069581764 0.0057468116 0.00482952 0.008057906 -0.0031245686 0.021216312 0.0005722639
0.008855936 -0.004673097 -0.0032806888 0.0034600701 -0.0027588028 -0.012867895 -0.012461356 -0.010122564
-0.0059876842 -0.00043511702 -0.004121288 -0.015285286 -0.0019919032 -0.0027761601 -0.0049769073 -0.0073740757
0.0072946525 0.0015016153 -0.003954029 -0.0053087533 -0.0035385196 -0.014109745 0.013206015 0.006456153
-0.002306165 -0.0018277802 0.0028565358 0.008926486 0.00860371 -0.009423598 -0.012174895 0.0043805866
-0.0210186 -0.0060229064 -0.00013539247 0.00039636978 0.0008065288 -0.0082470765 0.00021403407 -1.6152533e-05
0.0065919803 0.0067122853 -0.010750212 -0.010039951 -0.011658585 -0.0019407725 -0.009978498 -0.00010567329
-0.004841126 0.00031219283 0.016123304 0.013949593 -0.0019948892 0.01636122 0.00076042727 0.022203108
0.0077907555 -0.00019109485 -0.010618657 0.0035665892 0.0025008502 0.0005718264 -0.0076195486 -0.0037219767
0.011482665 0.004778794 0.0028258725 0.00014679284 -0.009669298 -0.0075382083 -0.0034146353 -0.0016019344
0.010952677 0.0054059676 0.004123134 -0.0017160118 -0.0072842645 0.00048212017 -0.0034390015 0.00091642357
0.0018673347 0.010282404 -0.007789408 0.008969407 0.0010766622 0.0025775766 -0.0037150679 0.006857273
-0.009066621 -0.014087225 -0.020897707 0.006794677 -0.01220249 0.019192342 -0.008087013 -0.014090574
0.011464665 0.0088833915 -0.0010227461 -0.012672856 0.015542644 -0.010528607 0.015362802 -0.0019543956
-0.0035436812 -0.0012726779 0.007764507 -0.009695577 -0.006390737 -0.0022848973 0.002744884 0.014020519
0.00074434635 0.0005728581 0.0021014158 -0.00024817555 -0.0038140619 -0.0074255797 0.0176269 -0.0056137
0.0011093824 -0.0055404366 0.0005787358 0.009854994 -0.0059769023 0.0021852595 0.003628444 -0.010631232
-0.00493515 -0.00038782987 -0.0024385497 0.0036431102 0.011642177 9.743217e-05 -0.0030868289 0.0013683876
0.0019171363 -0.006708176 0.0063550356 -0.0032692624 -0.00024159167 -0.0065211677 0.00909362 -0.017759504
0.0044776676 0.0027446079 -0.010634482 -0.0040572523 0.0055089206 -0.0071735377 0.00019571469 -0.0056849653
0.00614229 0.0040531745 -0.0074879574 -0.008104517 -0.009438645 0.016811425 -0.0075971517 0.0066677257
0.0006229735 0.0023669435 -0.009358231 -0.003136209 0.0012022315 -0.0048687845 -0.0028868604 0.01146499
0.00916402 0.0015767909 0.00014124785 -0.0028678302 -0.0053085014 0.008283104 -0.016373435 0.009980353
-0.0075374246 0.012507677 0.0072663943 0.011143374 -0.007711815 0.006807331 -0.001127007 -0.009735135
-0.0003775912 0.0025807468 0.00055202126 -0.013733867 -0.0023238573 -0.0037194507 0.0033110138 -0.009399424
00000000: 0d16 fc3b e74d ddba 8050 243c addf e7ba
00000010: 2a84 e2bb 03d1 40bb 2851 12bb 2fd2 6a3c
00000020: f919 073c 3b45 8cba 735e 7cbc 9ef2 2dbc
00000030: 4fbd e2ba b5e6 9639 4622 3e3c f96c b0bb
00000040: 29d6 c2b8 bf99 b9bc 6586 7e3b a5ad 433c
00000050: 5fc8 a8ba c492 98bc e7b6 a9bc 17c6 3c3c
00000060: b6c1 41bc 808e 72bb 1f3b 9fbb d9ff b33b
00000070: 8310 653b c0a6 5a3a 2f4c 14bc 7d6d 72ba
00000080: ec7a a03a a406 9d3b 15d8 cc3b 4651 3c3c
00000090: 27f3 22bb e05d 3c3a 4370 86bc 5237 0a3b
000000a0: 7288 92bc 3bf9 f33a cd8e 1fbc 1721 f2b9
000000b0: 20e4 7a3b ca94 f5bb 13b5 02bb e419 2c3c
000000c0: b1e1 b13b 7362 803b efb5 2b3c d181 b63b
000000d0: fadc 7cbb d203 e5bb 601a 1a3c f509 263c
000000e0: 82fc bc3b 6a01 e4bb c04f bc3b f340 9e3b
000000f0: 4f05 043c 90c5 4cbb d5cd ad3c fb03 163a
00000100: 7d18 113c c720 99bb d300 57bb 58c2 623b
00000110: 08cd 34bb ddd3 52bc b72a 4cbc 1cd9 25bc
00000120: 5634 c4bb 6b20 e4b9 df0b 87bb 236f 7abc
00000130: 978a 02bb 3df0 35bb 5315 a3bb 3ba2 f1bb
00000140: fb07 ef3b d9d1 c43a cd90 81bb 0df5 adbb
00000150: 82e6 67bb 8f2c 67bc 0b5e 583c 238e d33b
00000160: 0723 17bb 2092 efba b834 3b3b 6540 123c
00000170: 93f6 0c3c 6f65 1abc 3679 47bc 068b 8f3b
00000180: 332f acbc cd5b c5bb 24f8 0db9 dacf cf39
00000190: 3b6d 533a bf1e 07bc 556e 6039 4d7f 87b7
000001a0: 8a01 d83b bbf2 db3b a821 30bc 9b7e 24bc
000001b0: a603 3fbc 8561 feba db7c 23bc ea9c ddb8
000001c0: 4fa2 9ebb d0ad a339 0515 843c d58c 643c
000001d0: b0bc 02bb f707 863c 6957 473a 4be3 b53c
000001e0: 9849 ff3b a260 48b9 e0f9 2dbc 70bd 693b
000001f0: 4ee5 233b 9fe6 153a 68ad f9bb 68ec 73bb
00000200: ca21 3c3c 6e97 9c3b 4632 393b 67ec 1939
00000210: fa6b 1ebc 1303 f7bb 13c8 5fbb 00f8 d1ba
00000220: db72 333c 8b24 b13b 5b1b 873b cdeb e0ba
00000230: d7b0 eebb 13c5 fc39 df60 61bb 253c 703a
00000240: 5bc1 f43a 8777 283c 4a3e ffbb 6bf4 123c
00000250: ca1e 8d3a 8fec 283b 7f78 73bb fab2 e03b
00000260: 2a8c 14bc 1bce 66bc ab31 abbc e2a5 de3b
00000270: f4ec 47bc 4239 9d3c 647f 04bc 27dc 66bc
00000280: 4ad6 3b3c a58b 113c aa0d 86ba d0a1 4fbc
00000290: 93a6 7e3c 2e80 2cbc 43b4 7b3c 5115 00bb
000002a0: 1b3d 68bb fccf a6ba 686d fe3b 33da 1ebc
000002b0: 6369 d1bb 37be 15bb 83e3 333b 52b6 653c
000002c0: 3d20 433a db2b 163a e8b7 093b 8f1d 82b9
000002d0: 57f5 79bb 4752 f3bb 4a66 903c 21f3 b7bb
000002e0: b268 913a 8d8c b5bb 4db6 173a d776 213c
000002f0: e4d9 c3bb 9236 0f3b 30cb 6d3b 9e2e 2ebc
00000300: 0ab7 a1bb a555 cbb9 13d0 1fbb 3fc1 6e3b
00000310: d4be 3e3c 7f54 cc38 654c 4abb 785b b33a
00000320: 6b48 fb3a 42d0 dbbb e73d d03b 1f41 56bb
00000330: c553 7db9 85af d5bb 68fd 143c 617c 91bc
00000340: 66b9 923b e1de 333b 403c 2ebc b3f2 84bb
00000350: 2d84 b43b ff0f ebbb c338 4d39 f248 babb
00000360: 4345 c93b 7ed0 843b 8a5d f5bb cfc8 04bc
00000370: 8ca4 1abc 1db8 893c 87f1 f8bb f07c da3b
00000380: 0b4f 233a b91e 1b3b 4453 19bc db88 4dbb
00000390: 3294 9d3a 538a 9fbb 7b31 3dbb a7d7 3b3c
000003a0: b024 163c 53ac ce3a ee1b 1439 35f2 3bbb
000003b0: f0f2 adbb dbb5 073c 9521 86bc a284 233c
000003c0: 80fc f6bb 00ed 4c3c ef1a ee3b b392 363c
000003d0: 65b3 fcbb 0810 df3b 14b8 93ba 1e80 1fbc
000003e0: 6ff7 c5b9 bf21 293b 85b5 103a 0304 61bc
000003f0: db4b 18bb 07c2 73bb 98fd 583b 0b00 1abc

action_model._discrete_distribution.branches.2.bias f4 [2]
0.0 0.0
00000000: 0000 0000 0000 0000
