MLBase/results/ppo/CaptureTheFlag/CaptureTheFlag-80.onnx (onnx, 123803 bytes, 9 tensors)

discrete_act_size_vector f4 [1, 3]
00000000: 0000 4040 0000 4040 0000 0040
3.0 3.0 2.0

network_body._body_endoder.seq_layers.0.weight f4 [128, 86]
00000000: dfb5 15be 7e56 55be ee5c 5a3e 337b 67be
00000010: 980b ad3d 3f90 45be bac4 f23d fb45 b43d
00000020: 0a07 7dbd 5a9a 69bd 6a9f 663d d1b0 a1ba
00000030: 176e cd3d 55a4 0f3d ac99 f4bd 703b 6f3d
00000040: f842 e73d 7b86 d93d 3a78 023e 7338 03be
00000050: 7e41 a43c 49e5 b03d 9c4b 243c 8012 1cbd
00000060: a779 e6bd 9ed4 9e3d 9e64 6d3d 1f55 4a3c
00000070: 6a67 b1bb 25a4 1dbe a410 9fbc 923d de3d
00000080: 3dd2 9ebd 6ee3 46bd 76e0 15be 840f 7c3d
00000090: 3db4 163e 9097 34be 8b91 20be 34e6 16be
000000a0: 531e 66bd 230c 2e3e e42f 6b3d f03c 00bd
000000b0: a7bd 3a3d 365e c5bd b7fa 323d 5971 e43d
000000c0: 0b72 82bd 50f1 ba3d 397c 173d fe3f d03c
000000d0: 4227 96bb 52cb 133e f964 5d3d a159 83bd
000000e0: aef3 303d 0998 9e3d 292d 6abc 375a 1cbc
000000f0: b864 78bd 34cd 3dbd 2abf f6bc 9143 993d
00000100: 5079 97bd accb 23be d0e7 b13d ef1b 6b3d
00000110: dc57 a3bd fd20 533e cc6e 3a3e 1adc c73d
00000120: 5f11 29be b8e5 d3bc c510 d63b dd75 be3d
00000130: 2f0c 183b 1253 6abe f10a 613b 93af 87be
00000140: f705 adbd 24eb 0cbd f7a3 b63d 1d51 153e
00000150: b912 8bbc 179d 72be 7823 a43e 351c b6ba
00000160: 4c2e 40bd 27b0 a1bd 1325 8ebd f0a8 673c
00000170: e261 99ba 0933 8c3d b3c6 fcbd 004d a1ba
00000180: 5c54 6bbc 4f0f b83d 8f18 063e 9781 d53d
00000190: a3ad 8bbe a3b8 c0bd 630d 143d a23b d4bd
000001a0: bff9 81be 9c55 793d ddb8 96bd 6f33 43be
000001b0: bf76 2cbe a1e6 823c 46e1 983d 0a56 843d
000001c0: b396 853d 86da 443e 022e 9bbe 9a10 5bbe
000001d0: c7b3 54be ccd0 8f3d dcd1 063b bcf3 3fbe
000001e0: c8af aebc 7a39 163c ea31 323e 3a4c 783b
000001f0: 03f2 f7bc 556f 87bd 80c3 f2bd ff36 9ebe
00000200: 015f a93d a16a 8abd 306a 3b3d 3746 27bd
00000210: 1e25 843d b000 b4bd db64 bb3c c09c 2e3e
00000220: bea8 e53d 127a 40be 8f23 06be abd8 223e
00000230: 9860 cfbb 4c6a 543e 7909 a5bb fe72 1fbe
00000240: febe 55bd 3820 a7bd f2d2 febd f462 f43c
00000250: b812 7d3d 6efc 2bbe 2d53 bebd 54fb 3a3e
00000260: d98b 81bd 0c3f 5c3e 8e76 77bd 75e2 c53c
00000270: 5f54 45be 49f8 64be 2062 15bc 3a3a 3c3e
00000280: 67ec 183c f76e a2bd 82fd 8fbd acae 593d
00000290: 456f 023e 8373 af3d 8b0e 133e 6145 d4bd
000002a0: f8cc c6bd 7478 24be a777 9d3d 6120 1dbd
000002b0: 391a 11be d7fd cf3b 84bc ab3c 4530 a0bd
000002c0: eb64 f7bd e91b 9c3c 3eb7 e7bd ea13 fdbc
000002d0: 6c22 a5be 7cb6 7a3d 3e92 4ebd 6d21 89bd
000002e0: e6c5 67bd 9d49 8f3c 09fe 1abe d5eb 3c3e
000002f0: 77e0 c1bd df84 2dbd 69b1 0f3d bdfc fa3d
00000300: 771f 53be c91c cebc 5e1e 1c3e 1c46 5ebb
00000310: 510c aa3d 9ac0 99bc 552b fcba 496d 883d
00000320: 7d0b 933c cfb5 193e baaa 9fbc 45f3 0c3e
00000330: d649 b5bd ee21 223e c843 923d e14f edbd
00000340: 0ccd 36bd 491c 08be bc0a 853d 32f5 d73d
00000350: 6f41 0b3c c47a 1abe 8b7f c4bd 6540 e73d
00000360: 172d 3d3e 71e8 503d 0282 14bd 7559 37be
00000370: 1ea0 48be e07c 84bd 6b51 87bc 900f 2d3e
00000380: bd2a 7d3e 781c 61bd 469d 97bd ecbf fb3d
00000390: a470 023d 7c6b 23be 7ec3 bebc 16d9 0f3e
000003a0: a3fe 6dbd 7bd6 1b3e 419b fbbd f2de 3cbd
000003b0: bc7e 803c b3af 15be 1dea 533e c620 11be
000003c0: 00c7 003d 6438 b63d f535 e7bd 3709 28bd
000003d0: 0e1c 0f3e ef9c 66bc 31e6 033e a39e 90bc
000003e0: 44a4 753d f61c 1a3d f89d ffbd 970c 2bbe
000003f0: 2691 6b3e 4def dc3c c17f d33c 239c 2f3d
-0.1462016 -0.20833775 0.21324512 -0.2260559 0.08449477 -0.19293307 0.11853929 0.0880241
-0.06177429 -0.057031967 0.056304373 -0.0012336021 0.100307636 0.03506883 -0.11943373 0.058406293
0.1129207 0.10621353 0.12741175 -0.12814502 0.02005076 0.08637483 0.010027792 -0.03810358
-0.11253672 0.07755397 0.057957284 0.012349396 -0.0054139392 -0.15394647 -0.019417115 0.10851587
-0.077549435 -0.048556738 -0.14636406 0.061538234 0.14717193 -0.17635942 -0.1568052 -0.14736253
-0.056181263 0.16996817 0.05741872 -0.031308115 0.045591023 -0.0963711 0.04369613 0.11154432
-0.06369408 0.09128058 0.036983702 0.025421139 -0.0045823166 0.1443303 0.054051373 -0.0641358
0.04320114 0.07743842 -0.014292994 -0.009542993 -0.060642928 -0.046338275 -0.030120451 0.074835904
-0.073961854 -0.15995663 0.08686793 0.057399686 -0.07975742 0.20618053 0.18206328 0.09758778
-0.16510533 -0.025866374 0.006532761 0.092998244 0.0023200621 -0.22883251 0.0034338797 -0.2650114
-0.08448403 -0.034403935 0.089179926 0.14581724 -0.016976701 -0.23692738 0.3205831 -0.0013893904
-0.046919152 -0.078949265 -0.06940665 0.014139399 -0.0011702145 0.06845672 -0.12342586 -0.0012306273
-0.014363375 0.08987295 0.13095306 0.10425108 -0.27280912 -0.09410217 0.03614558 -0.103629366
-0.25385854 0.06087266 -0.073594786 -0.19062589 -0.16842173 0.015979113 0.074648425 0.06461723
0.06522884 0.19223985 -0.3030854 -0.21393052 -0.20771705 0.07022247 0.0020571863 -0.18745321
-0.021324053 0.009168977 0.17401853 0.0037887231 -0.030266767 -0.06613032 -0.11853695 -0.30901334
0.08270074 -0.06758619 0.045755565 -0.040838446 0.06452392 -0.08789194 0.02287524 0.17051983
0.11213826 -0.18796566 -0.13099502 0.15902965 -0.0063286535 0.20743674 -0.0050365296 -0.1557121
-0.052184097 -0.08160442 -0.124425784 0.02983234 0.06178543 -0.16795513 -0.09293208 0.18259937
-0.06325502 0.21508425 -0.060415797 0.024155835 -0.19270466 -0.22360338 -0.009117633 0.18381587
0.009333706 -0.07931321 -0.07030775 0.053145096 0.12737758 0.08566954 0.14361016 -0.103647955
-0.097070634 -0.16061574 0.076888375 -0.038360957 -0.1417016 0.0063473987 0.020963915 -0.07821707
-0.120797954 0.019056277 -0.113142475 -0.030893285 -0.32252824 0.061209187 -0.050432436 -0.066958286
-0.056585215 0.017491156 -0.15135969 0.18449338 -0.094666414 -0.042363044 0.0350813 0.12255237
-0.20617472 -0.02516021 0.15245959 -0.00339163 0.083031304 -0.018768597 -0.0019238988 0.066614695
0.017949814 0.1501076 -0.019490588 0.13764675 -0.08851974 0.15833256 0.071418345 -0.11587501
-0.04462914 -0.1329204 0.06496188 0.10544814 0.008499487 -0.15085894 -0.095946394 0.11291579
0.18474232 0.051002923 -0.036256798 -0.17905219 -0.1959233 -0.064691305 -0.016518315 0.16900468
0.24723335 -0.05495879 -0.074030444 0.122924656 0.031845704 -0.15958971 -0.023286577 0.14047655
-0.05810417 0.15218537 -0.12285472 -0.046111055 0.015685432 -0.14617805 0.20694776 -0.14172658
0.03143978 0.088974744 -0.11289588 -0.041024413 0.13975546 -0.014075502 0.1288078 -0.017653769
0.05997111 0.037625276 -0.12481302 -0.16704021 0.23004588 0.026969576 0.025817754 0.042873513

network_body._body_endoder.seq_layers.0.bias f4 [128]
00000000: 0000 0000 0000 0000 0000 0000 0000 0000
00000010: 0000 0000 0000 0000 0000 0000 0000 0000
00000020: 0000 0000 0000 0000 0000 0000 0000 0000
00000030: 0000 0000 0000 0000 0000 0000 0000 0000
00000040: 0000 0000 0000 0000 0000 0000 0000 0000
00000050: 0000 0000 0000 0000 0000 0000 0000 0000
00000060: 0000 0000 0000 0000 0000 0000 0000 0000
00000070: 0000 0000 0000 0000 0000 0000 0000 0000
00000080: 0000 0000 0000 0000 0000 0000 0000 0000
00000090: 0000 0000 0000 0000 0000 0000 0000 0000
000000a0: 0000 0000 0000 0000 0000 0000 0000 0000
000000b0: 0000 0000 0000 0000 0000 0000 0000 0000
000000c0: 0000 0000 0000 0000 0000 0000 0000 0000
000000d0: 0000 0000 0000 0000 0000 0000 0000 0000
000000e0: 0000 0000 0000 0000 0000 0000 0000 0000
000000f0: 0000 0000 0000 0000 0000 0000 0000 0000
00000100: 0000 0000 0000 0000 0000 0000 0000 0000
00000110: 0000 0000 0000 0000 0000 0000 0000 0000
00000120: 0000 0000 0000 0000 0000 0000 0000 0000
00000130: 0000 0000 0000 0000 0000 0000 0000 0000
00000140: 0000 0000 0000 0000 0000 0000 0000 0000
00000150: 0000 0000 0000 0000 0000 0000 0000 0000
00000160: 0000 0000 0000 0000 0000 0000 0000 0000
00000170: 0000 0000 0000 0000 0000 0000 0000 0000
00000180: 0000 0000 0000 0000 0000 0000 0000 0000
00000190: 0000 0000 0000 0000 0000 0000 0000 0000
000001a0: 0000 0000 0000 0000 0000 0000 0000 0000
000001b0: 0000 0000 0000 0000 0000 0000 0000 0000
000001c0: 0000 0000 0000 0000 0000 0000 0000 0000
000001d0: 0000 0000 0000 0000 0000 0000 0000 0000
000001e0: 0000 0000 0000 0000 0000 0000 0000 0000
000001f0: 0000 0000 0000 0000 0000 0000 0000 0000
0.0 0.0 0.0 0.0 0.0 0.0 0.0 0.0
0.0 0.0 0.0 0.0 0.0 0.0 0.0 0.0
0.0 0.0 0.0 0.0 0.0 0.0 0.0 0.0
0.0 0.0 0.0 0.0 0.0 0.0 0.0 0.0
0.0 0.0 0.0 0.0 0.0 0.0 0.0 0.0
0.0 0.0 0.0 0.0 0.0 0.0 0.0 0.0
0.0 0.0 0.0 0.0 0.0 0.0 0.0 0.0
0.0 0.0 0.0 0.0 0.0 0.0 0.0 0.0
0.0 0.0 0.0 0.0 0.0 0.0 0.0 0.0
0.0 0.0 0.0 0.0 0.0 0.0 0.0 0.0
0.0 0.0 0.0 0.0 0.0 0.0 0.0 0.0
0.0 0.0 0.0 0.0 0.0 0.0 0.0 0.0
0.0 0.0 0.0 0.0 0.0 0.0 0.0 0.0
0.0 0.0 0.0 0.0 0.0 0.0 0.0 0.0
0.0 0.0 0.0 0.0 0.0 0.0 0.0 0.0
0.0 0.0 0.0 0.0 0.0 0.0 0.0 0.0

network_body._body_endoder.seq_layers.2.weight f4 [128, 128]
00000000: a1aa f5bd 8ba6 c7bd c1a7 b73d 2025 a3bd
00000010: 6ad8 713c 0144 ef3d e689 29bc a80e 5fbc
00000020: 3873 8bbc e300 833d bbc6 1c3d 2f58 293e
00000030: a02c 96bd 43fc 7d3d 417b cc3d 8f64 023e
00000040: 472f b9bd 598a d93d ee5f 633b 2935 8a3c
00000050: d4ef 653e ba72 923d c21d cbbd 8846 0fbe
00000060: b6ed 7d3d 01ec 853d 0298 863c c9d3 53bd
00000070: 56f2 6b3d 96e7 203e 237a 163d cb5a cdbc
00000080: 83a5 573d ecfc c2bd e293 c6bd 1aa9 30bd
00000090: b86c 38bb 8fda f43c cc09 e23d 111c 15be
000000a0: e014 c03c 0164 cbbd f666 f03c 3a7a b13d
000000b0: d7e4 ee3d 8849 5a3d 68ee 52bd bac2 6abd
000000c0: 5535 ca3b fe44 43be 644a e5bc dc13 393d
000000d0: d40b 773c c5c0 9c3d 64dd d2bc 57ae 5ebd
000000e0: 1e29 b2bd c747 f5bd c7e1 88bc 4313 b23d
000000f0: fc80 363d 35fc 063e 5971 8fbd 7271 84bd
00000100: 49cd c53c 1588 9dbd a1b2 a13d e505 a13d
00000110: 8eab 37bc 2e95 923d da70 7f3d dfe7 02be
00000120: 0057 403c 6abe db3d 9ce3 2abd 2ef2 933d
00000130: 96de 053d c10c 2c3d 25fe 15bd a0f1 e23d
00000140: 71a3 da3d 4b84 b0bc 9e8e a63d 5c2f 7abe
00000150: 727f 32be d12d 703d 984e 193d c18e 83bd
00000160: 34f6 40bd 82f7 aabd 663c e43c 408c 3b3d
00000170: f77e e13d 7ff6 44be bde4 d1bd f103 a7be
00000180: 4249 c8bd 6c1d 6c3e a8b5 3abd cec0 b23d
00000190: 898a 003d 5b1e d9bd 5f4a 41bd fa45 3a3d
000001a0: d3ff b53d dbea 2a3d e311 973c 0031 86bd
000001b0: 0fd8 7ebe cd91 e8bd 571b b03d c713 333d
000001c0: 812e 353d 45b6 fc3c 0525 69bd c287 47bd
000001d0: 3513 423d d7f7 723c 311b 5c3d 74f0 46bd
000001e0: c482 62bd 02c0 01be 1174 5ebd df79 1a3d
000001f0: ec9f 2b3d fcf8 e1bd 3f73 543d 93e5 a6bd
00000200: b85c 24bd c7e1 39bd 4b91 b7bd a9c4 5fbd
00000210: 854e 16bd 1988 60bd d923 a63d 067b 01be
00000220: 7610 193d 4b19 43bd f9f4 8a3d cfdc a23d
00000230: cfbf e0bd 292a e23c 208b a1bd abe2 213e
00000240: dc46 28bd 8f0a 30bd 67e9 b0bd 5fef 86bd
00000250: 2e83 843d 109f 593d ffbf bdbc fef3 6c3d
00000260: 68e0 743d e7ea 2bbd 4ec5 f1bd d183 373d
00000270: 06b4 983c 7dee 38bd 8038 0c3d c377 92bd
00000280: 1b32 dd3d c0e0 f43c 9e71 debc 8d34 24be
00000290: 1a0f 2b3c 9262 1bbd a251 2abd 5ca1 683d
000002a0: 6655 a1bd 4257 c03d a283 313e eb33 55be
000002b0: 12b6 e1bc 75e9 41bd 9763 7bbd 3219 00bd
000002c0: 135e e53b 020b 0d3d ce03 36bd 43be 7cbd
000002d0: 871f 1a3e b94d 663d 1c17 78bd 794b cabd
000002e0: 62a3 b23d 051e cbbd e5b1 24be 0b6e 86bd
000002f0: 9060 48bd 56ea 243d 31ec c23d 443a c23d
00000300: a2ce 47bd 229b a2bc d195 bebd 2e1c 673d
00000310: f2e3 e83d 4b1b 2bbd 1b86 96bd c3dd 743c
00000320: 2f60 bdbd c358 c6bd e01b a6bd 8d3c dc3d
00000330: c452 f139 906f 513d 8869 bc3c 0aba 01b9
00000340: 0fc7 89bd 7051 72bd 63da e5bc 00aa ad3b
00000350: b832 70bd b2e8 37bb 61b2 76bd dc4b 93bd
00000360: e418 04bc 45de f8bd 1908 8f3d 709c d13c
00000370: 6b88 9bbd c5c6 c83b 566d 1dbe bc62 dabd
00000380: 83f9 2e3d 1d61 adbd 8c75 34be c37f 563d
00000390: e41d f33d 4fa7 92bd fb49 02bd eb02 33bd
000003a0: f35b 313d 670d db3c f382 fbbc 40f9 98bd
000003b0: f26f 8dbd 8b84 90bd 12b7 243e 82a4 1e3d
000003c0: e36f a13d 0481 f93d ea54 f2bc b140 07be
000003d0: a214 083d 486e adbd 7fab 1c3e ebae 543c
000003e0: 3a33 f5bc f2de 773d c744 483d fc5f 89bd
000003f0: 0cc1 ce3c 22ca 27bd 50ed cc3d 4f2d 96bd
-0.119954355 -0.097485624 0.089675434 -0.079660654 0.01476107 0.116828926 -0.010347819 -0.013614334
-0.017022714 0.063966535 0.03827546 0.16537546 -0.0733273 0.062008154 0.09984446 0.12733673
-0.090422206 0.10622091 0.003469463 0.016871052 0.22454768 0.071507886 -0.09917785 -0.1399175
0.061994277 0.06539155 0.016429905 -0.051715646 0.057604156 0.15713343 0.036737572 -0.025067708
0.05264808 -0.09520897 -0.09696175 -0.043130018 -0.0028140973 0.029889373 0.11037025 -0.14561488
0.023447454 -0.099311836 0.02934597 0.08665891 0.116647415 0.05329278 -0.051496893 -0.057314612
0.0061709085 -0.19069287 -0.027989574 0.045184955 0.015078504 0.07653955 -0.025740333 -0.054365482
-0.08699249 -0.11976581 -0.016709222 0.0869508 0.044556603 0.13182147 -0.07004041 -0.064669505
0.02414574 -0.07691971 0.07895399 0.078624524 -0.011210335 0.0715736 0.062363483 -0.12783764
0.011739492 0.10729678 -0.04172097 0.072239265 0.032682978 0.04200435 -0.036619324 0.110812426
0.10675705 -0.021547457 0.08132671 -0.24432129 -0.17431429 0.058637444 0.03742847 -0.064237125
-0.047109798 -0.083479896 0.027860831 0.04578805 0.11010545 -0.19234656 -0.102487065 -0.32620195
-0.09779598 0.23058099 -0.045583397 0.08728181 0.031382117 -0.10601493 -0.047190066 0.04547689
0.08886685 0.041727882 0.018441146 -0.06552315 -0.24887107 -0.11355934 0.08598965 0.043720033
0.044233803 0.030848632 -0.05692007 -0.048713453 0.0473816 0.014829597 0.05373687 -0.048569158
-0.05530049 -0.12670901 -0.05430991 0.03771388 0.04190056 -0.11033818 0.05186772 -0.081492566
-0.040127486 -0.045381334 -0.08963259 -0.05463091 -0.036695976 -0.054817293 0.08112306 -0.12644586
0.037369214 -0.047631543 0.06785006 0.07952272 -0.109740846 0.027607994 -0.07887864 0.15809123
-0.0410832 -0.04297882 -0.08638268 -0.06588625 0.06470333 0.05313021 -0.02316284 0.057849877
0.059784323 -0.041972067 -0.11805211 0.044803444 0.01864053 -0.045149315 0.03423357 -0.07151749
0.108005725 0.029892325 -0.027153786 -0.16035672 0.010440612 -0.0379358 -0.041581757 0.05679451
-0.078776166 0.09391643 0.1733537 -0.20820586 -0.027552638 -0.047341783 -0.061374273 -0.031274028
0.00699974 0.034434326 -0.044437222 -0.061704885 0.15051089 0.056226466 -0.060568914 -0.098776765
0.08722569 -0.09917835 -0.16083486 -0.06563958 -0.048920214 0.040262543 0.09517706 0.094837695
-0.048781045 -0.019849364 -0.09305919 0.05642336 0.11371602 -0.041774075 -0.07349797 0.01494545
-0.09246861 -0.09684899 -0.081107855 0.10753737 0.00046028767 0.051131785 0.02299954 -0.00012371704
-0.067274205 -0.059159696 -0.028058236 0.0052998066 -0.05864212 -0.0028062281 -0.06022871 -0.071922034
-0.008062575 -0.121517695 0.069839664 0.02558729 -0.07594379 0.006127211 -0.1537374 -0.10663363
0.04271842 -0.084657885 -0.17622966 0.052367937 0.118709356 -0.07160818 -0.031808835 -0.043703955
0.04330058 0.02673979 -0.03070209 -0.07469416 -0.069061175 -0.070565306 0.16085461 0.038731106
0.07882669 0.12182811 -0.029581506 -0.13208272 0.033222802 -0.084683 0.15299796 0.012981157
-0.029931653 0.06051535 0.048893716 -0.06707761 0.025238536 -0.040964253 0.10006201 -0.07332861

action_model._discrete_distribution.branches.0.weight f4 [3, 128]
00000000: 5968 233c 7d5c c63b d714 593b adf2 7fbc
00000010: 39b9 9c3b 7ba3 803c 6b80 5dba 6ef2 2fbb
00000020: eb02 fb39 dde7 46bb aa2e 5e3c c3c1 263c
00000030: 10bb e53b fb75 d7b9 8ded 943c ea60 14b9
00000040: 75b8 6a3b 1865 963c 302b 453c dff9 d43a
00000050: ecce 283c d85a 583b b530 e9bb 27f4 34bc
00000060: 1339 bc3a 1bb5 b7bb afd3 7dbc ab3c a7ba
00000070: cfd4 ef3b aa08 1f3a c5e5 783a c8ce 00b9
00000080: 0822 4cbc 4595 3fbc 1d43 593c d29f 2f3c
00000090: 15ed 803c dc8e 9e3c fb75 2d3b ef40 343c
000000a0: 2744 cd3b 2c91 c8ba 7f7f 573c a7f4 ecbb
000000b0: c7aa 86bc 3bbf bbba 4aca dbbb a37a 3f3b
000000c0: 8086 913b 0137 45bc 2a8f e9ba 6fe0 a2bc
000000d0: 1ab4 7fba 28b8 feb9 dacb e9bb d416 91bc
000000e0: 277e aab8 a777 27bc 5f1c c4bb 67ab 44b9
000000f0: 0b9b 75ba b7a8 3f3c d697 88ba 8ac9 4e3c
00000100: 6934 c43c 797e 803b b3a6 2dbb b772 28bc
00000110: 2d86 f4bb e3b9 553b 90b0 103c fdc7 7d3b
00000120: d793 15bc 71a4 1c3b 5dac 5b3b 3f3a dbbb
00000130: 276c ac3b fb87 37bc e84d 553c 5aa1 523b
00000140: 0a81 b63b 4809 443c bfce 0abb 7b8a c0bb
00000150: 1c26 253c cbeb 033c e529 833c 50e1 87bc
00000160: 36bf c1ba 2fd9 b53b 5a16 62bc 5230 80bc
00000170: 6b00 adbb 3da1 5dbb 0e6b 0bbc d72c 73bc
00000180: 6cff 3eb8 1d43 efbb 9327 7eb9 2de8 82bb
00000190: 3dc9 3ebb 3f38 b5bb ab96 9cba 8a72 04bc
000001a0: 6c12 94bb 307a 2cbc af85 8c3c 1ba5 98b9
000001b0: b325 b63a 1d07 793b 55e5 f33b e5a2 5dba
000001c0: a82f 80bb 9628 493c 1081 d13a a1d5 2cbb
000001d0: d84b 56bc 4913 11b8 742c 0d3c 2364 a03a
000001e0: adc5 fd3b 4d59 6dba 7230 fcbb d754 9c3a
000001f0: af8f 3ebc d75b b5bb 103a 2abb eed5 31bb
00000200: 30d6 6abc 5365 133c 4638 2a3c 1268 05bb
00000210: 17e6 233b 10c4 7dbc 4f5f 1b3c 67a9 a438
00000220: fb6c 0a3c c328 013c 0b9d 6cbb 920b 0a3c
00000230: f406 b7bb 9b22 793c 67b7 4d3b b502 173c
00000240: 82e2 e3bb 9a0f 163c dade e3bb e2d4 0b3c
00000250: f7f7 6ebb f04e ef39 e783 0cbc 2a4c 553b
00000260: 93a0 3dbb 2b1e 2ebc 132d 983c 262e 973c
00000270: 8033 043c 53f3 663a 90e9 22bc 88b9 edbb
00000280: f5f4 803c 64f5 0bbb 2b4e 3cbc c505 8e3c
00000290: 7fcd 203b ad32 cb3b e637 3b3b 620b b93c
000002a0: 3b33 7eb9 03cc 093c 0fc8 473b 17f4 58bb
000002b0: 7320 8bbc e337 dcbb 9fb7 633c ccef a63c
000002c0: ab47 85bb 45f5 a03b 43e4 d9bb d361 b6bb
000002d0: e927 23bc 4b68 343c 755f dbbb 3296 e2bb
000002e0: 9fcc 8fbc 3897 7ebb 8f9c e43b db66 35bc
000002f0: 1487 3dba 8be4 8bbc 038d c63a f7cc 9639
00000300: 1b84 aa3b dd18 e239 9ec1 aebb a517 293c
00000310: 2e4b 9e39 36ab 03bb 49ab b3bb bfa2 86bb
00000320: 48cf 4f3c 4220 04bc db3d ff3b dd72 b63a
00000330: 0366 48bc 43fd 9439 df0d 63bb 0897 333c
00000340: 7394 313c 70ed 663c 422b 4ebb 4b5f 7abb
00000350: c788 2f3c 7250 73bc 6e30 403c 093e b1bb
00000360: 35f1 1a3c 6f12 05ba 0226 af3a fbc6 0bbc
00000370: bf67 2abb f841 79bc 83c7 fabb 634d 28bc
00000380: f8a7 913a 2366 1a3c 472b 6cbc 93e7 933b
00000390: 7b51 d1b9 b072 dc3a 1fa9 e43b 7816 81bb
000003a0: 1395 34bb a8b0 d23b 7bef 4abc 79bb 26bc
000003b0: 56fe 0dbc 6f21 acba 6b73 55bb c77b 8a3a
000003c0: f754 2ebc 4cfa afbb d55e 3abc c374 433c
000003d0: 53f0 7a3c 8149 35bc 4f7d f0b9 f1ce 3cbc
000003e0: b790 363a d539 5dbb 9fe9 f4ba ba76 86bb
000003f0: 8955 863b fff1 893c f46e a4bc 4291 003c
0.009973609 0.006053506 0.0033123994 -0.015621823 0.0047828224 0.015702954 -0.0008449617 -0.002684738
0.00047876625 -0.0030350604 0.01356093 0.010178032 0.007010825 -0.00041095898 0.01817968 -0.00014150483
0.0035815511 0.018358752 0.0120342225 0.0016248784 0.01030324 0.0033013131 -0.007116402 -0.011044539
0.0014360271 -0.0056063063 -0.015492364 -0.0012759169 0.00731907 0.00060666597 0.00094946875 -0.00012284063
-0.012459286 -0.0116933035 0.01326063 0.0107192565 0.01573805 0.01935523 0.0026468027 0.0110018095
0.006264228 -0.0015302054 0.013152956 -0.0072313133 -0.016438855 -0.0014323959 -0.0067074643 0.0029217384
0.0044410825 -0.01203704 -0.0017819155 -0.019882409 -0.0009754315 -0.00048583862 -0.0071348967 -0.01771108
-8.1297294e-05 -0.010221398 -0.0059848274 -0.00018755869 -0.00093691115 0.01169794 -0.0010421227 0.012621293
0.023950772 0.0039213267 -0.0026497066 -0.010281256 -0.007462284 0.0032612018 0.008831158 0.0038723939
-0.009129486 0.0023901726 0.0033519485 -0.006690293 0.005261916 -0.011201854 0.013019063 0.003213963
0.005569582 0.011965103 -0.002118036 -0.005875883 0.010079887 0.008051823 0.016011188 -0.01658693
-0.0014781717 0.005549572 -0.013799274 -0.01564804 -0.005279591 -0.003381803 -0.008509411 -0.014842234
-4.553741e-05 -0.0073017017 -0.0002423807 -0.0039949627 -0.0029111647 -0.0055303867 -0.0011946758 -0.008083949
-0.0045187976 -0.010527179 0.017153589 -0.00029114712 0.0013896733 0.0037998625 0.00744311 -0.0008454754
-0.003911931 0.012277743 0.0015983898 -0.002637245 -0.013079606 -3.4588655e-05 0.0086165555 0.0012236874
0.007744512 -0.00090541394 -0.007696205 0.001192714 -0.0116309365 -0.00553463 -0.002597455 -0.0027135569
-0.014333293 0.008996326 0.010389393 -0.002035622 0.002500897 -0.0154886395 0.009483173 7.851683e-05
0.0084488345 0.0078832535 -0.0036104347 0.00842561 -0.0055855457 0.0152060045 0.0031389834 0.009216954
-0.006954492 0.009158993 -0.006954056 0.008534642 -0.0036463717 0.00045644445 -0.00857637 0.0032546618
-0.002893482 -0.01062731 0.01857618 0.018454622 0.008068919 0.0008810062 -0.009943381 -0.007254783
0.015741805 -0.002135598 -0.011493246 0.017336736 0.0024536548 0.0062011094 0.0028567254 0.022588436
-0.00024242412 0.008410457 0.0030484234 -0.0033104473 -0.016983246 -0.0067205294 0.013898759 0.020378016
-0.0040673814 0.004912051 -0.0066495254 -0.005565861 -0.009958246 0.0110111935 -0.006694729 -0.0069148773
-0.017553626 -0.0038847458 0.006976671 -0.011071886 -0.0007229906 -0.017076751 0.0015148226 0.0002876294
0.0052037365 0.00043124604 -0.0053331396 0.010320579 0.00030192122 -0.0020091063 -0.0054830653 -0.0041087563
0.012683697 -0.0080643315 0.007789356 0.001391973 -0.012231353 0.00028417454 -0.003464572 0.010961302
0.010838616 0.014094695 -0.003145889 -0.0038203772 0.010713763 -0.014850723 0.011730297 -0.0054090065
0.009456922 -0.0005076294 0.0013362768 -0.008531327 -0.002600178 -0.015213482 -0.007653178 -0.010272357
0.0011112681 0.009423765 -0.014414615 0.00451369 -0.00039924294 0.0016818848 0.0069781686 -0.003939446
-0.0027554675 0.0064297505 -0.012386198 -0.010176533 -0.008666595 -0.0013132523 -0.0032570015 0.0010565453
-0.010640374 -0.005370414 -0.011375149 0.011929694 0.015316087 -0.011064888 -0.0004586973 -0.011523948
0.0006964313 -0.0033756394 -0.0018685347 -0.004103509 0.004099552 0.016839026 -0.020072438 0.007847132

action_model._discrete_distribution.branches.0.bias f4 [3]
00000000: 0000 0000 0000 0000 0000 0000
0.0 0.0 0.0

action_model._discrete_distribution.branches.1.weight f4 [3, 128]
00000000: 6853 f93b 2c9e 803c cb31 a8bb d215 c9bb
00000010: d8e1 763c 76ad a9ba f002 d6b9 858d b93b
00000020: da60 e9ba ba85 923b b5ed 14bb 7042 d23a
00000030: f2b1 c9ba c5cd 52ba 830d 3f3a 1bfb 92ba
00000040: 5a9b 90bc 2782 5a3c 2196 933b 6526 5fba
00000050: 6f48 383c cf43 933b bf30 a3bb 3f73 593c
00000060: 01f0 2bbc bba7 be3b b3f4 6aba 6ffd f7bb
00000070: 6260 15bc 87f1 763b 651a f73b 3b15 4e3c
00000080: 0dc5 d53b e029 13bc b55d e53b 9bd4 a13b
00000090: 0f66 363b 440f 82ba e164 adba e4bb c73b
000000a0: 0bff 1d3c 9d1c e03b 03cd ccbb bda3 733c
000000b0: 7a16 5f3b 9cd7 bf3b b0fd 4c3c 8088 74ba
000000c0: 5f73 9d3b 1d9b cabb 342e 263a d3c6 0fb9
000000d0: 3c5a 3f3b 9a13 f23b 91b5 04bb 81a0 47bc
000000e0: 0b8c 3e3c 9f14 373c 70db 57bb 971b d33b
000000f0: 91a3 b73c 6e6a a0bb 7701 b93a 6cbe 333c
00000100: 3719 5c3a 1729 2f3c 0125 bf3b 7ce6 17bc
00000110: 7e9b 10ba 6cd0 9b3b 033f cfbb 0606 bdbb
00000120: a717 f9ba e81e 0f3c c3ea 9f3a 4bad 513b
00000130: 537e 42bc 842e 07bb 646a 1cbb 356e cbbb
00000140: 8aa7 14bc c39e 2e3b 658a b0bb 9352 753c
00000150: a5cf 603c 72db 4cbb c077 31bc 5d5a f63b
00000160: eb9d dd3b 5780 88bc 53ed 8dbb 0509 a6bc
00000170: 9f8e 14bc 70b4 55bc 0fe7 b83b 56bc 85bc
00000180: 5f03 863b b736 033c 3309 a53b ab19 4f3c
00000190: 47cd 513b 3d81 a43b 6d1d 573b dd55 05bc
000001a0: 83f3 af3b 37f2 2abc 9fd8 13bb 1f1b 1bba
000001b0: 0ec1 8d3a 790f 173c fbf9 843b 2d2a 9a3b
000001c0: d599 613b d531 8ebb 1a83 333b 6a76 e7bb
000001d0: fbca fabb 28ce f9b9 dbb3 c6bc d20d 62bb
000001e0: 3774 483c 08ea e93a 8f0a 53bc 8f6b 96bb
000001f0: efb7 2cbc 7f61 0e3a f139 c1bb 0830 173c
00000200: aa3a 883a 475e a53c dfce 81bb af5a b63b
00000210: e202 09bc 6fab 8a3c f1c5 273c 8c68 9abb
00000220: a540 d1bb f94e bd3a f527 7fbc b907 2fbb
00000230: c6b0 4a3c 7885 f3bb b207 783b aa43 c23b
00000240: fffe 33bc 5391 fb3b 8b0d 153a e286 f3bb
00000250: 1a7c 803a 86ec 173c 6fe4 8f3c 8342 edbb
00000260: 939f 6fbc bbec 733c a91d 8cbb 6b7b 7e3b
00000270: 6f30 09bb 4ccc 8b3b 3d1a 77bb 28f1 4fbc
00000280: 170e ccba 1379 2bba b569 e33b 7746 2bbc
00000290: c39f c3bb 8820 d03b 6a79 21bc d0d7 5339
000002a0: 8d91 6b3c a887 4fbc 6e4a 99b9 d69d bcbb
000002b0: 6278 7a3b 0402 1e3b f5b8 cc3b 1da2 e5bb
000002c0: d9c8 adbc cf3e cfbc 2f91 10bb db8e 2cbc
000002d0: a5a8 ff3b ea30 4abc cd0a 52bc 8747 d0b9
000002e0: 9212 413c f4db 223c 6c6e 963a 7c7e 45bc
000002f0: 3c40 0fbb b886 a73b 9f11 01bc bb33 59bc
00000300: c7b7 e53b 36ca 0fbc b465 abbb d582 363c
00000310: 3d67 383b 7a97 953a 7ba6 d43b f198 483c
00000320: 4bef f2ba 2755 3e3b b2bd 113c 72c1 423b
00000330: ddb0 2dbb 93db b83a db6f 54bb 2b23 9ab9
00000340: d526 1dbc e342 44bb 0cb7 853b 3bbf bbba
00000350: 1331 c63a 1af2 f2bb ab03 973c 9b14 c13c
00000360: c36d 7b3c 906f 6b3c 69ed 893b 2abd 98bb
00000370: 90c1 5b3c 91e5 253c a2ee 6f3c 6729 8639
00000380: 09c0 28bc afde a6bb b2a5 29bc ef9a 463c
00000390: 2557 d73a 9351 92bb 1f83 e73a c7ef b23a
000003a0: 75ef 36bc e3cd 933b 6fe9 863b e35f f23b
000003b0: df8b 013c e5d1 32bc 606b 1abc b3d5 283c
000003c0: 537e 5b3b 4a48 ec3b f3d0 faba bd55 ec3b
000003d0: cd68 a23b cfd6 843b 85ac 453b 57bd 02bc
000003e0: d09d 66bc 1efa abbb 1439 333c 6b17 383c
000003f0: 5373 543b 28b9 9f3b e01c 7939 73f0 103c
0.0076088198 0.015700422 -0.005132889 -0.0061366344 0.015068494 -0.0012945372 -0.0004081945 0.0056626224
-0.0017805353 0.004471508 -0.0022724692 0.0016041528 -0.0015388115 -0.00080415263 0.0007288085 -0.0011213751
-0.017652202 0.013336695 0.0045039807 -0.0008512496 0.011247738 0.0044941674 -0.004980176 0.013272106
-0.010494233 0.005818335 -0.00089628546 -0.0075680534 -0.009117218 0.0037680583 0.0075409883 0.012578304
0.0065237344 -0.008982152 0.006999696 0.0049386746 0.0027831828 -0.0009922762 -0.0013228917 0.0060953964
0.0096433265 0.0068393485 -0.0062500252 0.014870581 0.0034040497 0.00585456 0.012511656 -0.00093282014
0.004805013 -0.0061830417 0.0006339282 -0.0001371161 0.002919807 0.0073875906 -0.0020249824 -0.012184263
0.0116300685 0.01117435 -0.0032937191 0.006442498 0.022416862 -0.0048955 0.0014114816 0.010970693
0.0008396091 0.010690949 0.0058332686 -0.00927126 -0.0005516334 0.0047550704 -0.0063246503 -0.0057685403
-0.0019004241 0.008735396 0.0012200702 0.003199416 -0.011870938 -0.002062709 -0.0023867125 -0.006208206
-0.009073148 0.0026644922 -0.0053875917 0.0149733005 0.013721381 -0.003125873 -0.010831773 0.0075180964
0.00676321 -0.01666276 -0.0043312698 -0.020267973 -0.009067207 -0.013043508 0.0056427787 -0.016325157
0.0040897573 0.0080086505 0.005036497 0.012640397 0.0032013224 0.005020289 0.0032823936 -0.008138147
0.005369605 -0.010433725 -0.0022559536 -0.0005916822 0.0010814981 0.009219998 0.0040581203 0.004704735
0.0034423966 -0.0043394365 0.0027391375 -0.0070636766 -0.0076535917 -0.0004764658 -0.024255684 -0.00344931
0.012234739 0.0017846236 -0.012880935 -0.0045904587 -0.0105419 0.0005431398 -0.0058967997 0.00922776
0.001039346 0.020186557 -0.0039614285 0.0055650095 -0.008362504 0.016927449 0.010240064 -0.00471217
-0.00638588 0.0014443091 -0.015573491 -0.0026707484 0.012371248 -0.007431682 0.0037846384 0.0059284763
-0.010986089 0.007677236 0.0005685917 -0.007431851 0.000980261 0.0092727 0.01756498 -0.007240595
-0.014625448 0.014887984 -0.0042759967 0.0038830887 -0.002093341 0.0042662974 -0.0037704848 -0.0126917735
-0.0015568164 -0.0006541174 0.0069400915 -0.010453812 -0.005969973 0.0063515343 -0.0098556075 0.00020202924
0.014377964 -0.01266662 -0.00029237889 -0.00575612 0.0038218726 0.0024110088 0.0062476345 -0.007007851
-0.021213936 -0.025298504 -0.0022059192 -0.010532106 0.0078020864 -0.012340764 -0.012819958 -0.00039726144
0.011784213 0.009940136 0.0011477 -0.012054082 -0.0021858355 0.0051124953 -0.007877736 -0.013256962
0.0070104334 -0.008776238 -0.00523063 0.011139591 0.0028137707 0.0011412941 0.0064895726 0.012243495
-0.001853445 0.0029042454 0.008895325 0.0029717353 -0.0026503124 0.0014103524 -0.0032415304 -0.0002939937
-0.009591778 -0.0029947094 0.004080659 -0.0014323959 0.0015120826 -0.0074141147 0.018434366 0.023569396
0.015345993 0.01436986 0.0042092097 -0.004661222 0.013412848 0.010125534 0.014644297 0.0002558932
-0.010299691 -0.005092464 -0.010354446 0.0121219 0.0016429169 -0.004465291 0.0017662978 0.0013651781
-0.011165489 0.0045106276 0.004117183 0.0073966845 0.007906883 -0.010914301 -0.009425014 0.010304856
0.0033492043 0.007210766 -0.0019135758 0.0072123692 0.004956341 0.0040539275 0.0030162644 -0.007979712
-0.014075711 -0.005248322 0.010938901 0.011236052 0.0032417371 0.0048743673 0.00023757247 0.00884639

action_model._discrete_distribution.branches.2.weight f4 [2, 128]
00000000: ca2f f43b 1972 9f3b 7613 193c 3561 60ba
00000010: c7ff b3bb 375d 603c 7fc5 66bc ac98 8cbb
00000020: ab31 70bb a745 0d3c 62db a3ba 270a 823c
00000030: e778 8e3c 573a 8b3c 13ca 2c3c 0f43 da3a
00000040: bcf1 143c 465d ae3c 3781 de3b ebfc 1f3b
00000050: 5d54 74bc be9d 15ba 0f01 033c ff7c 3c3c
00000060: a0a4 6bba 2ae5 b3ba 75e2 503c 339a 563c
00000070: dbae 1cbb 25e6 503c a961 84ba 4fbc 56bb
00000080: c4a6 97bb 726f 1cba 4d5c 6c3c 5590 513b
00000090: 2fb6 2a3c c25d 373b a7c0 123b 679c f6bb
000000a0: e4cc 913b 8e71 8abb 5f88 2aba 4a48 523c
000000b0: be72 353b d5e9 fcbb dee3 803b 59c1 be3b
000000c0: fb18 0bbc 0859 673c a3ba b7bb 32f3 5a3c
000000d0: 9d4f edbb cbb3 143c 1b2f a33b 2fdf 6d3c
000000e0: 62bc 4eb9 4ffb b5bb b78d 93ba 47f5 b73b
000000f0: 50e6 923b 173d 743b fb81 21bc 376c 2c3c
00000100: eb2d 88bc 2749 f0bb c13c ba3c ed9c 8dba
00000110: d393 b8bb 50e4 ec39 eeab 1ebb 6a9e 4dbb
00000120: 73d3 9abc 2696 8b3b 8f64 2fbc 1364 da3b
00000130: 832f c03c 9870 6bbb 5b06 d9ba aff3 303c
00000140: 3b11 b73b 4d04 f9bb 802a 8ebb ea19 b23a
00000150: 18c1 5b3c 7abb 6d3a a6eb b6bb c3ea 5fbc
00000160: d50a 353a 8762 58bc eb7d 8ebc dd18 633a
00000170: 6b4f 4cbc 78b0 6ab9 4534 60bc cb49 b93b
00000180: 8088 8cbb 6d80 f5bb 452a a7bb a399 663b
00000190: e812 1bbc ddef 263c 4155 c8bb db73 f53a
000001a0: 2df2 8e3c 2f19 8dbc 7b9e 12bc 5987 463c
000001b0: 6bfc 6db9 a7e9 1ab9 1585 773b b777 07bc
000001c0: c335 b8bc 4697 9aba 89f4 0d3c 9da6 b0bc
000001d0: 58c3 d53b 6119 0d3c 4745 2e3b 3ff8 403c
000001e0: 3a4f a53b d026 0f3c 9371 7ebb 82e6 1c3a
000001f0: 4ec0 c43a a361 893c 8c6b 1e3b 47b1 02bc
00000200: e850 1a3c 784d 71ba 9f09 ce3b 3d2b dc3a
00000210: 53ea 9b3a 537d ba39 c104 a03c d737 19bb
00000220: 6408 913c 2036 babb 7dd0 5a3c c697 18bc
00000230: 0598 143c 783c be3b 2ac8 63bb fb81 2abc
00000240: cbd0 25bb 1fc2 1bbb c79b b23b 4bdd 8dbb
00000250: 6451 b03a a5a4 ed3a d8f6 60bb 2250 9db9
00000260: 77b9 433b 009e 81bb f79f 39ba ed3c 8a3b
00000270: 4f9a 8c3b 6b5a 90bb e398 893b 0c66 b3bb
00000280: 6b9b 3c3b 03e7 01bc 33f2 de3a 8bfe 09bc
00000290: b7de f1bb 6f67 7cbc 9570 f0bb 7f01 83ba
000002a0: f24a 9bbc b0ff d5bb 207a 4b3c 937b 30bc
000002b0: 246f 043c 829a 20bb 83c3 143c 2c7c 1a3c
000002c0: db2e 0bbc ca58 c13b 1241 fa3b d6d2 87bc
000002d0: d114 9fbb dfde bb3a 303f e5bb 108e 83bb
000002e0: d39d 5e3b 1bac 98ba 6fb3 b2bb 8056 9abc
000002f0: 701c f8ba af59 00bc adce d138 4bd6 35bb
00000300: 201d 573a af24 a5bb e209 efbb a1d3 31bc
00000310: 0f97 57bc 2f4f ba3c 27fb 5d3c 1ddc 373c
00000320: 75d8 473c 958b c53c 65dc cbbb b26d 653b
00000330: c07e 633b 67b7 cd3b 5217 433b 4b85 f6bb
00000340: 1c92 423a e7bc c83b 80c1 a83b f7fe 93b9
00000350: 7243 203b 40c1 6bbb 4fb5 4abc 5527 c53a
00000360: 2e75 47bb 1080 17ba 2755 7abc db2d 063c
00000370: be2a 8a3c aac8 22ba ea30 96bb 1b88 3bbc
00000380: 9bd0 c339 ecc0 48bb 18a1 fbbb 1014 073c
00000390: a2dc e0bb 1ef0 90ba b7af dfbb 85ea b3bb
000003a0: 1f44 adbb 2561 353c 073f e5bb 7a03 14ba
000003b0: 1462 8ebb 0215 8abc b30b 983b 7f65 903a
000003c0: 7fd0 113c b33e 723c b0c9 40b9 5c9d a2bb
000003d0: 2b9b 9ebc abda e9bb 0bf0 853b 423d 263b
000003e0: 3211 383c d378 eebb cac5 bd3a 91d4 403c
000003f0: 3273 f0bb ae83 b7ba 93ee c93b 5840 333b
0.007451986 0.0048658964 0.009343019 -0.0008559407 -0.0054931375 0.013694099 -0.014085173 -0.004290661
-0.0036650698 0.008622563 -0.0012501294 0.015873982 0.017391635 0.016995592 0.010546225 0.0016652065
0.009090837 0.02128471 0.006790306 0.0024412225 -0.014912692 -0.00057074043 0.007995858 0.011504411
-0.00089890696 -0.0013724912 0.012749304 0.013098287 -0.0023907933 0.012750183 -0.0010099906 -0.003276605
-0.0046280343 -0.00059675344 0.014426303 0.0031976898 0.0104194125 0.0027979468 0.0022392662 -0.007525969
0.0044494737 -0.0042249626 -0.0006505306 0.012834618 0.00276868 -0.0077183046 0.003933414 0.0058213887
-0.0084898425 0.014120348 -0.0056069656 0.013363646 -0.0072421567 0.009076069 0.0049799806 0.014518543
-0.00019715869 -0.00555364 -0.0011257444 0.005613956 0.004483022 0.0037267858 -0.00985765 0.010523847
-0.016623458 -0.007332939 0.022734048 -0.0010804214 -0.0056328564 0.00045183534 -0.0024211365 -0.003137494
-0.018899655 0.0042598424 -0.010705127 0.006664762 0.023460155 -0.0035925265 -0.001655768 0.010800286
0.005586771 -0.0075993896 -0.0043385625 0.0013588045 0.013412736 0.00090687687 -0.0055822907 -0.013666811
0.0006906216 -0.0132070845 -0.017394027 0.0008663068 -0.012470107 -0.00022381719 -0.013684337 0.0056545488
-0.004288733 -0.007492116 -0.0051014745 0.003518679 -0.009464957 0.010189024 -0.0061136787 0.0018726544
0.017449463 -0.017223923 -0.0089489175 0.01211723 -0.00022696114 -0.00014773627 0.0037768532 -0.008268288
-0.022486573 -0.001179435 0.008664259 -0.021563822 0.006523531 0.008612008 0.0026591585 0.0117779365
0.005044845 0.008737281 -0.003882502 0.0005985276 0.0015010925 0.01677019 0.002417299 -0.0079768365
0.009418704 -0.0009204964 0.006287768 0.0016797554 0.0011895396 0.00035570058 0.019533517 -0.002337923
0.017704196 -0.0056827217 0.013355372 -0.009313529 0.009069447 0.0058055483 -0.0034756758 -0.010406966
-0.0025301452 -0.0023766828 0.005450699 -0.0043293587 0.0013451991 0.0018130733 -0.0034326818 -0.00030005077
0.0029865184 -0.0039556026 -0.00070810266 0.0042186887 0.004290856 -0.00440531 0.0041991337 -0.0054748114
0.002877916 -0.007928613 0.0017009437 -0.008422504 -0.007381286 -0.01540552 -0.0073376396 -0.0009994953
-0.018956635 -0.0065307245 0.012419254 -0.01077165 0.008083139 -0.0024506156 0.009079817 0.009429019
-0.008495058 0.005900477 0.0076371515 -0.016580027 -0.0048547764 0.0014333389 -0.006996058 -0.004014738
0.0033968582 -0.0011647971 -0.005453519 -0.018840075 -0.0018929373 -0.007833882 0.00010004393 -0.0027746137
0.0008205939 -0.0050397734 -0.0072948793 -0.010853679 -0.013158574 0.022742836 0.013548649 0.011221913
0.0121976035 0.02411441 -0.0062213414 0.003500801 0.0034713 0.006277967 0.0029768539 -0.007523214
0.00074222847 0.0061260345 0.00515002 -0.00028227989 0.0024454263 -0.003597334 -0.012372329 0.0015041629
-0.0030434835 -0.00057792757 -0.015279091 0.008189644 0.016866084 -0.0006209711 -0.0045834677 -0.011446024
0.00037348722 -0.0030632569 -0.007679116 0.008244529 -0.006862239 -0.0011057889 -0.0068263668 -0.0054906034
-0.0052876617 0.011070524 -0.006996039 -0.000564627 -0.004345188 -0.01685572 0.0046400665 0.0011016576
0.008899807 0.0147854565 -0.00018385681 -0.0049626064 -0.0193611 -0.007136663 0.0040874532 0.0025366102
0.011234568 -0.007277587 0.0014478501 0.01176943 -0.007337951 -0.0014001036 0.0061624735 0.0027351584

action_model._discrete_distribution.branches.2.bias f4 [2]
00000000: 0000 0000 0000 0000
0.0 0.0
