MLBase/results/ppo/CaptureTheFlag/CaptureTheFlag-399.onnx (onnx, 124315 bytes, 9 tensors)

discrete_act_size_vector f4 [1, 3]
3.0 3.0 2.0
00000000: 0000 4040 0000 4040 0000 0040

network_body._body_endoder.seq_layers.0.weight f4 [128, 87]
-0.12204644 0.05006875 -0.10549912 0.07999672 -0.05648071 0.01635939 0.14067665 -0.006556578
-0.0465844 0.12333729 0.0039033706 0.04847672 -0.014569273 0.013737788 -0.025788326 0.09436281
0.049066357 -0.0037626876 -0.12593699 -0.14002405 -0.11491112 -0.16065666 0.098726355 -0.08423066
0.04219377 0.15307114 -0.03562479 0.018901182 -0.014303171 0.088699296 0.114769585 -0.0996124
0.06982465 -0.024881983 0.009325181 -0.15585464 0.081638396 0.017922673 0.11085488 -0.037971955
0.09186549 0.019553347 -0.100914076 0.04265538 0.06423783 -0.11496954 0.07745553 -0.13369834
-0.17127518 -0.00623127 -0.06242914 -0.13085406 0.094518684 0.0060803453 0.022930369 0.07100697
-0.08734125 0.10649164 0.036242038 0.029217802 -0.0087989615 0.151581 0.19744451 -0.04633561
0.0448091 0.06513783 -0.07996104 -0.00649016 -0.19221336 -0.15332586 -0.07356227 -0.03697965
0.02213869 -0.13005847 0.02804831 0.028304957 -0.18550283 -0.22430144 -0.04636133 0.04693861
-0.095246896 0.00095550605 0.15976125 0.067510635 0.13810433 -0.038974382 -0.03790493 -0.026547477
0.044312805 -0.11844159 0.11324756 -0.029410811 -0.033200137 -0.0739747 -0.027693566 -0.137718
0.049910635 0.031736217 0.026601927 0.06284082 0.004515956 0.05033789 0.06963528 0.001540188
-0.029018551 0.016292972 0.032068953 -0.025183748 -0.07511403 0.067335315 0.08264074 0.08700409
-0.08007884 -0.0068566417 -0.011061911 0.036836073 -0.116648905 -0.080890566 0.018384641 -0.16510138
0.045142356 0.11256702 0.13143064 0.07921533 -0.20911683 0.12571305 -0.10323282 0.14422418
0.08775875 -0.1240631 -0.08782464 0.05988454 -0.08684285 0.06495265 -0.2514839 0.14339684
-0.09329961 0.007783347 0.011887976 -0.016839994 -0.011097872 0.10979896 -0.07985292 0.010487581
0.0044853985 -0.123605296 0.25062847 -0.01396285 0.015169876 0.062581874 -0.019630987 0.25744963
-0.018814463 0.02678447 -0.07598104 -0.029723343 0.0014406063 -0.10039547 -0.02224713 0.07880014
0.10067699 0.093886025 0.04267217 0.029622601 0.047270108 0.114799544 -0.12074663 0.13645293
-0.02595402 0.09122582 -0.13333742 0.14634296 -0.0539759 -0.131595 0.061233167 0.05364439
-0.07043619 0.06398815 -0.035810634 -0.04655523 0.1430434 -0.049706083 0.13314976 -0.094873905
0.107127704 0.063900985 -0.017279174 -0.013280319 -0.010491448 0.31004187 -0.1365384 0.06172487
-0.087388456 0.13209659 -0.007891564 -0.015301731 -0.027254831 0.071852274 0.04059032 0.014355934
0.12599443 -0.025537856 0.03882262 0.017610472 0.08678466 -0.13808604 -0.023605995 -0.12033195
0.07768141 0.052703675 0.023904823 -0.027455486 -0.008801216 0.19949374 0.039671034 0.057181824
-0.2041206 -0.17696992 0.14974946 -0.07293013 0.0279817 0.15581945 0.027004376 0.10221698
0.08567357 0.08317917 -0.028449101 -0.062266104 0.024188614 -0.004356791 -0.16719308 0.09743421
-0.010109305 -0.21745412 0.07130036 0.1347772 -0.03455573 0.0009647979 -0.032204967 0.085926026
-0.1127193 -0.026381964 -0.15325443 -0.1189511 -0.0007260648 -0.17945014 0.18107048 -0.1652199
-0.037853036 -0.19275793 -0.0033119952 -0.23261078 0.02077362 -0.09381031 0.16199856 -0.05023477
00000000: 7cf3 f9bd e414 4d3d ec0f d8bd 52d5 a33d
00000010: 5158 67bd 2104 863c 8a0d 103e 90d8 d6bb
00000020: 49cf 3ebd 4398 fc3d b1cf 7f3b 868f 463d
00000030: f6b3 6ebc 7614 613c 0a42 d3bc 4a41 c13d
00000040: cef9 483d 6c97 76bb a0f5 00be 7762 0fbe
00000050: 8556 ebbd 2e83 24be 0b31 ca3d 2081 acbd
00000060: 60d3 2c3d aebe 1c3e 4deb 11bd a7d6 9a3c
00000070: d957 6abc faa7 b53d 510c eb3d 9601 ccbd
00000080: 3a00 8f3d 4dd5 cbbc a5c8 183c 5c98 1fbe
00000090: 0832 a73d 92d2 923c e207 e33d 7b88 1bbd
000000a0: f923 bc3d 572e a03c 0aac cebd 68b7 2e3d
000000b0: 208f 833d 2675 ebbd 01a1 9e3d 38e8 08be
000000c0: c362 2fbe ae2f ccbb b3b5 7fbd 9bfe 05be
000000d0: 0393 c13d a23d c73b 78d8 bb3c 1a6c 913d
000000e0: f8df b2bd 4a18 da3d 8872 143d 2c5a ef3c
000000f0: 8529 10bc 0d38 1b3e e52e 4a3e 69ca 3dbd
00000100: bf89 373d fc66 853d 9dc2 a3bd 68ab d4bb
00000110: 94d3 44be 7401 1dbe d1a7 96bd f977 17bd
00000120: 335c b53c 0c2e 05be 92c5 e53c ccdf e73c
00000130: 74f4 3dbe 47af 65be 61e5 3dbd b342 403d
00000140: ce10 c3bd ed7a 7a3a 7498 233e 0443 8a3d
00000150: 396b 0d3e 9aa3 1fbd 3342 1bbd 187a d9bc
00000160: 5881 353d 8191 f2bd 56ee e73d f1ee f0bc
00000170: defc 07bd 0c80 97bd 9edd e2bc f305 0dbe
00000180: 186f 4c3d d6fd 013d 49ec d93c b0b2 803d
00000190: 96fa 933b 1a2f 4e3d f19c 8e3d 22e0 c93a
000001a0: 50b8 edbc d778 853c bc5a 033d 264e cebc
000001b0: 62d5 99bd 19e7 893d 8c3f a93d 332f b23d
000001c0: 6000 a4bd aead e0bb 043d 35bc 6ce1 163d
000001d0: 9fe5 eebd f4a9 a5bd 639b 963c 5610 29be
000001e0: 31e7 383d 8a89 e63d c195 063e a63b a23d
000001f0: b922 56be ecba 003e bb6b d3bd 81af 133e
00000200: dcba b33d cb14 febd 68dd b3bd 7e49 753d
00000210: aada b1bd e505 853d 7fc2 80be 9fd6 123e
00000220: de13 bfbd 720b ff3b c9c5 423c 07f4 89bc
00000230: d9d3 35bc 47de e03d ed89 a3bd 1ad4 2b3c
00000240: 40fa 923b c624 fdbd 6052 803e 70c4 64bc
00000250: 128b 783c ed2a 803d 2ad1 a0bc 70d0 833e
00000260: ca20 9abc 1b6b db3c f39b 9bbd 5e7e f3bc
00000270: bad2 bc3a 249c cdbd 9d3f b6bc f861 a13d
00000280: bd2f ce3d 5147 c03d 03c9 2e3d 19ab f23c
00000290: 4d9e 413d 061c eb3d 024a f7bd 51ba 0b3e
000002a0: 869d d4bc 9ad4 ba3d 9b89 08be eeda 153e
000002b0: d515 5dbd d7c0 06be a1cf 7a3d 38ba 5b3d
000002c0: d940 90bd 380c 833d 2cae 12bd b2b0 3ebd
000002d0: f879 123e 9b98 4bbd 6958 083e 404d c2bd
000002e0: c565 db3d 85de 823d 0e8d 8dbc b295 59bc
000002f0: 53e4 2bbc cfbd 9e3e b9d0 0bbe 38d3 7c3d
00000300: b8f8 b2bd 5444 073e 9e4b 01bc 1db4 7abc
00000310: 8645 dfbc 4927 933d 0942 263d 2735 6b3c
00000320: af04 013e c434 d1bc 7804 1f3d d643 903c
00000330: 28bc b13d 6d66 0dbe 5c61 c1bc 9970 f6bd
00000340: 6e17 9f3d cfdf 573d 0cd4 c33c 54ea e0bc
00000350: fa32 10bc 1648 4c3e 187e 223d 7d37 6a3d
00000360: fe04 51be 9a37 35be ec57 193e 645c 95bd
00000370: e139 e53c 228f 1f3e 4838 dd3c 2357 d13d
00000380: a075 af3d d759 aa3d 170e e9bc be0a 7fbd
00000390: 3327 c63c 69c3 8ebb aa34 2bbe 968b c73d
000003a0: 80a1 25bc 4bac 5ebe ec05 923d 0903 0a3e
000003b0: 4f8a 0dbd 7eea 7c3a 5be9 03bd fcf9 af3d
000003c0: 60d9 e6bd fd1e d8bc bbee 1cbe a29c f3bd
000003d0: 6255 3eba c7c1 37be 8a6a 393e 682f 29be
000003e0: c90b 1bbd 5662 45be 0f0e 59bb 8531 6ebe
000003f0: 702d aa3c 9f1f c0bd f3e2 253e f9c2 4dbd

network_body._body_endoder.seq_layers.0.bias f4 [128]
0.0 0.0 0.0 0.0 0.0 0.0 0.0 0.0
0.0 0.0 0.0 0.0 0.0 0.0 0.0 0.0
0.0 0.0 0.0 0.0 0.0 0.0 0.0 0.0
0.0 0.0 0.0 0.0 0.0 0.0 0.0 0.0
0.0 0.0 0.0 0.0 0.0 0.0 0.0 0.0
0.0 0.0 0.0 0.0 0.0 0.0 0.0 0.0
0.0 0.0 0.0 0.0 0.0 0.0 0.0 0.0
0.0 0.0 0.0 0.0 0.0 0.0 0.0 0.0
0.0 0.0 0.0 0.0 0.0 0.0 0.0 0.0
0.0 0.0 0.0 0.0 0.0 0.0 0.0 0.0
0.0 0.0 0.0 0.0 0.0 0.0 0.0 0.0
0.0 0.0 0.0 0.0 0.0 0.0 0.0 0.0
0.0 0.0 0.0 0.0 0.0 0.0 0.0 0.0
0.0 0.0 0.0 0.0 0.0 0.0 0.0 0.0
0.0 0.0 0.0 0.0 0.0 0.0 0.0 0.0
0.0 0.0 0.0 0.0 0.0 0.0 0.0 0.0
00000000: 0000 0000 0000 0000 0000 0000 0000 0000
00000010: 0000 0000 0000 0000 0000 0000 0000 0000
00000020: 0000 0000 0000 0000 0000 0000 0000 0000
00000030: 0000 0000 0000 0000 0000 0000 0000 0000
00000040: 0000 0000 0000 0000 0000 0000 0000 0000
00000050: 0000 0000 0000 0000 0000 0000 0000 0000
00000060: 0000 0000 0000 0000 0000 0000 0000 0000
00000070: 0000 0000 0000 0000 0000 0000 0000 0000
00000080: 0000 0000 0000 0000 0000 0000 0000 0000
00000090: 0000 0000 0000 0000 0000 0000 0000 0000
000000a0: 0000 0000 0000 0000 0000 0000 0000 0000
000000b0: 0000 0000 0000 0000 0000 0000 0000 0000
000000c0: 0000 0000 0000 0000 0000 0000 0000 0000
000000d0: 0000 0000 0000 0000 0000 0000 0000 0000
000000e0: 0000 0000 0000 0000 0000 0000 0000 0000
000000f0: 0000 0000 0000 0000 0000 0000 0000 0000
00000100: 0000 0000 0000 0000 0000 0000 0000 0000
00000110: 0000 0000 0000 0000 0000 0000 0000 0000
00000120: 0000 0000 0000 0000 0000 0000 0000 0000
00000130: 0000 0000 0000 0000 0000 0000 0000 0000
00000140: 0000 0000 0000 0000 0000 0000 0000 0000
00000150: 0000 0000 0000 0000 0000 0000 0000 0000
00000160: 0000 0000 0000 0000 0000 0000 0000 0000
00000170: 0000 0000 0000 0000 0000 0000 0000 0000
00000180: 0000 0000 0000 0000 0000 0000 0000 0000
00000190: 0000 0000 0000 0000 0000 0000 0000 0000
000001a0: 0000 0000 0000 0000 0000 0000 0000 0000
000001b0: 0000 0000 0000 0000 0000 0000 0000 0000
000001c0: 0000 0000 0000 0000 0000 0000 0000 0000
000001d0: 0000 0000 0000 0000 0000 0000 0000 0000
000001e0: 0000 0000 0000 0000 0000 0000 0000 0000
000001f0: 0000 0000 0000 0000 0000 0000 0000 0000

network_body._body_endoder.seq_layers.2.weight f4 [128, 128]
-0.07401212 0.05089422 0.12660556 0.0884196 0.051281456 0.082518965 0.10162083 -0.01871572
-0.033179503 0.07746713 0.10016151 -0.03768723 -0.06264033 0.098273195 0.08918796 -0.021520654
0.03755533 -0.086812295 -0.0829353 -0.06366655 0.03351751 0.06413998 -0.08251213 0.15174977
-0.011026101 -0.08197962 -0.24073814 0.09127251 -0.108316146 -0.17281821 -0.116866484 -0.072368346
0.014914436 -0.022423835 -0.012250495 0.035242934 0.058148574 0.06730852 -0.03818674 -0.22809993
-0.242601 -0.1334308 -0.1108245 0.040306393 -0.024709601 0.074122034 0.097218335 -0.13962698
-0.09214931 0.16640884 -0.023759237 -0.035117626 -0.0042707277 -0.010270652 -0.062094998 -0.06643645
0.037707392 -0.047265276 -0.10497564 0.025716567 -0.016685028 0.009380665 -0.01903756 -0.0590976
0.1723252 -0.09970764 -0.030563144 0.08004956 -0.12010502 0.17670879 -0.05275172 -0.0235612
0.1012334 0.24650204 -0.009928723 0.15997183 -0.020605369 -0.14022936 -0.012451343 0.10326581
-0.032556172 0.03840757 0.052610993 -0.09830081 0.12185686 -0.047141153 -0.049780816 0.19774273
-0.04193694 0.06675341 0.02400066 0.122316755 0.012868339 0.013365435 -0.023463547 0.11731503
0.09840265 0.03835605 0.18034175 -0.045824625 -0.10558381 -0.0042728297 -0.09681222 -0.07796118
0.013271578 0.18079111 0.07388786 -0.10391826 -0.06992558 0.05667163 -0.10273067 0.0690741
0.02083288 -0.021667102 0.12935244 -0.089698985 0.0022770122 0.09400607 -0.025111182 -0.031492915
0.015933847 0.06502709 -0.08056575 -0.06707883 -0.1523234 0.004566699 0.06912928 0.03144956
-0.038153425 0.06894701 0.037471414 0.075698555 0.06679645 0.005507942 0.04042367 0.08456627
0.032097552 0.08418917 -0.047148805 0.04514718 -0.021326859 -0.058116466 0.009120974 0.17012693
0.20552826 0.05841933 -0.018297516 -0.11328748 0.13861369 0.08003421 0.04515926 0.010887689
-0.039857324 0.10016269 -0.036676165 -0.15563925 -0.01147872 0.13398756 0.07114987 0.10464053
-0.11194557 0.081793986 0.013898022 0.012737101 0.20805897 -0.053860515 -0.077599525 -0.0048050606
-0.037553497 -0.09351761 0.13592613 0.0008864682 -0.031602733 -0.12593378 -0.067191 -0.22238019
-0.06296425 0.01758495 -0.09856375 0.042259235 -0.023013987 -0.1346518 0.015416277 0.03289198
0.004991402 -0.046964075 0.06496652 0.07031656 -0.01791048 -0.0076687564 0.024676142 -0.036590893
-0.008659461 -0.11305845 0.04940979 0.09111392 0.09680803 0.0012108956 -0.11313789 0.16035767
0.05237326 -0.083402924 -0.057914726 -0.10974103 -0.044264697 -0.08788527 0.20013201 0.0017473117
0.042572413 -0.122317456 0.094198324 -0.0043356293 0.06533414 -0.025483185 -0.09267615 -0.061383184
0.1727015 -0.025588214 -0.019544346 0.16836348 -0.033015337 0.04877594 0.017585138 0.0049348753
-0.056179587 -0.040079646 0.033578224 -0.094862714 0.099955745 -0.022868864 -0.027805446 0.055864967
-0.09382571 0.009609478 0.053551733 -0.107459165 0.109672666 0.14014852 -0.196911 -0.0046842457
-0.081468664 -0.036428697 0.057889417 -0.0834218 0.039058376 -0.06549574 -0.11821565 0.12195383
0.042817984 -0.02011833 0.004182191 0.15500751 0.042725354 0.04788738 -0.09588652 -0.1498311
00000000: ab93 97bd 7576 503d e3a4 013e 5615 b53d
00000010: 810c 523d b4ff a83d 951e d03d b651 99bc
00000020: 3be7 07bd 16a7 9e3d 7a21 cd3d ed5d 1abd
00000030: 9349 80bd 7543 c93d 2da8 b63d 154c b0bc
00000040: 9ed3 193d a5ca b1bd fcd9 a9bd 9c63 82bd
00000050: a849 093d d25b 833d 1ffc a8bd 4b64 1b3e
00000060: d2a6 34bc eee4 a7bd 0f84 76be 15ed ba3d
00000070: dbd4 ddbd 42f7 30be b257 efbd db35 94bd
00000080: ae5b 743c 31b2 b7bc 4db6 48bc e55a 103d
00000090: 332d 6e3d 0dd9 893d b369 1cbd 0793 69be
000000a0: 666c 78be 15a2 08be f5f7 e2bd 5118 253d
000000b0: ca6b cabc 4bcd 973d 681a c73d 60fa 0ebe
000000c0: c7b8 bcbd 1467 2a3e bba2 c2bc 80d7 0fbd
000000d0: 76f1 8bbb 3d46 28bc 5357 7ebd d50f 88bd
000000e0: 1173 1a3d 3c99 41bd 78fd d6bd 8dab d23c
000000f0: 0aaf 88bc 5cb1 193c a8f4 9bbc 5310 72bd
00000100: 0476 303e 8533 ccbd 8f5f fabc 06f1 a33d
00000110: 9ff9 f5bd 26f3 343e 3012 58bd 6b03 c1bc
00000120: 7553 cf3d 086b 7c3e 15ac 22bc a8cf 233e
00000130: 97cc a8bc 4998 0fbe b800 4cbc 067d d33d
00000140: 9f59 05bd 4251 1d3d a07e 573d ef51 c9bd
00000150: 1790 f93d 1517 41bd f8e6 4bbd 127d 4a3e
00000160: 12c6 2bbd 03b6 883d 089d c43c 3581 fa3d
00000170: bad5 523c b3fa 5a3c a036 c0bc dd42 f03d
00000180: 5487 c93d 3c1b 1d3d 82ab 383e 9ab2 3bbd
00000190: 533c d8bd 1803 8cbb 7c45 c6bd 1caa 9fbd
000001a0: 0871 593c 4e21 393e 8552 973d 19d3 d4bd
000001b0: 2435 8fbd 8320 683d 7564 d2bd b976 8d3d
000001c0: b7a9 aa3c 357f b1bc f774 043e 1ab4 b7bd
000001d0: ed39 153b 4186 c03d f7b5 cdbc b7fe 00bd
000001e0: b387 823c ec2c 853d a8ff a4bd a060 89bd
000001f0: aafa 1bbe 3fa4 953b a793 8d3d 41d1 003d
00000200: c446 1cbd 1734 8d3d a07b 193d d807 9b3d
00000210: 94cc 883d f77b b43b 4a93 253d 1531 ad3d
00000220: b978 033d 5f6b ac3d 1b1f 41bd 40ec 383d
00000230: aab5 aebc 880b 6ebd 2370 153c c135 2e3e
00000240: 0076 523e 1b49 6f3d ace4 95bc 4403 e8bd
00000250: bff0 0d3e fae8 a33d ebf8 383d 4762 323c
00000260: 6f41 23bd 1922 cd3d bf39 16bd e55f 1fbe
00000270: 3e11 3cbc 0934 093e 06b7 913d c64d d63d
00000280: b843 e5bd 9b83 a73d 87b4 633c 46af 503c
00000290: 690d 553e d89c 5cbd 80ec 9ebd c573 9dbb
000002a0: b2d1 19bd 2986 bfbd 3830 0b3e e061 683a
000002b0: de71 01bd c9f4 00be 6f9b 89bd a2b7 63be
000002c0: 67f3 80bd 500e 903c cbdb c9bd 0518 2d3d
000002d0: d487 bcbc 29e2 09be 8d94 7c3c beb9 063d
000002e0: ea8e a33b 675d 40bd 2b0d 853d 2102 903d
000002f0: 00b9 92bc 314a fbbb 9f25 ca3c 55e0 15bd
00000300: 69e0 0dbc 308b e7bd ec61 4a3d ef99 ba3d
00000310: 4a43 c63d eab6 9e3a d7b4 e7bd cd34 243e
00000320: 5885 563d 27cf aabd fe37 6dbd e8bf e0bd
00000330: e64e 35bd 31fd b3bd 68ef 4c3e 0d06 e53a
00000340: 6960 2e3d 9381 fabd 0deb c03d e511 8ebb
00000350: e8cd 853d 1dc2 d0bc fecc bdbd ef6c 7bbd
00000360: a9d8 303e 609e d1bc 771b a0bc 7a67 2c3e
00000370: 173b 07bd 48c9 473d b50e 903c bcb4 a13b
00000380: 911c 66bd 8e2a 24bd 5289 093d 6247 c2bd
00000390: 99b5 cc3d 7c57 bbbc 3fc8 e3bc aad2 643d
000003a0: b227 c0bd 1271 1d3c 1059 5b3d 8d13 dcbd
000003b0: 109c e03d 1883 0f3e 0aa3 49be 4d7e 99bb
000003c0: 0bd9 a6bd 4236 15bd 741d 6d3d 0cd9 aabd
000003d0: adfb 1f3d a122 86bd 0c1b f2bd eec2 f93d
000003e0: e961 2f3d 32cf a4bc c30a 893b 4aba 1e3e
000003f0: c800 2f3d 8f25 443d 2760 c4bd 536d 19be

action_model._discrete_distribution.branches.0.weight f4 [3, 128]
-0.018885551 0.010115665 -0.010065953 -0.018821236 -0.006546624 -0.0040794606 0.014893628 0.0020150489
0.002568337 0.0049367095 0.0033812062 -0.009716346 -0.0006053489 0.017806722 0.004594674 0.00078106805
0.013819257 -0.0031471539 -0.0052744146 -0.0070616356 0.0048667276 -0.01578161 -0.0187837 0.002736085
-0.0053766835 -0.0072004437 -0.00045013457 0.009607344 -0.0012532418 0.0027573053 -0.0014980319 0.0095264455
0.0064825825 0.009334843 0.0034018892 -0.0068754028 -0.006842623 -0.022706905 0.0022579243 0.0065987557
0.0033032359 -0.007650766 0.005377695 -0.011946394 -0.01418897 0.003303938 -0.00200408 -0.0052800137
0.0019110319 -0.004224363 -0.014939934 0.009726672 0.002426293 0.010697545 0.0018825199 0.00014938884
0.01095429 -0.0057393797 0.005105913 -0.006122567 0.005286695 -0.010371365 -0.00022570665 0.002702778
-0.0031574469 0.007085251 0.0033298978 -0.0048840945 -0.013565657 0.012479622 0.0060501355 -0.0021754696
-0.00032062732 0.0005158768 -0.0021991273 0.008448558 -0.015360418 -0.0057995874 -0.013075654 0.0008936707
-0.0074747675 -0.0013787156 0.002469139 0.006053583 -0.0022688487 -0.0029797812 -0.010821313 -0.00296162
0.008713123 0.004795055 0.0055433796 -0.00012082674 -0.0003608452 0.020348284 -0.013037162 0.0072271354
-0.011594393 0.0119228875 0.00602143 -0.0077012847 -0.009920527 -0.007429267 0.0018550722 -0.0030359018
0.008283266 -0.011177982 0.011405951 -0.0031833462 0.0107585555 0.006572969 -0.0020414796 0.008480791
0.0025992896 -0.013401963 0.0017371962 -0.017771536 0.0052641253 0.007148601 -0.0014899065 0.008850886
-0.009723342 0.00019148244 -0.0175847 0.017662624 0.0072660707 -0.0032078393 0.009674377 0.009147188
-0.0063276105 -0.011572028 -0.0033487037 -0.0040221377 0.0027280129 0.005441823 0.012432428 0.0039247903
-0.010995704 0.002852506 0.010789983 -0.0029636186 -0.00050485175 -0.0068600154 -0.0041399593 0.0057772696
-0.008411579 0.008445431 0.002508231 0.0010036292 0.0046217996 -0.0015286986 -0.0038836382 0.0103476895
-0.009555607 -0.0021475293 0.0049239076 -0.005197889 0.004695065 0.00861394 -0.0067279204 -0.013975157
0.007383149 -0.007350416 0.0009811231 -0.007134696 -0.0004404454 0.0003338532 -0.0050944104 0.007847922
0.0023879432 0.012689434 -0.00067480496 -0.013900091 0.0149965165 -0.006089771 0.0023694644 0.0025080447
0.0027642099 0.015248387 0.0040415544 0.0017672543 0.0032137388 0.006823142 -0.00638551 -0.016472774
-0.011396885 -0.002855579 0.011435775 -0.0030831536 -0.0074540027 -0.0009863934 -0.015418597 0.000586637
-0.010554736 0.0065081413 -0.009930117 0.010225398 0.0016598068 -0.0038067733 0.005221523 -0.010177648
0.0017147831 -0.010097659 -0.009732963 0.008723453 -0.0077256025 0.01948087 0.010331298 -0.008475724
0.0009623427 0.0070169265 -0.007215408 -0.0018129097 0.0022275196 0.0043019764 0.008577089 -0.0053907693
-0.013762216 -0.0019238072 -0.00694322 0.013958539 0.0014615123 -0.005151098 0.01209113 -0.01606392
0.0073202103 -0.0018859383 -0.0122406585 0.008502795 -0.006425369 -0.00314097 0.009967223 -0.010717718
-0.0009953821 -0.0068504284 -0.009915769 0.006653578 -0.007611041 0.00094118295 0.0072433883 -0.005530283
0.0041113696 -0.0036510532 0.00091954006 0.006098733 0.0051248833 0.0086976085 0.008266787 0.0046322807
-0.0040651066 0.0047224485 0.016691564 0.005291265 0.0045621335 0.0003649747 -0.0065921894 0.00040243525
00000000: dfb5 9abc 2dbc 253c abeb 24bc fe2e 9abc
00000010: 1085 d6bb ffac 85bb 6704 743c e90e 043b
00000020: 8b51 283b 1fc4 a13b 3a97 5d3b 4f31 1fbc
00000030: 47b0 1eba 67df 913c eb8e 963b 97c0 4c3a
00000040: 2a6a 623c 7b40 4ebb ffd4 acbb 4b65 e7bb
00000050: 1279 9f3b 6f48 81bc 46e0 99bc e44f 333b
00000060: e42e b0bb b3f1 ebbb 0a00 ecb9 1f68 1d3c
00000070: d143 a4ba e8b3 343b 9c59 c4ba cf14 1c3c
00000080: d86b d43b 2bf1 183c 3bf2 5e3b 0f4b e1bb
00000090: 1538 e0bb d503 babc aff9 133b 603a d83b
000000a0: 1a7b 583b 47b3 fabb 6037 b03b cfba 43bc
000000b0: db78 68bc e286 583b e256 03bb f703 adbb
000000c0: 977b fa3a 866c 8abb a0c6 74bc 9f5c 1f3c
000000d0: 7102 1f3b c144 2f3c e3be f63a 43a5 1c39
000000e0: 9f79 333c 6811 bcbb 814f a73b d19f c8bb
000000f0: 033c ad3b a8ec 29bc abab 6cb9 1721 313b
00000100: 2bed 4ebb 652b e83b 6a3a 5a3b c10a a0bb
00000110: 7d42 5ebc 5477 4c3c 3740 c63b 5392 0ebb
00000120: df19 a8b9 e83b 073a 3c1f 10bb d26b 0a3c
00000130: 43aa 7bbc 770a bebb 453b 56bc 3a45 6a3a
00000140: e5ee f4bb 05b6 b4ba 47d1 213b 235d c63b
00000150: f7b0 14bb 6f48 43bb e04b 31bc bd17 42bb
00000160: 7dc1 0e3c d61f 9d3b 3da5 b53b 5d64 fdb8
00000170: d32f bdb9 72b1 a63c d299 55bc 9bd1 ec3b
00000180: 69f6 3dbc 3758 433c 6a4f c53b 0f5b fcbb
00000190: b589 22bc 3571 f3bb e525 f33a fbf5 46bb
000001a0: 89b6 073c db23 37bc 07e0 3a3c b09f 50bb
000001b0: a744 303c 0f62 d73b 58ca 05bb 04f3 0a3c
000001c0: d858 2a3b e893 5bbc a2b2 e33a 9d95 91bc
000001d0: af7e ac3b d03e ea3b f748 c3ba 4e03 113c
000001e0: a74e 1fbc adc8 4839 ca0d 90bc 35b1 903c
000001f0: 3818 ee3b 9d3a 52bb 4781 1e3c 16de 153c
00000200: d857 cfbb 9a98 3dbc ed75 5bbb 23cc 83bb
00000210: 76c8 323b 5251 b23b 62b1 4b3c 879b 803b
00000220: 5327 34bc 1cf1 3a3b 78c8 303c 4539 42bb
00000230: 0758 04ba fbc9 e0bb 7fa8 87bb 404f bd3b
00000240: b8d0 09bc b45e 0a3c 2261 243b 358c 833a
00000250: 7772 973b 9d5e c8ba a384 7ebb 5b89 293c
00000260: 1f8f 1cbc 90bd 0cbb bb58 a13b 0e53 aabb
00000270: 0fd9 993b 7c21 0d3c e375 dcbb 0ff8 64bc
00000280: 58ee f13b c2db f0bb 0799 803a 2bca e9bb
00000290: 95eb e6b9 0509 af39 03ef a6bb 9294 003c
000002a0: 0a7f 1c3b 58e7 4f3c 65e5 30ba 35bd 63bc
000002b0: f3b3 753c b48c c7bb 0449 1b3b 025e 243b
000002c0: bf27 353b 5fd4 793c 046f 843b 37a3 e73a
000002d0: 979d 523b aa94 df3b 8a3d d1bb e9f1 86bc
000002e0: 00ba 3abc aa24 3bbb 1e5d 3b3c bc0e 4abb
000002f0: b540 f4bb df49 81ba 489e 7cbc 8bc8 193a
00000300: c5ed 2cbc 3f42 d53b eeb1 22bc 6d88 273c
00000310: e08d d93a 0f7b 79bb 4f19 ab3b 26c0 26bc
00000320: 93c2 e03a a770 25bc 0177 1fbc d0ec 0e3c
00000330: 0d27 fdbb 5896 9f3c 9b44 293c c3dd 0abc
00000340: ba45 7c3a 3fee e53b 3b6f ecbb 289f edba
00000350: 94fb 113b 98f7 8c3b eb86 0c3c 0da5 b0bb
00000360: eb7a 61bc 4228 fcba f383 e3bb 5bb2 643c
00000370: 3790 bf3a 8bca a8bb e019 463c 7b98 83bc
00000380: 60de ef3b 9731 f7ba 0b8d 48bc 4f4f 0b3c
00000390: e78b d2bb bbd8 4dbb 904d 233c 5e99 2fbc
000003a0: 7b77 82ba 8f79 e0bb c075 22bc 4206 da3b
000003b0: 0a66 f9bb b8b9 763a f259 ed3b 6037 b5bb
000003c0: abb8 863b 8246 6fbb 4a0d 713a e1d7 c73b
000003d0: a3ee a73b 6a80 0e3c 6b71 073c 63ca 973b
000003e0: 9634 85bb c5be 9a3b bfbc 883c 5962 ad3b
000003f0: f37d 953b 135a bf39 4b03 d8bb f2fd d239

action_model._discrete_distribution.branches.0.bias f4 [3]
0.0 0.0 0.0
00000000: 0000 0000 0000 0000 0000 0000

action_model._discrete_distribution.branches.1.weight f4 [3, 128]
-0.011335572 -0.0013388433 -0.00218554 -0.009471349 0.0027884997 0.0047235945 -0.0005638936 0.015071479
-0.0018619057 -0.0071128346 0.0048114527 -0.011918487 0.0034191285 -0.0040937066 -0.0005845124 0.01594705
-0.0017552649 -0.011585117 -0.0009965448 -0.009048417 0.0008168907 -0.0029619562 0.022719095 -0.0045625563
-0.005814059 0.008805537 -0.005862211 -0.005002207 -0.007691823 0.011111385 -0.00044223503 -0.008220168
0.004270122 0.005565045 -0.013544522 0.012465865 -0.013876765 -0.0036737793 -0.0032584805 0.006301289
-0.0009855843 0.005015479 0.013336039 0.006443468 -0.00044795597 0.01909056 0.014211262 0.02090924
0.008101764 0.0006294656 -0.010034491 0.0061304653 0.009123138 -0.006124942 0.0017734459 0.012022319
-0.011181607 -0.013724956 0.0020344579 -0.0007949816 -0.0032126163 0.0033810548 0.008006795 -0.0026690315
0.0091443 -0.0058753467 0.020154318 -0.0015294078 0.010528068 0.0019056536 0.004991429 0.005976084
-0.0023814384 -0.005264946 -0.00429414 -0.010110163 -0.0074677765 0.004666415 -0.01712141 -0.006281221
0.0029968505 -0.014255819 0.008644212 -0.0029516278 -0.012213796 0.004772681 -0.0040939054 0.006209436
-0.0046863197 -0.0131267 -0.0077529363 -0.0018577812 0.0019180964 0.004529754 -0.0026910384 -0.0026756173
0.01362664 -0.014594384 0.0006114463 -0.0038580277 -0.0014560752 -0.007177835 -0.026367227 -0.012230944
0.0031584909 0.000858943 4.248899e-05 -0.0066899764 0.008910287 0.002359105 -0.007622361 0.0050652977
-0.01978654 0.01338145 0.0143420175 -0.0053842696 0.00053625525 0.011745244 -0.01948003 -0.0051316232
-0.0005243495 0.0021039513 0.003824219 0.0058012437 0.01611542 0.0070516127 0.0050787604 0.006691109
0.013117324 0.0014125613 -0.00429997 0.0011364934 0.004704768 -0.010374857 0.004625253 0.018433876
-0.0021221186 -0.025397409 0.0036684785 0.014372266 0.014110977 0.0009864074 -0.0021147823 0.022461798
0.013655958 0.01489981 0.0077497074 -0.009698416 0.003030568 0.016485838 0.008084982 0.0029040992
-0.0059734443 -0.0052301656 0.008049561 0.012390781 0.010862136 -0.0140576335 0.0021639739 -0.0014815652
0.004844469 -0.012081179 -0.008873097 -0.0013992863 -0.000817337 -0.016454674 0.0032770701 0.0022603385
0.0053559868 0.0039313757 0.0070583276 0.0016312789 0.0035033457 -0.020357376 -0.0015656654 -0.0091974605
-0.0047372086 0.012032542 -0.00045832244 0.015697032 0.0033786271 0.01823352 0.00053923874 0.013065452
0.0005963854 -0.008374727 0.009316392 0.0041648108 -0.008384507 0.00490815 0.00996025 0.0056295893
0.0045192773 0.0007718957 -0.0028043166 -0.0051792874 0.015218794 -0.016417991 -0.009232248 -0.004850508
-0.004384783 -0.0068349415 -0.00772617 -0.008274666 0.0025715604 -0.00157889 0.009298223 -0.0041003753
-0.010039986 0.0132436175 -0.013905868 -0.0074339095 0.0048073865 -0.0066355215 0.001363045 0.009451731
0.008717725 0.0035898224 0.0057646967 0.008175937 0.006553554 0.012998575 0.004617534 0.012027664
0.009036116 -0.015053558 -0.010897489 0.008026381 -0.0067534246 -0.007626489 0.0042364215 0.004857303
0.005568877 -0.0025189042 -0.0041603316 -0.010142001 0.007474636 0.0067898366 0.001844665 0.0016377382
-0.0032654565 -0.0062465942 0.0067241685 0.003519437 -0.009899846 0.0023920583 -0.001544353 -0.0037827592
0.0020651491 -0.00877536 -0.01821881 0.007926955 -0.0047024395 0.0012440269 -0.009650384 0.010370097
00000000: d6b8 39bc 207c afba 473b 0fbb b82d 1bbc
00000010: 43bf 363b 62c8 9a3b 42d2 13ba 5dee 763c
00000020: 300b f4ba c812 e9bb 64a9 9d3b c245 43bc
00000030: 7513 603b 8024 86bb f739 19ba 63a3 823c
00000040: eb10 e6ba 81cf 3dbc 7f9e 82ba d03f 14bc
00000050: 9b24 563a 611d 42bb 651d ba3c 7f81 95bb
00000060: dd83 bebb 1945 103c ca17 c0bb 8ee9 a3bb
00000070: b00b fcbb 870c 363c c8db e7b9 e2ad 06bc
00000080: 61ec 8b3b fb5a b63b d8e9 5dbc a13d 4c3c
00000090: 5f5b 63bc cac3 70bb 3b8c 55bb 0b7b ce3b
000000a0: b92e 81ba e358 a43b 677f 5a3c ba23 d33b
000000b0: a2db eab9 ce63 9c3c 5ad6 683c db49 ab3c
000000c0: 43bd 043c b902 253a b567 24bc 12e2 c83b
000000d0: 3779 153c bdb3 c8bb f872 e83a 43f9 443c
000000e0: 0f33 37bc a3de 60bc 8a54 053b 5066 50ba
000000f0: c28a 52bb b094 5d3b ef2e 033c ebea 2ebb
00000100: f9d1 153c fb85 c0bb ab1a a53c 6976 c8ba
00000110: eb7d 2c3c 20c7 f93a 248f a33b 07d3 c33b
00000120: e811 1cbb 9185 acbb dbb5 8cbb 19a5 25bc
00000130: 40b4 f4bb bae8 983b 3342 8cbc b3d2 cdbb
00000140: cf66 443b 3d91 69bc 74a0 0d3c 1970 41bb
00000150: 601c 48bc 2664 9c3b 2b26 86bb 8678 cb3b
00000160: b38f 99bb 5f11 57bc 580c febb cb80 f3ba
00000170: a368 fb3a 556e 943b 225c 30bb 6959 2fbb
00000180: 4542 5f3c 481d 6fbc 7749 203a f7d6 7cbb
00000190: c7d9 beba 0b34 ebbb 1500 d8bc 4c64 48bc
000001a0: affe 4e3b b02a 613a 3536 3238 9737 dbbb
000001b0: 74fc 113c 379b 1a3b 00c5 f9bb ccfa a53b
000001c0: 6217 a2bc df3d 5b3c c8fa 6a3c 876e b0bb
000001d0: 7b93 0c3a 206f 403c 9594 9fbc 2d27 a8bb
000001e0: 8074 09ba 72e2 093b c09f 7a3b 5c18 be3b
000001f0: 7c04 843c 3711 e73b bb6b a63b 1741 db3b
00000200: 0bea 563c b125 b93a c3e6 8cbb 64f6 943a
00000210: 742a 9a3b 4efb 29bc 6f8f 973b a402 973c
00000220: 3e13 0bbb 3a0e d0bc db6a 703b a779 6b3c
00000230: ba31 673c 574a 813a 2998 0abb ce01 b83c
00000240: 3dbd 5f3c 551e 743c 42f1 fd3b 1be6 1ebc
00000250: 7e9c 463b 4f0d 873c df76 043c b352 3e3b
00000260: e2bc c3bb cf61 abbb 4ee2 033c b402 4b3c
00000270: 1af7 313c fd51 66bc 75d1 0d3b 1431 c2ba
00000280: 5abe 9e3b 23f0 45bc 7760 11bc 4268 b7ba
00000290: 8f42 56ba f4cb 86bc 1dc4 563b 3022 143b
000002a0: 4681 af3b c5d2 803b 8b49 e73b a3d0 d53a
000002b0: 6398 653b 83c4 a6bc 0337 cdba f2b0 16bc
000002c0: 963a 9bbb 2424 453c ff4a f0b9 1097 803c
000002d0: f56b 5d3b 775e 953c b35b 0d3a 7a10 563c
000002e0: bf56 1c3a 2736 09bc c8a3 183c f778 883b
000002f0: 2c5f 09bc 8cd4 a03b 5130 233c 6b78 b83b
00000300: 7216 943b 0b59 4a3a a0c8 37bb 03b7 a9bb
00000310: 4058 793c 067f 86bc db42 17bc 03f1 9ebb
00000320: 3aae 8fbb a5f7 dfbb d02b fdbb 7792 07bc
00000330: a087 283b c2f2 ceba 9357 183c 715c 86bb
00000340: c17e 24bc c2fb 583c 70d5 63bc 2798 f3bb
00000350: 4887 9d3b ca6e d9bb 33a8 b23a 6fdb 1a3c
00000360: cad4 0e3c 3a43 6b3b c8e5 bc3b 5ef4 053c
00000370: 32bf d63b faf7 543c af4e 973b ae0f 453c
00000380: 380c 143c 33a3 76bc 628b 32bc 1581 033c
00000390: d54b ddbb a0e7 f9bb aed1 8a3b 032a 9f3b
000003a0: 207b b63b 3314 25bb 6453 88bb a32a 26bc
000003b0: cbed f43b 477d de3b b0c8 f13a 60a9 d63a
000003c0: 4501 56bb 3bb0 ccbb 6a56 dc3b 5ba6 663b
000003d0: f732 22bc 14c4 1c3b e36b caba 2be8 77bb
000003e0: 7457 073b 87c6 0fbc 9d3f 95bc 0fe0 013c
000003f0: ec16 9abb 9e0e a33a a51c 1ebc 57e7 293c

action_model._discrete_distribution.branches.2.weight f4 [2, 128]
0.0017923237 0.0047138464 0.013288329 0.0053525786 0.0014679936 0.006180017 -0.0011522298 -0.0084285615
0.00969691 0.00093767716 -0.0073649436 -0.016610852 -0.0060655153 0.0058698584 0.008099776 0.0012755812
0.0037749892 0.0008530418 -0.011247876 -0.0101294 -0.0076130517 0.011746892 -0.01228119 0.0043244907
-0.002990375 -0.01037692 0.0042900997 0.012869841 0.011281507 -0.0177428 0.006834776 0.018290365
0.0036383315 0.01657 -0.0024958218 0.003216243 -0.007151799 -0.013544663 0.0047634663 -0.004026888
-0.0018361717 0.0042844 0.0082447035 0.023137394 0.0014190808 0.014046072 -0.005112873 -0.0011675174
-0.005701765 0.010780994 -0.0078747105 -0.000839562 -0.010573609 -0.008019322 -0.023454698 -0.005695295
0.015643401 0.018057248 0.007958121 0.010049495 0.00063790986 0.006593006 0.010623729 -0.0028874723
0.00082216127 -0.006998268 0.0058222017 -5.0882187e-05 0.0138818845 0.0080905985 0.014086271 -0.0056279446
0.00567382 0.008165273 0.007201911 -0.00012958792 0.009683318 -0.018699856 0.0027049033 0.0041591413
0.0016858935 -0.00927141 -0.00219406 -0.0065945187 -0.012786518 -0.0054436303 0.01026262 0.013402374
0.0018495171 0.009533629 0.0029668359 0.017023077 -0.0005672891 -0.01527816 -4.949734e-05 -0.0053214026
0.010350061 -0.0059312554 0.013837001 0.00050848606 0.004601477 -0.0030473277 0.00715324 -0.014073684
-0.00014511027 0.0014202553 -0.0051492667 0.010886233 -0.0060330792 -0.011243328 0.004521895 -0.0037738557
-0.009973199 -0.007834066 0.02297405 -0.0071884277 -0.0014399173 -0.008454621 -0.007822587 -0.007575925
0.0031190352 -0.0040124175 0.007800575 -0.011537499 0.012136537 -0.008698699 -0.012980168 0.002292409
0.000255136 -0.0041154423 0.0059269317 0.0012137139 -0.013958843 -0.00026975916 0.010926035 0.005790522
-0.016820217 -0.012443298 -0.0036541268 0.008891742 0.009079981 0.007236473 0.0008437427 -0.0059311637
-0.014336693 0.0015844748 0.0034701761 0.006556397 -0.0014640283 -0.003864751 -0.0048185308 -0.010218076
-0.0025528504 -0.0051811915 0.029186744 -0.0039412132 -0.0048298715 -0.010459456 -0.00089893927 -0.00064639753
0.0039036025 -0.0066184825 -0.0020611412 -0.015751451 -0.0055116825 0.018509815 -0.006903176 0.009846948
0.0022853971 0.0077710645 0.0148119405 -0.007305225 -0.004278195 -0.0012374991 -0.016760824 -0.00041899053
0.0025878923 -0.010452176 -0.00029261707 -0.0055128443 -0.013490113 -0.013082002 -0.004974932 -0.0008315191
0.011211577 -0.0017869788 -0.0068698474 0.007913441 0.0028083897 0.0004644715 -0.0044690403 0.0052883523
0.0066446806 0.006279235 0.0037059702 0.015596004 0.018238021 0.001727539 0.010542818 0.005979792
0.01996197 -0.007312067 0.002337286 0.003167059 0.001177579 0.009243099 -0.005989076 -0.0015896059
-0.007217832 -0.0040973565 -0.0114164455 -0.0030743896 0.009750302 0.004561094 0.006791866 0.0018689651
0.004583745 -0.00018499666 0.0011074693 0.0019551252 -0.013561621 0.011496378 -0.01393521 0.009412726
0.0024345198 -0.011261652 -0.00096449483 -0.0044217384 -0.006922804 -0.007631976 -0.0011515495 0.0065017724
-0.00039672057 -0.015993644 -0.010682292 0.008576676 -0.001012129 0.012035299 -0.0036020838 -0.0026141612
0.0068841423 -0.0032606204 0.0006193108 -0.0070025185 0.0016248435 -0.0029266288 0.01843923 -0.0019373394
-0.0085589755 0.002845122 -0.007134826 0.001905383 0.009690515 -0.0141850775 -0.00619455 -0.007756361
00000000: 67ec ea3a 9c76 9a3b 4bb7 593c af64 af3b
00000010: b169 c03a bd81 ca3b 6b06 97ba f317 0abc
00000020: cadf 1e3c 73ce 753a a055 f1bb 7b13 88bc
00000030: 3bc1 c6bb f157 c03b ecb4 043c 6731 a73a
00000040: cf65 773b ab9e 5f3a 0349 38bc c8f5 25bc
00000050: e876 f9bb 0976 403c 0b37 49bc 75b4 8d3b
00000060: 2bfa 43bb f503 2abc f793 8c3b 07dc 523c
00000070: 12d6 383c 5959 91bc 42f6 df3b add5 953c
00000080: 1371 6e3b cfbd 873c f190 23bb 9bc7 523b
00000090: a359 eabb 6fea 5dbc da16 9c3b fcf3 83bb
000000a0: b3ab f0ba 2764 8c3b cb14 073c a28a bd3c
000000b0: 7300 ba3a 7f21 663c e389 a7bb 6207 99ba
000000c0: dfd5 babb c4a2 303c ee04 01bc 0d16 5cba
000000d0: ee3c 2dbc 7963 03bc 1124 c0bc 999f babb
000000e0: 9726 803c cbec 933c c762 023c a3a6 243c
000000f0: 6839 273a 250a d83b 260f 2e3c bf3b 3dbb
00000100: 4f86 573a ba51 e5bb 2bc8 be3b 556a 55b8
00000110: d870 633c 6e8e 043c 1aca 663c 9f6a b8bb
00000120: 74eb b93b a3c7 053c 02fe eb3b fee1 07b9
00000130: c8a6 1e3c 7130 99bc bf44 313b 6849 883b
00000140: 33f9 dc3a 1de7 17bc 38ca 0fbb d516 d8bb
00000150: 8b7e 51bc 7b60 b2bb 8c24 283c a295 5b3c
00000160: 7f6b f23a f032 1c3c 3f6f 423b fb73 8b3c
00000170: 21b6 14ba 3f51 7abc 5d9b 4fb8 295f aebb
00000180: 4d93 293c fa5a c2bb 97b4 623c ec4b 053a
00000190: fdc7 963b adb5 47bb ba65 ea3b 4f95 66bc
000001a0: be28 18b9 dc27 ba3a 2ebb a8bb 2c5c 323c
000001b0: 23b1 c5bb f035 38bc 682c 943b cb52 77bb
000001c0: a166 23bc 745a 00bc 1334 bc3c e78c ebbb
000001d0: 9bbb bcba 4085 0abc 4f2a 00bc 773f f8bb
000001e0: ba68 4c3b 997a 83bb f79b ff3b c707 3dbc
000001f0: 53d8 463c fd84 0ebc c5aa 54bc 3e3c 163b
00000200: c6c3 8539 d5da 86bb b536 c23b 7b15 9f3a
00000210: a2b3 64bc 766e 8db9 1d03 333c 6bbe bd3b
00000220: 8dca 89bc f9de 4bbc 137a 6fbb abae 113c
00000230: 33c4 143c ef1f ed3b 9d2e 5d3a 355a c2bb
00000240: 73e4 6abc 27ae cf3a e56b 633b 0bd7 d63b
00000250: a3e4 bfba c347 7dbb c4e4 9dbb b869 27bc
00000260: b94d 27bb fcc6 a9bb 0a19 ef3c 4b25 81bb
00000270: e643 9ebb 235e 2bbc cba6 6bba 0173 29ba
00000280: 95d3 7f3b dbdf d8bb 3614 07bb 3009 81bc
00000290: 589b b4bb e5a1 973c 0a34 e2bb 1855 213c
000002a0: 9ac6 153b 6aa4 fe3b c8ad 723c ab60 efbb
000002b0: 1a30 8cbb 9433 a2ba ff4d 89bc f5ab dbb9
000002c0: a199 293b 9b3f 2bbc 666a 99b9 17a5 b4bb
000002d0: a305 5dbc e555 56bc c104 a3bb 4dfa 59ba
000002e0: c3b0 373c 0f39 eaba 751c e1bb 61a7 013c
000002f0: f60c 383b 4f84 f339 0771 92bb ea49 ad3b
00000300: 9fbb d93b 0ac2 cd3b dddf 723b 6286 7f3c
00000310: e767 953c 976e e23a c9bb 2c3c 22f2 c33b
00000320: 4987 a33c 109a efbb 272d 193b 6f8e 4f3b
00000330: ff58 9a3a 5e70 173c 0340 c4bb 535a d0ba
00000340: 9083 ecbb 1e43 86bb 0b0c 3bbc b37b 49bb
00000350: bbbf 1f3c 3b75 953b 4d8e de3b 10f8 f43a
00000360: 3d33 963b aafb 41b9 8128 913a 8f21 003b
00000370: 9031 5ebc 4e5b 3c3c 8250 64bc d637 1a3c
00000380: 778c 1f3b cb82 38bc 27d6 7cba 3be4 90bb
00000390: b0d8 e2bb a815 fabb 97ef 96ba d20c d53b
000003a0: effe cfb9 1a05 83bc c804 2fbc 3085 0c3c
000003b0: 6aa9 84ba b42f 453c f010 6cbb 5952 2bbb
000003c0: 5f94 e13b 22b0 55bb 3f59 223a 6275 e5bb
000003d0: b3f8 d43a afcc 3fbb de0d 973c 53ee fdba
000003e0: f23a 0cbc 3a75 3a3b 42cb e9bb 0bbe f93a
000003f0: f7c4 1e3c 8768 68bc a7fb cabb 1229 febb

action_model._discrete_distribution.branches.2.bias f4 [2]
0.0 0.0
00000000: 0000 0000 0000 0000
