MLBase/results/ppo/CaptureTheFlag/CaptureTheFlag-48566.onnx (onnx, 131365 bytes, 11 tensors)

discrete_act_size_vector f4 [1, 3]
0	0x40400000	3.0
1	0x40400000	3.0
2	0x40000000	2.0

network_body._body_endoder.seq_layers.0.weight f4 [128, 100]
0	0xbdc68c5d	-0.09694741
1	0xbcd13239	-0.025536643
2	0x3d32beb1	0.04363889
3	0x3e34ba09	0.17649092
4	0x3debd809	0.11515815
5	0x3c29a691	0.010354654
6	0xbcda0af7	-0.026616557
7	0xbd675c1f	-0.056484338
8	0xbd8939a0	-0.06700444
9	0x3df467ee	0.119338855
10	0x3d4144b2	0.047184654
11	0x3d210370	0.03930992
12	0x3e24281d	0.16030927
13	0x3d12cfc3	0.03584267
14	0x3d84a7df	0.06477331
15	0x3af301b7	0.001853994
16	0x3d231236	0.03981229
17	0xbd9457f7	-0.072433405
18	0x3d1f8019	0.038940523
19	0xbd7bf93c	-0.061516985
20	0xbe0d41bb	-0.13794605
21	0xbd164727	-0.03668895
22	0x3dbbb862	0.091660276
23	0xbd8c4e5b	-0.068508826
24	0xbcf5fd8f	-0.030028133
25	0x3da28317	0.0793516
26	0x3db3adca	0.08773382
27	0xbd81d1d2	-0.06338848
28	0xbd27dfe3	-0.040985
29	0xbd524a73	-0.05134053
30	0xbd00d5b0	-0.03145379
31	0x3d2ca043	0.042145025
32	0x3eb1f346	0.34755915
33	0x3e54dd54	0.20787555
34	0x3d26423b	0.040590506
35	0x3d6d7517	0.057972994
36	0x3de4189b	0.111375056
37	0x3c8627a9	0.016376333
38	0x3e165506	0.14680871
39	0x3db47817	0.08811968
40	0x3ddbfae7	0.10741215
41	0x3ab48c53	0.001377473
42	0xbe4e3540	-0.20137501
43	0x3e7bb8ff	0.24582289
44	0x3df04425	0.117317475
45	0xbdf75815	-0.12077347
46	0x3d88bd46	0.06676726
47	0x3e014e60	0.12627554
48	0x3cb3e0ee	0.02195784
49	0xbe1ab246	-0.15107068
50	0x3e00555d	0.12532564
51	0x3d35bb98	0.044368356
52	0x3dab9cee	0.08379541
53	0xbc23c3bc	-0.009995397
54	0x3e4a28fb	0.19742195
55	0xbdf22e6f	-0.11825263
56	0x3cd6533f	0.026162742
57	0x3cdbe373	0.026841855
58	0xbd023249	-0.031786237
59	0xbe7cbf2e	-0.24682304
60	0x3e7368a0	0.2377038
61	0xbdb52f81	-0.08846951
62	0xbd0577f7	-0.03258511
63	0xbd350aad	-0.044199634
64	0x3c5a54de	0.013325898
65	0xbd9f665f	-0.077831976
66	0x3a9d3b33	0.0011995792
67	0x3ce5374d	0.027980471
68	0xbdce34bf	-0.10068654
69	0x3b97b1cd	0.00462935
70	0xbd6c8eaa	-0.057753243
71	0x3d520f70	0.051284254
72	0xbde4c137	-0.11169665
73	0x3e7a471b	0.24441187
74	0xbe1167ed	-0.14199801
75	0xbd950ce6	-0.07277851
76	0x3d3f57c8	0.046714574
77	0xbd8ec5e3	-0.06971338
78	0xbd022140	-0.03176999
79	0xbc2aeb6b	-0.010432105
80	0xbd7c847d	-0.06164979
81	0x3da269c4	0.079303294
82	0x3d734b6f	0.05939811
83	0xbcc4a8c9	-0.024006264
84	0xbe1dde07	-0.15416728
85	0x3d5138cd	0.05107956
86	0xbd392a75	-0.045206506
87	0xbb693e07	-0.003558995
88	0x3bbdb22d	0.0057890625
89	0xbe1dca43	-0.15409188
90	0x3e21a458	0.15785348
91	0x3e07dc26	0.13267574
92	0x3d8dc515	0.06922356
93	0x3db2b8e9	0.08726675
94	0x3c39209a	0.011299277
95	0xbe19485c	-0.14969009
96	0x3d77777a	0.060416676
97	0x3dac0b85	0.08400635
98	0x3cd62b50	0.0261437
99	0x3d00a249	0.031404767
100	0xbb2f9efa	-0.0026797638
101	0x3c8bc823	0.017063206
102	0xbd03b610	-0.03215605
103	0xbd25302f	-0.040329155
104	0xbd36c279	-0.044619057
105	0x3ddf2a5f	0.108967535
106	0x3d95b347	0.07309585
107	0x3cc52660	0.02406615
108	0xbdec2038	-0.11529583
109	0x3d44d2b7	0.048052516
110	0x3cbba601	0.022906305
111	0x3e8cfe5b	0.27537808
112	0xbc03c5ea	-0.008042792
113	0x3e1212fe	0.14265057
114	0x3df6acd0	0.1204468
115	0x3c829827	0.015941693
116	0xbbe6bafb	-0.007041333
117	0x3dbdf0a6	0.09274416
118	0xbda24948	-0.079241335
119	0xbd30b6e4	-0.043143168
120	0xbdd1135b	-0.1020877
121	0xbc2960db	-0.010338034
122	0xbc98d429	-0.018655853
123	0xbd07c1ca	-0.033143796
124	0xbea43780	-0.32073593
125	0x3d1131be	0.03544783
126	0xbe035cf4	-0.12828428
127	0x3c3c507e	0.0114938
128	0x3cf884b9	0.030336725
129	0xbb65040b	-0.0034945037
130	0xbdd5cdd7	-0.104396515
131	0xbcd1b51f	-0.02559906
132	0xbdc1c255	-0.09460894
133	0x3dd32308	0.10309416
134	0xbe3453d6	-0.17610106
135	0xbe21f06f	-0.15814374
136	0x3d53591a	0.051598646
137	0x3b82e096	0.003994058
138	0xbdd3aca9	-0.10335667
139	0x3de71c67	0.11284714
140	0x3dd160b5	0.102235235
141	0x3a6924d2	0.0008893731
142	0xbdcdc6f8	-0.10047716
143	0x3de4a90a	0.11165054
144	0x3e1487c2	0.14504912
145	0x3d423fd2	0.047424145
146	0xbd026158	-0.031831115
147	0x3d13be77	0.036070313
148	0x3dad464c	0.08460674
149	0x3a61188b	0.0008586726
150	0x3e21aa4c	0.1578762
151	0xbc99a89f	-0.018757163
152	0x3d901e6a	0.07037051
153	0xbdabe41a	-0.08393116
154	0xbdbb112e	-0.09134136
155	0x3baef723	0.0053395196
156	0x3d3b4a32	0.045725055
157	0xbd9e078a	-0.07716282
158	0xbdb6f3b2	-0.089332
159	0x3d3eaa83	0.04654933
160	0x3d68f717	0.05687627
161	0xbdd21bfd	-0.102592446
162	0x3cbcc88e	0.02304485
163	0xbc9282a2	-0.017884556
164	0xbe1455c8	-0.14485848
165	0xbe234bad	-0.15946837
166	0x3d1b4987	0.037911918
167	0xbca83b49	-0.020536082
168	0xbe2038ab	-0.15646617
169	0xbe69081e	-0.22757003
170	0x3e327c7f	0.17430304
171	0x3db36e8e	0.08761321
172	0xbd45b2f3	-0.048266362
173	0x3e1bef87	0.15228091
174	0x3d3c8c4f	0.046032246
175	0x3bd5331f	0.0065063382
176	0xbe410c3a	-0.1885232
177	0xbc973282	-0.018456701
178	0xbda6ec88	-0.081505835
179	0x3cb4f056	0.022087257
180	0xbd0fc0d7	-0.035096016
181	0x3d2c89a1	0.04212344
182	0xbd547c08	-0.051876098
183	0x3ceea21e	0.029130038
184	0xbd338216	-0.04382523
185	0x3d4342ac	0.047671005
186	0xbc937630	-0.018000692
187	0xbe9bc502	-0.30423743
188	0xbc5f7855	-0.013639529
189	0xbdef6d12	-0.116907254
190	0xbdca2ef3	-0.09872236
191	0x3e3122d3	0.1729844
192	0x3d7b9f43	0.06143118
193	0xbd322515	-0.043492395
194	0x3de9e3c7	0.11420398
195	0x3d9d243c	0.07672927
196	0xbe119406	-0.14216623
197	0xbccbccc6	-0.024877917
198	0x3da3074d	0.07960377
199	0xbe17d838	-0.14828575
200	0x3b54e842	0.003248707
201	0x3c54f940	0.012998879
202	0x3dba6fec	0.09103379
203	0xbd69df26	-0.057097577
204	0x3d66bc19	0.056331728
205	0x3d885cee	0.0665835
206	0xbd666e93	-0.056257796
207	0xbe6381a3	-0.22217421
208	0x3c56d23a	0.013111645
209	0xbde7c0d0	-0.11316073
210	0x3d8a0ada	0.06740351
211	0x3d25d297	0.040484037
212	0xbd4d822d	-0.050172973
213	0x3d7655dc	0.060140476
214	0x3d1ccafb	0.038279515
215	0x3e7f68b5	0.24942286
216	0x3def1ac0	0.11675024
217	0x3e07df62	0.13268808
218	0x3d404d06	0.046948455
219	0x3bee9f92	0.007282206
220	0x3d583a3a	0.052789904
221	0x3d489f1f	0.048979875
222	0xbd5c314d	-0.053757954
223	0xbde695d5	-0.11259047
224	0x3e41cf16	0.18926653
225	0x3cd5e000	0.026107788
226	0xbdb0037f	-0.08594417
227	0x3dd7a3ef	0.10529315
228	0xbe1104ee	-0.14162037
229	0xbba5af63	-0.005056308
230	0x3ca415fe	0.020030018
231	0xbe3a97ed	-0.18222018
232	0xbb9d674c	-0.0048035737
233	0xbdf24eb8	-0.11831421
234	0x3df80565	0.12110404
235	0xbd947302	-0.072484985
236	0xbd87b94f	-0.06627142
237	0xbdfe7541	-0.12424708
238	0xbdefd83e	-0.11711167
239	0xbd846274	-0.06464091
240	0xbd7f3c07	-0.062313106
241	0x3e2203f8	0.15821826
242	0xbc85e40a	-0.016344089
243	0xbd622d88	-0.055219203
244	0x3d3875c4	0.045034185
245	0x3e641ac8	0.22275841
246	0xbe581aec	-0.2110402
247	0x3cbf8151	0.023377093
248	0xbe5c965a	-0.2154173
249	0xbe0a6bd3	-0.13517694
250	0xbc03fe4a	-0.008056233
251	0x3cb0624a	0.021531243
252	0xbc27265b	-0.010202016
253	0x3d5559ef	0.05208772
254	0x3e430752	0.19045761
255	0xbd89120a	-0.06692894

network_body._body_endoder.seq_layers.0.bias f4 [128]
0	0xbbcd5fde	-0.006267532
1	0x3b870e39	0.0041215685
2	0x3b9015a6	0.004397112
3	0xbb93b97e	-0.0045081964
4	0x3b0749dd	0.0020643391
5	0xbbd83200	-0.0065977573
6	0xbbd958f6	-0.0066329194
7	0x3ad4686e	0.0016205439
8	0x39b8b196	0.00035227527
9	0xbb4b3a08	-0.003100993
10	0xbb6aa3f8	-0.00358033
11	0x3bdde4df	0.0067716683
12	0x3b14dc09	0.002271416
13	0x3c96efb7	0.018424852
14	0xbb10abfd	-0.002207517
15	0x3c250fb1	0.010074542
16	0x3a5bf398	0.00083904853
17	0xbbb00b98	-0.005372476
18	0xbbbc767c	-0.005751429
19	0x3bfd1838	0.0077238344
20	0x3c22ebcc	0.009943914
21	0xbac68a94	-0.0015147501
22	0xbafe3f75	-0.0019397574
23	0xbbaff7d0	-0.0053701177
24	0xbc21fd5c	-0.009887066
25	0xbba5442e	-0.005043528
26	0xbb2c9a30	-0.002633702
27	0x3c0994b2	0.008397268
28	0x3c0449c7	0.0080742305
29	0xbb521633	-0.0032056689
30	0xbc14ea43	-0.0090890555
31	0x398fefc6	0.0002745373
32	0x3c7b552b	0.01534013
33	0x3a0ecd34	0.0005447448
34	0x3addbe1d	0.001691762
35	0xbb321a72	-0.0027176407
36	0x39d7f7b0	0.00041192537
37	0x3aaef7e5	0.0013349025
38	0xbb5400d7	-0.0032349133
39	0xb835e987	-4.3371252e-05
40	0x3b337605	0.0027383578
41	0xbb8087da	-0.003922445
42	0x3b16077c	0.0022892645
43	0x3b982e97	0.004644226
44	0xbb7b9529	-0.0038388467
45	0xbb005b49	-0.001958566
46	0xbba5da7b	-0.0050614453
47	0xbb9821af	-0.0046426873
48	0x3b1facdc	0.0024364507
49	0xbb8cc10a	-0.004295473
50	0x3b22cd80	0.0024841726
51	0x3c39ea05	0.0113472985
52	0xbb255d8c	-0.002523276
53	0xbb2ac1f5	-0.0026055549
54	0x3c0e63d9	0.008690798
55	0x3bb04ef5	0.005380506
56	0xbb4278d4	-0.002967407
57	0xbba72198	-0.0051004402
58	0x3aad671b	0.001322958
59	0xbbe9962c	-0.0071284976
60	0x3ab7b855	0.0014016727
61	0xba9e3d40	-0.0012072697
62	0xbbbee3f8	-0.005825516
63	0xbb5377c2	-0.0032267426
64	0x3c4b5a5d	0.012411681
65	0xbb5e3f08	-0.0033912081
66	0x3b786fa7	0.0037908347
67	0xbb3df391	-0.0028984288
68	0xbaa93fba	-0.0012912669
69	0xbac069b7	-0.0014679943
70	0xbbc45837	-0.0059919613
71	0xbb78ded5	-0.0037974615
72	0x3a9db644	0.0012032469
73	0xbb0e6ef0	-0.0021733604
74	0xbc0592d9	-0.008152687
75	0x3bf40bdb	0.0074477023
76	0xbb30c9ee	-0.0026975828
77	0xba5b62e4	-0.0008368923
78	0x39d03444	0.00039711792
79	0xbaa008d9	-0.0012209668
80	0x3acc85c5	0.0015603831
81	0x3ac49989	0.001499937
82	0x3b0cf74f	0.0021509712
83	0xbb454bc0	-0.0030104965
84	0x3ae4fa4d	0.0017469615
85	0xbb9e43cd	-0.00482986
86	0x3b6a2ab8	0.0035731029
87	0xbad89102	-0.0016522708
88	0xba34a3bd	-0.0006890854
89	0x3a4fa433	0.0007920891
90	0x3b056961	0.0020357
91	0xbaddd2c6	-0.0016923777
92	0xbb8b9442	-0.004259617
93	0xbb7453f1	-0.0037281478
94	0x3c4d43bc	0.012528356
95	0xbb9f7b06	-0.0048669605
96	0x3caa83a9	0.020814734
97	0x3ac4577c	0.0014979686
98	0xbb26c756	-0.0025448403
99	0xba8ab910	-0.0010583717
100	0xbb2c931e	-0.0026332806
101	0x3a4c34fd	0.00077898783
102	0xbb062f45	-0.0020474952
103	0x3bdcfd4f	0.006744064
104	0x3a875677	0.0010325451
105	0x3b5fc159	0.0034142344
106	0x3aaaf1a6	0.0013041988
107	0x3b019a04	0.0019775638
108	0x3ba58cd0	0.0050521865
109	0xbb883ab0	-0.0041573867
110	0x3bef0ed8	0.0072954707
111	0xba98a857	-0.0011646849
112	0xbad2ffba	-0.0016097941
113	0xbaaba67b	-0.001309588
114	0x3ad0b74e	0.001592377
115	0xbb10a702	-0.00220722
116	0x3ad425a6	0.0016185537
117	0xbb6c4dc4	-0.0036057094
118	0x3a819383	0.0009885881
119	0x3a1c95fe	0.00059732783
120	0x3a933945	0.0011232278
121	0x3998e78d	0.00029164218
122	0xbb2082c6	-0.002449201
123	0x3b38428e	0.0028115842
124	0xbc007300	-0.007839918
125	0xba125fa1	-0.0005583708
126	0xbad7feca	-0.0016479131
127	0xbb5b410f	-0.0033455526

network_body._body_endoder.seq_layers.2.weight f4 [128, 128]
0	0xbdc14cf6	-0.09438507
1	0x3e20632c	0.15662831
2	0xbdfdbc65	-0.12389449
3	0xbded9c1c	-0.11602041
4	0xbe143089	-0.1447164
5	0x3d8b7e43	0.06811192
6	0xbced06eb	-0.028933963
7	0x3dae4368	0.085089505
8	0xbd1c43f0	-0.038150728
9	0x3e0c15c7	0.13680182
10	0x3e02d356	0.12775931
11	0xbd3857c0	-0.04500556
12	0xbd86ef7d	-0.065886475
13	0x3d83a3d8	0.06427735
14	0xbd9386a6	-0.072034165
15	0x3d5e9de5	0.0543498
16	0xbe24e386	-0.16102418
17	0xbc8f7b6e	-0.01751491
18	0x3d2bbfc4	0.04193093
19	0x3c29a4af	0.010354205
20	0x3da5d912	0.080980435
21	0x3df69f64	0.1204212
22	0x3d49e68f	0.049292143
23	0xbdaa7cc8	-0.083245814
24	0xbdc1e535	-0.09467546
25	0x3e3e71a4	0.18598038
26	0xbc2b26f9	-0.0104463035
27	0x3d34caa6	0.044138573
28	0xbdd873a1	-0.105689295
29	0x3c598b83	0.013277891
30	0x3e0c5b41	0.13706686
31	0x3e0869f1	0.13321663
32	0x3ce5775f	0.028011022
33	0xbe56c245	-0.20972545
34	0xbd57522d	-0.052568603
35	0x3ded64f4	0.11591521
36	0xbe3527c2	-0.17690948
37	0x3dbd53bb	0.09244486
38	0xbd17dd64	-0.03707637
39	0x3daf1a8c	0.08549985
40	0xbe20fb01	-0.1572075
41	0x3be22871	0.0069017936
42	0x3ca34410	0.019929916
43	0x3d5b4179	0.053529236
44	0xbdb5618d	-0.08856497
45	0xbe485849	-0.19564928
46	0x3e5b516e	0.21417782
47	0xbda6c33e	-0.08142708
48	0xbe1700e4	-0.14746433
49	0x3b2813bd	0.002564653
50	0xbd675074	-0.05647321
51	0x3e2c9152	0.1685231
52	0x3ddf2fd5	0.10897795
53	0xbdf48455	-0.11939303
54	0xbd3178d6	-0.04332813
55	0x3d0b112b	0.03395192
56	0x3df009df	0.11720633
57	0x3e0ce362	0.13758615
58	0x3d44cfbe	0.04804968
59	0xbda05aca	-0.07829817
60	0x3cd6b0fc	0.02620744
61	0xbe2977b5	-0.16549571
62	0x3c88842a	0.016664583
63	0x3d1bda36	0.0380499
64	0xbd2250bb	-0.03962777
65	0xbd831104	-0.0639973
66	0x3dac95c3	0.08427002
67	0xbc81524c	-0.015786313
68	0x3eadd92e	0.33954757
69	0xbe387237	-0.1801232
70	0xbe423ef1	-0.18969323
71	0x3e262b1a	0.1622738
72	0xbc28863f	-0.010285913
73	0xbd3101f7	-0.043214764
74	0x3c1446e4	0.009050105
75	0xbc7d5296	-0.015461585
76	0xbe8dd5c7	-0.27702162
77	0x3df154ed	0.117837764
78	0x3de0ace4	0.10970476
79	0xbb500ad8	-0.0031744745
80	0x3d6edc51	0.05831558
81	0x3d3d02fb	0.04614542
82	0xbd3c59cf	-0.045984086
83	0x3d865623	0.06559398
84	0xbb6b550d	-0.0035908849
85	0x3d42ef75	0.047591645
86	0x3cdca256	0.026932877
87	0xbe144595	-0.14479668
88	0xbd635d26	-0.055508755
89	0x3e28b6dc	0.16476005
90	0xbda7cce3	-0.08193376
91	0x3e48431b	0.19556849
92	0x3dc17d7c	0.09447762
93	0x3dcedd57	0.10100811
94	0x3cc815b9	0.02442442
95	0x3db2b0f0	0.087251544
96	0x3d887631	0.06663168
97	0xba87e6ba	-0.0010368444
98	0x3df09194	0.11746517
99	0xbe2fb3d7	-0.17158447
100	0x3c80c042	0.015716676
101	0x3c4f0159	0.012634599
102	0xbd424310	-0.047427237
103	0x3dbd143a	0.092323735
104	0xbd10e8e9	-0.03537837
105	0x3dad1908	0.0845204
106	0xbd914acd	-0.07094345
107	0xbd32b9dc	-0.04363428
108	0x3e0530b1	0.13006856
109	0x3cca9130	0.024727434
110	0x3d1d99d8	0.038476795
111	0x3d6b0fce	0.05738812
112	0x3e037fd9	0.12841739
113	0x3d38e7b7	0.045142855
114	0xbd01fcc8	-0.03173521
115	0xbdce0e9a	-0.10061379
116	0xbdbb526f	-0.09146582
117	0xbe2dc538	-0.16969764
118	0xbdc010c1	-0.093781956
119	0xbc29644b	-0.010338853
120	0xbde2372b	-0.11045679
121	0x3e632b3a	0.22184458
122	0x3d24831d	0.040164102
123	0x3dde80b1	0.1086439
124	0xbe30fd34	-0.1728409
125	0x3dd260b9	0.10272355
126	0xbcea2f6b	-0.028587064
127	0xbd93b314	-0.07211891
128	0x3e3c8b6a	0.18412557
129	0x3df8a3de	0.1214063
130	0xbb28d060	-0.0025758967
131	0xbdea940c	-0.11454019
132	0xbe1213c5	-0.14265354
133	0xbe3c9ab5	-0.18418391
134	0xbdb31346	-0.087439105
135	0xbdf69148	-0.12039429
136	0x3ddebd9d	0.108760096
137	0xbd8ba73b	-0.06819006
138	0x3e4905ed	0.19631167
139	0xbdd36a32	-0.103229895
140	0xbc99bb78	-0.01876615
141	0xbb4c70d3	-0.0031195178
142	0x3d5f2e3d	0.054487456
143	0x3d3b3f7f	0.04571485
144	0x3c0a0c9a	0.008425856
145	0x3d4a9505	0.049458522
146	0x3e05a1a9	0.1304995
147	0xbde7ba91	-0.113148816
148	0x3d086183	0.03329612
149	0xbd9b69e9	-0.0758856
150	0xbd1d37b0	-0.038383186
151	0x3e188c72	0.14897326
152	0x3dcd0803	0.10011294
153	0xbd54cc1b	-0.051952463
154	0x3e1a366c	0.15059823
155	0xbddd71df	-0.10812735
156	0xbcd695e8	-0.026194528
157	0xbdaf9c6b	-0.08574756
158	0x3d43a93c	0.047768816
159	0xbd616905	-0.055031795
160	0x3d4b65c5	0.049657602
161	0xbd938587	-0.07203203
162	0x3d6af81f	0.057365533
163	0x3cca61a8	0.02470477
164	0xbd3dbdd3	-0.04632361
165	0x3d039b8d	0.032130767
166	0xbb219a9a	-0.00246588
167	0xbe7d572a	-0.24740282
168	0x3cb0782f	0.021541683
169	0x3e168f13	0.14703016
170	0x3e0b6836	0.13613972
171	0xbc34f2fb	-0.011044259
172	0xbe207548	-0.15669739
173	0x3da342b2	0.079717055
174	0x3e0ae584	0.13564116
175	0xbddbfe0e	-0.107418165
176	0x3de0da05	0.10979084
177	0x3d89e454	0.06733003
178	0x3d6b49c5	0.0574434
179	0x3d283cbd	0.04107355
180	0xbe61b5c7	-0.22041999
181	0x3d5bd78f	0.05367237
182	0x3c7b46c8	0.0153367
183	0x3d598cd1	0.05311281
184	0x3dd62caa	0.10457738
185	0xbbc3efa0	-0.0059794933
186	0xbdd88025	-0.10571317
187	0xbd9ea7d0	-0.077468514
188	0xbd2abec2	-0.041685827
189	0xb7f36cde	-2.9018553e-05
190	0x3d1912bf	0.037371393
191	0x3dcffbcf	0.101554506
192	0x3c78d86e	0.01518832
193	0xbe416e18	-0.18889654
194	0x3c6dbdbe	0.01451057
195	0x3ce329ed	0.027729953
196	0xbde5a11a	-0.11212368
197	0xbd67616e	-0.0564894
198	0x3c7627b7	0.015024117
199	0x3c2ae8e9	0.010431507
200	0x3dac469a	0.08411904
201	0xbc89c8ba	-0.016819347
202	0x3d6303f9	0.05542371
203	0xbc7d0a58	-0.015444361
204	0x3d495f3d	0.049163092
205	0xbda0d7a1	-0.07853628
206	0xbc71ce31	-0.0147586325
207	0x3b53a12c	0.003229211
208	0x3daa8232	0.08325614
209	0x3d90882e	0.07057224
210	0xbd797f81	-0.060912613
211	0x3e29c29c	0.16578144
212	0x3e3bf335	0.18354495
213	0x3dfb4e05	0.122707404
214	0xbd87f85e	-0.06639169
215	0xbdd79089	-0.10525615
216	0x3dd9e6cd	0.10639725
217	0x3b03103d	0.0019998692
218	0xbc2583df	-0.010102241
219	0x3c83b415	0.01607708
220	0x3cfa2e98	0.030539796
221	0xbd439ee0	-0.047758937
222	0x3e14718b	0.14496438
223	0x3dd5f0cd	0.1044632
224	0xbc893ae1	-0.016751708
225	0x3d37312d	0.044724632
226	0x3cb98d6b	0.022650441
227	0xbd91f56c	-0.07126889
228	0xbe18ba0c	-0.14914721
229	0xbdb4d38a	-0.088294104
230	0xbd576006	-0.05258181
231	0x3d4d17dc	0.050071582
232	0xbe185f20	-0.14880037
233	0x3d9f1f32	0.07769622
234	0x3d532358	0.05154738
235	0x3da5aeb5	0.08089963
236	0xbd4d33d9	-0.050098274
237	0xbd47331d	-0.04863273
238	0x3e1594bb	0.14607517
239	0xbda7ce75	-0.081936754
240	0x3d9c0f61	0.07620121
241	0xbd3fb0f7	-0.046799626
242	0xbe57db84	-0.21079832
243	0x3d886116	0.06659143
244	0xbd42b01e	-0.04753124
245	0xbd526334	-0.05136414
246	0x3de01279	0.109410234
247	0xbdca23c1	-0.09870101
248	0x3de883e5	0.11353282
249	0xbe2d4356	-0.16920218
250	0xbb061ecb	-0.0020465131
251	0xbd81f055	-0.06344668
252	0xbdeede70	-0.1166352
253	0xbdc14d36	-0.09438555
254	0x3e00145b	0.12507765
255	0x3e3cede2	0.1845012

network_body._body_endoder.seq_layers.2.bias f4 [128]
0	0xbacb4354	-0.0015507736
1	0xbb1603bb	-0.0022890407
2	0x3b5c698e	0.0033632251
3	0x3ba2a003	0.0049629225
4	0x3b384ee6	0.00281232
5	0x3ada7c9d	0.0016669218
6	0x3b2d33a8	0.0026428495
7	0x3a803da9	0.0009784001
8	0x3a8a134e	0.0010534318
9	0xbaaa2b54	-0.0012982883
10	0x392b9e61	0.00016366832
11	0xbb62e47a	-0.0034621046
12	0xbacf8c59	-0.0015834674
13	0xbb0557fb	-0.002034663
14	0xbbaf0fb7	-0.0053424495
15	0x3b0d0b11	0.0021521489
16	0xbb602556	-0.0034201941
17	0xbb6039ba	-0.0034214095
18	0xbb124920	-0.0022321418
19	0x3a5b8ec9	0.00083754637
20	0x3bb80e5e	0.005616947
21	0xbb5801b5	-0.0032960002
22	0xba673158	-0.00088193035
23	0xbbbfb795	-0.005850742
24	0x3ae252f7	0.0017267157
25	0x39857c21	0.0002546022
26	0x3a13b9ad	0.0005635273
27	0x3b0eebe5	0.0021808085
28	0xbb6bea63	-0.003599786
29	0x3a94fafd	0.0011366304
30	0x3b0782b0	0.002067726
31	0xbb8d0bd6	-0.0043043895
32	0xbaf624d5	-0.0018779287
33	0xb986c0dc	-0.00025702163
34	0x3a8e1a48	0.0010841573
35	0xbb4e839f	-0.0031511558
36	0xbb047246	-0.0020209714
37	0xba9bddec	-0.0011891699
38	0xbb792242	-0.0038014804
39	0xbb57dd4c	-0.00329383
40	0x396c7a74	0.00022552331
41	0x3c1f1b1a	0.009711051
42	0xbb34ee31	-0.0027607793
43	0xbab974bd	-0.0014149171
44	0x3a061c1c	0.0005115883
45	0xba7d8f28	-0.0009672516
46	0x3ae2ff19	0.0017318457
47	0xbb4bfa5f	-0.0031124575
48	0xb9401f18	-0.0001832213
49	0x3b2c41a7	0.002628425
50	0x3a66b4f6	0.0008800769
51	0x3bc89107	0.006120804
52	0xbb38dcb3	-0.002820772
53	0xbba59d3d	-0.0050541447
54	0x3ac496e0	0.0014998578
55	0x3c03e49d	0.008050111
56	0xba76912c	-0.00094057876
57	0x3ae7949e	0.0017668193
58	0x3bfd5831	0.0077314605
59	0xb8de6f1e	-0.00010606482
60	0x3a6beba0	0.00089996494
61	0xbb73f1e6	-0.003722304
62	0xbb039cf6	-0.002008257
63	0xbb335322	-0.0027362783
64	0x3bf2d202	0.007410289
65	0xbb67756b	-0.003531779
66	0xbb23ff7d	-0.002502411
67	0xba4c9be1	-0.000780521
68	0xbad90844	-0.001655825
69	0x3b13417e	0.0022469456
70	0xbbb2239f	-0.0054363753
71	0xbb0d2276	-0.0021535433
72	0x3b14b952	0.0022693467
73	0x39300265	0.0001678556
74	0x3a9f1d18	0.0012139408
75	0xba8395bd	-0.0010039132
76	0xb7e93c34	-2.7803799e-05
77	0x3bb6ab99	0.0055746553
78	0xbb147c60	-0.002265714
79	0xbb7f19e1	-0.0038925337
80	0x3a7dfb38	0.00096886186
81	0xbb69276b	-0.0035576473
82	0xbb598771	-0.0033192302
83	0x3b2ec894	0.0026669847
84	0x3bb429d0	0.0054981485
85	0xbb1adeaf	-0.0023631265
86	0x3b1db346	0.0024063154
87	0x3b93f12f	0.0045148353
88	0xbbab3b67	-0.005225587
89	0xbb9b0c95	-0.0047317245
90	0x3abf993a	0.0014617809
91	0x3b63a4cf	0.0034735685
92	0x3c20c3dd	0.009812322
93	0x3a000b9e	0.00048845436
94	0xba76433d	-0.00093941746
95	0x372b7608	1.0219876e-05
96	0xb9e36042	-0.00043368532
97	0xbb689beb	-0.0035493325
98	0xba720362	-0.00092320715
99	0xbb4a6135	-0.0030880694
100	0x3b0c72d1	0.002143074
101	0xbb03451e	-0.002003021
102	0x3b14bc3d	0.0022695207
103	0xbb1723dd	-0.0023062148
104	0x3b056756	0.0020355782
105	0x3b3872f3	0.0028144687
106	0xb90834a4	-0.00012989581
107	0x3a98fa15	0.001167121
108	0xbb294690	-0.0025829412
109	0x3b2e030e	0.0026552114
110	0xbb401ec9	-0.0029315224
111	0xbaedae82	-0.0018133672
112	0xbaecef5b	-0.0018076705
113	0xbb7c7c8d	-0.0038526386
114	0xbb23c8e9	-0.0024991578
115	0x3ab64745	0.0013906738
116	0x3a85704f	0.0010180565
117	0xb884d6ce	-6.334261e-05
118	0x3af5a812	0.0018742105
119	0xb6f094c8	-7.169878e-06
120	0xba00693c	-0.00048984936
121	0x3b872359	0.004124087
122	0xbb8ef596	-0.004362772
123	0x3b35ef71	0.0027761126
124	0x3c1378ed	0.009000999
125	0x3b21df45	0.002469973
126	0x3a84dcb1	0.0010136572
127	0x3ba367af	0.0049867253

action_model._discrete_distribution.branches.0.weight f4 [3, 128]
0	0x3c1a876c	0.009431701
1	0xbbebb4b9	-0.0071931747
2	0x3a378b19	0.0007001623
3	0xb8ae227a	-8.303388e-05
4	0xbc239fb3	-0.009986806
5	0xbaf3d969	-0.0018604222
6	0x3c0ae59c	0.008477595
7	0xbc8c65fd	-0.017138476
8	0x3a61ffa4	0.0008621162
9	0xbc2ebaa9	-0.01066462
10	0xbb1b7e01	-0.0023726227
11	0xb918a696	-0.00014557908
12	0xbc9560b5	-0.01823459
13	0x3b66dfd8	0.0035228636
14	0x3b9a6511	0.004711755
15	0xbc97a6ad	-0.018512094
16	0x3b9d92ae	0.0048087453
17	0xbb98b181	-0.004659832
18	0xbc6c2e81	-0.014415384
19	0xbbec246d	-0.0072064907
20	0xbbe78c1b	-0.0070662624
21	0xbbd66fe2	-0.006544099
22	0xbb14335b	-0.0022613618
23	0xbc22021d	-0.009888199
24	0x3af97685	0.0019032514
25	0xbba78642	-0.0051124403
26	0x3c7ac6d1	0.015306191
27	0xbbbd4d80	-0.005777061
28	0xbc47e67f	-0.012200951
29	0xbb96b7dc	-0.0045995545
30	0x3b529e27	0.0032137723
31	0x3bc03dc2	0.005866737
32	0x3c0f0c0a	0.008730898
33	0x3c204bc4	0.009783689
34	0xba3e05d7	-0.0007248795
35	0xbc064ed2	-0.008197503
36	0xbc19a0af	-0.009376689
37	0xbc579764	-0.013158653
38	0xbb5da1c4	-0.0033818344
39	0x3b2bd96f	0.002622213
40	0x3ce16826	0.027515482
41	0xbc49c5ea	-0.012315253
42	0x3ad4e271	0.0016241801
43	0xbc0c650d	-0.008569014
44	0x3bc45e7a	0.005992708
45	0xbc3fa48e	-0.011696948
46	0xbbdfc148	-0.006828461
47	0x39cec86c	0.00039440708
48	0xbac0bf74	-0.0014705495
49	0xba90bc02	-0.0011042359
50	0x3c4ec4a7	0.012620128
51	0xbc645fad	-0.0139388265
52	0xbb56bee4	-0.0032767588
53	0xbafdd772	-0.0019366576
54	0x3b183b57	0.0023228729
55	0x3d00abe6	0.031413935
56	0x3c7dfc9f	0.015502124
57	0xbb548dac	-0.0032433076
58	0xbc744621	-0.014909298
59	0xbc7c810b	-0.015411626
60	0xbb8ba24b	-0.00426129
61	0xbc60724d	-0.013699126
62	0x3b13abb6	0.0022532768
63	0xbc5f180f	-0.013616576
64	0xbc1efbcf	-0.009703591
65	0x3b6fd9c4	0.0036598304
66	0x3c0e5d8a	0.008689294
67	0x3b93f1aa	0.0045148926
68	0x3bc14a53	0.0058987527
69	0xbb649164	-0.0034876699
70	0xbb8e64cd	-0.0043455125
71	0xb94d1e9c	-0.00019561726
72	0x3c84550f	0.01615384
73	0xbbecfea2	-0.007232503
74	0x3be7993b	0.007067827
75	0xba443b9c	-0.0007485689
76	0xba252177	-0.0006299237
77	0x3bdf3a86	0.0068123965
78	0xbb4d9af4	-0.0031372877
79	0xbcd7678c	-0.026294492
80	0x3c0f1e5a	0.008735264
81	0xbb995cc4	-0.004680248
82	0x3bc2223a	0.0059244903
83	0x3c4c8873	0.012483704
84	0xbac4f535	-0.0015026691
85	0x3bb40852	0.005494156
86	0x3c49eae1	0.012324066
87	0xba2bbe08	-0.0006551449
88	0x3c4a4d5e	0.012347547
89	0xba0ac970	-0.0005294299
90	0xbc4ce137	-0.012504867
91	0xbbd49189	-0.0064870757
92	0xbb18928e	-0.0023280713
93	0xbc798a4d	-0.015230727
94	0x3bf9142f	0.007601283
95	0x3ae5c2d2	0.0017529374
96	0x3c89616d	0.016770089
97	0xbc206c70	-0.0097914785
98	0xbbc56a59	-0.0060246405
99	0xbbe0ed38	-0.006864216
100	0x3cbda61b	0.023150494
101	0xbbabea3d	-0.0052464292
102	0xbc1be4d0	-0.009515002
103	0xbb7dc0dd	-0.0038719692
104	0x3bd3321c	0.0064451825
105	0x3c739491	0.014866964
106	0xbcaff2f1	-0.021478148
107	0xbc6dfcb0	-0.014525577
108	0xbbf9ff41	-0.0076293056
109	0xbb94ab29	-0.0045370054
110	0x3c402cc8	0.011729427
111	0x3aacebd5	0.0013192842
112	0xbbec8630	-0.007218145
113	0x3a8e07e9	0.0010836098
114	0xbb387969	-0.0028148538
115	0x3c4844cb	0.012223433
116	0xb9c7fd30	-0.00038144877
117	0xbc5a092a	-0.013307849
118	0x3b86e69a	0.0041168453
119	0x3984da2c	0.00025339553
120	0x3beb2689	0.0071762246
121	0xbc3ac5c7	-0.011399693
122	0xbba1a1db	-0.0049326248
123	0xbb7edd13	-0.0038889095
124	0x3a85e791	0.0010216107
125	0x3c11c08a	0.008896003
126	0xbbacf595	-0.005278299
127	0x3c888d0b	0.016668817
128	0x3c919882	0.017772917
129	0xbbd381ce	-0.006454683
130	0x3c74d068	0.014942266
131	0xbb03fd4a	-0.0020139986
132	0x3c035a84	0.008017186
133	0xbae5235c	-0.0017481851
134	0xba2d2a46	-0.00066057255
135	0xbc64803b	-0.013946588
136	0x3bbb7e00	0.0057218075
137	0x3bbeeee0	0.005826816
138	0xbc0438fe	-0.008070229
139	0x3b5640db	0.0032692465
140	0xb9deef84	-0.00042521593
141	0xbb7ff4a1	-0.0039055722
142	0xbc9b800f	-0.018981962
143	0xba91f2ea	-0.0011135016
144	0x3aca87b6	0.0015451822
145	0xbc31633c	-0.010826882
146	0xbbe02536	-0.0068403734
147	0xbb0d3cbb	-0.002155109
148	0x3acbee5f	0.0015558711
149	0x3aba6c7f	0.0014223008
150	0xbc00f0c8	-0.007869907
151	0xba01d77c	-0.0004953069
152	0xbc8137c0	-0.015773654
153	0x3acfcbe7	0.0015853614
154	0x3c9f55f7	0.01945017
155	0x3c80110c	0.015633129
156	0xbc47d721	-0.012197287
157	0xbc11063e	-0.008851586
158	0xbaad0551	-0.0013200437
159	0x3c13cb53	0.009020644
160	0xbc44905b	-0.011997308
161	0x3c1c7177	0.0095485365
162	0x3ca259f3	0.019818282
163	0x384874fc	4.7792666e-05
164	0x3b0d733a	0.0021583573
165	0x3bcea04e	0.006305731
166	0x3c7b69df	0.015345066
167	0x3b87e510	0.0041471794
168	0x3c287327	0.010281361
169	0x3c0fd5da	0.0087790135
170	0xbc0a3c88	-0.008437283
171	0x3bcd55ac	0.0062663164
172	0x39f45f11	0.00046610137
173	0x3c3c9cfa	0.0115120355
174	0xbc9284aa	-0.017885525
175	0x3c39f0e9	0.011348941
176	0xbc8c99ad	-0.017163122
177	0xbca48293	-0.020081794
178	0x3a434a90	0.00074497703
179	0x3c08b0e3	0.008342954
180	0x3b0f483f	0.002186313
181	0xba56fac3	-0.00082008186
182	0x3c5376f8	0.012906782
183	0x3c99e0cf	0.018783955
184	0x3c92bb92	0.017911706
185	0xbaaf5c95	-0.0013379032
186	0xbb0d51be	-0.0021563615
187	0xbc0d3bf3	-0.00862025
188	0x3b9eb5d8	0.004843455
189	0x3c396258	0.011314951
190	0x3c176ced	0.0092422785
191	0x3c2ad7de	0.010427443
192	0x3b50d4dc	0.0031865155
193	0x3a02327e	0.00049666304
194	0x37a207c9	1.931553e-05
195	0x3bf36d87	0.007428828
196	0xbb38ae22	-0.0028179963
197	0xbaa1b7cb	-0.00123381
198	0x3be24d28	0.0069061704
199	0x3b6f9cc2	0.003656194
200	0x3c0de6f9	0.008661025
201	0xbb338115	-0.0027390171
202	0x3c35ba48	0.011091776
203	0x3c671f38	0.014106564
204	0xbc07bd07	-0.008284814
205	0x3c2ba463	0.010476205
206	0xbc22830c	-0.009918939
207	0x3bf675e7	0.0075213793
208	0x3aac02ce	0.0013123394
209	0x3ca51078	0.020149454
210	0x3badeadb	0.005307538
211	0x3b926048	0.004467044
212	0x3bf0b0c7	0.0073452923
213	0xbb3be5c0	-0.0028670877
214	0x3bd8c15a	0.006614846
215	0xbbc9c90a	-0.006157999
216	0xbaca1ed5	-0.0015420566
217	0xbc4c3ff7	-0.012466422
218	0xbbea9b6d	-0.0071596415
219	0x3c4c47cc	0.01246829
220	0xbbed68d9	-0.007245165
221	0x3a419262	0.00073841785
222	0x3c74313a	0.014904315
223	0x3c3bc60c	0.011460792
224	0x3bdc24a9	0.0067182374
225	0x3c0f83fe	0.008759497
226	0x3bb0d19b	0.0053960807
227	0x3b5b67a8	0.0033478532
228	0xb985188c	-0.00025386026
229	0xba9030b3	-0.0011000842
230	0xba2944cc	-0.000645709
231	0x3c8699e0	0.016430795
232	0xbba20cde	-0.0049453815
233	0x3bad072a	0.005280395
234	0x3b826c6b	0.0039802096
235	0x3c0291a5	0.007969295
236	0xbc8d9fce	-0.017288115
237	0xbb837c45	-0.004012617
238	0xb9bf863f	-0.0003653038
239	0xbab6948e	-0.0013929771
240	0xbb71939b	-0.0036861661
241	0x3c0b7935	0.008512785
242	0xbc10f3a8	-0.008847155
243	0xb8d07467	-9.9398945e-05
244	0xba3c1d48	-0.0007175994
245	0xbc0cc078	-0.00859081
246	0xbba4b8cd	-0.005026913
247	0xbc471963	-0.012152049
248	0x39b22ed1	0.00033985687
249	0x3c87379e	0.016506013
250	0x3c81a8b7	0.01582752
251	0x3c1eb158	0.009685837
252	0x3b6e1ba1	0.0036332386
253	0x3c5a8ee9	0.0133397365
254	0x3af0dd60	0.0018376522
255	0xb8070582	-3.2191638e-05

action_model._discrete_distribution.branches.0.bias f4 [3]
0	0xb83cbb41	-4.4997087e-05
1	0xbb25a2f1	-0.0025274123
2	0x3af87655	0.0018956164

action_model._discrete_distribution.branches.1.weight f4 [3, 128]
0	0x3aaf814f	0.0013389977
1	0x3b385c0e	0.002813104
2	0xbc3e22f4	-0.011605013
3	0xbba7d58c	-0.0051218923
4	0xbba55043	-0.0050449683
5	0x3b43dc86	0.002988608
6	0x3942e6d5	0.00018587273
7	0xbb4995e8	-0.0030759517
8	0x3c67c16f	0.014145239
9	0xbca86b84	-0.02055908
10	0xbaebcb1c	-0.0017989608
11	0xbbe5d643	-0.0070140674
12	0x3c230262	0.009949299
13	0xbb19c059	-0.0023460595
14	0x3bacf55a	0.0052782716
15	0x3c476dfa	0.012172217
16	0xbb016bd2	-0.0019748104
17	0x3b4337fd	0.002978801
18	0xbc2d7e1e	-0.010589151
19	0xbcac56fd	-0.021037573
20	0xbb10553a	-0.0022023455
21	0xbc4be730	-0.012445256
22	0xbbde39da	-0.006781799
23	0x3abd292b	0.0014431825
24	0x3c314510	0.010819688
25	0xbb1880c4	-0.002327011
26	0xbc1adc4b	-0.009451936
27	0xbc92b237	-0.017907245
28	0xbc666c4f	-0.014063909
29	0x3c244445	0.010026042
30	0xb9b70644	-0.00034909148
31	0xbb8a5977	-0.004222091
32	0xbb7a2665	-0.0038169858
33	0xb78a483f	-1.6484524e-05
34	0x3c446eb0	0.011989281
35	0xbc669f11	-0.01407601
36	0x3b301162	0.002686583
37	0xbc5bdb6b	-0.013419013
38	0x3b159c7f	0.0022828875
39	0xb88b33c9	-6.637682e-05
40	0x3bf2538a	0.0073952125
41	0xbb134479	-0.0022471233
42	0xbb95e31c	-0.0045741927
43	0xbb071768	-0.0020613316
44	0xbb5d1f3c	-0.003374054
45	0x3a027583	0.0004976617
46	0x3bac64b0	0.0052610263
47	0xbbb6a67b	-0.0055740452
48	0xbb406808	-0.0029358882
49	0x3c93deae	0.018050518
50	0x3a1d9d66	0.0006012529
51	0xbc73decc	-0.014884662
52	0xbb58796f	-0.0033031364
53	0x3b907bfd	0.004409312
54	0x3b845cc8	0.0040393807
55	0x3c965aa3	0.018353766
56	0x3b76bd83	0.003764958
57	0xba59daa6	-0.0008310474
58	0xbc386f9e	-0.01125708
59	0xbc12549e	-0.008931307
60	0xbbf2543f	-0.007395297
61	0x3c23355b	0.009961451
62	0xbc82915f	-0.015938459
63	0xbbbfd77b	-0.0058545447
64	0xbcb00507	-0.021486772
65	0x3a47dee3	0.000762446
66	0xba9b332c	-0.0011840812
67	0x3b307bb4	0.0026929202
68	0xbc1572bd	-0.009121594
69	0x3c1cd16f	0.009571417
70	0xbc803298	-0.015649125
71	0x3c283ac9	0.010267922
72	0xbb556261	-0.003255986
73	0x3c1b305d	0.00947198
74	0xbc0915ec	-0.008367043
75	0xbc4ba540	-0.012429535
76	0xb8f5feaa	-0.00011729945
77	0xbc6e8a31	-0.014559315
78	0xbb2cdc3c	-0.0026376387
79	0xbab2ea86	-0.0013650216
80	0x3b2a7dfa	0.002601503
81	0xbaa8cad9	-0.0012877836
82	0xbbc77d3e	-0.006087928
83	0x3cd223f9	0.025651919
84	0xbc8cc45f	-0.01718348
85	0x39b99f01	0.00035404417
86	0x3bd95eeb	0.0066336296
87	0xbbb9410e	-0.005653507
88	0x3c877ea5	0.016539881
89	0x3a0221f6	0.0004964167
90	0xba67439e	-0.00088220264
91	0xbc3afc2e	-0.011412663
92	0xbca467f3	-0.020069098
93	0xbcfe56fc	-0.031047337
94	0xbad811fe	-0.0016484854
95	0x3af2d104	0.0018525426
96	0x3bd485ae	0.0064856624
97	0xb9f7660d	-0.00047187545
98	0xbc330cb0	-0.010928318
99	0xbbfd0c7e	-0.0077224365
100	0x3caaee45	0.020865569
101	0xbacc561d	-0.0015589629
102	0x3c1e9442	0.009678902
103	0x3aebf7e0	0.001800295
104	0x3c78e126	0.015190398
105	0x3c5b6b01	0.013392211
106	0xbc502214	-0.012703437
107	0xbbc62c3c	-0.0060477536
108	0xba812c9e	-0.0009855216
109	0xbcb90acd	-0.022588158
110	0xbc322d51	-0.010875062
111	0x3c13042f	0.008973165
112	0xbb4ca5f4	-0.0031226845
113	0x3bd9a5a4	0.0066420604
114	0x3b95f0bb	0.0045758164
115	0xbc1d0dd5	-0.009585817
116	0xbc1f469c	-0.009721424
117	0xbc45264b	-0.012033056
118	0xbc41183c	-0.011785563
119	0x3b00767d	0.0019601875
120	0xbb1998aa	-0.0023436942
121	0xbc21a599	-0.009866142
122	0xbc1a6c3f	-0.009425222
123	0x3c19023d	0.009338913
124	0xbc599ded	-0.013282281
125	0xba034b6b	-0.00050084916
126	0xb9a17ca6	-0.00030801183
127	0x3c39021b	0.011292006
128	0xbc2c3a35	-0.0105119245
129	0x3c375931	0.0111906985
130	0x3c64d7f8	0.013967507
131	0xba7822ef	-0.0009465655
132	0x3b8e4985	0.0043422603
133	0xba55937a	-0.0008147281
134	0xbb236a53	-0.00249352
135	0x3c2c5875	0.010519137
136	0xbbc6919f	-0.00605984
137	0x3c34499f	0.011003881
138	0x3bbdfbd6	0.0057978434
139	0x3cbe5d2d	0.023237789
140	0x3c13c8d6	0.009020051
141	0xbc497444	-0.012295786
142	0x3c6cac65	0.014445399
143	0xbc696ca0	-0.01424709
144	0x3c044115	0.008072157
145	0x3c0bfe11	0.008544461
146	0x3a2f6d33	0.0006691992
147	0x3a2e74ea	0.0006654995
148	0x3abd3b1a	0.0014437169
149	0xbc427b1d	-0.011870173
150	0xbbed5720	-0.007243052
151	0x3bef74c2	0.00730762
152	0x3c659ee1	0.01401493
153	0x3ba028c9	0.0048876745
154	0xbc054542	-0.008134188
155	0xbbbbd310	-0.0057319477
156	0x3c939801	0.018016817
157	0xb9265974	-0.00015864318
158	0xbc6672d6	-0.014065465
159	0xbbae6f01	-0.0053232913
160	0xbb20eaac	-0.0024553938
161	0x3a8ff26e	0.0010982284
162	0xbbce1e0a	-0.006290202
163	0x3b11504e	0.002217311
164	0x3b80de4b	0.0039327494
165	0x3a92d1c6	0.0011201433
166	0x3b2d6ed6	0.0026463768
167	0x3b9cf80c	0.0047903117
168	0x3bcc8b3e	0.006242185
169	0x3cb0ff91	0.021606239
170	0x3a71a336	0.0009217741
171	0x3b1112c0	0.002213642
172	0xbb7d4388	-0.0038644988
173	0xb9fd7443	-0.00048342542
174	0x3ab3fcaa	0.0013731916
175	0xbc7afde3	-0.01531932
176	0x3c03171d	0.008001116
177	0xbcafa332	-0.021440122
178	0x3c164104	0.009170774
179	0xbb8ab716	-0.0042332513
180	0xbc1b979c	-0.009496596
181	0x3ba4f922	0.0050345818
182	0xbc2298fd	-0.009924171
183	0xbc997500	-0.018732548
184	0x3b1a3006	0.002352716
185	0xbbc9c588	-0.0061575808
186	0x3c1d9918	0.00961902
187	0xbbb73d5d	-0.005592032
188	0x3b6a8ca7	0.0035789402
189	0x3c09a8a0	0.00840202
190	0x3caf08ab	0.021366438
191	0x3ab6599c	0.0013912204
192	0x3c9baf97	0.019004626
193	0xba0216e4	-0.00049625174
194	0xbb0f0e75	-0.0021828685
195	0xbc37f589	-0.011227974
196	0xbb835463	-0.0040078624
197	0xbb882220	-0.0041544586
198	0xbc028985	-0.0079673575
199	0x3b899f98	0.0041999333
200	0x3c4d2c33	0.012522745
201	0xbae29af7	-0.0017288615
202	0x3b1dde14	0.0024088668
203	0x3bf34d16	0.007424961
204	0x3c83e4a8	0.016100243
205	0x3c64ae14	0.013957519
206	0x3b5fd9ce	0.0034156921
207	0x3b5b5c93	0.0033471927
208	0xbb353a1b	-0.0027653042
209	0xbb8af72b	-0.0042408905
210	0xbc8402e1	-0.016114654
211	0x3c7312ab	0.014835994
212	0x3c9c286c	0.019062243
213	0xbc246a56	-0.010035118
214	0x3b90f60b	0.004423862
215	0x3c0c56f3	0.008565652
216	0x3b437be6	0.0029828488
217	0x3c278303	0.010224107
218	0x3c198de6	0.00937221
219	0x3c08a61b	0.008340384
220	0x3c0bf369	0.00854192
221	0x3b7ca8f2	0.0038552848
222	0xbba81833	-0.005129838
223	0xbbb3d32f	-0.0054878215
224	0xbbddd720	-0.0067700297
225	0xbac23d63	-0.001481932
226	0x386b5112	5.610387e-05
227	0x3b47666b	0.0030426036
228	0xbc0499f6	-0.008093348
229	0xbb9201a2	-0.004455761
230	0xbc20f81e	-0.009824781
231	0x3b935740	0.004496485
232	0x3c8cbb88	0.017179266
233	0xbac510a5	-0.0015034868
234	0x3b5a1adc	0.003328017
235	0x3a9ab6d8	0.0011803759
236	0x3b62dde0	0.003461711
237	0x3c69a249	0.014259883
238	0xbc3c50b9	-0.011493855
239	0x3c4d56d5	0.012532909
240	0x3c06bb52	0.008223372
241	0x3beb2004	0.0071754474
242	0x3c3c7d13	0.011504429
243	0x3c132145	0.0089801
244	0x39c687e8	0.0003786676
245	0xba1da39d	-0.0006013455
246	0x3bb6e36d	0.0055813105
247	0xba019a4e	-0.00049439527
248	0xbc784773	-0.015153754
249	0x3c95eedb	0.018302372
250	0x3afd02fc	0.0019303258
251	0xbc17f02a	-0.009273568
252	0x3bfec20c	0.007774597
253	0xbb598450	-0.0033190437
254	0x3b6d116b	0.0036173712
255	0x3b4a3a36	0.003085745

action_model._discrete_distribution.branches.1.bias f4 [3]
0	0x3b3be831	0.0028672332
1	0xbb0eae25	-0.0021771279
2	0xbb1755d5	-0.0023091931

action_model._discrete_distribution.branches.2.weight f4 [2, 128]
0	0x3c56c661	0.013108821
1	0xbb01961d	-0.0019773312
2	0x3c86eedf	0.016471324
3	0x3c92bcd6	0.01791231
4	0x3d0c2ddf	0.034223434
5	0xbcbe32b1	-0.02321753
6	0x3b9341b9	0.0044939187
7	0xbbdf675b	-0.006817741
8	0xb62d2390	-2.579971e-06
9	0xbc5db1dc	-0.0135311745
10	0x3b2aad80	0.0026043355
11	0x3bcb1509	0.006197576
12	0x3b9804b9	0.004639235
13	0xbb9e090e	-0.0048228567
14	0x3b996fec	0.0046825316
15	0x3bd0a95b	0.006367845
16	0xbc1552c3	-0.00911397
17	0xbadedb56	-0.0017002623
18	0x3bb6232a	0.005558391
19	0xbb9541f2	-0.0045549804
20	0x3c7c4642	0.01539761
21	0xba76edda	-0.0009419598
22	0xba28575a	-0.0006421708
23	0x3c0cf327	0.008602894
24	0x3b72db0c	0.0037056832
25	0x3b6ba55c	0.0035956716
26	0x3c647525	0.013943945
27	0x3c735778	0.014852397
28	0x3adde705	0.0016929811
29	0x3a8efb23	0.0010908585
30	0x3bb09711	0.0053891023
31	0x3bfc1eb6	0.0076940907
32	0x3ab09ff5	0.0013475405
33	0x3c0b8249	0.008514949
34	0xbafc63a9	-0.0019255775
35	0xbb5e82e3	-0.0033952526
36	0x3ba4eab0	0.0050328597
37	0xbbbdb2c0	-0.005789131
38	0xba7350d4	-0.00092817587
39	0x3c415632	0.011800336
40	0xb9d18a9e	-0.00039966864
41	0x3c9bf1a9	0.019036131
42	0xbb847b47	-0.004043016
43	0xbb7fbe43	-0.0039023317
44	0x3b02b7b2	0.0019945917
45	0x3c67f342	0.014157118
46	0x3bc41735	0.005984212
47	0xbc1b5563	-0.009480807
48	0x3b2edf6f	0.002668347
49	0x3c287c3f	0.010283529
50	0xbbf9d6ed	-0.007624498
51	0x3c49e6b5	0.012323071
52	0xbb395062	-0.0028276672
53	0x3c09ee1f	0.008418589
54	0x3bbcb703	0.0057591214
55	0xbcdb1905	-0.026745329
56	0xbc148199	-0.009064102
57	0x3b394560	0.002827011
58	0x3c7c0863	0.015382859
59	0x3b019009	0.001976969
60	0x3c4a39d8	0.012342893
61	0x3c5c608c	0.013450753
62	0x3ce80e3d	0.028327102
63	0x3b996cd6	0.0046821637
64	0x3bd00b2f	0.0063489894
65	0x3becf455	0.007231275
66	0x3c04d010	0.008106247
67	0x3b337ea0	0.0027388707
68	0x3a75420c	0.000935585
69	0xbc3b301c	-0.011425044
70	0xbbd67143	-0.0065442636
71	0x3b67b819	0.0035357533
72	0x3bfb421a	0.007667792
73	0x3caf1a8a	0.02137496
74	0xbbee3804	-0.007269861
75	0x3b3bb434	0.0028641345
76	0xbc33274d	-0.010934663
77	0x3c548980	0.012972236
78	0xbbb86288	-0.00562698
79	0x3c29abff	0.0103559485
80	0xbbb4868c	-0.0055092033
81	0x3beb2d0f	0.0071770023
82	0xbbdcb97c	-0.0067359786
83	0xbcc49079	-0.023994671
84	0x3a15aca8	0.0005709627
85	0x3c1348f0	0.008989558
86	0xbb926958	-0.0044681244
87	0x3bf3de95	0.0074423053
88	0xbb3c0a75	-0.0028692756
89	0xbb92a59f	-0.00447531
90	0xbc2837c9	-0.0102672065
91	0x3beb7e1a	0.0071866633
92	0x3c6cc938	0.014452271
93	0x3cc0f10b	0.023552438
94	0xb761ff90	-1.3470548e-05
95	0x3cb4bc18	0.022062346
96	0xbc61c56b	-0.013779978
97	0xbb626158	-0.0034542885
98	0x3be755d4	0.007059792
99	0xbbb1e9f8	-0.0054295026
100	0xba4628cc	-0.000755918
101	0x3bfd3989	0.007727806
102	0xbbf8e534	-0.0075956825
103	0x3b30cbb8	0.0026976895
104	0x3b388b7f	0.0028159318
105	0xbcde1184	-0.027107961
106	0x3c6ec265	0.014572714
107	0x3c43d042	0.011951508
108	0x3c488bc4	0.012240354
109	0x3be638ef	0.00702583
110	0x3b576be2	0.00328707
111	0xbbedcbe7	-0.007256973
112	0x3aa0b712	0.001226159
113	0xbb934def	-0.0044953744
114	0xbafc974f	-0.0019271168
115	0xbc1ae8d8	-0.009454928
116	0x3c498bf2	0.012301432
117	0xbacc247d	-0.0015574839
118	0x3b092ac2	0.0020930027
119	0xbc2e66e1	-0.010644645
120	0x3ccb0c4b	0.024786135
121	0x3cb2c394	0.021821775
122	0xbc8653cb	-0.016397377
123	0xbbdef77c	-0.006804405
124	0x3bc6cf31	0.0060671796
125	0xbadd0e90	-0.0016865302
126	0xbbfcf3ec	-0.0077195074
127	0xbb1716b5	-0.0023054306
128	0x3c62d10a	0.013843784
129	0x3c90b453	0.01766411
130	0xbca00fb4	-0.019538738
131	0xbbf5c983	-0.0075008287
132	0xbc1ee435	-0.0096979635
133	0xbcad7f50	-0.021178871
134	0x3c714154	0.014725048
135	0xbb0d26fa	-0.0021538124
136	0xbb873a94	-0.004126856
137	0xbbbbf9ff	-0.005736589
138	0xbabb204d	-0.0014276594
139	0xbb9b7c54	-0.0047450457
140	0x3c2d72be	0.010586439
141	0xbbac111f	-0.0052510644
142	0x3c8ec858	0.017429516
143	0xb987dea2	-0.0002591508
144	0xbbeedd36	-0.007289554
145	0xba9edd0c	-0.001212032
146	0x3aefec35	0.0018304648
147	0xbbb8f4ef	-0.0056444327
148	0xbc30a7c6	-0.010782188
149	0xbc5b833f	-0.013397991
150	0x3bbc0002	0.0057373056
151	0x3a2729ea	0.000637679
152	0x3a2249d7	0.00061908126
153	0x3c0c43b3	0.008561063
154	0xbc859b14	-0.016309299
155	0x3b96a270	0.004597001
156	0xbc44db73	-0.012015211
157	0xbb9c5863	-0.0047712787
158	0xbb941de6	-0.0045201657
159	0x3c3b0f63	0.011417243
160	0x3a2e121f	0.00066402735
161	0xbc08b488	-0.008343823
162	0x3bfa9257	0.0076468396
163	0x3ab88f31	0.001408076
164	0x3bc6938e	0.0060600704
165	0xbc7bf5b0	-0.015378401
166	0xbbae430d	-0.0053180517
167	0x3c3a3dc1	0.011367262
168	0xbccea5e7	-0.025225593
169	0xbbc9c6d7	-0.0061577368
170	0xb96fc5c8	-0.00022866495
171	0xbc0a239d	-0.008431342
172	0xbac1abf6	-0.001477598
173	0xbb4f99a8	-0.003167728
174	0xbb720118	-0.0036926921
175	0xbb809608	-0.003924135
176	0x39becb73	0.00036391206
177	0x3a2138da	0.0006150134
178	0xbb9a0b5d	-0.0047010616
179	0xbb90e8e2	-0.004422293
180	0x3bb6476a	0.0055627124
181	0xb86bfa50	-5.6261488e-05
182	0x3aaaa28a	0.0013018411
183	0x3cc34ae5	0.023839423
184	0x3c8292cc	0.015939139
185	0x3bc9231d	0.006138219
186	0xbb428c93	-0.002968584
187	0xbbaa88ce	-0.0052042967
188	0xbc082ff9	-0.008312219
189	0xbc311f69	-0.010810711
190	0xbbf79439	-0.0075555113
191	0x3bcb46d7	0.006203513
192	0x3a93ed5a	0.0011285946
193	0xbc07a2c6	-0.008278554
194	0xb9ea7ee7	-0.00044726508
195	0x3c8a2bd3	0.0168666
196	0x3c984454	0.018587269
197	0x3b418606	0.0029529347
198	0xbbd2f14a	-0.0064374553
199	0xbbd1e4ef	-0.006405465
200	0xba811e37	-0.0009850924
201	0xbcbaf0de	-0.022819933
202	0xbc3227aa	-0.010873714
203	0x3c16684a	0.009180138
204	0xbb05cf53	-0.0020417764
205	0xbb80e362	-0.003933356
206	0xbbadde94	-0.0053060744
207	0x3c08bf23	0.008346352
208	0xbc9da12b	-0.01924189
209	0x3c176bdf	0.009242027
210	0x3c4879f1	0.012236104
211	0xbbb70be5	-0.0055861347
212	0xbc3b0d13	-0.011416691
213	0xbb8b8400	-0.004257679
214	0x3cbd7ef3	0.023131823
215	0x38cad791	9.672263e-05
216	0xbae4259d	-0.0017406229
217	0x3c301939	0.010748201
218	0xbb00c18a	-0.0019646608
219	0xbb226b2e	-0.0024783122
220	0xbc70e4cb	-0.014702986
221	0xbc8dfb98	-0.017331883
222	0x3b147f92	0.0022659046
223	0xbc792da7	-0.015208638
224	0xbc8463c0	-0.016160846
225	0x3c4ca793	0.012491125
226	0xbc1eb2f8	-0.009686224
227	0xbbf935a8	-0.0076052733
228	0x3bb7f212	0.005613574
229	0x3b8ba74a	0.004261886
230	0xbba19368	-0.0049309023
231	0xbc30f3e6	-0.010800337
232	0x3c0cd3d6	0.0085954275
233	0x3bd51c8f	0.0065036486
234	0xba5b3530	-0.00083621126
235	0xbc57b838	-0.01316648
236	0xb9ba8012	-0.00035572104
237	0xbba1999b	-0.0049316413
238	0xbba1c2f8	-0.004936572
239	0x3c0692b2	0.008213686
240	0xbb868418	-0.0041051023
241	0xbbaccab2	-0.0052731866
242	0x3c406725	0.011743342
243	0xbb1a8dc1	-0.0023583027
244	0x3a6bd9f9	0.0008997019
245	0xbc150957	-0.009096465
246	0xbc02b55f	-0.007977813
247	0x3bf9b0ef	0.007619969
248	0xbc738384	-0.014862899
249	0x39942821	0.00028258658
250	0xbb262d85	-0.0025356722
251	0x3c4951db	0.012287582
252	0xbc90567b	-0.017619362
253	0x3b01c923	0.0019803725
254	0x3c0e79f3	0.008696067
255	0xb8cd7b2e	-9.798106e-05

action_model._discrete_distribution.branches.2.bias f4 [2]
0	0xba39881c	-0.0007077472
1	0x3a398821	0.0007077475
