MLBase/results/ppo/CaptureTheFlag/checkpoint.pt (torch, 743266 bytes, 46 tensors)

discrete_act_size_vector f4 [1, 3]
0	0x40400000	3.0
1	0x40400000	3.0
2	0x40000000	2.0

network_body._body_endoder.seq_layers.0.weight f4 [128, 100]
0	0x3d0a2e43	0.033735525
1	0xbd07a6af	-0.033117946
2	0x3e64f9af	0.22360872
3	0x3c8aa7c9	0.01692571
4	0xbde87938	-0.11351246
5	0x3dbe96b3	0.09306087
6	0xbcda3f59	-0.026641535
7	0xbd4a82fa	-0.049441315
8	0xbcfe9d05	-0.031080732
9	0x3d651e16	0.055936895
10	0xbc7aec18	-0.015315078
11	0xbd71faf8	-0.059077233
12	0x3e6c6a6c	0.23087472
13	0x3cea8522	0.028627936
14	0xbe1db8fc	-0.15402597
15	0xbcb469cf	-0.02202311
16	0x3c8b8d2e	0.017035093
17	0xbde04a1d	-0.10951636
18	0x3d998a07	0.0749703
19	0xbd2cba39	-0.042169783
20	0xbbf07568	-0.0073382147
21	0xbe201043	-0.15631203
22	0xbd560ec3	-0.05226017
23	0xbd9e4b5c	-0.077292174
24	0xbcd256f7	-0.025676234
25	0xbd8641a5	-0.065554895
26	0xbdd8d25c	-0.10586998
27	0x3e0a7d6f	0.13524412
28	0xbe1f783b	-0.15573208
29	0xbc560961	-0.01306376
30	0xbd783cff	-0.060605045
31	0x3e5535cf	0.20821308
32	0x3e695e0d	0.22789784
33	0x3e28db6b	0.16489951
34	0x3db645cd	0.08900032
35	0x3c164ad8	0.009173118
36	0x3d428edb	0.04749952
37	0x3d59a201	0.053133015
38	0x3cdd0485	0.026979694
39	0x3d85056c	0.06495175
40	0xbc9a6d12	-0.018850837
41	0xbd5d23b1	-0.053989116
42	0xbd811dd3	-0.06304517
43	0x3cd78d48	0.026312485
44	0xbcf16f27	-0.029471947
45	0xbb5564a3	-0.0032561205
46	0xbdc1a829	-0.09455902
47	0xbd1cf88b	-0.038322967
48	0x3cf5691c	0.029957347
49	0x3cb91326	0.022592138
50	0x3de0ab48	0.10970169
51	0xbdd6541e	-0.10465263
52	0x3dc4398e	0.0958129
53	0x3d663115	0.056199152
54	0xbdcb633f	-0.09931039
55	0xbdabc7b1	-0.083876975
56	0x3e3a959b	0.18221132
57	0x3d1b3054	0.037887886
58	0x3c8f9c76	0.017530661
59	0x3e3d3fc7	0.1848136
60	0x3e0cce7b	0.13750641
61	0xbcafb11a	-0.021446753
62	0x3d2b5448	0.041828424
63	0x3e10176f	0.14071439
64	0xbd206bc1	-0.039165262
65	0xbd431e22	-0.04763616
66	0xbc35ce64	-0.011096571
67	0x3e03dd20	0.12877321
68	0x3ce6b650	0.028163105
69	0xbcef6cc0	-0.02922666
70	0xbde94275	-0.11389629
71	0xbe187190	-0.1488707
72	0x3df9e108	0.122011244
73	0x3dc32103	0.09527781
74	0xbd80dcbe	-0.06292103
75	0xba9193b2	-0.0011106639
76	0xbd367c5f	-0.044552203
77	0x3db7dced	0.08977685
78	0x3e62bcaa	0.22142282
79	0xbb05b9c0	-0.0020404905
80	0x3a88db4a	0.001044133
81	0x3e40a2ee	0.18812153
82	0xbd88c1a6	-0.066775605
83	0xbd143008	-0.03617862
84	0x3d7a8daa	0.061170258
85	0x3d0318d9	0.03200612
86	0xbdf2523b	-0.118320905
87	0x3e535274	0.20636922
88	0x3b191a33	0.0023361563
89	0x3bbbda9f	0.005732849
90	0xbc8bdad9	-0.017072128
91	0x3ccecc8b	0.025244018
92	0x3e0a14f6	0.13484558
93	0xbd34b323	-0.04411615
94	0xbe53a1d1	-0.20667197
95	0xbdd098e2	-0.1018541
96	0x3d68f2ca	0.056872167
97	0x3dba36ec	0.09092507
98	0x3db5ab8c	0.088706106
99	0x3e1df2d1	0.15424658
100	0xbd3e0deb	-0.046399992
101	0x3e2f48c8	0.17117608
102	0xbe836da9	-0.25669602
103	0x3b933c15	0.0044932463
104	0xbda6a45f	-0.0813682
105	0x398f4bde	0.0002733161
106	0x3dac994d	0.08427677
107	0x3c400043	0.011718812
108	0xbdbf63c4	-0.09345201
109	0xbd2ebf58	-0.04266295
110	0x3d2b79cd	0.041864205
111	0xbdef4b9c	-0.11684343
112	0x3e541631	0.2071159
113	0xbcb35686	-0.021891844
114	0xbe81ec26	-0.2537548
115	0xbc9e7cc7	-0.019346608
116	0xbd056dba	-0.032575347
117	0xbc9f68ab	-0.01945909
118	0xbd7c7dde	-0.061643474
119	0x3e2ae1a3	0.16687636
120	0x3d9cc92a	0.076555565
121	0xbd9a8f67	-0.07546883
122	0xbe0fdc8a	-0.14048973
123	0x3cbb90da	0.022896219
124	0x3e3a7db4	0.18212014
125	0xbd47312b	-0.048630875
126	0xbdef4030	-0.11682165
127	0x3e404223	0.18775229
128	0x3d1f52ff	0.03889751
129	0x3e19317e	0.14960286
130	0xbd1b92b5	-0.037981708
131	0x3cefef67	0.02928896
132	0xbda4210b	-0.08014115
133	0x3cc6075e	0.024173435
134	0x3d94b0a5	0.07260255
135	0xbdcf14ef	-0.10111415
136	0xbe07c927	-0.13260327
137	0xbc42cca2	-0.011889609
138	0x3d2d37b2	0.042289443
139	0xbe0951cf	-0.13410114
140	0xbe0f6505	-0.1400338
141	0xbe3491df	-0.1763377
142	0x3b844096	0.0040360196
143	0x3e464b09	0.19364561
144	0xbd5b01e7	-0.05346861
145	0xbd7a4ebd	-0.061110247
146	0x3e15e0b8	0.14636505
147	0x3eaade25	0.33372608
148	0xbdc2df84	-0.095152885
149	0x3836983f	4.353397e-05
150	0xbdf89f1d	-0.121397234
151	0x3c8243f3	0.015901541
152	0xbd27e6f1	-0.040991727
153	0xbdcc4864	-0.09974745
154	0x3d536955	0.051614124
155	0x3d14eadb	0.036356788
156	0xbd2114b0	-0.03932637
157	0x3d179cf3	0.037014913
158	0x3d8e087e	0.069352135
159	0x3c9bbc2c	0.019010626
160	0xbd385b47	-0.045008924
161	0x3ae103ca	0.0017167267
162	0x3d88ad43	0.06673672
163	0x3c721d80	0.014777541
164	0x3d64d210	0.055864394
165	0x3d1d5952	0.03841526
166	0x3e1b097a	0.15140334
167	0xbe2a44eb	-0.16627853
168	0xbe6a972d	-0.22909231
169	0xbd5e6bd5	-0.054302055
170	0xbd95800f	-0.07299816
171	0x3dcf592c	0.1012443
172	0xbc57a3ab	-0.01316158
173	0x3d640b7e	0.055675022
174	0xbdaa5a3e	-0.083179936
175	0x3d1aaf27	0.037764695
176	0xbdba8445	-0.0910726
177	0xbd9071fd	-0.070529915
178	0xbcf7d804	-0.030254371
179	0xbd1ee89a	-0.038796045
180	0x3d2e8f82	0.04261733
181	0xbce705bb	-0.028200975
182	0x3d61de7b	0.055143815
183	0x3e0b8324	0.13624245
184	0x3cdc1b77	0.026868565
185	0x3d03021d	0.031984437
186	0x3cd3a712	0.025836501
187	0xbd1568e6	-0.036476992
188	0x3d2393c6	0.03993585
189	0x3c5fc90c	0.013658773
190	0xbe0bc0c6	-0.13647756
191	0xbde225b7	-0.1104235
192	0xbba92406	-0.005161765
193	0x3e063725	0.13106973
194	0x3d3bae33	0.045820426
195	0x3e333a62	0.1750274
196	0x3d95b286	0.07309441
197	0x3e252423	0.16127066
198	0xbd2a5d37	-0.041592803
199	0x3beba45d	0.0071912245
200	0xbdd9252a	-0.106027916
201	0xbd80041a	-0.06250782
202	0x3d847915	0.06468407
203	0xbdaf1d0d	-0.08550463
204	0x3d85f631	0.06541098
205	0x3de90c2b	0.11379274
206	0x3e044b46	0.1291934
207	0xbe29bd0f	-0.16576026
208	0xbd541e0a	-0.05178646
209	0xbd8f5b05	-0.069997825
210	0x3d958810	0.073013425
211	0xbe63433b	-0.22193615
212	0xbe40b22e	-0.1881797
213	0x3d36bce5	0.044613738
214	0xbdfb2afa	-0.122640565
215	0xbd877b2c	-0.0661529
216	0xbda1d326	-0.079016015
217	0xbb945292	-0.0045264447
218	0x3c7744fc	0.015092131
219	0xbd8be592	-0.068308964
220	0x3cf297f3	0.02961347
221	0xbe0f7251	-0.14008452
222	0x39a4fa6e	0.00031467102
223	0xbd703fcd	-0.058654595
224	0x3da06716	0.07832162
225	0xbe4f221e	-0.20227858
226	0xbd614e13	-0.055006098
227	0x3cdaa9b7	0.026692254
228	0xbc2e8f4f	-0.010654285
229	0x3db35f88	0.087584555
230	0x3dff987e	0.124802575
231	0xbd90fea6	-0.0707982
232	0xbd893c3f	-0.06700944
233	0x3e58632f	0.21131586
234	0xbbfc029a	-0.00769074
235	0x3bde7850	0.0067892447
236	0x3daf4767	0.08558541
237	0x3a840ff1	0.0010075552
238	0xbe3a5f3a	-0.18200389
239	0xbe56bdb6	-0.20970806
240	0xbdaf50db	-0.08560344
241	0xbbdffc27	-0.006835479
242	0x3d12c78d	0.035834838
243	0x3e3f6c73	0.18693714
244	0xbd0965fa	-0.033544518
245	0xbe59b71e	-0.2126126
246	0x3d31594d	0.043298054
247	0xbdb5c9b3	-0.08876362
248	0xbe2838ca	-0.16427913
249	0x3dae4608	0.08509451
250	0xbdd01133	-0.101595305
251	0xbd45a9ce	-0.04825764
252	0x3de37c5c	0.11107704
253	0x3c5b07b7	0.013368539
254	0x3ceeed7d	0.029165978
255	0xbe1cdede	-0.15319392

network_body._body_endoder.seq_layers.0.bias f4 [128]
0	0x3a686c46	0.00088662317
1	0x3b8f0d62	0.004365609
2	0x3aaa6c30	0.0013002213
3	0xb94dab02	-0.00019614029
4	0x3c40fecd	0.011779499
5	0xbb55eaf9	-0.0032641275
6	0x3ac464f5	0.0014983701
7	0xbb27a888	-0.002558263
8	0x3b58820b	0.0033036496
9	0xbb384174	-0.0028115185
10	0xbbf0167e	-0.0073269
11	0x3b8dd21e	0.0043280264
12	0x3a12745d	0.00055867975
13	0x3ab78722	0.0014002065
14	0x3b33ab8b	0.002741548
15	0x3b8c0c5a	0.0042739334
16	0xbb893132	-0.0041867727
17	0xbbf59312	-0.007494339
18	0x3b97a12b	0.004627367
19	0xba688e5e	-0.0008871312
20	0x3bd0a21a	0.0063669803
21	0xbbc2a08b	-0.0059395484
22	0xbb990863	-0.004670189
23	0xbb332e98	-0.0027341004
24	0xbb8cd4fa	-0.0042978497
25	0x3b3dd262	0.002896451
26	0xbbdb5c6d	-0.0066943676
27	0x3b8941af	0.0041887383
28	0xbaf73910	-0.001886161
29	0x3a89e4db	0.0010520475
30	0xbbd67230	-0.006544374
31	0xbbd159ba	-0.00638887
32	0xbc13b368	-0.009014942
33	0xbbdd084f	-0.006745375
34	0x3b01f7b6	0.0019831485
35	0xbbb1a99e	-0.0054218313
36	0x3b036212	0.0020047468
37	0xbb71b539	-0.0036881699
38	0x3bab900b	0.005235677
39	0x3bac8edd	0.005266054
40	0x3bfa9d76	0.0076481653
41	0x3bc9625c	0.0061457586
42	0xbbcb4662	-0.0062034586
43	0xbae9f06d	-0.0017848142
44	0x3ad100af	0.0015945638
45	0x3b80f653	0.003935614
46	0xbb3506cd	-0.0027622462
47	0xbb537d84	-0.0032270858
48	0xbc3685fc	-0.011140343
49	0xbb8bc84f	-0.004265822
50	0xbba70dad	-0.005098066
51	0x3b26636c	0.002538885
52	0x3bbf6e27	0.0058419886
53	0xbb8ae5a6	-0.004238802
54	0xbbcb50b1	-0.0062046875
55	0xbb1538d0	-0.0022769459
56	0xbafb09c1	-0.0019152687
57	0x3b9d0ae6	0.004792559
58	0x3b8f0fd9	0.004365903
59	0xbad176c4	-0.001598083
60	0xbbcf537b	-0.0063270903
61	0x3b31af8e	0.0027112695
62	0x3b23b613	0.002498035
63	0x3af3db44	0.0018604775
64	0x3c046fef	0.008083328
65	0xba047b60	-0.00050537847
66	0x3b93dd8e	0.0045124954
67	0x3b87671c	0.0041321646
68	0x3b7dee4f	0.003874678
69	0xbbedf614	-0.007262001
70	0x3bb20d48	0.005433712
71	0xbb5b2bff	-0.0033442972
72	0xbb11a26c	-0.0022222055
73	0xb8f4df9b	-0.000116764764
74	0x3ad7a5d9	0.0016452625
75	0xbad0bbe4	-0.0015925136
76	0x3b46c562	0.0030330052
77	0xba84c8b7	-0.0010130618
78	0x3b2ebb94	0.0026662098
79	0x3c08d7a8	0.008352198
80	0x3afecf18	0.0019440381
81	0x3ad56ee5	0.001628366
82	0xbbae09ee	-0.0053112423
83	0x3b9bc46d	0.0047536404
84	0x3bdaa4a9	0.006672461
85	0x3b8481ed	0.0040438087
86	0x3b67db52	0.0035378528
87	0x3c4360fb	0.011924977
88	0xbb64d647	-0.0034917758
89	0xbbf34322	-0.0074237743
90	0x3aee9241	0.0018201546
91	0xbb113fa3	-0.0022163175
92	0x3a256080	0.000630863
93	0xbb519d6a	-0.0031984695
94	0xbc2e779f	-0.010648637
95	0x3a2913ad	0.00064497703
96	0xb99b0a46	-0.00029571558
97	0xbbb9d599	-0.005671215
98	0xbc1fa399	-0.009743595
99	0xbb1133e0	-0.0022156164
100	0x3b4e39a9	0.0031467474
101	0xba960e92	-0.0011448434
102	0x3bcb4496	0.0062032444
103	0x3bf180db	0.007370097
104	0x3aa033d6	0.001222248
105	0xbacfcc3a	-0.0015853711
106	0xbb81d810	-0.0039625242
107	0x3b20761d	0.0024484464
108	0x3b5fddcd	0.0034159303
109	0xba2cd200	-0.0006592572
110	0xbb9ed3df	-0.0048470343
111	0xbbd3122b	-0.006441375
112	0xbc0d114f	-0.008610084
113	0x3b3d2cf2	0.00288659
114	0xbbcff28f	-0.006346054
115	0x3afd68ba	0.0019333579
116	0x39a83c84	0.00032088545
117	0xbb374d09	-0.00279695
118	0xb9ecd7c6	-0.00045174191
119	0xbb92bf68	-0.004478384
120	0x39a215e2	0.00030915352
121	0xbbb6ca1a	-0.0055782916
122	0x3aef286f	0.0018246303
123	0x3b2207b4	0.002472383
124	0x3b9181b6	0.0044405116
125	0x3ae08a34	0.0017131031
126	0xbbc909f7	-0.006135221
127	0x3af9a427	0.0019046114

network_body._body_endoder.seq_layers.2.weight f4 [128, 128]
0	0xbde504bc	-0.11182544
1	0x3c0f4e91	0.008746759
2	0x3d0e8213	0.034792017
3	0xbdbadd1f	-0.09124207
4	0xbe32b567	-0.17452012
5	0xbd9cb665	-0.076519765
6	0x3d99468a	0.074841574
7	0xbe1341de	-0.14380595
8	0xbd752fee	-0.059860162
9	0xbda3bd01	-0.07995034
10	0x3d01d096	0.031693064
11	0xbd8c3e61	-0.06847835
12	0x3ca12570	0.019671172
13	0xbd874f5e	-0.06606935
14	0x3d319ea2	0.043364175
15	0x3d93ea4e	0.072224244
16	0x3d2969d1	0.04136068
17	0x3e1da1e9	0.15393795
18	0xbc7f6aba	-0.01558941
19	0xbd237df1	-0.03991503
20	0x3d664cde	0.05622565
21	0xbd783c8f	-0.06060463
22	0xbe4ace8e	-0.19805357
23	0xbe1de400	-0.15419006
24	0xbd44564e	-0.04793387
25	0xbacf4126	-0.0015812262
26	0x3c8b0867	0.01697178
27	0x3e4718d0	0.19443059
28	0xbc1c81c7	-0.009552426
29	0x3cf2a86e	0.02962133
30	0x3c14df0c	0.009086382
31	0xbdd1b7a8	-0.10240108
32	0xbc4a0557	-0.012330375
33	0x3daff256	0.08591144
34	0xbd8aeb66	-0.0678318
35	0x3d74da26	0.059778355
36	0xbe689201	-0.22711946
37	0x3c9b77eb	0.01897808
38	0xbd691629	-0.0569059
39	0xbdf26e6d	-0.11837468
40	0xbd86e995	-0.06587521
41	0xbda814ff	-0.0820713
42	0x3dbba2eb	0.091619335
43	0xbda5116c	-0.080599636
44	0xbd1bd8d6	-0.038048588
45	0x3d2205cf	0.03955632
46	0x3e4db2fa	0.20087805
47	0x3cc5ed7a	0.02416109
48	0xbd99128f	-0.07474243
49	0x3d08262d	0.033239532
50	0xbd2fd99a	-0.04293213
51	0xbd4168fc	-0.04721926
52	0x3e389bec	0.1802823
53	0xbcbefdaa	-0.023314316
54	0xbb4f4a17	-0.0031629854
55	0x3cf03a72	0.029324744
56	0xbda9b8ce	-0.08287202
57	0x3dae320e	0.08505641
58	0x3d876d29	0.066126175
59	0x3cb5e5f0	0.02220437
60	0xbdf5a505	-0.119943656
61	0xbe3a6482	-0.18202403
62	0x3cd05496	0.025430959
63	0xbd5253a8	-0.051349312
64	0x3d9a5624	0.07535961
65	0xbe148d70	-0.14507079
66	0xbd4d3b45	-0.050105352
67	0xbddf19bc	-0.1089358
68	0x3d9d88c3	0.07692101
69	0xbc586f12	-0.013210075
70	0xbd45d4ff	-0.048298832
71	0x3d36be5a	0.044615127
72	0xbda24709	-0.07923705
73	0x3ddc3f72	0.10754289
74	0xbd504a53	-0.05085213
75	0xbdf60499	-0.12012596
76	0x3d85680c	0.06513986
77	0x3d7db540	0.06194043
78	0x3dac002f	0.083984725
79	0x3dc8b35e	0.097998366
80	0x3dd232b6	0.102635786
81	0xbd1cbd43	-0.03826643
82	0x3d5fd19d	0.054643262
83	0x3e163d87	0.14671908
84	0xbe0a5bb5	-0.13511546
85	0xbb93f69e	-0.004515483
86	0x3da69972	0.08134736
87	0xbd8a1ad9	-0.06743402
88	0x3c0fb606	0.008771425
89	0xbcfed41c	-0.031107001
90	0xbde93951	-0.11387885
91	0x3db06680	0.086133
92	0xbbd5ab70	-0.006520681
93	0x3dc9bce4	0.09850481
94	0xbd172c76	-0.036907636
95	0xbcaf74c0	-0.021417975
96	0x3cf5e4cd	0.030016327
97	0x3d00024c	0.03125219
98	0x3d7ad93e	0.061242335
99	0x3d48600c	0.048919722
100	0x3bdc71b9	0.006727424
101	0x3e290f16	0.16509661
102	0x3b964a02	0.004586459
103	0xbbc21696	-0.0059231026
104	0x3e14e291	0.14539553
105	0xbe416c73	-0.18889026
106	0x3e0ab94a	0.13547245
107	0xbde6ad35	-0.11263505
108	0x3cad7507	0.021173967
109	0xbdef5ee4	-0.11688021
110	0x3d7c4988	0.061593562
111	0xbc3ca819	-0.011514687
112	0x3e3fd414	0.18733245
113	0x3e5c18bb	0.21493809
114	0xbd057ad2	-0.032587834
115	0x3abb9bde	0.001431342
116	0x3df0fdc3	0.11767151
117	0x3d26f3a6	0.040759705
118	0xbdba17fd	-0.09086607
119	0x3da703ee	0.081550464
120	0x3c97e017	0.018539472
121	0x3d4dc2d3	0.050234627
122	0xbdd309cd	-0.10304604
123	0xbca267cc	-0.019824885
124	0xbd3209b7	-0.043466296
125	0xbd008cd8	-0.03138432
126	0xbd3cf83e	-0.04613518
127	0xbe0f4873	-0.13992481
128	0xbd93953f	-0.07206201
129	0x3d134be2	0.03596104
130	0xbd233c94	-0.039852694
131	0xbd1eef0d	-0.038802195
132	0xbd2c198a	-0.042016543
133	0xbe635cca	-0.22203365
134	0x3e040d5d	0.12895723
135	0x3e2b51e7	0.16730462
136	0xbbdf2442	-0.006809742
137	0xbd45f2a4	-0.048327103
138	0xbe0d249f	-0.13783501
139	0x3d54e72e	0.051978283
140	0xbe13c85b	-0.14431898
141	0x3ca557a9	0.020183401
142	0x3cb03fb8	0.021514758
143	0xbd985fbb	-0.07440134
144	0x3cc534fd	0.024073118
145	0x3c98c6a1	0.018649401
146	0x3cf85e8f	0.030318527
147	0xbde0ff50	-0.10986197
148	0xbcc56732	-0.024097059
149	0x3c814d4a	0.015783925
150	0xbd692f8e	-0.056930117
151	0x3e0d254d	0.1378376
152	0x3bdc03e4	0.006714331
153	0x3cd26fcc	0.025688075
154	0xbd39b586	-0.04533913
155	0x3c9f88b1	0.01947436
156	0xbc510751	-0.012758092
157	0x3c59a0bc	0.013282951
158	0x3d870644	0.06592992
159	0x3d8f5777	0.069991045
160	0x3d7b0b3a	0.061290003
161	0x3d1fe2b4	0.03903456
162	0xbe2e827b	-0.17041962
163	0xbcf9120c	-0.030404113
164	0xbb0c0465	-0.0021364924
165	0x3d0b6d73	0.034039926
166	0xbcc9b85c	-0.024624042
167	0x3c60590b	0.0136931045
168	0xbc111f81	-0.008857609
169	0xbbeb427f	-0.007179558
170	0xbdeaa2de	-0.11456846
171	0xbcfd5600	-0.030924797
172	0x3dc7888e	0.097428426
173	0xbd647f89	-0.05578569
174	0x3def62ca	0.116887644
175	0x3b9e9062	0.004838989
176	0x3e053869	0.130098
177	0xbe029eb6	-0.12755856
178	0x3d5a6542	0.053319223
179	0x3e0a8f42	0.13531211
180	0x3d538d0a	0.051648177
181	0x3d930415	0.07178513
182	0x3dc28f1b	0.094999515
183	0xbd3bd024	-0.045852795
184	0xbd1b5c44	-0.03792979
185	0xbd81ce15	-0.06338135
186	0xbcdd891b	-0.027042916
187	0xbe0036de	-0.1252093
188	0xbd8c5d33	-0.06853714
189	0xbddbaa69	-0.107258625
190	0xbc813215	-0.015770951
191	0xbdd2258a	-0.10261066
192	0x3dceffc9	0.10107381
193	0xbc6433c5	-0.013928358
194	0x3e4616dd	0.19344659
195	0x39a7f12f	0.00032032418
196	0x3d65985a	0.056053497
197	0xbc35e267	-0.011101342
198	0x3d2cea2c	0.04221551
199	0xbdbe9728	-0.093061745
200	0x3e174f2a	0.14776292
201	0xbc414154	-0.011795361
202	0x3d51a516	0.05118283
203	0x3ca0a0c4	0.019607909
204	0xbd5d3364	-0.054004088
205	0xbd81169c	-0.063031405
206	0x3e0b1038	0.13580406
207	0x3e2e09be	0.16995904
208	0xbd72af89	-0.059249435
209	0xbd974007	-0.07385259
210	0x3e8edcef	0.27902934
211	0xbe3efb1b	-0.18650477
212	0xbd1de35b	-0.0385469
213	0x3c9ec4d3	0.019380962
214	0x3e7f1205	0.24909218
215	0xbe623161	-0.22089149
216	0x3e0b88e3	0.13626437
217	0x3c5c2a5f	0.013437836
218	0x3bf827b6	0.0075730933
219	0xbda1b12e	-0.078951225
220	0x3d730823	0.05933393
221	0xbe3522ff	-0.17689131
222	0x3e1f0fc2	0.15533355
223	0x3e4092b0	0.18805957
224	0x3d821aa2	0.06352736
225	0x3dad2833	0.08454933
226	0xbd95298e	-0.072833166
227	0xbd79157c	-0.060811505
228	0xbd7d8786	-0.061896823
229	0xbc8798b9	-0.016552316
230	0x3d42df54	0.047576264
231	0xbc30b26a	-0.010784725
232	0x3df9500b	0.1217347
233	0x3c905b19	0.017621564
234	0x3c82c337	0.015962226
235	0xbe16c0a3	-0.14721923
236	0x3cfa053f	0.03052008
237	0x3e0428dd	0.12906213
238	0x3dca337a	0.098730996
239	0x3cfc8135	0.03082333
240	0xbd28ea79	-0.041239236
241	0xbd2631b0	-0.04057473
242	0x3e0c744f	0.13716243
243	0xbca14bc7	-0.019689454
244	0xbe21fc22	-0.15818837
245	0xbe011270	-0.1260469
246	0x3e190114	0.14941818
247	0x3c40acbd	0.011759934
248	0x3e4d62cb	0.20057218
249	0x3e20d134	0.15704805
250	0x3dc78263	0.09741666
251	0xbd38d8e3	-0.045128714
252	0xbe01a52b	-0.12660663
253	0x3d59943b	0.05311988
254	0xbd3b84a5	-0.045780797
255	0xbe29d40d	-0.16584797

network_body._body_endoder.seq_layers.2.bias f4 [128]
0	0xba65c273	-0.0008764632
1	0x3b7f7985	0.0038982343
2	0xbc02e6eb	-0.007989625
3	0xbb906833	-0.0044069528
4	0x3b29ed7f	0.0025928912
5	0xba4c4132	-0.0007791697
6	0xbc191a01	-0.009344579
7	0xbb512c59	-0.0031917302
8	0x39e22e5e	0.00043140625
9	0xbacfa614	-0.0015842342
10	0xba80e56f	-0.0009834002
11	0xbba7673f	-0.0051087434
12	0x3af7fb85	0.0018919563
13	0x3a02fcff	0.0004996806
14	0xbb012341	-0.001970485
15	0x3b651935	0.0034957652
16	0x3b83e36f	0.004024915
17	0xba5557b6	-0.0008138375
18	0xbbafe9d4	-0.0053684507
19	0xbb200a5c	-0.0024420237
20	0x3a46c120	0.00075818785
21	0x3b893829	0.004187603
22	0xb9201b54	-0.0001526897
23	0x3b358a9a	0.0027701021
24	0xbada390b	-0.001664908
25	0x3b80e35a	0.0039333524
26	0xbbca1cec	-0.0061679985
27	0xbba37b15	-0.0049890378
28	0x3a90104f	0.0010991188
29	0x3b8e3f71	0.004341059
30	0x3bb9a5ed	0.005665532
31	0xba8575df	-0.0010182223
32	0x3bea9d1e	0.007159843
33	0x3ae1f9bc	0.0017240564
34	0xbb272871	-0.0025506283
35	0xbb8ebb84	-0.0043558497
36	0xbacf647c	-0.0015822793
37	0xbb92587a	-0.0044661136
38	0xbb3445b3	-0.0027507364
39	0x3a7ec211	0.0009718249
40	0x3ae15793	0.0017192237
41	0xbba79651	-0.0051143547
42	0xbbeabdab	-0.0071637235
43	0x3b61b3c4	0.0034439424
44	0xbb992f9d	-0.0046748654
45	0xbbe816fd	-0.0070828185
46	0xba9a484f	-0.0011770817
47	0x3bba21e3	0.005680309
48	0xbbbe1c5e	-0.0058017215
49	0xb89b28bc	-7.398563e-05
50	0xbbdd4792	-0.0067529166
51	0xbb223e8b	-0.0024756517
52	0xbaf3dff0	-0.0018606167
53	0xbbcdcca3	-0.006280498
54	0xbb1d815b	-0.00240334
55	0xbb2d013b	-0.0026398438
56	0x3b58aa70	0.0033060573
57	0xbbd2be97	-0.0064314115
58	0x3b7e5fc7	0.0038814412
59	0x3b4f7e59	0.0031661002
60	0xbbb99e1c	-0.0056646
61	0xbbcc1178	-0.0062276684
62	0x3b2316e2	0.0024885465
63	0xbbb3b395	-0.0054840543
64	0xbab5e2b3	-0.0013876766
65	0xbb379c2d	-0.0028016672
66	0x3b5ae320	0.0033399537
67	0x3ba56b98	0.0050482266
68	0xbb937add	-0.0045007304
69	0xba5bf8b0	-0.00083912443
70	0x3b32b2eb	0.0027267288
71	0x3b06d8dc	0.0020576036
72	0xbaeb6983	-0.0017960522
73	0xbb6f9c27	-0.003656158
74	0xbc11b93e	-0.008894263
75	0x3bdb5b65	0.0066942447
76	0xbb8d3d8d	-0.004310316
77	0xbbb326b2	-0.0054672593
78	0x3bb07ed3	0.0053862124
79	0xbc27488d	-0.010210169
80	0x3b896e7d	0.0041940794
81	0x3b9fa1e4	0.004871594
82	0x3b610799	0.0034336804
83	0xbbd209fe	-0.0064098826
84	0xbb8a89ed	-0.004227868
85	0x3b937f60	0.0045012683
86	0xbac22e0b	-0.0014814747
87	0xbbedf5cb	-0.007261967
88	0xbb76ba31	-0.00376476
89	0x3b1120f2	0.002214488
90	0x3b9cc57c	0.004784284
91	0x3807c06a	3.2365708e-05
92	0xbbd8a32a	-0.0066112475
93	0x3ad60380	0.0016327947
94	0xbbabed27	-0.0052467766
95	0xbb69b770	-0.0035662316
96	0xbb6240a8	-0.0034523401
97	0xbc0b7138	-0.00851088
98	0x3bab48f0	0.0052272007
99	0x3b22d272	0.0024844673
100	0xbb13c20e	-0.0022546086
101	0xbc1f55ea	-0.009725073
102	0x3b8d2acd	0.0043080808
103	0x3b74670d	0.0037292868
104	0xbbd536e6	-0.0065067885
105	0xbb042036	-0.00201608
106	0xbbb180c6	-0.0054169623
107	0x3a15e953	0.0005718667
108	0xb9c10abb	-0.00036819823
109	0xb6b85ea0	-5.494643e-06
110	0xbb2367f9	-0.0024933799
111	0xba44027a	-0.00074771757
112	0xbb9967e2	-0.0046815732
113	0xbad95760	-0.0016581826
114	0xbb0feaa1	-0.0021959918
115	0xbc1d691f	-0.009607582
116	0xbbd3f438	-0.006468322
117	0xbb950e62	-0.0045488337
118	0xbbb4feca	-0.0055235373
119	0x3b4f2fb9	0.0031614138
120	0x3b4e2815	0.0031456996
121	0x3b1b926f	0.0023738404
122	0xbbc1c17d	-0.005912958
123	0x3b3f6b4c	0.002920824
124	0xbb511726	-0.0031904667
125	0xba553388	-0.0008132984
126	0xb89001b4	-6.866772e-05
127	0xbb8734be	-0.0041261604

action_model._discrete_distribution.branches.0.weight f4 [3, 128]
0	0xbc299942	-0.010351481
1	0xbcaaeb39	-0.020864116
2	0xbc1500bd	-0.009094414
3	0xbc51c1ec	-0.012802582
4	0x3c8b3b7c	0.016996138
5	0x3c9c2c85	0.019064197
6	0xbb2cdb7b	-0.0026375938
7	0x3c5a4763	0.013322684
8	0x3bc7bb20	0.006095305
9	0x3c3dfdaa	0.011596123
10	0x3c0a9dbc	0.008460458
11	0x3bb7e660	0.0056121796
12	0xbc0174d4	-0.007901389
13	0x3844012c	4.6731133e-05
14	0x3ca6b0bf	0.020347951
15	0xbc7391a5	-0.014866267
16	0x3b220483	0.0024721927
17	0x3b3bb161	0.0028639662
18	0xbb587ee6	-0.0033034622
19	0xbc399f14	-0.011329431
20	0xbc8ccb23	-0.017186707
21	0x3bca6ea1	0.006177739
22	0xbae7961e	-0.001766864
23	0x3c1436ca	0.009046266
24	0x3b7849ba	0.0037885741
25	0x3c2ce536	0.010552695
26	0xbc4f67f7	-0.0126590645
27	0xbc039160	-0.008030266
28	0xbc46e20b	-0.012138854
29	0xbc030e69	-0.007999041
30	0x3bded9aa	0.00680085
31	0x3bcc7cb6	0.0062404526
32	0x3b76845a	0.0037615509
33	0x3bc98af5	0.006150598
34	0x3b05967d	0.0020383887
35	0xbb0a726c	-0.002112533
36	0x3b8d792c	0.0043174233
37	0x3aecf763	0.0018079098
38	0x3be0f8fe	0.0068656197
39	0xbb18ec68	-0.0023334268
40	0x3bd4e4b1	0.0064969887
41	0xbb613133	-0.00343616
42	0xba899cd4	-0.0010499009
43	0xbbd394f0	-0.0064569637
44	0xbae37670	-0.0017354023
45	0xbc2dee83	-0.010615948
46	0xbaa98e67	-0.0012936116
47	0x3c118a83	0.008883121
48	0x3bd17cdf	0.0063930596
49	0x3c3e2ab6	0.011606863
50	0xbb8890b8	-0.0041676424
51	0xbbb62d4a	-0.005559598
52	0x3a2ab2ed	0.00065116474
53	0xbb67a79b	-0.0035347703
54	0x3c2b625e	0.010460464
55	0x3b7bb577	0.0038407722
56	0x3bfae650	0.00765685
57	0xb9c3a5c8	-0.00037316815
58	0xbc752912	-0.014963405
59	0xbb83b6d5	-0.004019598
60	0x3c6a6986	0.014307385
61	0xbbd6baa7	-0.0065530124
62	0xbbcaefe9	-0.0061931503
63	0x3c5ba316	0.013405582
64	0x3c1acf77	0.009448878
65	0x3bdb8ebe	0.006700366
66	0xbbfa830c	-0.0076450165
67	0x3b571153	0.0032816723
68	0xbc054621	-0.008134396
69	0xbc23d2ba	-0.009998972
70	0xbc75274b	-0.014962981
71	0x3c28ab6b	0.0102947755
72	0x3bdb724d	0.0066969753
73	0xbc282efd	-0.010265109
74	0xbb64edbe	-0.0034931744
75	0xbcbd8681	-0.023135426
76	0x39845140	0.00025237538
77	0xbbbe397a	-0.0058051916
78	0xbcbce5f0	-0.023058861
79	0xbc8b910f	-0.017036943
80	0x3bc0bb94	0.005881736
81	0x3b8e8acf	0.0043500434
82	0xbbc0d97a	-0.0058853
83	0x3af3bf70	0.0018596482
84	0xbc04a790	-0.008096591
85	0xbc83f06e	-0.016105857
86	0x3ae2fc20	0.0017317571
87	0xbc0ab15e	-0.008465139
88	0x3c8fe926	0.017567229
89	0xbc1dc98a	-0.00963057
90	0x3bbbf49c	0.005735947
91	0x3c09b7d8	0.008405648
92	0x3c2b2cb3	0.010447669
93	0x3c47e4a9	0.012200513
94	0xbbd3156f	-0.006441764
95	0xbcb2744a	-0.021783967
96	0xbb144388	-0.002262326
97	0xb9be8d35	-0.00036344831
98	0x3bb09698	0.005389046
99	0x3b55a98c	0.0032602279
100	0x3be715b6	0.0070521487
101	0x3c4edd56	0.012626013
102	0xbc125b7b	-0.008932943
103	0x3b54edbb	0.0032490331
104	0x3bc37d6f	0.0059658806
105	0x3bd2bf3c	0.0064314883
106	0x396fc3a1	0.00022865694
107	0xbc5e1ae9	-0.013556221
108	0x397286b6	0.00023129102
109	0xbbd3646c	-0.00645118
110	0xbbf91d8c	-0.007602399
111	0x3ac162e3	0.0014754202
112	0xbc176c31	-0.009242103
113	0x3c49b945	0.012312238
114	0xbb339073	-0.002739933
115	0xbd02acc7	-0.031903055
116	0x3c0eda20	0.008718997
117	0x3c8f53e5	0.017496059
118	0x3be43820	0.0069646984
119	0xbca70f35	-0.020392993
120	0x3bf06f1c	0.007337464
121	0x3bf76d07	0.007550839
122	0x3bbe3e98	0.0058058016
123	0xbc8d0318	-0.01721339
124	0xbb83b617	-0.0040195095
125	0xbc54bda8	-0.012984671
126	0x3bd86715	0.006604085
127	0x3c2b480e	0.010454191
128	0x3c2ba3a0	0.010476023
129	0x3aee5bed	0.0018185355
130	0x3cbe070e	0.023196723
131	0x3c2cdcbf	0.010550677
132	0x3c268d15	0.0101654725
133	0x3a61ccac	0.00086135673
134	0xbc575c72	-0.013144599
135	0x3ba45395	0.0050148466
136	0xbb315761	-0.0027060139
137	0xbb8e0f25	-0.0043353015
138	0x3ae0c739	0.0017149217
139	0xbb1d2aa9	-0.0023981726
140	0xbc8b6d27	-0.017019821
141	0xbc3da0a9	-0.011573949
142	0xbc40c84c	-0.0117665045
143	0xbba9eb58	-0.005185526
144	0xb9e4ad42	-0.00043616636
145	0xba8e47a5	-0.0010855092
146	0xbb4f8975	-0.0031667624
147	0xbc2591ae	-0.0101055335
148	0x3c2c4216	0.010513803
149	0x3cbb6669	0.022875981
150	0xbc1b7786	-0.009488946
151	0xbc6f2bb5	-0.014597823
152	0xbbcfe59a	-0.0063445093
153	0x3b7b9fda	0.003839484
154	0x3a773738	0.00094305305
155	0xbc4f8c88	-0.012667783
156	0xbadd38a2	-0.001687784
157	0xbb47f211	-0.0030509273
158	0x3c2dba4e	0.0106035005
159	0x3bf4f49c	0.007475449
160	0xbc07868e	-0.008271826
161	0xbc07fdd9	-0.008300268
162	0xba6e9fcd	-0.00091027917
163	0xbc1415b9	-0.009038382
164	0x3c00f7a1	0.007871539
165	0xbc10c6f6	-0.0088364985
166	0x3be6c6b2	0.0070427293
167	0xbaca9e8a	-0.0015458625
168	0xb7b4175c	-2.146855e-05
169	0x3bb6e2bd	0.0055812285
170	0x3bf57be4	0.0074915756
171	0xba91010f	-0.0011062938
172	0xbcc8457e	-0.024447199
173	0x3ac61dfd	0.0015115138
174	0x3b90cbe8	0.004418839
175	0x3c2325b2	0.009957718
176	0xbaf5206e	-0.0018701681
177	0x3baa396a	0.0051948326
178	0x3bf3cf23	0.007440464
179	0x3ac5f788	0.0015103677
180	0x3ac697d9	0.0015151455
181	0x3bba92af	0.0056937556
182	0xbc2320ea	-0.009956578
183	0xbc32c197	-0.010910413
184	0xbc4119cd	-0.011785937
185	0xbc062f69	-0.008190014
186	0xbbb7a226	-0.0056040464
187	0xbc0a823f	-0.008453905
188	0xbc16ef94	-0.009212393
189	0x3b534df9	0.003224252
190	0xbb906425	-0.0044064694
191	0xbc4d4f6c	-0.012531143
192	0xbb96d858	-0.004603427
193	0xbb9a5b92	-0.004710623
194	0xbb8cc2c3	-0.0042956783
195	0xbb6d1fb5	-0.003618223
196	0x3b922350	0.004459776
197	0x3ca030be	0.019554492
198	0xbbc853bb	-0.006113497
199	0x3ca530b4	0.020164825
200	0xbc736ea9	-0.014857926
201	0xbb05641b	-0.0020353857
202	0xbb656b85	-0.0035006714
203	0x3bac6b98	0.0052618496
204	0xbb56bab4	-0.0032765092
205	0x3c898041	0.016784789
206	0xbab0f681	-0.0013501198
207	0xbbf3e923	-0.0074435635
208	0x3b854f93	0.004068324
209	0xbb4bed59	-0.0031116812
210	0x3b09e805	0.0021042835
211	0xbaf7a349	-0.0018893267
212	0x3c549b81	0.012976528
213	0x3b6a6de2	0.0035771062
214	0x3b875b7b	0.0041307784
215	0x35096900	5.118927e-07
216	0x3ba8d118	0.005151879
217	0x3b13a5fe	0.002252936
218	0x3ca30fde	0.019905027
219	0x3b99e3a1	0.004696325
220	0x3c8b0026	0.016967844
221	0x3a2ef430	0.000667396
222	0xb9898598	-0.0002623021
223	0x3bf2c2b3	0.007408464
224	0x3c8cacd5	0.017172256
225	0xbc496da3	-0.012294206
226	0xbb2585a6	-0.0025256663
227	0x3bf8367a	0.0075748535
228	0xba67834e	-0.00088315166
229	0xbb9637c8	-0.0045842864
230	0x3c25029a	0.010071421
231	0xbba61a61	-0.0050690626
232	0x3c008821	0.007844956
233	0xb9e81df8	-0.00044272817
234	0xbb82b5cd	-0.0039889575
235	0x3c406f8f	0.011745348
236	0xbb51e8a4	-0.0032029534
237	0xbc2e8b7d	-0.010653374
238	0xbc266fd5	-0.010158499
239	0xbb90f3b6	-0.004423584
240	0x3bc78e8e	0.006089992
241	0xbca1956e	-0.019724574
242	0xbc65051a	-0.013978267
243	0x3be4a929	0.0069781733
244	0xba439c70	-0.00074619707
245	0x3c5771d9	0.013149702
246	0x3b6ab715	0.0035814692
247	0xba9a1498	-0.0011755405
248	0x3c166000	0.009178162
249	0xbb8c53df	-0.004282459
250	0x3af19459	0.0018431052
251	0x3b84480d	0.0040369094
252	0x3b6c4c2b	0.0036056142
253	0x3c00d91f	0.007864266
254	0xbc339f13	-0.010963219
255	0xbc1893cf	-0.009312584

action_model._discrete_distribution.branches.0.bias f4 [3]
0	0x3a0ac84d	0.00052941294
1	0x3b2ce9bb	0.0026384431
2	0xbb220a41	-0.002472535

action_model._discrete_distribution.branches.1.weight f4 [3, 128]
0	0xbc8c678a	-0.017139215
1	0x3b2e725b	0.0026618454
2	0xbc1b7636	-0.009488633
3	0x3b364f61	0.002781831
4	0x3c805a1d	0.01566797
5	0xbbcad0a8	-0.0061894245
6	0xbc99b213	-0.01876167
7	0xbaa68565	-0.001270455
8	0x3af588b1	0.0018732754
9	0xbc2c3a6c	-0.010511976
10	0xbac54265	-0.0015049694
11	0xba8432cd	-0.0010085941
12	0xbae9fb07	-0.0017851301
13	0x3ab80f32	0.0014042614
14	0xba611fc8	-0.00085878046
15	0xbc26f1c7	-0.01018948
16	0x3c1acb90	0.009447947
17	0xbb893de2	-0.004188285
18	0xbb386c28	-0.0028140638
19	0x3b082345	0.0020772975
20	0x3c0281b8	0.007965498
21	0x3c8800e0	0.01660198
22	0x3bd45334	0.006479645
23	0x3bb41681	0.0054958467
24	0xbb2b1c2a	-0.0026109316
25	0x3c579dbe	0.013160167
26	0xbb00629c	-0.0019590026
27	0xbba6bb10	-0.0050882176
28	0x3baf9192	0.0053579295
29	0x3ba84582	0.005135239
30	0x3cbcc839	0.023044692
31	0x3c2351f2	0.009968268
32	0xbc6e1239	-0.014530712
33	0xbbef31c6	-0.0072996346
34	0x39892623	0.0002615909
35	0x3c2e2662	0.010629268
36	0xbbb66a34	-0.0055668596
37	0xbaba20b2	-0.0014200418
38	0xbac73843	-0.0015199262
39	0x3a2bd2fc	0.00065545714
40	0xbbd1cf9f	-0.006402924
41	0xbc4919d1	-0.0122742215
42	0xbc3c4814	-0.011491794
43	0x3bff455d	0.007790251
44	0x3c09dfb5	0.008415152
45	0xbaf795d8	-0.0018889261
46	0xbabffc2d	-0.0014647298
47	0x3c6e251b	0.014535214
48	0xbbd5657d	-0.0065123425
49	0xbc45c427	-0.012070692
50	0x3b4930ea	0.003069932
51	0x3aeb5d96	0.0017956968
52	0xbbb45138	-0.005502846
53	0xbbc8db97	-0.006129693
54	0x3c1acd7d	0.009448406
55	0xbc4fbc4f	-0.012679174
56	0x3c694dc8	0.014239736
57	0xbc8d1450	-0.0172216
58	0xbc30216c	-0.010750156
59	0xb989d45a	-0.0002628889
60	0xbc22c34f	-0.0099342605
61	0x3bbc29ac	0.0057422724
62	0x3c963244	0.018334515
63	0xbbb5b157	-0.005544822
64	0xbb441029	-0.0029916859
65	0x3c40a40d	0.011757863
66	0xbb2c8e5d	-0.0026329972
67	0xbc53706e	-0.012905223
68	0x3b318021	0.0027084427
69	0xbc914405	-0.01773263
70	0x3c5dba73	0.0135332225
71	0x3c0bcbe6	0.0085325
72	0x3bbe5011	0.0058078845
73	0x3b1b6d72	0.0023716358
74	0xbbd836ca	-0.0065983282
75	0xbca77fc9	-0.020446675
76	0xbbcbf6ee	-0.0062245047
77	0xbb82bc95	-0.003989766
78	0xbc91fbd4	-0.017820276
79	0x3bb0a048	0.0053902008
80	0x3af37477	0.0018574138
81	0x3c9c28f6	0.0190625
82	0xbc79db7c	-0.015250083
83	0x3b159ba2	0.002282836
84	0xbb8481ac	-0.0040437784
85	0x3c7e1d96	0.0155099835
86	0xbc831703	-0.016002184
87	0x3c5456e6	0.012960171
88	0x3c9b0823	0.018924778
89	0xbc793c18	-0.015212081
90	0x3c1f65e4	0.009728882
91	0x3bae72bb	0.0053237355
92	0x39abb154	0.0003274778
93	0xbbb631bb	-0.0055601276
94	0xbca2f537	-0.019892318
95	0xbc251ba8	-0.010077395
96	0xbbbc99ea	-0.0057556527
97	0xbae8141c	-0.0017706188
98	0xbc6a6253	-0.014305669
99	0xbb601e07	-0.0034197585
100	0xba347dc4	-0.00068851956
101	0xbc584640	-0.013200343
102	0xbbca8cca	-0.006181334
103	0x3c3a8223	0.011383566
104	0x3ad70473	0.0016404524
105	0x3bc25d1d	0.00593151
106	0xbbcfa3ea	-0.0063366788
107	0x3b26217d	0.002534955
108	0xbb1e779d	-0.0024180182
109	0xbbf7c5b8	-0.0075614117
110	0xbb90258a	-0.0043990063
111	0x3bdfaf5d	0.006826325
112	0xbc57cf08	-0.013171919
113	0xbb8bc609	-0.004265551
114	0x39e20536	0.00043109962
115	0x3abfdb59	0.0014637514
116	0xbc87a4c8	-0.016558066
117	0xbbb57d3f	-0.005538612
118	0x3b71678c	0.00368354
119	0x3b789f97	0.003793692
120	0x3c580c40	0.013186514
121	0x3cc5af46	0.024131428
122	0x3b87e167	0.004146743
123	0x3c96a7f1	0.018390628
124	0x3c653bc7	0.013991303
125	0xbbaa04c2	-0.0051885555
126	0xbc256c92	-0.010096686
127	0xbc9ecb4a	-0.019384045
128	0xbbc38afe	-0.005967497
129	0x3c736c46	0.014857357
130	0xbc45802b	-0.012054483
131	0x3bc9e186	0.0061609177
132	0x3c5a2fe0	0.013317078
133	0x3b2aa25f	0.0026036722
134	0xbb745036	-0.0037279255
135	0x39740d10	0.0002327452
136	0x3aa35085	0.001245991
137	0xbbef22a7	-0.007297832
138	0x3c1c429c	0.009537365
139	0x3957cb0a	0.00020579636
140	0xbb1dbfa0	-0.0024070516
141	0xbc1aef65	-0.00945649
142	0xbc5e1b1c	-0.013556268
143	0x3b246d72	0.0025089649
144	0xbbdca146	-0.0067330925
145	0x38d1cf98	0.00010004564
146	0xba4d8850	-0.00078404415
147	0x3bdd3d44	0.006751688
148	0x3be2ba03	0.006919147
149	0xbb9d166e	-0.0047939336
150	0xbaa1b51e	-0.0012337302
151	0xbb9675b3	-0.0045916676
152	0x3c5e6d4f	0.013575866
153	0x3c41fec8	0.01184053
154	0x3b053df1	0.002033111
155	0x3a872d62	0.0010313208
156	0xbb5fca15	-0.003414755
157	0xbcded62f	-0.02720174
158	0x3bbacdcf	0.005700804
159	0x3c00d8c1	0.007864178
160	0xbbb09fbb	-0.005390135
161	0x3c3cef9a	0.011531735
162	0xbbb72ec1	-0.0055902903
163	0x3b8e7ceb	0.0043483875
164	0x3b819daf	0.003955565
165	0xbc8cc604	-0.017184265
166	0x3bbca79a	0.0057572844
167	0x3ab12e95	0.0013517911
168	0xbb3cfcf2	-0.002883729
169	0xbb81e51f	-0.003964081
170	0xbc14ca02	-0.009081366
171	0x3c6f55c3	0.0146078495
172	0xba6151f8	-0.0008595283
173	0xbaf0e36c	-0.0018378324
174	0xbb819733	-0.003954792
175	0xbc38c9df	-0.011278599
176	0x3b0d1291	0.002152596
177	0x3c8d0147	0.017212523
178	0x3c383d77	0.011245123
179	0xbc8a334e	-0.016870167
180	0x3c3b40de	0.01142904
181	0x3c33cb2a	0.010973731
182	0xbbf3eff2	-0.007444375
183	0xbc4e17fd	-0.012578961
184	0x3c5e5fba	0.013572628
185	0x3c5436e4	0.01295254
186	0x3b378d9e	0.0028007994
187	0xbc4615a7	-0.012090123
188	0xbc208199	-0.0097965235
189	0x3ae2d98c	0.0017307266
190	0xbc00ff51	-0.007873372
191	0x3babbe33	0.0052411794
192	0x3c2d9432	0.010594415
193	0xbbb51fde	-0.0055274805
194	0xbb2d3bed	-0.0026433424
195	0x3b211cbf	0.0024583784
196	0xbbf34b88	-0.0074247755
197	0x3ba4c992	0.005028912
198	0xbba9cec2	-0.005182118
199	0xbc296e66	-0.010341262
200	0x3c654699	0.013993883
201	0x399eb5e0	0.00030271616
202	0x3c2b99b8	0.010473661
203	0xbbf72a34	-0.007542873
204	0x3bfd263f	0.0077255066
205	0xbbfc02c6	-0.0076907603
206	0x3c61d139	0.013782793
207	0xbb0c7188	-0.0021429975
208	0xbc06e5ee	-0.00823353
209	0xbcafae5f	-0.021445451
210	0x3c440020	0.01196292
211	0x3c733a46	0.014845436
212	0x3c62ff4c	0.013854813
213	0x3c184a80	0.009295106
214	0x3c14a31c	0.009072091
215	0x3b3c03e5	0.0028688845
216	0xbb02486b	-0.001987959
217	0x3b184144	0.002323226
218	0x3a1baa38	0.00059381453
219	0x3b411c2e	0.002946626
220	0x3baa2624	0.005192535
221	0x3ac6ef0a	0.001517744
222	0xb9ab1614	-0.0003263211
223	0x3c1425dd	0.00904223
224	0x3c8735e1	0.016505184
225	0xbb1c3bd6	-0.0023839376
226	0x3c517b70	0.012785777
227	0xbc5bb71d	-0.013410357
228	0x3c05572d	0.00813846
229	0x38a79338	7.990602e-05
230	0x3c876bb8	0.016530856
231	0x3bd9d62d	0.006647846
232	0x3aa0992c	0.001225268
233	0x3c349b47	0.011023349
234	0xbc34cfbc	-0.011035856
235	0xbbd36f57	-0.0064524817
236	0xbc0c3a1c	-0.008558776
237	0x3cd248fc	0.025669567
238	0x3ba54280	0.005043328
239	0xbc673584	-0.01411188
240	0xbab3d0ef	-0.0013718883
241	0x3b7d3297	0.003863489
242	0x3c687f73	0.0141905425
243	0x39dce3cf	0.000421314
244	0xbca53bb5	-0.020170072
245	0xbc718c5c	-0.014742937
246	0xbace43d2	-0.0015736765
247	0xbae3c5f7	-0.0017377724
248	0xbc1d7743	-0.009610954
249	0x3cc4480b	0.023960134
250	0x3c5dfaf7	0.013548604
251	0xbc437669	-0.011930087
252	0xbac389df	-0.0014918408
253	0xbc8655db	-0.016398361
254	0x3c4ceb12	0.012507217
255	0x3c0e4b13	0.008684891

action_model._discrete_distribution.branches.1.bias f4 [3]
0	0x3bcecd66	0.0063111065
1	0xbb183d21	-0.0023229795
2	0xbbbe5097	-0.005807947

action_model._discrete_distribution.branches.2.weight f4 [2, 128]
0	0x3cb776e7	0.022395564
1	0xbbb5af64	-0.00554459
2	0x3c000291	0.007813112
3	0x3c4e9f02	0.012611153
4	0x3bbed263	0.00582342
5	0xbbf71259	-0.007540029
6	0xbc7174f7	-0.014737359
7	0xbb667e18	-0.0035170373
8	0xbc90bbe9	-0.017667728
9	0xbb5f6a8b	-0.0034090604
10	0xbc6353f2	-0.013874995
11	0x3bcb6249	0.006206785
12	0x3bc83bba	0.0061106356
13	0x3c0f47ba	0.008745128
14	0xbc1759ee	-0.0092377495
15	0xbc1c44ef	-0.009537919
16	0xbc2201b5	-0.009888102
17	0x3c0e6bc8	0.008692689
18	0x3b825077	0.0039768773
19	0x3bafdfcf	0.0053672562
20	0x3c29ee80	0.010371804
21	0xbadc95ad	-0.0016829275
22	0x3b69e34a	0.0035688453
23	0xbb5220a9	-0.0032062924
24	0xbbcd0b2e	-0.0062574362
25	0xbb87b2c6	-0.0041411845
26	0xba1da87f	-0.00060141826
27	0xbb7dce68	-0.0038727764
28	0xb9bbd79c	-0.0003582806
29	0xbb1b7113	-0.002371852
30	0xbc190732	-0.009340094
31	0x3bf32616	0.0074203117
32	0xbbf54f41	-0.0074862544
33	0xbc816a09	-0.015797632
34	0xbc8473a4	-0.016168423
35	0xbb35ef2b	-0.0027760963
36	0xbb4e27db	-0.0031456861
37	0xbbd6b428	-0.006552238
38	0xbc7c3262	-0.015392872
39	0xbbe3498d	-0.006936258
40	0xbc20ada5	-0.009807025
41	0xb9d30d0b	-0.00040254774
42	0xbbff40f7	-0.007789727
43	0x3be0edeb	0.0068642995
44	0xbb9e723e	-0.004835396
45	0x3c1642f8	0.00917124
46	0xbacbfd72	-0.0015563203
47	0xbad6eee1	-0.0016398096
48	0x3b5eef69	0.0034017211
49	0x3bb7a4a4	0.0056043435
50	0xbb1585dd	-0.0022815384
51	0xbb817198	-0.003950309
52	0x3b977a82	0.0046227584
53	0x3c8c138d	0.017099166
54	0xbc80fb55	-0.015744844
55	0xbb9b57d8	-0.0047406964
56	0xbbd335a8	-0.0064456053
57	0xba9d7c50	-0.0012015197
58	0x3a90eb9a	0.0011056543
59	0xbb9854b9	-0.0046487716
60	0xba7550a4	-0.00093580247
61	0x3c273cca	0.010207364
62	0xbb92f123	-0.004484312
63	0xbbe88386	-0.007095757
64	0x3c6aca8c	0.0143305175
65	0x3b8c0a56	0.004273693
66	0x3af01520	0.0018316843
67	0x3b0dfcd9	0.0021665602
68	0x3b96d3e9	0.0046028984
69	0xbc02472d	-0.00795154
70	0x3c097365	0.008389329
71	0xbb48a4fb	-0.0030615914
72	0xbc036605	-0.008019929
73	0x3ba5bc2c	0.005057832
74	0x3bcb5415	0.0062050917
75	0xbc0be24d	-0.008537841
76	0x3b1df1d6	0.0024100444
77	0x3cb6eeeb	0.022330722
78	0x3b4a146b	0.0030834924
79	0x3c6f0c43	0.014590326
80	0xbb93bcbe	-0.004508584
81	0x3956f76a	0.000205008
82	0x3c9a677a	0.01884817
83	0xbb24e90c	-0.002516332
84	0x3b2805ac	0.0025638146
85	0x3b362df0	0.0027798377
86	0x3ba4d414	0.0050301645
87	0x3c4a1ff1	0.012336717
88	0x3c0e8d67	0.008700705
89	0x3a870a9b	0.0010302843
90	0xbbe1e85c	-0.0068941545
91	0xbbec3b7b	-0.007209239
92	0x3c48181a	0.0122127775
93	0xbb7f7181	-0.0038977566
94	0x3be24de6	0.006906259
95	0x3bbd5c20	0.0057788044
96	0x3b12bcaa	0.0022390285
97	0x3ae5082b	0.0017473748
98	0x3b0e1ab8	0.0021683406
99	0x3b694631	0.0035594816
100	0xbb51b46d	-0.0031998411
101	0x3b641329	0.003480146
102	0x3b766e03	0.0037602193
103	0xbbffde1b	-0.0078084595
104	0xbb91aac8	-0.0044454075
105	0x3c05542a	0.008137742
106	0x3c21e6b9	0.009881669
107	0xb924b9ec	-0.0001570952
108	0xbc91c95d	-0.017796213
109	0x3aaf007f	0.0013351588
110	0x3af6035c	0.0018769312
111	0x3b1badad	0.0023754642
112	0xbb98ddf1	-0.0046651294
113	0xbca6f4c9	-0.020380395
114	0xbb0c58b0	-0.0021415167
115	0xbc6a9ab7	-0.014319113
116	0xba4d6be9	-0.0007836209
117	0xbb525fa0	-0.0032100454
118	0xba40726e	-0.000734127
119	0xbbd014b1	-0.006350123
120	0x3b836255	0.004009525
121	0x3c4699ec	0.012121659
122	0xba815a18	-0.0009868769
123	0xbc934f48	-0.01798214
124	0x3c843ad6	0.016141336
125	0xbbeac012	-0.00716401
126	0x3c0f633d	0.008751688
127	0x3b3a7de7	0.0028456391
128	0xbc74db67	-0.014944888
129	0xbbe72d7c	-0.0070549827
130	0xbbd53fd1	-0.0065078516
131	0xb9b39b78	-0.00034257374
132	0xbc1610fa	-0.009159321
133	0x3bb55c32	0.005534672
134	0x3b3609d2	0.002777685
135	0xbbb8ebba	-0.005643335
136	0x3c5906d4	0.013246257
137	0xbacdec5a	-0.0015710697
138	0xbc11f651	-0.008908824
139	0x3bce4554	0.0062948857
140	0xbb3907d1	-0.0028233419
141	0xbc27574c	-0.010213684
142	0x3a70f5af	0.0009191883
143	0x3bc4e9ee	0.006009332
144	0x3aa56a18	0.0012620119
145	0xbba5c271	-0.0050585796
146	0xbb0e431d	-0.0021707483
147	0xbc352e22	-0.011058362
148	0xbc2e94c8	-0.010655589
149	0xbb23c5ae	-0.0024989652
150	0xbb06c4e1	-0.0020564126
151	0x3c60c395	0.013718505
152	0xbbcbba73	-0.006217295
153	0x3b5b49f1	0.003346082
154	0xbc00b147	-0.007854766
155	0x3c5f7dec	0.013640862
156	0x3ab78ab7	0.0014003132
157	0x3b3931f1	0.0028258527
158	0x3988bc8d	0.00026080423
159	0xbb4c0ce8	-0.0031135622
160	0x3c2c83e2	0.01052949
161	0xba017c15	-0.0004939449
162	0x3b21c2ee	0.0024682838
163	0x3c01e373	0.007927763
164	0xb9bf0175	-0.00036431444
165	0xbc1d3e2a	-0.009597341
166	0xbc632134	-0.013862897
167	0xbc3dc8ea	-0.011583546
168	0xbc995885	-0.018718967
169	0xbbb0a747	-0.0053910348
170	0xbb7339ea	-0.0037113377
171	0xbab13c1f	-0.0013521946
172	0xbcdd1e4a	-0.026991982
173	0x3bb2bdae	0.0054547405
174	0x3c391a35	0.011297752
175	0xbbab9c0c	-0.005237108
176	0xbb8e90bc	-0.00435075
177	0xbba9e76e	-0.0051850593
178	0x3cc42287	0.023942245
179	0xbb3b571d	-0.002858586
180	0x3be7b315	0.007070909
181	0xbc7681a8	-0.015045561
182	0xbc5c150f	-0.013432755
183	0xbb40ffa3	-0.0029449246
184	0x3c1b68e9	0.009485462
185	0x3c0240ed	0.00795005
186	0xbbad3e2f	-0.005286954
187	0xbc4e3fe1	-0.012588472
188	0xbc067154	-0.0082057305
189	0xbaa5ac1a	-0.0012639791
190	0x3b978863	0.004624413
191	0x3be47c01	0.00697279
192	0x3a95e684	0.0011436497
193	0x3b9f25d7	0.004856806
194	0x3bbed253	0.0058234124
195	0xbc06e6b5	-0.008233716
196	0xbb07dfe4	-0.0020732814
197	0xbc2f7707	-0.010709531
198	0xbbcde251	-0.0062830825
199	0x3bc7df49	0.0060996157
200	0x3b5e86c6	0.0033954843
201	0x3bbdd0f7	0.005792733
202	0x3c41160d	0.0117850425
203	0x3b922c7d	0.00446087
204	0xbc065ae7	-0.008200384
205	0x3c2d24a4	0.010567818
206	0x3bc2d987	0.0059463414
207	0x3acd0458	0.0015641553
208	0xbbbced84	-0.0057656188
209	0xbb268305	-0.0025407684
210	0xbc597d41	-0.013274492
211	0x3b189e90	0.002328787
212	0x3c69e38a	0.014275441
213	0x3acc9854	0.0015609362
214	0xbb4e710d	-0.003150049
215	0xbc84dbdd	-0.01621812
216	0xbb8834a4	-0.004156666
217	0x3b20e707	0.0024551766
218	0x3b6799b8	0.0035339426
219	0x3a4e4c82	0.0007869677
220	0x393f11fc	0.00018221879
221	0xbbfde39b	-0.00774808
222	0xbcafa73b	-0.021442046
223	0xbb18f75d	-0.00233408
224	0xbc3b9457	-0.011448941
225	0xbbbec27c	-0.005821524
226	0xbbcd00b7	-0.0062561887
227	0xbc182e0f	-0.009288325
228	0xb91521b5	-0.00014222304
229	0x3c5e678c	0.013574492
230	0x3c294968	0.010332443
231	0xba861899	-0.0010230719
232	0x3becace2	0.0072227577
233	0x3bd25e8f	0.0064199637
234	0xbbf5e492	-0.0075040543
235	0xbc0e0f36	-0.008670619
236	0xbc4a8e8a	-0.0123630855
237	0xbb51f117	-0.003203457
238	0xbba98f91	-0.005174585
239	0xbbdb4614	-0.0066917036
240	0xbb371ab7	-0.0027939507
241	0x3c35ba95	0.011091848
242	0x3bb033f4	0.005377287
243	0xbb9a0d28	-0.0047012754
244	0x3c4f32b7	0.012646369
245	0xbbd20602	-0.0064094076
246	0x3c5e0922	0.013551982
247	0xbab325ab	-0.0013667842
248	0xbb9bf281	-0.0047591333
249	0xbc4a0854	-0.012331087
250	0xbba6ccc9	-0.0050903303
251	0xbc2af790	-0.010435
252	0x3c38675b	0.011255111
253	0xbbf003ab	-0.007324656
254	0xbc234158	-0.00996431
255	0x391b8fc9	0.00014835516

action_model._discrete_distribution.branches.2.bias f4 [2]
0	0xba8d52a5	-0.0010782076
1	0x3a8d52a4	0.0010782075

exp_avg f4 [128, 100]
0	0x00000000	0.0
1	0x31ad78a7	5.0486793e-09
2	0x32a87b1e	1.9613761e-08
3	0xb39d4eb0	-7.3251954e-08
4	0xb28c5cb7	-1.6340307e-08
5	0xb14cb08f	-2.978627e-09
6	0xb305d951	-3.1164124e-08
7	0x00000000	0.0
8	0xb226a16c	-9.699175e-09
9	0xb2d48edc	-2.4745013e-08
10	0xb2bb7851	-2.1824379e-08
11	0xb2d13ccf	-2.4358455e-08
12	0x325a80dc	1.2718569e-08
13	0xb30d853a	-3.295029e-08
14	0xa599582e	-2.6601022e-16
15	0x32266ab4	9.686733e-09
16	0xb3087fd6	-3.1781234e-08
17	0xb289fa69	-1.6062772e-08
18	0xb28fa704	-1.6723341e-08
19	0xb25fd0fe	-1.3027828e-08
20	0xb30fb083	-3.345532e-08
21	0x00000000	0.0
22	0x32a83654	1.958248e-08
23	0xb31fcd14	-3.720659e-08
24	0xb1bc0073	-5.471571e-09
25	0xb353fdcb	-4.935809e-08
26	0x319c2d2b	4.5453326e-09
27	0xb33a3737	-4.3356717e-08
28	0x00000000	0.0
29	0x320b1372	8.095286e-09
30	0xb2b56af7	-2.1119815e-08
31	0x312ba96e	2.4980085e-09
32	0xb33385d1	-4.179839e-08
33	0xb285dc8f	-1.5583536e-08
34	0xb367281c	-5.3820358e-08
35	0x00000000	0.0
36	0xa8ae635d	-1.9360973e-14
37	0xb34a8f2a	-4.7161997e-08
38	0xaf7c341e	-2.2937782e-10
39	0xb2b03d73	-2.051704e-08
40	0x00000000	0.0
41	0xb309e722	-3.2108012e-08
42	0x00000000	0.0
43	0x2b5adaec	7.7752973e-13
44	0xb352a2dd	-4.904256e-08
45	0x2d89bc64	1.5658759e-11
46	0xb2a234e2	-1.888333e-08
47	0x2b8f51f5	1.0183509e-12
48	0xb2f103bc	-2.805779e-08
49	0x00000000	0.0
50	0x31425620	2.8279672e-09
51	0xb397b38c	-7.064145e-08
52	0xadd24428	-2.3904503e-11
53	0xacb37f9a	-5.1016526e-12
54	0xae910d3a	-6.596186e-11
55	0xb2d2872c	-2.4508687e-08
56	0x00000000	0.0
57	0x3194b7fc	4.3282835e-09
58	0xb39b2f26	-7.226326e-08
59	0xaadfb072	-3.973519e-13
60	0x2ded7606	2.6996193e-11
61	0xa9902a85	-6.4022606e-14
62	0xb2aad654	-1.988807e-08
63	0x00000000	0.0
64	0x323f2a2e	1.1127254e-08
65	0xb3a8baf4	-7.857116e-08
66	0xb0a97a1d	-1.2331075e-09
67	0x304164f2	7.0356443e-10
68	0x2e8ef5c3	6.5010684e-11
69	0xb2c6afa8	-2.3130113e-08
70	0x00000000	0.0
71	0x318fe705	4.1881116e-09
72	0xb39adb2b	-7.21105e-08
73	0xa889118e	-1.5217669e-14
74	0x2f3ffd07	1.7461242e-10
75	0xaf30a160	-1.6064439e-10
76	0xb2f0264f	-2.7957098e-08
77	0x00000000	0.0
78	0x328d2b3d	1.6434223e-08
79	0xb28d36f0	-1.6439543e-08
80	0x3128c227	2.455758e-09
81	0xb0b3faee	-1.3095283e-09
82	0xb3944846	-6.9049335e-08
83	0xb3870f2a	-6.289186e-08
84	0x00000000	0.0
85	0x328d2b3d	1.6434223e-08
86	0xb28d36f0	-1.6439543e-08
87	0x3128c227	2.455758e-09
88	0xb0b3faee	-1.3095283e-09
89	0xb3944846	-6.9049335e-08
90	0xb3870f29	-6.289185e-08
91	0x00000000	0.0
92	0x3423c907	1.5253691e-07
93	0xb3da7ae5	-1.01737704e-07
94	0xb4d2edac	-3.9288477e-07
95	0x00000000	0.0
96	0x3423c907	1.5253691e-07
97	0xb3da7ae5	-1.01737704e-07
98	0x3685c9df	3.9872098e-06
99	0xafec3af1	-4.297003e-10
100	0x00000000	0.0
101	0xb687e725	-4.0502223e-06
102	0x372a0bd3	1.0135543e-05
103	0xb7905b8d	-1.720877e-05
104	0x36ea0336	6.9741172e-06
105	0x36a6df82	4.9732053e-06
106	0x37119515	8.677384e-06
107	0x00000000	0.0
108	0xb5a4aca1	-1.2269194e-06
109	0x37b3dc91	2.1441172e-05
110	0x364b51f3	3.0297058e-06
111	0xb76d5936	-1.4147072e-05
112	0xb70acc4f	-8.27301e-06
113	0xb7667b70	-1.3737808e-05
114	0x2a673340	2.0534702e-13
115	0x34ce71d8	3.8453322e-07
116	0x3753d759	1.262672e-05
117	0x36be6741	5.6744616e-06
118	0xb6fb9b6c	-7.4984764e-06
119	0xb72dde5a	-1.0363374e-05
120	0xb783a9de	-1.5695518e-05
121	0x00000000	0.0
122	0xb5a13ceb	-1.2013164e-06
123	0x36ae6bec	5.198168e-06
124	0x35feca88	1.8983419e-06
125	0xb705ef52	-7.983139e-06
126	0x36436886	2.9118105e-06
127	0xb6e66ede	-6.867441e-06
128	0x00000000	0.0
129	0x35e931e3	1.7374372e-06
130	0xb4de4025	-4.1397394e-07
131	0x3580b8a1	9.590477e-07
132	0xb66721af	-3.4441289e-06
133	0x36053e5b	1.985484e-06
134	0xb6b8d58a	-5.5084865e-06
135	0x00000000	0.0
136	0x2bc136da	1.3728699e-12
137	0x366d3054	3.5343883e-06
138	0x3306795e	3.130969e-08
139	0xb6380060	-2.7418355e-06
140	0x00000000	0.0
141	0xb6db1189	-6.52875e-06
142	0x00000000	0.0
143	0x3022968b	5.914919e-10
144	0x369a9a8f	4.6075506e-06
145	0xb1c62f7f	-5.767958e-09
146	0xb679774f	-3.7173338e-06
147	0xb383611b	-6.117826e-08
148	0xb6bb17c2	-5.5758e-06
149	0x00000000	0.0
150	0xb4a96b94	-3.1556976e-07
151	0x3590494e	1.075017e-06
152	0xb0c057ef	-1.3994831e-09
153	0x307f561d	9.2890834e-10
154	0x338b574c	6.488571e-08
155	0xb682eb8f	-3.9017245e-06
156	0x00000000	0.0
157	0xb481c94d	-2.4174588e-07
158	0x358f6738	1.0684371e-06
159	0x2e824b09	5.9250445e-11
160	0xb147dc64	-2.9083589e-09
161	0x2de5a266	2.6106405e-11
162	0xb5f839a5	-1.8494217e-06
163	0x00000000	0.0
164	0xb64455a3	-2.9256123e-06
165	0xb511384c	-5.409863e-07
166	0x34bcf294	3.5194228e-07
167	0x35fbb97e	1.8754943e-06
168	0x360a7296	2.06303e-06
169	0xb683bdaa	-3.926184e-06
170	0x00000000	0.0
171	0x344a929c	1.8866052e-07
172	0xb4132300	-1.3703175e-07
173	0x2b87caee	9.648651e-13
174	0xb5966c84	-1.1207453e-06
175	0x35fe1249	1.8929796e-06
176	0xb64c5e70	-3.0453339e-06
177	0x00000000	0.0
178	0xb681387c	-3.8510752e-06
179	0xb60c7b72	-2.093348e-06
180	0x378c9c49	1.6762076e-05
181	0x354982fb	7.5068937e-07
182	0xb7344326	-1.074447e-05
183	0x35d17d85	1.5608244e-06
184	0x00000000	0.0
185	0xb681387c	-3.8510752e-06
186	0xb60c7b72	-2.093348e-06
187	0x378c9c49	1.6762076e-05
188	0x354982fb	7.5068937e-07
189	0xb7344326	-1.074447e-05
190	0x35d17e08	1.5608393e-06
191	0x00000000	0.0
192	0x38b5b0d4	8.6636894e-05
193	0x35f7bcb4	1.8457854e-06
194	0x3a30d970	0.0006746268
195	0x00000000	0.0
196	0x38b5b0d4	8.6636894e-05
197	0x35f7bcb4	1.8457854e-06
198	0x3a22eb4f	0.0006214873
199	0xb584ece5	-9.903712e-07
200	0x00000000	0.0
201	0xb1f0e5e7	-7.011056e-09
202	0x35c2d09e	1.4514842e-06
203	0x3407a75b	1.2633738e-07
204	0x343643a6	1.6974681e-07
205	0x35a29c31	1.2115398e-06
206	0x361b43d5	2.3136283e-06
207	0x00000000	0.0
208	0xb30ae5a5	-3.233949e-08
209	0x362fa49b	2.6172845e-06
210	0x3414aaf0	1.3845761e-07
211	0x34189272	1.420938e-07
212	0x33b9f954	8.660086e-08
213	0x359e14ee	1.1778009e-06
214	0xa7195bed	-2.1282848e-15
215	0xb3b60f39	-8.4778044e-08
216	0x3638b965	2.752605e-06
217	0xb46f8dfd	-2.2310265e-07
218	0x350685c3	5.011354e-07
219	0x31d65528	6.237901e-09
220	0x348ad392	2.585844e-07
221	0x00000000	0.0
222	0xb4b98280	-3.4553887e-07
223	0x365a68d5	3.2545552e-06
224	0x3464a003	2.1292367e-07
225	0xb405aa2c	-1.2448498e-07
226	0xb342cf50	-4.5357694e-08
227	0x3507652b	5.043864e-07
228	0x00000000	0.0
229	0xb371eec4	-5.632934e-08
230	0x364cb41d	3.0503209e-06
231	0xb22aa16b	-9.9320046e-09
232	0x33cc59ed	9.515848e-08
233	0xb4087eae	-1.2712073e-07
234	0x335e296b	5.1726072e-08
235	0x00000000	0.0
236	0xa8c03212	-2.1337997e-14
237	0x3643b111	2.916033e-06
238	0x31593204	3.1606087e-09
239	0x330d521d	3.2903802e-08
240	0x00000000	0.0
241	0x352aa4ad	6.356957e-07
242	0x00000000	0.0
243	0x2b89a3b2	9.77987e-13
244	0x364058b6	2.8661866e-06
245	0x2fa37177	2.973015e-10
246	0x33b56b77	8.448017e-08
247	0x309b9cc6	1.1322292e-09
248	0x342724e2	1.5566505e-07
249	0x00000000	0.0
250	0xb30bcd5c	-3.2550233e-08
251	0x3646a1af	2.9598411e-06
252	0x2f84191d	2.4028504e-10
253	0xaf543cae	-1.9302845e-10
254	0x32d4ad93	2.475898e-08
255	0x353f71f5	7.1318874e-07
