MLBase/results/ppo/CloseToTargetBehaviour/CloseToTargetBehaviour-704.onnx (onnx, 79519 bytes, 7 tensors)

discrete_act_size_vector f4 [1, 2]
000000 00 00 40 40 00 00 40 40
       3.0 3.0

network_body._body_endoder.seq_layers.0.weight f4 [128, 6]
000000 82 b7 2f 3f e8 df 80 be 1a 8e 4c be b8 39 b1 3e
       0.68639386 -0.25170827 -0.19976082 0.34614348
000010 24 30 7e 3e 60 1b 35 be 62 bf 0e 3f e1 db 79 bf
       0.24823052 -0.17686224 0.55760777 -0.97601134
000020 1b 41 46 3e e6 bc 8c 3e b4 e6 b2 3c ce 06 a2 3e
       0.19360773 0.27487868 0.021838523 0.31645817
000030 d0 f1 7f 3e 92 07 06 3e c4 38 eb 3e 73 47 6f bf
       0.24994588 0.13088825 0.45941746 -0.934684
000040 61 88 4b 3e c9 a7 13 3f 27 c8 02 bf 6a d7 29 3f
       0.19876243 0.57677895 -0.5108666 0.6634432
000050 33 e1 bf 3c 36 b4 80 3f a9 3d 14 bf d9 97 5c be
       0.023422813 1.0054996 -0.57906586 -0.215423
000060 b8 ea ff be 45 b6 94 3e bf 43 24 3e c6 8a 80 be
       -0.49983764 0.2904531 0.16041468 -0.25105876
000070 e8 5f 72 bf 03 79 db 3e 35 23 bc 3e 61 a5 21 be
       -0.9467759 0.42865762 0.3674561 -0.15785743
000080 5b e7 f9 be eb eb 41 3f 34 6e 13 3e 37 a4 41 3f
       -0.48809323 0.7575061 0.14397508 0.75641197
000090 1d 29 bd 3e 9d 52 68 be 90 f6 1a 3e 1d e0 09 be
       0.3694543 -0.22687764 0.15133119 -0.13464399
0000a0 50 f7 f5 3e 1a 56 87 3c 85 69 f8 bb 9e 66 50 3d
       0.48040247 0.016520549 -0.0075809383 0.050879113
0000b0 9b ba 9d 3e 53 d3 82 be dc 8b 78 3f 0c 39 21 3f
       0.3080643 -0.25551853 0.9708841 0.6297767
0000c0 0d 6f 39 3e b3 37 8d 3e cf 0e 99 bd 82 72 cf 3e
       0.18108769 0.27581558 -0.07473528 0.4051705
0000d0 b8 55 bb 3e 2b 33 2a bf 1b f0 2d bf 41 11 05 bf
       0.36588836 -0.66484326 -0.67944497 -0.5197945
0000e0 a2 32 57 3f 6e bc f3 bd 64 56 89 be 77 00 69 bf
       0.84061635 -0.119011745 -0.26823723 -0.91016334
0000f0 90 70 0f be 17 6d 84 be f5 1e c0 3e 59 85 70 3e
       -0.14007783 -0.2586448 0.37523618 0.23488368
000100 30 a5 01 3f 32 2f 20 3f 2f d1 5a bd b0 92 09 be
       0.5064268 0.62572014 -0.05342215 -0.13434863
000110 37 61 21 bf 24 ab 9a 3c d4 77 00 bf 15 5f 53 bf
       -0.63038963 0.018880434 -0.50182843 -0.8256696
000120 37 3d a3 3e 72 23 31 3e 96 04 81 be 7d 67 0f be
       0.3188264 0.17298678 -0.2519881 -0.14004321
000130 5e c9 83 bd ac dd 88 3e cd fa b3 3e 6b 90 29 be
       -0.06434892 0.26731622 0.35152283 -0.16558997
000140 85 10 d7 3d 2b 8f 24 3e 32 54 8d be d4 3c d7 3e
       0.10501198 0.16070239 -0.27603298 0.42038596
000150 56 4b 84 3e a3 0a 25 bf b2 ff 62 3e 53 4e 8a 3e
       0.25838727 -0.64469355 0.22167853 0.27012882
000160 5b 4d 4d 3e a3 51 85 be 16 39 6b bf b3 f2 d5 3e
       0.2004904 -0.26038846 -0.9188398 0.41786727
000170 0b 0a fe bd 10 1e d5 3e 85 e1 87 be ec f7 6d be
       -0.12404259 0.41624498 -0.26539245 -0.23239106
000180 6f f1 bf be c9 6f cb 3e c4 f7 d3 bd de 30 a1 3b
       -0.37488887 0.39733723 -0.10349992 0.0049191555
000190 ea 7e 22 3f 42 de 8e 3e db cd 3d bf 6c e0 f8 be
       0.63474905 0.27903944 -0.74142236 -0.4860872
0001a0 08 84 86 3d a1 4e d5 be 27 54 84 bd 72 c6 09 bf
       0.06568152 -0.41661552 -0.06461363 -0.5381843
0001b0 7e ef 95 be fa 49 c5 3e 4e a4 aa bd 7b c5 73 3e
       -0.2928428 0.38533002 -0.0833212 0.23805802
0001c0 3d bf d9 bd eb 85 49 be 95 32 d7 be 52 84 47 3f
       -0.10632179 -0.19679992 -0.4203078 0.7793628
0001d0 67 bf 1d 3e 33 89 8a 3e 7f 3e 8f 3d 8d 21 c0 3e
       0.15405045 0.270578 0.06994342 0.37525597
0001e0 20 6f 8a be ee 4f ff 3e bd ff 23 3e 31 d9 b7 bc
       -0.27037907 0.4986567 0.16015525 -0.022442432
0001f0 af 5d a9 3d ea 09 10 be 31 e9 9e bd 12 ee 2b be
       0.08269822 -0.14066282 -0.077593215 -0.16790035
000200 7b 5b af 3e 38 47 bc 3e 6f e6 8e be c0 0e 13 be
       0.34249482 0.36773086 -0.27910182 -0.14361095
000210 2b d9 d9 3d 78 8a d0 3e 49 22 2b be 8a c9 2b be
       0.10637125 0.40730643 -0.16712297 -0.167761
000220 93 08 3b 3f 4a 06 95 3f 78 30 1a be 14 7a 0c bf
       0.7305996 1.1642544 -0.15057552 -0.54873776
000230 2f e0 40 bf 25 e1 a8 3e 9e d2 8d bf 66 34 5a be
       -0.75342077 0.32984272 -1.10799 -0.21309051
000240 74 7b fa 3e 82 c7 20 3f eb a6 8e be 80 1a a5 be
       0.48922312 0.62804425 -0.27861723 -0.3224678
000250 5f 98 a6 bd 48 6e 06 be 50 93 42 bd ec bd fe ba
       -0.08134531 -0.13128006 -0.04750377 -0.0019435263
000260 71 b1 15 3d d5 bb a0 3e 72 46 22 bf fe f1 5e bc
       0.036546174 0.31393304 -0.6338874 -0.0136075
000270 9e 1a 20 3a e1 2e c8 3d 79 03 78 3f c8 b3 64 3d
       0.0006107482 0.097745664 0.968803 0.055835515
000280 31 1b 91 3e 7f 10 be be 90 b0 2b 3f ed 5a 0a 3f
       0.28341058 -0.3712196 0.6706629 0.5404499
000290 49 ab 54 3d c2 94 dd bc d0 89 96 be f1 c1 17 3f
       0.051921163 -0.027048472 -0.29402018 0.59280306
0002a0 b3 d9 ef 3d b5 a9 2e be 8a 54 ce 3e ba 2b 09 bf
       0.11711445 -0.17056926 0.40298873 -0.53582346
0002b0 c3 60 a7 be 68 18 a6 3e ca c4 ea 3d 46 93 dc 3e
       -0.3269101 0.32440495 0.11463316 0.4308111
0002c0 3f 04 a5 be dc 9e de 3e b2 52 9b 3e 1a 1f b1 bf
       -0.32229802 0.43480575 0.3033653 -1.3837616
0002d0 ce e5 ba be 34 e5 71 3d d6 00 e8 bd db e0 2d 3f
       -0.36503452 0.059056476 -0.113282844 0.6792123
0002e0 32 36 49 3e 39 bc 34 be 90 1c 9e be 42 62 d9 bd
       0.1964958 -0.17649926 -0.30881166 -0.10614444
0002f0 2d b1 11 be 75 a8 3f 3f 5a 63 0e bf 58 b2 e0 3e
       -0.14227743 0.7486642 -0.5562035 0.43886065
000300 b0 ee a5 be 80 39 31 be 1b dd 13 be ee d2 35 bf
       -0.32408667 -0.17307091 -0.14439814 -0.7102498
000310 d4 1f d7 bd 2c ad 01 3f 3b 67 f1 3e 1b fa 9d be
       -0.105041176 0.50654864 0.4714907 -0.30854878
000320 c6 c9 f0 3e b2 d7 34 bf 29 63 bc 3d 69 4a d6 be
       0.4702894 -0.70641625 0.09198601 -0.41853645
000330 af 48 e7 3d ea 05 db be 74 b5 d9 bd d9 95 bd bb
       0.1129316 -0.4277795 -0.106303126 -0.0057856855
000340 cc 7e f9 3e c7 4a 38 3c 59 37 b1 be 6c 8a 43 3e
       0.4872955 0.011248297 -0.3461254 0.19095773
000350 29 2c 9e 3d 62 5b 0d 3e ab 3b 4a 3d fc 51 16 3e
       0.07723267 0.13804391 0.04937331 0.14679712
000360 da cd 1b 3e f1 07 29 bf 1f 57 3a 3e f8 14 00 be
       0.15215245 -0.6602774 0.18197297 -0.12507999
000370 78 27 8c 3e 11 98 06 3e 49 e4 08 be b4 24 45 bd
       0.27373862 0.13143946 -0.13368334 -0.048130706
000380 88 89 bf 3e c7 9b 09 3f c4 8d e1 bd d4 3e 14 3f
       0.37409616 0.5375332 -0.11013368 0.5790837
000390 46 c4 15 3f e8 4b 9f 3e be d0 2f 3e f4 9d 3e be
       0.58502614 0.311126 0.17169473 -0.18614942
0003a0 81 1d 9a be d4 2b d9 3e 6e 19 e9 3e 8a 7a 19 bf
       -0.30100635 0.4241625 0.45527214 -0.59952605
0003b0 18 83 da bd 99 18 91 be 40 89 04 bf 13 9f e5 bd
       -0.106695354 -0.2833908 -0.51771927 -0.112119816
0003c0 e4 78 e7 3e 84 b3 9b 3e 32 ed 9a be df 54 66 3e
       0.4520942 0.30410397 -0.3025909 0.22493313
0003d0 96 bb 28 3e 95 ab 6e 3e 2a cb 71 bd 9f 3f 33 be
       0.16477808 0.23307641 -0.059031643 -0.17504738
0003e0 de 27 9c 3e ca 65 02 3f 56 16 6c be 24 9e 58 bd
       0.30499166 0.5093657 -0.23055395 -0.05288519
0003f0 75 68 57 3d e7 67 21 3d e8 c6 02 bf cd b9 fc 3d
       0.052589852 0.03940573 -0.51084757 0.12340126

network_body._body_endoder.seq_layers.0.bias f4 [128]
000000 00 00 00 00 00 00 00 00 00 00 00 00 00 00 00 00
       0.0 0.0 0.0 0.0
000010 00 00 00 00 00 00 00 00 00 00 00 00 00 00 00 00
       0.0 0.0 0.0 0.0
000020 00 00 00 00 00 00 00 00 00 00 00 00 00 00 00 00
       0.0 0.0 0.0 0.0
000030 00 00 00 00 00 00 00 00 00 00 00 00 00 00 00 00
       0.0 0.0 0.0 0.0
000040 00 00 00 00 00 00 00 00 00 00 00 00 00 00 00 00
       0.0 0.0 0.0 0.0
000050 00 00 00 00 00 00 00 00 00 00 00 00 00 00 00 00
       0.0 0.0 0.0 0.0
000060 00 00 00 00 00 00 00 00 00 00 00 00 00 00 00 00
       0.0 0.0 0.0 0.0
000070 00 00 00 00 00 00 00 00 00 00 00 00 00 00 00 00
       0.0 0.0 0.0 0.0
000080 00 00 00 00 00 00 00 00 00 00 00 00 00 00 00 00
       0.0 0.0 0.0 0.0
000090 00 00 00 00 00 00 00 00 00 00 00 00 00 00 00 00
       0.0 0.0 0.0 0.0
0000a0 00 00 00 00 00 00 00 00 00 00 00 00 00 00 00 00
       0.0 0.0 0.0 0.0
0000b0 00 00 00 00 00 00 00 00 00 00 00 00 00 00 00 00
       0.0 0.0 0.0 0.0
0000c0 00 00 00 00 00 00 00 00 00 00 00 00 00 00 00 00
       0.0 0.0 0.0 0.0
0000d0 00 00 00 00 00 00 00 00 00 00 00 00 00 00 00 00
       0.0 0.0 0.0 0.0
0000e0 00 00 00 00 00 00 00 00 00 00 00 00 00 00 00 00
       0.0 0.0 0.0 0.0
0000f0 00 00 00 00 00 00 00 00 00 00 00 00 00 00 00 00
       0.0 0.0 0.0 0.0
000100 00 00 00 00 00 00 00 00 00 00 00 00 00 00 00 00
       0.0 0.0 0.0 0.0
000110 00 00 00 00 00 00 00 00 00 00 00 00 00 00 00 00
       0.0 0.0 0.0 0.0
000120 00 00 00 00 00 00 00 00 00 00 00 00 00 00 00 00
       0.0 0.0 0.0 0.0
000130 00 00 00 00 00 00 00 00 00 00 00 00 00 00 00 00
       0.0 0.0 0.0 0.0
000140 00 00 00 00 00 00 00 00 00 00 00 00 00 00 00 00
       0.0 0.0 0.0 0.0
000150 00 00 00 00 00 00 00 00 00 00 00 00 00 00 00 00
       0.0 0.0 0.0 0.0
000160 00 00 00 00 00 00 00 00 00 00 00 00 00 00 00 00
       0.0 0.0 0.0 0.0
000170 00 00 00 00 00 00 00 00 00 00 00 00 00 00 00 00
       0.0 0.0 0.0 0.0
000180 00 00 00 00 00 00 00 00 00 00 00 00 00 00 00 00
       0.0 0.0 0.0 0.0
000190 00 00 00 00 00 00 00 00 00 00 00 00 00 00 00 00
       0.0 0.0 0.0 0.0
0001a0 00 00 00 00 00 00 00 00 00 00 00 00 00 00 00 00
       0.0 0.0 0.0 0.0
0001b0 00 00 00 00 00 00 00 00 00 00 00 00 00 00 00 00
       0.0 0.0 0.0 0.0
0001c0 00 00 00 00 00 00 00 00 00 00 00 00 00 00 00 00
       0.0 0.0 0.0 0.0
0001d0 00 00 00 00 00 00 00 00 00 00 00 00 00 00 00 00
       0.0 0.0 0.0 0.0
0001e0 00 00 00 00 00 00 00 00 00 00 00 00 00 00 00 00
       0.0 0.0 0.0 0.0
0001f0 00 00 00 00 00 00 00 00 00 00 00 00 00 00 00 00
       0.0 0.0 0.0 0.0

network_body._body_endoder.seq_layers.2.weight f4 [128, 128]
000000 61 67 50 bd b0 f0 39 3d 61 9e e9 3d 8f ca b9 bc
       -0.05087984 0.045395553 0.114071615 -0.022679595
000010 a7 fd 9e 3c 64 cd 20 bd 75 0a ec bd f1 f6 e2 3b
       0.01940806 -0.039258376 -0.11525432 0.0069264104
000020 c9 02 fe bd 7e a5 34 bc dc 19 4b 3d 5c 96 d9 3d
       -0.12402875 -0.011025785 0.04958521 0.10624382
000030 0f 26 2e 3b 0d 59 a6 3d f8 cd 23 3d 72 a5 5e bd
       0.0026572978 0.08122454 0.03999135 -0.054357
000040 73 58 cc bd 34 96 7b ba dd 41 0a 3d ef 3b f1 bd
       -0.09977808 -0.0009597272 0.03375422 -0.117790096
000050 b2 94 25 bb 06 6b 18 bb 29 c5 5f bb 72 eb be bd
       -0.0025265631 -0.002325715 -0.0034144616 -0.093222514
000060 ee 3d 83 bd 86 0d 21 bd 02 2f 91 bd 4b ab 1a bd
       -0.064082965 -0.039319538 -0.07089044 -0.037761014
000070 14 18 23 3e 5d b6 e3 bc ba 8f 00 3d 9d a3 a0 bc
       0.15927154 -0.027796919 0.03138707 -0.019609267
000080 2a e3 c7 3c 42 80 49 bd 8c b9 25 bd 16 a1 c2 bd
       0.024400312 -0.04919458 -0.040460154 -0.09503381
000090 fd 20 c3 3b 54 d1 64 bd de 6d 65 3c 27 99 c4 bc
       0.0059548602 -0.055863693 0.014003245 -0.02399881
0000a0 55 a5 f9 3d bd 72 ca bd 36 5f c8 bd 83 32 c9 3c
       0.12189738 -0.09885166 -0.09783785 0.024560219
0000b0 c6 b4 0b 3d dd e2 c9 bd f5 18 1c 3d 42 10 a8 bd
       0.034107946 -0.09857724 0.03810974 -0.08206226
0000c0 7e 4e a6 3d ec 5b 3f be cb e7 8e bd 9a 6f a0 3d
       0.0812044 -0.18687409 -0.06977805 0.07833786
0000d0 92 2c e1 3d ba bc 92 bd 5c de d9 bc 0f a5 81 3d
       0.10994829 -0.07164903 -0.026595287 0.063303106
0000e0 30 04 a4 bb 72 5e fe 3d d2 f1 69 bd 43 22 46 3d
       -0.005005382 0.12420358 -0.057115383 0.04837252
0000f0 07 3f 28 3d a7 8b 42 bd 5f e4 87 bd f8 2b 14 3d
       0.041075733 -0.047496464 -0.06635355 0.036174744
000100 9c a1 4d 3e d2 7e 26 bc 1f 00 dc bc e9 be 58 bc
       0.2008118 -0.010162072 -0.026855526 -0.01322911
000110 16 72 ae b9 4b b4 5c 3d 28 bd 88 3d 32 32 19 bd
       -0.00033272867 0.05388288 0.06676704 -0.037401386
000120 58 c0 39 3e 6e a0 74 3c a3 12 0b bd 03 45 92 bd
       0.1813978 0.014930828 -0.03395332 -0.07142069
000130 cb 4f 1f bd b1 4f cb bd ab fd ef 3d 9e 2e 71 3c
       -0.038894456 -0.09927309 0.11718305 0.014720587
000140 29 7e 27 3d d2 a9 ee b9 cf 59 b8 bd b1 9b 71 3d
       0.0408918 -0.00045521423 -0.09001505 0.05898637
000150 72 a8 b6 3d 2c af 55 bd e6 aa 27 bc bd 1e ce bd
       0.08918847 -0.05216901 -0.010233616 -0.100644566
000160 81 61 09 3d 54 8b 54 3e 1c f7 32 3e a2 69 24 3d
       0.033540253 0.20756274 0.17477077 0.0401398
000170 fe ec d0 bb 94 4d 4c bd 18 cd 9e bd 1f d9 dc 3c
       -0.006375908 -0.04987867 -0.07753962 0.026959
000180 4f e5 88 bc 49 84 01 bd ee ae 01 be f5 72 fd bd
       -0.016710905 -0.031620298 -0.12664387 -0.12375442
000190 93 79 80 3d cd d2 09 bd ae 53 c6 bc 83 b4 80 3c
       0.062731884 -0.0336483 -0.024209823 0.015711075
0001a0 f8 ee 2a 3d 98 b2 b5 bd b8 0d 86 3d b7 c9 fa 3c
       0.041731805 -0.08871955 0.065455854 0.030613763
0001b0 d8 e8 79 3b 00 e3 32 bd b8 cc de bd c4 d2 40 3c
       0.003813317 -0.043673515 -0.10878891 0.011769
0001c0 09 6a 64 bc a4 87 40 3d f0 66 9a 3d 6a b9 e5 3d
       -0.013941296 0.047004357 0.07539165 0.112170056
0001d0 95 d2 ee bd f5 bf 6e bd 42 9e b6 3d 8c e2 f9 3b
       -0.11661259 -0.058288533 0.08916904 0.0076258834
0001e0 36 ed a6 3d e0 a2 aa bd 8c ee 9a bd e9 ce 18 be
       0.08150713 -0.08331847 -0.075650305 -0.1492268
0001f0 fb 1e 02 be 52 2c 4f 3d a9 d1 1c bd 35 a4 3f 3e
       -0.1270713 0.050579377 -0.038285885 0.18714984
000200 a1 c4 9d 3c 78 be b0 bc 52 40 d2 3d c7 32 b5 bd
       0.019258799 -0.021575198 0.102661744 -0.08847576
000210 fb 10 1a 3c 3a 9d 82 bd 67 df a1 bd 7a 6d 8a 3d
       0.0094034625 -0.06377645 -0.07903939 0.06759162
000220 a6 9b bd bd 8b 95 8b 3d d0 40 a4 bd 32 7b 04 3c
       -0.09258203 0.068156324 -0.080201745 0.008086013
000230 e7 4a cc bc ba 28 22 be 54 42 2b be db 27 92 bc
       -0.02493806 -0.15835848 -0.16724521 -0.01784127
000240 60 09 f8 bb 04 6c 89 bc 03 92 09 3c 59 23 f0 3d
       -0.007569477 -0.016775139 0.008396628 0.11725492
000250 8d 77 ae 3d 20 c0 91 bd e8 51 7b 3c 47 5f 73 bd
       0.08518896 -0.07116723 0.015339352 -0.059417035
000260 0c a9 9b bd 26 8b 41 be 60 39 0a 3d a1 e9 00 be
       -0.076006025 -0.18900737 0.033746123 -0.12589122
000270 ac 55 06 3a 8a 3e 92 3d 3a b1 d1 bb f7 94 6e 3c
       0.00051244604 0.07140835 -0.006399301 0.014561883
000280 98 e4 d0 3c e9 83 df bb 09 4c 25 3d 59 9d 28 be
       0.025499627 -0.006821145 0.040355716 -0.16466273
000290 e4 46 ed 3d 7d 64 38 bd 0b 2d 80 3d 8f c4 38 3d
       0.11585787 -0.045017708 0.06258591 0.045109328
0002a0 f4 41 08 be 62 01 f9 bb 27 3c b7 bd fb 96 da 3c
       -0.13306409 -0.007599042 -0.0894702 0.026683321
0002b0 7c 4b b0 3b ef ab 3f bd ad 32 b7 bd a4 c7 33 bd
       0.005380092 -0.046794828 -0.089452125 -0.043891564
0002c0 88 49 86 3b 7f 1b 59 3d ab 17 12 bd 3a 27 86 bd
       0.004098121 0.053004738 -0.035667103 -0.065504506
0002d0 af f0 c4 3d 07 e3 b7 3d 88 74 0f be 18 b5 a2 3d
       0.09616219 0.08978849 -0.14009297 0.07944697
0002e0 a6 33 50 3c 98 15 0d bd a0 40 d4 bd 39 72 0b 3e
       0.012707626 -0.03444442 -0.10363889 0.13617791
0002f0 83 74 81 3d 88 14 88 bc c2 6f 24 be 05 de 41 bd
       0.06321051 -0.016611353 -0.16058257 -0.047330875
000300 60 b3 11 3e 4a 42 44 bd 0d e1 6f 3d 59 3a 14 bd
       0.14228582 -0.04791478 0.058564235 -0.036188457
000310 d1 ed 07 be 83 97 27 3d db 9e bc b8 7a 8b 0d 3e
       -0.13274314 0.040915977 -8.994128e-05 0.13822737
000320 23 d3 f5 3b 75 a0 d7 bd 32 21 d1 bc f9 ca a8 bd
       0.007501976 -0.105286516 -0.025528524 -0.08241839
000330 ec e2 ce bd 17 bb aa 3d cd 85 b2 3d 95 1f 29 3e
       -0.10101876 0.08336466 0.08716927 0.16515954
000340 51 1b 45 3b 47 2d 8e 3d a5 b2 e2 3c bf 0c bf bc
       0.0030076096 0.0694223 0.027673075 -0.023321507
000350 dc 94 05 be 36 3f 7d 3c c4 3c 36 bd dd 0e 94 3d
       -0.13045067 0.015456965 -0.044491544 0.072293974
000360 b1 37 8e bd 1b 8f 1c bd 0f d7 96 3d 02 f5 83 be
       -0.06944216 -0.038222414 0.07365238 -0.25772864
000370 72 36 c5 3d c4 c9 1d 3e b7 e5 44 3d 0f 84 4b 3d
       0.09629525 0.15408999 0.048070636 0.049686488
000380 45 3f a9 bc 84 3b 50 bc a1 05 ef bd 01 c7 2a 3e
       -0.020660052 -0.012709502 -0.116709955 0.16677476
000390 16 b9 2f 3d b1 50 1d 3d e3 80 1a 3e e4 b5 b3 bc
       0.04290112 0.03840703 0.15088229 -0.021937318
0003a0 db 12 84 3a a6 3c ff bc 3a d5 a0 bb 34 26 1d 3d
       0.001007642 -0.03115685 -0.004908231 0.03836651
0003b0 52 e2 14 3e cd b6 c3 3c 17 65 fb bc 83 5e fd 3d
       0.1453946 0.023890877 -0.030687852 0.12371542
0003c0 fa 7f 4c bd 8e b1 32 bd d1 06 0e 3d b3 82 4d 3d
       -0.049926735 -0.04362636 0.03467447 0.050173473
0003d0 80 95 ce bc ea 93 3d be f2 70 ea 3d 1d 4f 66 bc
       -0.025217772 -0.18513456 0.11447324 -0.014056948
0003e0 04 ad 10 be 1c 10 74 bd d5 f7 0f bd ed 91 03 bd
       -0.141285 -0.059585676 -0.03514846 -0.032121588
0003f0 65 5e 17 3d aa 1a 69 3d 1c 48 69 bc 51 c3 5c bd
       0.036955256 0.056910194 -0.014238384 -0.053897206

action_model._discrete_distribution.branches.0.weight f4 [3, 128]
000000 a1 30 bf 3a 4c 6b 92 3b 0f b3 e9 3a b3 20 70 3b
       0.0014586636 0.004468357 0.0017829853 0.0036640584
000010 9f 7f 91 ba 06 a6 c3 bb a6 71 23 bc e3 f7 fc bb
       -0.0011100656 -0.0059707193 -0.009975826 -0.00771998
000020 cb cb de bb cb 13 ca 3b 93 81 15 bc 13 cc a5 bb
       -0.0067991964 0.0061669103 -0.009125131 -0.005059728
000030 d3 97 fb bb f8 5e 0f ba f3 05 5a bc db 97 25 bc
       -0.007678011 -0.00054691685 -0.0133070825 -0.010107006
000040 c1 1c 35 bb bf 74 21 3c 2f 07 0d 3b 52 36 95 bb
       -0.0027635547 0.009854495 0.0021519174 -0.0045535946
000050 bd e9 46 bc ff 71 ad 3a 48 57 69 3a 65 eb 6e 3b
       -0.0121406885 0.0013232826 0.00089012505 0.0036456224
000060 8f 55 99 bb be 0a 92 3c ed fd a1 3c 97 69 78 bc
       -0.004679389 0.017827388 0.019774402 -0.015161893
000070 10 4d 7b bb d6 9d 0e bc 01 24 b7 bb 07 fd fa bb
       -0.0038345493 -0.008704623 -0.005589009 -0.0076595577
000080 80 3d 21 bc 4b d7 54 bc cc e6 29 3c aa 61 42 3c
       -0.009841323 -0.012990783 0.010369968 0.011864105
000090 37 61 ee bb e0 57 0d bc 13 50 a8 bb 53 8d 29 3b
       -0.0072747725 -0.008626908 -0.0051364987 0.002587159
0000a0 98 6a 37 39 eb af 01 bc 0d c9 52 bc 12 33 42 3b
       0.00017491949 -0.007915477 -0.012865317 0.002963249
0000b0 40 5a b2 bb af 87 7e 3c 71 6c 3e bb 67 a2 3a 3c
       -0.0054428875 0.015535279 -0.0029056335 0.011391259
0000c0 53 67 40 bc 13 a7 16 3c b1 ad 07 3c bb 66 0e 39
       -0.011743384 0.009195107 0.008281157 0.00013580445
0000d0 c5 41 67 bc d6 1f 9c ba 74 11 22 3c 0e 47 81 3b
       -0.014114802 -0.0011911343 0.009891856 0.003945238
0000e0 e7 f6 0a ba 03 9c 18 3c 43 4d 21 bc e7 a5 9f bb
       -0.00053010735 0.00931454 -0.009845081 -0.004872072
0000f0 03 0d 9d 3b 9a a7 64 bc 02 f4 6c bc 3a a3 d6 3b
       0.004792811 -0.013955975 -0.014462473 0.00655022
000100 68 13 c8 3b 01 c0 a4 ba 03 40 e0 ba e6 c8 2a bc
       0.006105829 -0.0012569429 -0.0017108921 -0.0104238745
000110 18 70 ed 3b 2f 45 67 bb 36 17 a7 3c af 05 7f b9
       0.0072460286 -0.003528904 0.02039681 -0.00024320812
000120 b6 4b 8d 3c f3 01 26 bb b3 01 5d ba 7b a7 65 bb
       0.017248016 -0.0025330752 -0.0008430734 -0.0035042453
000130 a0 2e 76 bb 24 61 14 3b 9f 59 5a 3b 7b d5 c9 3a
       -0.0037564412 0.0022640908 0.0033317578 0.0015398705
000140 ab 92 8c 3b b8 24 8c bc 53 07 a5 bb b4 fd 3c 3c
       0.004289945 -0.017107353 -0.0050362735 0.011535097
000150 ca 90 04 39 87 67 90 39 0f 18 a3 3c b7 e8 16 3c
       0.00012642439 0.00027542954 0.019908933 0.009210757
000160 67 6b af bb a4 a0 15 bc f3 e7 39 3c 68 ff 8e 3c
       -0.0053533795 -0.009132538 0.011346805 0.017455772
000170 d2 9a 03 3b eb b6 aa ba 9f 30 c3 3a c3 23 65 3b
       0.0020081294 -0.0013024485 0.001489181 0.0034963943
000180 43 79 1a 3b e3 7c 41 3c 53 f5 a0 bb 40 45 9d bb
       0.0023570813 0.0118095605 -0.0049120574 -0.004799515
000190 f0 52 26 3c 1f 17 ac ba 60 d0 64 bb 44 21 c4 bb
       0.01015161 -0.0013129449 -0.003491424 -0.005985411
0001a0 ef d6 6b bc 00 00 5d 3b c8 3f 8e 3b f8 9f 54 3a
       -0.014394506 0.0033721924 0.0043410994 0.00081109954
0001b0 9b 66 12 3c 03 1a a1 3b 1c aa c1 3b c2 52 69 bc
       0.008935596 0.004916431 0.005910171 -0.014240922
0001c0 0b a7 85 ba 6f cf 1d bb 98 d4 42 bb 16 a0 4a 3c
       -0.0010196877 -0.002407994 -0.0029728767 0.012367269
0001d0 d2 3c aa ba 85 d4 7f 3c df d8 02 bc 18 5d 8c 3a
       -0.0012988097 0.015614633 -0.007986276 0.0010708896
0001e0 33 1c 6b 3b ba 36 f8 ba 1a 6e f7 bb 55 ae 64 3b
       0.0035874962 -0.0018937208 -0.007550967 0.003489395
0001f0 7b a2 9c 3b 58 9f 36 3c 34 ea c4 3a b4 58 89 3b
       0.0047801114 0.011146389 0.0015023411 0.0041914824
000200 bd 18 26 bc 3d 15 4f 3b a2 39 6a bb 28 bb 7a 3a
       -0.010137734 0.0031598352 -0.0035739918 0.00095646316
000210 f3 d6 b3 37 7d 93 c5 39 0a a0 6b bb d7 f2 8b ba
       2.1438556e-05 0.00037684655 -0.0035953545 -0.001067723
000220 91 fa ae 3b 0b fc b1 3b 01 5e 09 3c 03 10 0c bc
       0.0053399284 0.005431657 0.008384229 -0.008548739
000230 9b 0b 64 3c 33 17 b0 3a 6b e3 56 bb e7 fb 92 bb
       0.013918783 0.0013434648 -0.003278936 -0.0044855955
000240 9e 56 87 3c b2 8a cb bb ee e6 05 3b 5a 2d a2 3b
       0.016520794 -0.006211602 0.0020431834 0.004949254
000250 0b 4f ed bb ba c0 4e 3b c8 72 fa bb 91 3f 49 bb
       -0.0072420887 0.003154798 -0.0076430775 -0.0030708055
000260 c7 ba 88 3b 7f 3a 23 3c 89 7b 15 3c 12 c7 fe 3b
       0.004172656 0.009962677 0.009123691 0.007775196
000270 fd dd dd 3b 7f b1 1a 3c 49 9e 1c bc ed 10 4b bb
       0.006770848 0.009441732 -0.0095592225 -0.003098543
000280 0b 94 64 bb 33 4c 33 bb 93 52 21 3b b5 bb 1d 3c
       -0.003487828 -0.002735865 0.0024615868 0.009627272
000290 17 4e ca 3b 3b f7 29 3b b5 34 15 3b 5c ef 83 bb
       0.00617386 0.0025934714 0.0022767012 -0.0040263366
0002a0 af d6 08 bb ff 42 eb 3b 17 a8 27 3c 04 24 2c bb
       -0.0020879915 0.0071796174 0.010232947 -0.0026266584
0002b0 98 12 e3 3b 7d e3 a5 bb db 6e ee 3b 28 86 3d bc
       0.006929707 -0.005062519 0.0072763986 -0.01156763
0002c0 74 ce 98 3c bc 0d 97 bb 04 39 20 bc 17 7c 16 bb
       0.018653132 -0.0046097916 -0.009779219 -0.0022962147
0002d0 81 7f 18 bc 3d 4a 3e 3b c9 cb 3e ba 97 75 02 3c
       -0.009307743 0.0029035949 -0.0007278291 0.007962606
0002e0 6a 2d 3b bb 83 fd f8 bb 20 52 8d 3c 0a cc e0 3c
       -0.0028561004 -0.0075985803 0.017251074 0.027441043
0002f0 c3 93 09 3b 27 34 dc bb e4 6a 83 bc 16 0d b2 3a
       0.0020992614 -0.006720084 -0.01604218 0.0013584222
000300 c9 c1 43 bb 59 c0 34 3c ef f7 77 3b 61 9a 14 bc
       -0.0029870144 0.011032187 0.003783699 -0.00907001
000310 3b 59 31 bb d2 b3 82 3c c8 41 7d 3c 97 c0 41 3a
       -0.0027061242 0.015954886 0.015457578 0.0007391064
000320 6d 37 48 3b b6 33 08 bc f9 a3 05 bc 9b 04 3c 3c
       0.0030550614 -0.00831311 -0.00815677 0.011475707
000330 72 e2 f1 3b 5a b7 54 3b 3d 7a 32 bb a6 f1 47 3a
       0.0073817307 0.003245792 -0.0027233504 0.0007627256
000340 91 fd 84 ba 8e 35 40 bc bb 29 16 bb 9e 0c 00 bc
       -0.001014637 -0.011731518 -0.0022913057 -0.007815508
000350 70 0b 4d bb b3 b2 43 bc ca 44 73 3b aa 95 0d 3a
       -0.0031287335 -0.011944461 0.003711986 0.0005401025
000360 ee 66 84 bc 0a c4 8e bb be 8f c1 3b 77 b7 d6 3b
       -0.016162362 -0.004356866 0.005907028 0.0065526324
000370 27 a2 09 bc 77 e4 ad b8 92 36 5a 3c da 55 b6 3b
       -0.008400477 -8.291838e-05 0.013318675 0.0055644335
000380 93 be ba 3c a2 eb 1c bc df 54 3c bc f9 2c 3b ba
       0.022795951 -0.009577664 -0.011494844 -0.00071401853
000390 53 79 f9 3b 9f 7f 27 3c e7 df 20 bc 3a 85 6f bc
       0.00761334 0.010223298 -0.0098190075 -0.014619166
0003a0 4b 87 97 ba 32 26 e3 3b 25 f5 2a bc ef 3e 92 bb
       -0.0011560706 0.0069320435 -0.010434424 -0.0044630687
0003b0 bf 5f 44 bc 2f 85 b5 3b 49 85 99 bb 02 98 10 3c
       -0.011985718 0.0055395584 -0.0046850783 0.008825304
0003c0 c0 a2 5a bc 55 99 f8 bb 2f 73 cc 3b bd 88 fb bb
       -0.013344467 -0.007586638 0.006239317 -0.0076762126
0003d0 30 51 b0 bb 9c d3 3a bc 7f 57 73 bc 04 d1 a1 3a
       -0.005380772 -0.011402991 -0.014852404 0.0012345617
0003e0 af 00 61 3c 3b b0 4c bc 4b 42 de b9 0f 5e 2c bc
       0.013733073 -0.0124931885 -0.00042392532 -0.010520472
0003f0 b0 95 32 ba e2 c1 f9 3a 60 67 c3 3a 0d 64 88 bb
       -0.00068124663 0.0019054974 0.0014908127 -0.0041623176

action_model._discrete_distribution.branches.0.bias f4 [3]
000000 00 00 00 00 00 00 00 00 00 00 00 00
       0.0 0.0 0.0

action_model._discrete_distribution.branches.1.weight f4 [3, 128]
000000 a8 3d 4d 3b 82 5c c9 3b 07 a7 0e 3c 28 72 e3 bb
       0.0031317268 0.006145061 0.008706815 -0.0069410987
000010 f7 f0 4e bc 77 10 2e bc 6d c5 5c 3b 3f dc 48 3b
       -0.012630693 -0.010624043 0.003368701 0.0030648855
000020 c3 99 7b 3c 2a f5 8d 3b e2 9f 67 3b d3 66 13 3c
       0.015356484 0.0043322043 0.00353431 0.008996683
000030 5b f0 53 bc 32 18 91 3c 83 3d c1 bb c4 0e 85 3c
       -0.012935723 0.017711733 -0.0058972253 0.016242392
000040 7f 20 cb 3b 90 1f 3f bc 14 6b ae 3b a3 c7 1f 3b
       0.006198942 -0.01166524 0.0053228233 0.0024380467
000050 fe d1 16 bc f3 d2 8a bb 8b e9 19 3c ec d8 a1 3c
       -0.0092053395 -0.004236573 0.00939406 0.019756757
000060 ec 2e 22 ba 2a 60 d0 3c a2 19 21 3c b6 a4 16 3c
       -0.00061868015 0.02543648 0.0098327715 0.009194544
000070 a0 55 d8 3b 17 2a 61 bc bb 4e fa 3b 52 4f 69 bb
       0.006602004 -0.013742945 0.00763878 -0.0035600257
000080 de 51 19 bc 22 4b 29 bb 1f 1f b4 3b 43 37 ea 3a
       -0.009357898 -0.0025832136 0.005496874 0.0017869252
000090 76 3b bf ba 50 07 5e 3c 72 72 9c ba 1d af e2 ba
       -0.0014589864 0.013551548 -0.0011935963 -0.001729462
0000a0 3d fb 0a 3b e3 72 a4 3b 13 64 0c bb 4c 9c c6 bb
       0.0021206879 0.0050185784 -0.0021421954 -0.0060611125
0000b0 cb 08 c5 bb 27 55 8f bc 6f 68 2e ba 42 a1 a5 3b
       -0.006013011 -0.017496658 -0.0006653135 0.005054624
0000c0 18 be 0d bc e2 48 ad 3b f7 be f2 3b 7a 55 58 3a
       -0.008651279 0.0052882293 0.0074080187 0.0008252483
0000d0 32 fc 71 3c 9c 16 15 bc bb 1b b0 3b d2 87 ef ba
       0.014769601 -0.009099629 0.0053743995 -0.001827473
0000e0 2d 5c 86 3a a2 4e 98 ba f9 52 1c bc cb f6 bd 3b
       0.0010250859 -0.0011620114 -0.009541267 0.0057972423
0000f0 a3 3f 27 3a 3e 71 83 bc a3 7d 78 3b 2c 9f 26 3c
       0.0006380027 -0.016045209 0.0037916682 0.0101697855
000100 87 53 6b bb 0a ad e4 bb 20 3d d7 bb 1d 37 2e 3b
       -0.003590794 -0.0069786357 -0.006568566 0.0026583143
000110 ca 7c fc b9 b9 24 a5 3b 4b 76 12 bb c7 47 26 bc
       -0.0004815816 0.005039778 -0.002234834 -0.010148949
000120 98 5e d5 3b 3e 1d c7 ba d9 52 0d ba 7b 23 98 3c
       0.0065115206 -0.001519121 -0.00053910684 0.018571606
000130 3d 71 a5 ba aa 71 7b bc f2 dc 5d 3c 00 07 60 3c
       -0.0012622249 -0.015346924 0.013541447 0.013673544
000140 14 83 2b 3c a2 ec 1e 3c 87 73 92 ba f3 58 ad bc
       0.010468263 0.009699972 -0.0011173346 -0.021160578
000150 e3 b6 f9 3b 20 eb 3d 3c 6a 73 e5 ba 03 77 67 3b
       0.0076206787 0.011591703 -0.001750571 0.003531874
000160 ad 4f da 38 f1 59 93 3a 65 69 26 bc 80 36 a6 bb
       0.00010409891 0.0011242015 -0.010156964 -0.005072415
000170 63 00 0a bc 46 4a 41 bc 75 24 05 3c d5 ce 5e 39
       -0.008422944 -0.011797493 0.008126368 0.00021248621
000180 aa 22 5b bc 92 d5 e6 3a 87 a2 8c bc 92 21 20 bb
       -0.013374964 0.0017611256 -0.017167343 -0.0024434072
000190 a7 a1 35 3a a8 0e 46 bb 88 88 e3 bb 4f 28 d1 bb
       0.000692869 -0.0030221138 -0.006943766 -0.006382979
0001a0 09 9a 89 bc db 1a 52 ba 6d e3 89 3b 7f 80 80 3c
       -0.016797082 -0.0008014866 0.0042080195 0.015686272
0001b0 4b 7f 46 3c 6c bb aa 3b 2a b2 00 bc 7d 27 04 3b
       0.01211531 0.0052103307 -0.007854978 0.0020165138
0001c0 bb ee 45 bc bf 2d 27 3c d3 16 4b bc 3b e7 43 3c
       -0.012080844 0.010203778 -0.012395578 0.011956985
0001d0 86 71 ad 3a 80 22 ac bb 5b 3a 4f 36 ca 06 e2 3b
       0.0013232685 -0.005253136 3.087937e-06 0.006897782
0001e0 b0 c4 ef ba 01 79 99 bb 87 f9 8e 3b e8 94 ec bb
       -0.001829287 -0.0046836142 0.004363242 -0.0072198994
0001f0 9a a0 ac 3a 63 56 d7 bc fb 8e 41 3c 00 ba 65 bb
       0.0013170422 -0.02628631 0.011813874 -0.0035053492
000200 b3 e4 b0 ba 3a e2 a9 bb 00 3c 86 bc 6d 41 68 3b
       -0.0013495892 -0.005184439 -0.016386032 0.0035439387
000210 5f 3c 88 bb 3c 6c 3c ba ce 03 1c 3b 71 6d c7 bb
       -0.0041575874 -0.0007187759 0.0023805979 -0.0060860445
000220 ae 3f 36 ba 5f 80 fe bb d8 70 81 bc 8d 13 56 3b
       -0.0006952238 -0.007766768 -0.015800878 0.0032665462
000230 40 51 31 3c 29 7a 43 3c a6 c9 2c bc 72 e5 49 bc
       0.010822594 0.011930981 -0.010546124 -0.01232277
000240 28 0d 43 bc 1b f0 b0 3c 46 6d 41 bc a4 82 c1 3c
       -0.011904992 0.021598866 -0.011805838 0.023621865
000250 57 4a 87 bb 48 f0 4b bb e2 cd 2b 3c bf 0c 4e 3c
       -0.004128735 -0.003111856 0.010486098 0.012576281
000260 4b 0a 2f bc e8 f4 6e ba a8 bf 61 3c 71 63 97 ba
       -0.010683606 -0.00091154734 0.013778605 -0.0011550022
000270 af 4d 35 bb 90 29 26 bb 88 5f 2c 3c a3 91 02 b9
       -0.0027664711 -0.0025354363 0.010520823 -0.0001245202
000280 22 eb f1 3b a8 5e c8 3a 37 34 49 3c ec 9e 0c 3c
       0.0073827663 0.0015286999 0.012280515 0.008582812
000290 d4 48 87 3b d8 98 4a 3b e7 ae 00 bc ef fe 77 3c
       0.004128555 0.0030913856 -0.0078542 0.0151364645
0002a0 9d 09 be bb 67 e6 bd ba bb e6 18 bc ef f6 34 bc
       -0.005799486 -0.0014488221 -0.009332354 -0.011045202
0002b0 5a 3c 83 bc ed e8 9b bb 87 1a d3 bb a5 7a 5e 3b
       -0.016019989 -0.0047579915 -0.0064423713 0.0033947614
0002c0 9b c4 58 bc 07 7e 2f 3c e2 4e 2c bc 42 aa 3c bb
       -0.013230468 0.0107112 -0.010516854 -0.0028788005
0002d0 b3 3f b2 bb ec ba 18 bc b0 84 ca bb 25 49 3d 3c
       -0.0054397224 -0.009321909 -0.0061803684 0.011553084
0002e0 c4 a5 43 bc c7 b1 3b bb 4a 00 26 bc f1 1c 12 3c
       -0.011941377 -0.00286399 -0.010131905 0.008918033
0002f0 b0 7a 30 bc f0 c8 ed 39 f0 64 ee 3b 3f fe 91 bb
       -0.0107714385 0.00045353873 0.0072752163 -0.0044553573
000300 4b be 23 bc 63 48 1e 3c 03 5c eb ba 92 64 d8 ba
       -0.0099941 0.009660813 -0.0017956499 -0.0016509464
000310 c3 69 10 bb a3 50 2c 3c 02 ec 2f bb c0 47 7c bb
       -0.0022035695 0.010517272 -0.0026843552 -0.0038494915
000320 54 a9 90 3c 5f 71 93 3b 47 1d 91 3c 6b dd 50 bc
       0.017658867 0.004499599 0.017714156 -0.012748103
000330 88 65 07 bc 92 e1 65 bc 42 99 ab 3c 6b a7 ae 3b
       -0.008263953 -0.014030831 0.020947102 0.0053300164
000340 3b 14 20 bc 5a 55 54 bc b2 bf c6 3b cf 3f a6 3b
       -0.009770448 -0.0129598025 0.0060653323 0.0050735245
000350 f9 62 a4 3b 38 1a de bb 0c 9b 88 3b a5 24 98 bb
       0.0050166813 -0.006778028 0.0041688737 -0.0046430402
000360 cf 2b c2 bb b1 1e 88 3c d9 49 10 bc 41 23 80 3b
       -0.0059256325 0.016616197 -0.008806669 0.0039104526
000370 5a 94 78 3c 90 08 a7 3b 5e 62 a3 bb 3f 96 99 bb
       0.0151720885 0.0050974563 -0.0049860915 -0.0046871
000380 c2 df 6b 3c 34 20 8e bb 56 8a a0 3a f9 d8 40 3c
       0.01439661 -0.004337335 0.0012248259 0.01177048
000390 f7 83 34 bb dd f3 bc 3a 4f 83 07 3c a5 00 6f 3c
       -0.0027544477 0.0014415939 0.0082710525 0.014587556
0003a0 6a 67 c2 3a 17 22 aa 3b 67 e2 5e 39 a7 16 3a 3b
       0.0014831845 0.005192052 0.00021255911 0.002839485
0003b0 ee 38 c3 bb 8a ff 6e 3b 13 41 e7 ba c8 47 2e bb
       -0.0059577143 0.003646823 -0.0017643295 -0.0026593078
0003c0 5b 22 42 bc 8f 20 ff 3b c6 cb 9d 3b cb d7 e4 3b
       -0.011849011 0.0077858637 0.0048155515 0.0069837323
0003d0 52 db e1 3a 7a f6 ed bb 07 4d e4 ba 61 50 83 3b
       0.00172315 -0.0072620483 -0.0017417975 0.0040073846
0003e0 bb e3 c6 bc 47 d9 77 bb a0 74 6f 3c 5d 00 8a bc
       -0.024278512 -0.0037818716 0.014615208 -0.016845876
0003f0 f5 f6 9a bc e3 6b 82 3a 75 ce 91 3b db 43 07 bb
       -0.018916586 0.0009950366 0.0044496604 -0.002063981
