MLBase/results/ppo/CloseToTargetBehaviour/CloseToTargetBehaviour-120.onnx (onnx, 79519 bytes, 7 tensors)

discrete_act_size_vector f4 [1, 2]
00000000: 0000 4040 0000 4040
3.0 3.0

network_body._body_endoder.seq_layers.0.weight f4 [128, 6]
00000000: 8042 35bf 5d45 09bf 5d87 873f dc20 0f3e
00000010: 2cec 97bd 9eb3 5abe ff6e 4ebe 6998 913e
00000020: a834 c9be 36c6 c8be 339e b3bc 8fe1 3b3e
00000030: d775 0dbe 0510 76bb 15e0 a8be 3d97 61bc
00000040: d802 fe3d 01cc 04bf baa9 9f3e 1a16 1bbf
00000050: af42 bb3e abd5 9abe 4c2b f73b a2b0 1f3f
00000060: 44c7 bc3e fca1 d9bd 04ad 113f 5538 d9be
00000070: e3e1 f9bb 62d2 eb3e 2ffa eabb 06bb f3be
00000080: b423 5dbf 9f0a a63e 487e 70bf b23a 5ebe
00000090: beff f1be e61b 823e 4bbe 1bbf becc 0bbf
000000a0: 6f67 193e 8913 49be 235c 97be c373 fe3c
000000b0: 7c7b b2be a761 023d 2ef2 7d3e 7b70 b93e
000000c0: 9d0c 9cbd ed7b 90bd 7bf9 9bbd 6746 d23d
000000d0: 9ed5 5abf 9ea4 19bf 93a2 1cbd 1c96 433e
000000e0: 172a 08be 164a 9e3e 975d e2bd 11ec ae3e
000000f0: a727 b33e 706f acbe 24e1 a0be 7c51 9bbd
00000100: 3ac2 293e 5d54 24bf df7d da3e 8dd9 acbe
00000110: 8de5 f4be 55b9 153e 2eef b03b ac6b 303f
00000120: e4ea 7abd ba3c eebe 72d0 65be 5151 ccbe
00000130: 6798 3fbe e056 903d bc81 203e 58e2 aa3e
00000140: a6cb 84be f5bc 993f ae3b 7b3e f8c4 d8be
00000150: 060b 3e3c 8ba2 a73e aaa5 19bf a0c2 cc3c
00000160: a718 213e 64a4 0fbf d422 143e 24e7 1c3f
00000170: 42ae ffbe dca4 24bf 948f c8be 04bc 0ebf
00000180: 2da1 a93d 3ca1 a2be e59b f63e 00fb a03d
00000190: 36bc ecbe 7ecc b7be 16d9 543f a5ad 9c3e
000001a0: b2ee c2be 6a53 613f cd3a 30be ef67 5e3f
000001b0: 6f79 af3d f77f 69be ffb6 3c3f 12c2 7d3f
000001c0: 4333 bd3e f6e7 59bf 2eac 43be 2ca1 fc3e
000001d0: 8948 f63d 6138 013f 530e 8f3f 80d9 1dbd
000001e0: 2fda 34bf 8541 9d3e 24da 6fbe 56c4 283e
000001f0: 6e92 2a3f ddd4 02bd 6287 fe3e edc9 4dbe
00000200: 008f 573c 59f3 b9be c170 4abf 30a1 18be
00000210: 1305 4e3e 24a9 ae3c 3580 16be e543 39bf
00000220: bf1a e63e 31c4 0bbf 85c4 b33e 855c 153f
00000230: d847 793e e67c ba3e 3947 a13b dc07 c9be
00000240: 70ac 653e fb65 003f 7197 783e 1814 9cbc
00000250: f52f 5b3f 7d2f 25bf 5fba 173e d168 96be
00000260: ce90 f3bc fe0a 09bf fdd6 8bbe 6c51 1c3f
00000270: 1c10 53bf 635d 37bf d8d8 4fbd 6567 bebe
00000280: 6435 08be 8709 a13e 8669 dcbc d24d c23d
00000290: b98c 20be 3781 253f 2efb bc3e f273 d03e
000002a0: 7770 0fbe f0d3 d23d b4ab ea3d 77d0 fabe
000002b0: acc3 023c db94 9abe 19da 60be ff56 26bf
000002c0: 219b 08be 6d6e 393f af95 d1be 158e 88bc
000002d0: a96c 3d3f c01f 313e 7634 9fbe d5b2 86be
000002e0: a9a9 4abf 8167 2e3e bd58 fd3c b7c0 8bbe
000002f0: ec9d 2ebf 33a3 22bd 056b 623e 4c4b 873e
00000300: 38a5 5b3e 90a3 fa3d 51a1 743d ec7c 7ebe
00000310: 56d8 e53c 8e7c a7bd 31f2 25bd f32c 4a3e
00000320: 60ed abbd 0688 24bf ac06 413e 66f8 413e
00000330: f1fb 763e 2f3a ae3e e91b 983e 8e53 04bf
00000340: fdf2 7abe 8d34 16bf 2747 1abf 5265 903e
00000350: 3fd7 4bbe b02c cb3e 48d5 9fbe d9eb b63d
00000360: 838c bc3e 7740 82be 8e93 293d c171 9d3d
00000370: 6a1d 16be b377 993d 98ef 273e c4df 923d
00000380: 3d61 133e 8d79 d6be ce23 cd3c 8b31 423e
00000390: f375 a03e c9b1 8fbd ff32 77bd b6f7 58bc
000003a0: f527 00be f48b bcbe 1697 5c3f 99d1 94be
000003b0: e8a3 be3e f841 75be a0c7 a6bb 59f9 afbd
000003c0: 6351 90be 4398 37be 590c 87be 5198 2abf
000003d0: 2748 7f3e 3795 6dbf 5434 c13d 625c cfbe
000003e0: 82c1 b83a 0689 343e 3963 003e 7701 c5be
000003f0: 2000 14bf 655a e2be 67dc 96bf d4f1 cbbe
-0.70804596 -0.53621465 1.0588185 0.13977379 -0.07418093 -0.21357581 -0.20159529 0.28436592
-0.39297986 -0.39213723 -0.021926021 0.18347763 -0.13814484 -0.003754617 -0.3298346 -0.013768968
0.12402886 -0.51873785 0.3118418 -0.605806 0.36574313 -0.3024114 0.007543003 0.62378895
0.36870778 -0.10626599 0.56904626 -0.4242579 -0.0076258047 0.46058947 -0.0071709375 -0.47603625
-0.86382604 0.32429978 -0.9394269 -0.21702078 -0.47265428 0.2541191 -0.6083724 -0.54609287
0.14980863 -0.19636358 -0.29562482 0.031061059 -0.34859836 0.03183141 0.24799415 0.36218628
-0.07619593 -0.07054887 -0.07615944 0.102673344 -0.85482204 -0.6001681 -0.03824098 0.19100231
-0.13297306 0.30915898 -0.11053007 0.3416448 0.3499119 -0.3367877 -0.3142177 -0.07583901
0.16577998 -0.6419123 0.42674157 -0.33759728 -0.47831383 0.1462148 0.005399606 0.68914294
-0.061259165 -0.46530706 -0.22442797 -0.3990579 -0.1871048 0.0704782 0.1567449 0.33375812
-0.2593662 1.201079 0.24534485 -0.42337775 0.011599308 0.32741198 -0.6001841 0.024995148
0.1573206 -0.56110215 0.14466411 0.6129019 -0.49937636 -0.64314055 -0.3917204 -0.5575564
0.08282695 -0.31763637 0.48165813 0.078603745 -0.46237344 -0.35898203 0.83143747 0.3060123
-0.38072735 0.88017905 -0.1720993 0.8687734 0.085680835 -0.22802721 0.7371673 0.9912425
0.36953172 -0.8511957 -0.1910865 0.49341714 0.12025554 0.5047665 1.1176246 -0.038537502
-0.7064542 0.3071405 -0.23423058 0.16481146 0.66629684 -0.031941283 0.49712664 -0.2009656
0.013156652 -0.36318472 -0.790783 -0.14905238 0.20119123 0.021320887 -0.14697345 -0.72369224
0.4494228 -0.5459624 0.3511087 0.583443 0.24343812 0.36423415 0.0049218205 -0.3926381
0.22429061 0.5015561 0.2427652 -0.01905255 0.8562005 -0.64525586 0.14817189 -0.29376844
-0.029732134 -0.535324 -0.2731246 0.6106174 -0.82446456 -0.7162687 -0.050743908 -0.3718826
-0.13301617 0.3145258 -0.026905786 0.09487499 -0.15678681 0.6465029 0.36910385 0.4071346
-0.14007746 0.1029433 0.11458531 -0.4898717 0.007981222 -0.30191693 -0.21958198 -0.64976496
-0.13340427 0.7243412 -0.40934512 -0.016669312 0.7399393 0.17297268 -0.31094712 -0.26308313
-0.7916513 0.17031671 0.030926103 -0.27295467 -0.6820972 -0.03970642 0.22111137 0.26424634
0.21449745 0.12238228 0.059724156 -0.24852341 0.028057259 -0.08178054 -0.040514175 0.1974371
-0.08394885 -0.64270055 0.18850201 0.18942413 0.24119546 0.34028766 0.29708794 -0.51689994
-0.24506755 -0.58673936 -0.6026482 0.282023 -0.19906329 0.3968253 -0.31217408 0.08931703
0.36825952 -0.25439808 0.041400485 0.076877125 -0.14659658 0.07493534 0.16399992 0.07171586
0.14392562 -0.4188961 0.025041487 0.18964212 0.31339988 -0.07016332 -0.060351368 -0.013242653
-0.12515242 -0.36825526 0.8616804 -0.2906616 0.37234426 -0.23950946 -0.005089715 -0.08592481
-0.28187093 -0.17929177 -0.26376608 -0.66638666 0.24929868 -0.9280581 0.09433809 -0.4050017
0.0014095756 0.17630395 0.1253785 -0.3847768 -0.5781269 -0.4420959 -1.1786011 -0.39832938

network_body._body_endoder.seq_layers.0.bias f4 [128]
00000000: 0000 0000 0000 0000 0000 0000 0000 0000
00000010: 0000 0000 0000 0000 0000 0000 0000 0000
00000020: 0000 0000 0000 0000 0000 0000 0000 0000
00000030: 0000 0000 0000 0000 0000 0000 0000 0000
00000040: 0000 0000 0000 0000 0000 0000 0000 0000
00000050: 0000 0000 0000 0000 0000 0000 0000 0000
00000060: 0000 0000 0000 0000 0000 0000 0000 0000
00000070: 0000 0000 0000 0000 0000 0000 0000 0000
00000080: 0000 0000 0000 0000 0000 0000 0000 0000
00000090: 0000 0000 0000 0000 0000 0000 0000 0000
000000a0: 0000 0000 0000 0000 0000 0000 0000 0000
000000b0: 0000 0000 0000 0000 0000 0000 0000 0000
000000c0: 0000 0000 0000 0000 0000 0000 0000 0000
000000d0: 0000 0000 0000 0000 0000 0000 0000 0000
000000e0: 0000 0000 0000 0000 0000 0000 0000 0000
000000f0: 0000 0000 0000 0000 0000 0000 0000 0000
00000100: 0000 0000 0000 0000 0000 0000 0000 0000
00000110: 0000 0000 0000 0000 0000 0000 0000 0000
00000120: 0000 0000 0000 0000 0000 0000 0000 0000
00000130: 0000 0000 0000 0000 0000 0000 0000 0000
00000140: 0000 0000 0000 0000 0000 0000 0000 0000
00000150: 0000 0000 0000 0000 0000 0000 0000 0000
00000160: 0000 0000 0000 0000 0000 0000 0000 0000
00000170: 0000 0000 0000 0000 0000 0000 0000 0000
00000180: 0000 0000 0000 0000 0000 0000 0000 0000
00000190: 0000 0000 0000 0000 0000 0000 0000 0000
000001a0: 0000 0000 0000 0000 0000 0000 0000 0000
000001b0: 0000 0000 0000 0000 0000 0000 0000 0000
000001c0: 0000 0000 0000 0000 0000 0000 0000 0000
000001d0: 0000 0000 0000 0000 0000 0000 0000 0000
000001e0: 0000 0000 0000 0000 0000 0000 0000 0000
000001f0: 0000 0000 0000 0000 0000 0000 0000 0000
0.0 0.0 0.0 0.0 0.0 0.0 0.0 0.0
0.0 0.0 0.0 0.0 0.0 0.0 0.0 0.0
0.0 0.0 0.0 0.0 0.0 0.0 0.0 0.0
0.0 0.0 0.0 0.0 0.0 0.0 0.0 0.0
0.0 0.0 0.0 0.0 0.0 0.0 0.0 0.0
0.0 0.0 0.0 0.0 0.0 0.0 0.0 0.0
0.0 0.0 0.0 0.0 0.0 0.0 0.0 0.0
0.0 0.0 0.0 0.0 0.0 0.0 0.0 0.0
0.0 0.0 0.0 0.0 0.0 0.0 0.0 0.0
0.0 0.0 0.0 0.0 0.0 0.0 0.0 0.0
0.0 0.0 0.0 0.0 0.0 0.0 0.0 0.0
0.0 0.0 0.0 0.0 0.0 0.0 0.0 0.0
0.0 0.0 0.0 0.0 0.0 0.0 0.0 0.0
0.0 0.0 0.0 0.0 0.0 0.0 0.0 0.0
0.0 0.0 0.0 0.0 0.0 0.0 0.0 0.0
0.0 0.0 0.0 0.0 0.0 0.0 0.0 0.0

network_body._body_endoder.seq_layers.2.weight f4 [128, 128]
00000000: e823 8d3d 6ee9 85bd 873d d73c 4a1a f23c
00000010: b990 173e 6634 4b3d 8476 f23c 1642 31bd
00000020: 29c8 a6bd 69f3 fabc 1c59 6a3d bb73 b3bb
00000030: dd5b 01be baf1 a5bd d689 2dbe edd8 e9bc
00000040: e141 91bd 474b da3c 93f9 1ebd ea98 933d
00000050: d6d8 d93d 3341 02bd f656 153d b319 363d
00000060: 35bd af3b 3b7c 013e 4d36 3e3e fa28 16be
00000070: 93d3 943d 7b78 d1bd 4eb1 16be 193d b7bc
00000080: d813 c9bd a630 afbd c931 643d 3d18 11be
00000090: fd26 213d 070f b93a 6b9c ac3d e9fc debd
000000a0: 61a8 303c c6f7 efbc 77a3 743d f974 393d
000000b0: edea f63c b939 ccbc 186b 16be d639 283d
000000c0: e0e1 5ebe d98a b73d 3cdb 82bd 577c f2bd
000000d0: fdc5 843d 5e7f cb3d b4c2 e13d 7ca7 db39
000000e0: f743 583d 09d7 c83b 45fb 14bd 4b2e 303d
000000f0: cf76 c2bb d881 24ba 075c de3c ef59 dbbb
00000100: 6807 45bd de84 3e3d 7997 b3bd 5ab6 513c
00000110: 8c9e 343d 9811 5abd c7a8 653d 930e 993d
00000120: afe5 c9bd 7057 bb3d d251 c7bc 0153 fbbc
00000130: 3cf5 0b3d b054 e6bc 3240 4abd df96 413d
00000140: 524c c73d b12a 5fba 982b 583d 7c17 c0bd
00000150: f00b 71bd e352 a03c 7496 103d 4263 da3d
00000160: 2098 0b3e 93a9 4abc d904 c2bd 6972 783c
00000170: f367 af3c 93a3 953d f28a ac3d 170d fb3c
00000180: 56d5 ce3a 0a1d 463c 7920 0b3d 6353 debd
00000190: 6fe2 ffbb c101 9e3d 24d8 1d3d c207 50bc
000001a0: fb97 893d 5312 3c3c ca41 4bbd 2099 c33c
000001b0: f4d1 a93c 055f fd3c 6ade 68bd 42f2 e9bc
000001c0: 2125 c93d 6403 b83c 4ea3 ba3c 5cc9 b0bc
000001d0: cca9 ebbd b6fb dbbd 442a 08bd 55ca 7a3c
000001e0: 9852 813d a290 983d a5b5 c8bd 5bb5 163d
000001f0: 29bf 36be 064b 34bd 02bf d4bd 788f 03bc
00000200: 6b17 a33d 3415 043e a277 973c e75a 1d3c
00000210: 9edf d3bc 9055 dabb 4f0c 66bd 03a1 f43c
00000220: 4244 70bd 95ca cebb efd0 2b3e 70b2 103d
00000230: 0c0c b13d b26d 0fbd cdfe c4bc 82ca 233d
00000240: 6c43 ad3d a686 a8bc 5d5f 7ebd 9849 4e3d
00000250: 7577 c9bb 8bfd 113b 68c9 26be dbcb 8fbd
00000260: 7aa5 0cbe f34d ea3c 3ca9 05be 4383 09bd
00000270: 3fc9 8bbd 34c9 c1bd 7387 1a3d e676 86bd
00000280: 0e31 87bd 196f aebd 463e 10be 7b45 283d
00000290: 9672 4bbd 709a 143d de01 90bb 48cb 44ba
000002a0: 538a 0a3e 6cd6 34bd 77ff 1fbe 6cbe 833c
000002b0: 13b0 ba3d 7d38 7ebb b1ba 8e3c ee79 94bd
000002c0: 7560 6e3d 8f2a 2fbe 7d9a 40be 4965 e8bd
000002d0: 3b75 f73d d817 503d 9e7b 4cbd 0159 e8bc
000002e0: 420a a03d d2b4 2cbd f314 8a3d f9d2 63bd
000002f0: 04bc bf3d 7c00 dc3d 329f 6f3d 2a76 b93d
00000300: d729 c33d acdd 803d 496c 933c 6d32 12bd
00000310: 231e c2bd c7fb 0fbe 1fe2 983b 4ee0 b13d
00000320: 17d1 1bbe 1283 e0bc 6da6 05bd 4b9f 793d
00000330: c07c b3bd 669f 253d 03aa f6ba 9472 ebbd
00000340: 6286 efbd b468 e8bd dec9 38bd 6c14 8e3d
00000350: 04cd 7e3d 174a e03d 41b8 b3bd 9674 643d
00000360: 4807 ccbc fb0f d93d 4305 bc3d 8244 67bc
00000370: 54d6 edbc 41f3 0cbd 5c4d 113d 0ed1 323d
00000380: 9b96 51be ce32 d4bc dc89 e33d 1d50 4a3d
00000390: 9b36 003b 970c f6bc 07d7 77bc 7b46 d6bd
000003a0: 4412 77bd d57d dabb ceef fe3d e07d d7bc
000003b0: 4b42 3c3d e74b 06be 1a58 2f3e 6081 033e
000003c0: 2385 843d 20cc dc3c d5d2 21be 9dc9 09bd
000003d0: abe3 e9bb 26f6 d8bd 0c17 cd3c 4805 703d
000003e0: 72ab efbc 9453 65bc 7c73 1abd 33aa 45bd
000003f0: ebf9 65bd c8a2 9bbb ac6c 2bbd 491b 4bbd
0.06891614 -0.06538664 0.026274456 0.029553551 0.14801301 0.049610518 0.029597528 -0.043275915
-0.08143646 -0.030633645 0.057213888 -0.0054764426 -0.126327 -0.08102746 -0.16947111 -0.028545821
-0.070926435 0.026647223 -0.03881223 0.072069004 0.10637061 -0.03180046 0.036459886 0.044458102
0.0053631314 0.12645046 0.18575402 -0.14664069 0.07266917 -0.10228058 -0.14716074 -0.022368
-0.09818238 -0.08554201 0.05571154 -0.14169402 0.039343823 0.0014118858 0.08428272 -0.108880825
0.010782332 -0.029292952 0.059726205 0.04527757 0.030141318 -0.024929868 -0.1468929 0.04107078
-0.21765852 0.0896203 -0.06389472 -0.11840122 0.06483076 0.09936403 0.11023465 0.0004189572
0.05279919 0.00612915 -0.03637244 0.0430129 -0.0059345732 -0.0006275452 0.027143491 -0.0066940705
-0.048102766 0.04651343 -0.087691255 0.012799824 0.044096515 -0.053239435 0.05606916 0.07473483
-0.09858262 0.09147537 -0.024331007 -0.030679228 0.03416942 -0.028116554 -0.049377628 0.047263023
0.09731354 -0.00085131364 0.05277595 -0.09379479 -0.058849275 0.019570773 0.035299733 0.10663463
0.1363225 -0.012369531 -0.09473581 0.015163996 0.021411872 0.0730659 0.08424939 0.03064589
0.0015780132 0.012091884 0.033966515 -0.108557485 -0.0078089754 0.07715178 0.038536206 -0.012697162
0.06718441 0.011478978 -0.04962329 0.023876727 0.020729996 0.030929098 -0.056852736 -0.0285579
0.09821535 0.022462554 0.022782948 -0.02158039 -0.115069956 -0.107413694 -0.033243433 0.015307029
0.06314582 0.074494615 -0.09800271 0.036794048 -0.1784636 -0.04401686 -0.10387994 -0.008029811
0.07963451 0.12898713 0.018489663 0.009604192 -0.025863465 -0.006663032 -0.056164082 0.029861933
-0.058658846 -0.0063107708 0.1677892 0.03532642 0.08644876 -0.035016723 -0.02404728 0.03998805
0.08460125 -0.020572018 -0.062102664 0.050363153 -0.0061482736 0.0022276368 -0.16287768 -0.07021304
-0.13735 0.028601622 -0.13052839 -0.033572447 -0.06825494 -0.094622046 0.03772683 -0.06565647
-0.06601153 -0.08517284 -0.14086255 0.041081887 -0.049669825 0.036280096 -0.004394754 -0.0007507098
0.13529329 -0.0441498 -0.15624796 0.016082011 0.09115615 -0.0038790994 0.017423006 -0.07249819
0.058197457 -0.17106079 -0.18808933 -0.113474436 0.12082907 0.05080399 -0.049922578 -0.028362753
0.078144565 -0.04216463 0.06742277 -0.05562112 0.09362033 0.1074228 0.05850143 0.09055741
0.09529465 0.062922806 0.01799597 -0.03569262 -0.094784044 -0.14060889 0.0046656276 0.08685361
-0.1521648 -0.02740625 -0.03262942 0.06094293 -0.087640285 0.040435217 -0.0018818978 -0.114964634
-0.11695553 -0.113480955 -0.04511439 0.06937489 0.062207237 0.109516315 -0.08775378 0.055775248
-0.024905816 0.10598751 0.09180691 -0.014115455 -0.029032864 -0.034411673 0.035474166 0.0436564
-0.20467608 -0.025903132 0.11110279 0.04939281 0.0019563797 -0.0300353 -0.01512695 -0.10462662
-0.060320154 -0.0066678324 0.12448083 -0.026305139 0.04596166 -0.13114892 0.17123452 0.12842321
0.06470706 0.026952803 -0.15803082 -0.03363954 -0.007137736 -0.10593824 0.025035404 0.058598787
-0.029256556 -0.013996977 -0.03770779 -0.048258018 -0.056146543 -0.0047496296 -0.041851684 -0.049586568

action_model._discrete_distribution.branches.0.weight f4 [3, 128]
00000000: 8a84 2cba 0a62 33bb b3c8 903a e3a4 babb
00000010: 27fe 023c bace a8ba a5ce 06bc 1707 92b8
00000020: af80 23bc cf85 34bc a95c b83b 855a e13b
00000030: 87e0 7bbb 77e6 24bc aa07 c4b9 653d f4bb
00000040: 0703 253b 870c 7f3b a6cf 993b 5411 a9bb
00000050: 5dc3 89bc c1a6 94ba a62b 183c ef73 8d3a
00000060: 1e06 003c b531 983c dbae 1b3c 4955 823a
00000070: 2aaf 2a3b 7b2a f03b 8b1f 46bb 259e bc39
00000080: 8a83 2b3b 3eeb 2e3b 50a2 43bc 5b5f 8bbb
00000090: fc24 45ba 0216 913a 1dd3 4f3c b57b a7bb
000000a0: b1cd 2c3b a27a 51bb 1315 d4ba 82b0 fa3b
000000b0: 70fe 4fbc 2f64 573a 53bc 983b d3b8 53ba
000000c0: f650 b4bc cff0 ba39 d2ac d2ba 2b8e b2ba
000000d0: e8e2 e63b 529b 91bb 33d6 17bc f577 3fbb
000000e0: f370 413c ab78 173b f37a c7bb 0bd3 c1ba
000000f0: afa2 5fbc d0b8 d0bb ae2d 44bb 4fe6 13bc
00000100: 8953 adba 270c 943a 4757 313b 89c7 1cbc
00000110: 0ac7 d43b 4ab4 d1bb 0376 8c3b e829 553a
00000120: b3ea 44bc 1317 833c fdb6 b4bb 9893 d03b
00000130: 47cd c33c b593 0a3b 1084 88bc 2f6d 03bc
00000140: 641e 4a3b 8afc febb 43ff a1bb 6f7b 0d3b
00000150: f3ea 27bc 412b 163c eb7b d2bb 8ef0 33bc
00000160: 1b58 b93a 65aa 653c b289 0b3b 3cad 433a
00000170: e332 3abb 3d50 a8bc 271f 70bc efb3 0fbb
00000180: 2685 89bb 5859 43bb e34d c939 f7c5 1cbc
00000190: eb13 833b 0ae4 2abb 4370 e13b b326 053b
000001a0: 2701 023b 4545 babb f773 a8bb f3d2 3a3b
000001b0: b5b5 5d3c 672d 433c d683 873b 90ec 71bb
000001c0: 1841 f9bb 33ae 903b 82b4 093c 8fa5 863a
000001d0: e720 4f3a 4e12 84bc 63d6 003b 93cd 18bc
000001e0: c6a0 9cba 3e51 913b 412b 2dbb 8f03 57bb
000001f0: 8775 c13b b4aa 073c 5993 36ba a5dc 5f3b
00000200: 6c42 b03b e5a4 83bb 52a9 903c 77c8 cfbb
00000210: c876 833c 5233 66bb e6bb 863b 0461 c2bb
00000220: 20f0 3f3c 5e73 0c3c e953 933b fb9f b83b
00000230: cf4f 693c 46f5 9fbc 85d2 74bc 92c7 9c3b
00000240: 6a0a c23b 10d0 28bb 2f1a 9f3a 65e2 343c
00000250: ef26 34bb c248 443c 7c72 a7bb 9d93 063c
00000260: dfcb e7bb de34 2fbc e5c6 483b 33cd 3c3c
00000270: e21a 8e3a 7ace f53b 46f3 803b 66b0 aa3b
00000280: 10e7 703b f7e9 ad3b 172b 7e3b 7340 54bc
00000290: 72d7 edbb 35a3 f23b f9be 3b3b b93e 483b
000002a0: 932d d4bb b9fa a43b 3310 c13b e5b0 983c
000002b0: debb 283c 771b 923b 0464 2f3a f6ef 283a
000002c0: 5738 26bc 77e9 e8bb 5720 39bc 4752 bc3c
000002d0: 67e5 5a3b 0bcd 2c3c ccb6 273b e9b9 9e3b
000002e0: d225 8e3b e03a 20bc 3681 043b 4d0e 6dbc
000002f0: 84fe 0c3c 38da 66ba e6f4 a5bb 9118 b03c
00000300: 25f3 fb3b c685 18bc fbce 37bc f16f 1cbc
00000310: 03e1 30bc 2279 293c e3cb 7fbb 13ac d7bc
00000320: ec77 8f3b 8b7b 223b 47b6 503c 80f7 7fbb
00000330: d05d a2bb 88fa 66bc f72b 70bb caee 94bc
00000340: b247 833c f4cd 013c 8d6a 3c3b 49a6 4b3c
00000350: 4d61 323c a3b1 8a3c c26f 603b 5386 60bc
00000360: 495f 0ebb 4224 743b 59dd 053a 7f20 793c
00000370: e6be 2b3c 4b10 a4bb 25f0 d3ba 7796 f5ba
00000380: 8b7d ecbb 4f3e debb 103a 71bc a3c5 3cbc
00000390: f2f2 863c 7be4 653b a72f d537 9541 593b
000003a0: 4f5c 983c c38e 05ba 4f3c 1cba 1de6 f9bb
000003b0: 2bd2 32bb c71c e7bb 2f25 36bc ca85 033c
000003c0: 479a b8ba 3ccc 313b a8ef bf3b 1f6c 1ebc
000003d0: 6d4e 9c3a f096 5ebc 0d52 6b3b b35c 06bc
000003e0: 7dac 833c ac48 12bc a3d7 cfbb 13ad a03c
000003f0: beb2 14bc 658e 1f3b 9a3d 53bc 90e1 56bb
-0.0006581029 -0.0027371668 0.0011046141 -0.0056959256 0.007995165 -0.0012878992 -0.008227979 -6.963143e-05
-0.009979411 -0.011018231 0.0056262803 0.006877246 -0.003843339 -0.010064713 -0.00037389743 -0.007453608
0.0025178806 0.003891738 0.004693943 -0.0051595364 -0.01681679 -0.00113412 0.00928775 0.0010791997
0.007813958 0.01857839 0.009502138 0.000994363 0.0026044347 0.007329283 -0.0030231203 0.0003597598
0.0026170933 0.0026690508 -0.011940554 -0.0042533106 -0.0007520465 0.0011069181 0.012684611 -0.0051111826
0.0026367719 -0.0031963964 -0.0016180597 0.007650436 -0.01269494 0.00082165276 0.004661122 -0.0008076552
-0.022011261 0.000356561 -0.0016073233 -0.0013622692 0.0070460923 -0.0044435645 -0.009267378 -0.0029215787
0.011806714 0.0023112695 -0.0060876547 -0.0014787627 -0.013649627 -0.0063696876 -0.0029934454 -0.009027078
-0.0013223748 0.0011295126 0.0027060078 -0.009569057 0.006493454 -0.006399666 0.004286529 0.00081315497
-0.012018847 0.016002214 -0.005514978 0.006365251 0.023901595 0.002114517 -0.016664535 -0.008021637
0.0030840868 -0.00778157 -0.0049437596 0.0021588465 -0.010248887 0.009165586 -0.0064234636 -0.010982646
0.0014140637 0.014017676 0.002129179 0.00074644736 -0.0028411679 -0.020546073 -0.014655865 -0.0021927317
-0.0041967807 -0.0029807892 0.00038395738 -0.009568683 0.004000177 -0.0026075863 0.0068798377 0.0020317256
0.0019837113 -0.005684527 -0.005140777 0.0028507083 0.013532092 0.01191268 0.004135589 -0.0036914684
-0.0076066367 0.0044152974 0.008404853 0.0010272729 0.0007901326 -0.01612201 0.0019659034 -0.009326356
-0.001194977 0.0044347337 -0.0026423486 -0.0032808518 0.005903903 0.008280445 -0.00069647055 0.0034158614
0.005379012 -0.0040174597 0.017658863 -0.006341036 0.01604785 -0.0035125804 0.0041117547 -0.0059319753
0.011714965 0.008572428 0.004496087 0.0056343055 0.014240219 -0.019526135 -0.01494277 0.004784533
0.0059216516 -0.002575878 0.0012138541 0.011040305 -0.0027489027 0.011980237 -0.005110083 0.008213905
-0.007073864 -0.010693757 0.0030636129 0.011523533 0.0010841752 0.0075014206 0.0039352505 0.0052090166
0.0036758818 0.005307432 0.0038783008 -0.012954819 -0.007258349 0.0074047097 0.0028647764 0.0030554964
-0.0064751594 0.0050347713 0.0058918237 0.018639037 0.010298697 0.0044588405 0.00066906237 0.00064444484
-0.010145268 -0.0071079093 -0.011299214 0.022988452 0.0033400895 0.010546933 0.0025591133 0.0048439396
0.0043380046 -0.009779662 0.0020218617 -0.014468742 0.008605603 -0.0008806321 -0.0050645946 0.02149609
0.007688897 -0.009309238 -0.011218782 -0.009548173 -0.0107958345 0.010343822 -0.0039031438 -0.026327169
0.0043783095 0.0024792876 0.012738771 -0.0039057434 -0.004955031 -0.014097817 -0.00366473 -0.01818027
0.016025398 0.007922638 0.0028750033 0.012429782 0.010887456 0.016930407 0.00342463 -0.0137039
-0.0021724275 0.0037253057 0.0005106531 0.015205502 0.010482525 -0.005006825 -0.0016169591 -0.0018736859
-0.0072171143 -0.00678233 -0.014723316 -0.01152173 0.016473267 0.0035078812 2.5413769e-05 0.0033150662
0.018598704 -0.00050948205 -0.00059599144 -0.0076263086 -0.0027285914 -0.007052991 -0.011117264 0.008027503
-0.0014084064 0.002712979 0.0058574267 -0.009669333 0.0011925228 -0.013585791 0.003590706 -0.008200812
0.01607346 -0.008928459 -0.0063428446 0.019613778 -0.009075819 0.0024346348 -0.012893105 -0.0032788254

action_model._discrete_distribution.branches.0.bias f4 [3]
00000000: 0000 0000 0000 0000 0000 0000
0.0 0.0 0.0

action_model._discrete_distribution.branches.1.weight f4 [3, 128]
00000000: ff10 833b bec6 a73b 1fba ee3a 29b8 32bc
00000010: 1f9c 333c d5f2 7b3b 5378 b23a 7db4 e83a
00000020: 07db 863a 3f7d 3a3b 6781 09bc d289 5c3c
00000030: 2b2d e33b 4d52 a7bb 7dee 21bc e78a a73b
00000040: 131e af3c 371d bb3b f0a1 bebb a3a5 b13b
00000050: d0be fd3b 5aa8 5fba 20d7 713b bf39 61ba
00000060: 8dba 2bb9 fb92 1ebc 036d 273b 1640 803c
00000070: 88f6 1cbb fdcb b2bb 1755 f8bb 570b 20bb
00000080: 50c5 873b 6a12 d6ba 2653 0ebc ba31 503c
00000090: ade8 fc3a 8f6a 7e3c bf0c 5dbb e342 49bb
000000a0: 5008 9f3b f17d a03a 074e 93bb c4fc 8839
000000b0: 8785 193b 7a74 803b e583 7bbc 7350 153c
000000c0: cb44 91bc 00f0 de3b c87d eb3a ad06 2dbb
000000d0: fd79 1b3c 69ef c23c b907 19bc bfc3 c53b
000000e0: 934b 5c3c bf02 17bb 8fe3 74bb 8b6e 29bb
000000f0: 9ca9 073c c020 d13a 19ae 363c d80b 91bb
00000100: 8b57 8fbc 530f d0ba 2adf 673b 640e bc3b
00000110: f524 b23b d9d2 babb 5b6b ff3a 4502 703c
00000120: e7d1 36bb b3ac dfbb 05ec 303b f02b 963a
00000130: add2 50bc 2ca0 10bc 75ce 8f3a df70 683b
00000140: e4cf 37bc 70b4 8fbb 0f35 ea3b 0305 42bc
00000150: 8c14 98b9 c984 0039 e896 33bb a0ef 48bc
00000160: 5b26 c0bb ab0e 5a3c d76c 4a3b 0992 bf3b
00000170: 8a5f 8b3c 39a4 a23c 4231 e43b df0b 9a3b
00000180: aab8 31bb dfed c93b 6b77 283b bb08 923b
00000190: 2fb9 ff3a 436e 433b 298a 80ba a0f8 69bc
000001a0: d0a6 b73a ab2f 31bb 6c17 353c 2b3e 783c
000001b0: 9d22 1f3a 0763 823c 989c d5ba 7f42 2bbc
000001c0: cdaa 31bc 5f19 6dbc 7d07 89bc 5d4e a7bb
000001d0: 3b0a c43a c0d6 4d3c 4f07 843c bb3b a33c
000001e0: d096 dc3b 636a 003b a38e bd3b b7f6 1e3b
000001f0: c37c 073c 3adf 35bc 7f82 b13b 7a61 663c
00000200: c778 443b 7b5d 84b9 4b1e edbb 55db fc3b
00000210: d76f 11bb 95ac d8ba d50a 26bb ed62 d33b
00000220: 93e9 4f3b 7093 eb3b dfc3 9db8 c574 783b
00000230: 5afb 393b 504a d73b 4eeb af3c 1335 b6bb
00000240: af12 60bb 0f98 5f3c b595 0abb e49c 193c
00000250: 601e 15bc 73d4 f13a d123 3d39 1f06 22bb
00000260: f96e 243c df89 3d3c 8cfe a8ba 17f7 b7bb
00000270: 0d7a f83a 0b7c 0a3b 2035 22bb 5573 d0ba
00000280: a1d2 10bc 647d 88bc 1089 1abc 05d9 f7bb
00000290: 1fcc f33b 4ce0 b0ba 1e0b 493c 1767 ddbb
000002a0: cfa8 5339 4a4a 81bc d76d 5abc e160 463b
000002b0: e767 9a3b 85dc 04bb 3851 4ebb 4fbb 2e3b
000002c0: 7fee bb39 0d04 9cbb 8d54 18bb 87c8 9dbb
000002d0: d288 f73b 32e4 50bc 2393 373c 0351 1aba
000002e0: d8ed 52ba 5a59 9bbc d35c 00bc 602a 11ba
000002f0: b2ee de3b 59de 2dbc 6d63 1c3c 44db c23c
00000300: 2ea8 bd39 30b3 6f3b bf95 e03b d3f9 26bc
00000310: 78d2 823b 0f63 46bc 95ae 883b 97e3 3f3b
00000320: 6a01 96bb 535c 05bc 1d99 5abb 132f 053b
00000330: 9b27 c6bb 87dd b93b 9589 aa3b 5ae2 5bba
00000340: c601 a0bb 9871 e93b 66e4 1a3b 15d9 31bc
00000350: 21b5 c1bb aabf 6abc 1f85 fbbb f7cf c9bb
00000360: 5eff 183c f502 893b 62e8 88bb df19 d03b
00000370: 4543 543b 2eeb 303c c447 9fbb ed57 5fbc
00000380: b76e bebb 4b47 3b3c aaae 4fbb 7d0c 543c
00000390: 1b54 2a3c 55f3 fb3a d3f0 08ba 4198 023b
000003a0: d0d4 00bc 6794 713c 83c9 25bc c01c 9c3b
000003b0: 9068 32bc 15fa 59bb 759d 7dbb a3c8 ccba
000003c0: b203 b6ba 73e1 ca3a 0b9e 25bb b34d 693c
000003d0: 99fd 93bb 9740 973c fb78 263b 7ba3 1b3c
000003e0: 3b3b a0bb ffb2 cc3b ca1f 5a3b 062e 87bc
000003f0: da16 503c e5d9 343b f834 923c 8d35 763c
0.003999829 0.0051201275 0.0018213427 -0.010908165 0.010962515 0.00384443 0.0013616182 0.0017753985
0.0010288664 0.0028456 -0.008392668 0.013460593 0.0069328747 -0.0051062466 -0.00988352 0.005112994
0.021376645 0.00571027 -0.0058176443 0.0054213568 0.007743694 -0.0008531861 0.0036901906 -0.00085916737
-0.00016377326 -0.009678598 0.0025547154 0.015655559 -0.0023950655 -0.005456446 -0.007578503 -0.0024420822
0.0041433945 -0.0016332392 -0.008686816 0.012707168 0.0019295417 0.015528335 -0.003372952 -0.0030710034
0.004853286 0.0012244565 -0.0044953856 0.00026128266 0.0023425536 0.003920135 -0.01535127 0.009113419
-0.017732998 0.0068035126 0.0017966563 -0.0026401684 0.0094895335 0.0237958 -0.00934022 0.0060352976
0.013445753 -0.0023042408 -0.003736708 -0.0025853242 0.008280184 0.0015955195 0.011149907 -0.0044264607
-0.017497798 -0.0015873708 0.003538082 0.00573902 0.0054365345 -0.0057014045 0.001948695 0.014648979
-0.0027896108 -0.0068260073 0.0026996147 0.0011457186 -0.0127455415 -0.00882725 0.0010971563 0.0035467667
-0.011218999 -0.0043855235 0.0071474384 -0.011842015 -0.00029007008 0.00012256498 -0.002740318 -0.012264162
-0.0058639473 0.013309161 0.0030887628 0.005846266 0.01701333 0.019853698 0.00696388 0.004701122
-0.0027118125 0.0061623896 0.0025705944 0.004456607 0.0019510145 0.002982036 -0.00098068 -0.014280468
0.0014011506 -0.002703647 0.0110529475 0.015151541 0.00060705264 0.01591636 -0.0016297279 -0.010452866
-0.010843945 -0.014471381 -0.016727204 -0.005105777 0.0014956662 0.012563407 0.016116766 0.019925943
0.0067318454 0.0019594661 0.005784826 0.002425594 0.008269492 -0.011100585 0.0054171677 0.014061326
0.0029979215 -0.0002524665 -0.007236277 0.007716576 -0.0022191906 -0.0016530926 -0.0025336046 0.006451002
0.0031724914 0.007189207 -7.522827e-05 0.0037911397 0.0028378577 0.006570138 0.021474507 -0.005560526
-0.0034190824 0.013647093 -0.0021146361 0.009375785 -0.00910148 0.0018450156 0.00018037787 -0.0024722887
0.010036224 0.011568516 -0.0012893244 -0.005614172 0.0018957272 0.0021131064 -0.0024750903 -0.0015903512
-0.00883928 -0.016661353 -0.009432092 -0.0075637125 0.0074401046 -0.001349458 0.012270717 -0.006756674
0.00020185414 -0.015782494 -0.013331852 0.0030270147 0.004712093 -0.0020273041 -0.0031481516 0.0026661938
0.00035845113 -0.004761225 -0.0023243756 -0.0048151645 0.007554152 -0.0127497185 0.011204514 -0.00058867055
-0.0008046306 -0.018963505 -0.007834631 -0.00055376254 0.006803357 -0.010612094 0.009545189 0.023786195
0.00036174193 0.003657531 0.0068537886 -0.010191399 0.003992375 -0.012108578 0.0041712024 0.0029279941
-0.0045778053 -0.008139688 -0.0033355423 0.0020322248 -0.006047202 0.00567216 0.0052043893 -0.0008387916
-0.004883024 0.007124137 0.0023634671 -0.010854979 -0.005911485 -0.014327923 -0.0076757814 -0.0061588245
0.009338228 0.0041812607 -0.004178093 0.0063507403 0.0032388729 0.010798259 -0.00486085 -0.013631803
-0.005811538 0.011430572 -0.0031689801 0.012942431 0.010396029 0.0019222299 -0.0005223874 0.0019927176
-0.007863238 0.0147448545 -0.010118845 0.0047641695 -0.010889187 -0.0033260633 -0.0038698588 -0.0015623759
-0.0013886599 0.0015478566 -0.0025271203 0.014239716 -0.004516315 0.018463416 0.00254017 0.009499426
-0.0048898733 0.006246924 0.0033283108 -0.016501438 0.012700761 0.0027595696 0.017847523 0.015027416
