MLBase/results/ppo/CloseToTargetBehaviour/CloseToTargetBehaviour-8128.pt (torch, 152459 bytes, 14 tensors)

discrete_act_size_vector f4 [1, 2]
00000000: 0000 4040 0000 4040
3.0 3.0

network_body._body_endoder.seq_layers.0.weight f4 [128, 6]
00000000: 0e90 61be f826 8dbe febc 88be ab1c 433e
00000010: 3edb 67bf 3d23 403f ac9f 353e 2f44 963f
00000020: e8b4 c2bc b85c efbe c36f 1c3f ecaa 0cbe
00000030: 155c 873e 21a5 e5be c076 213f 7973 f6be
00000040: b939 33be 4bea 8b3e 3426 f03e 28b8 00be
00000050: f984 653e c1e6 a9bd e5f2 2d3f dbb2 9e3e
00000060: 86af 41be 85dc 96be 3709 18be da80 693f
00000070: f40a 493e 4e20 4d3e 3004 533d ea8a dd3e
00000080: 60bc 6b3f 6b08 55bc 632d c2bd 6847 c9bc
00000090: 0af0 883f 2d8f 923f 1760 cf3d 61de 423e
000000a0: c2bf c33b 2656 053f 209d 783d b294 f9be
000000b0: 0d15 54be 6184 70be 4825 2d3e d27f ffbe
000000c0: 3372 aabd 396c 183e 0f9c 233e ac6c 053e
000000d0: 81cd 82be e759 8f3e 0ad1 47bf 6012 4cbe
000000e0: 6bfb 7d3e a607 d4bd 27b0 adbe 119b ad3e
000000f0: 25af 07be 2da5 45bd e7d5 dbbe bc62 a83e
00000100: 8526 b93e e2bc 84be 1719 d43d c185 9bbe
00000110: 560a ed3e b1aa 16bd da42 473f c275 b9be
00000120: 15e2 afbe f4d2 903f 00e8 f43e 26e4 afbe
00000130: b07e 51be 340e c6be 78f2 013f 1251 2e3e
00000140: b645 453e 9609 a33e 4acf c1be 576e 883d
00000150: 36e7 4a3e 4b27 443c 3c0d a5be eced 153e
00000160: 37ad f83e af62 b0ba f7ca c0bc 27ac 59be
00000170: 1e01 b1bc e937 05be afaa 103f bad3 1c3e
00000180: 22a4 c7be 826f 8dbd ed8a 173f 9875 cabe
00000190: a5e6 debe 08e0 8b3e 547b 6ebc ebac 203e
000001a0: 5154 6dbd cee9 dfbe ddba 44be e650 edbd
000001b0: 3229 30bf 7149 c9be 9af9 843e 104b b4bd
000001c0: ba1d 723f d025 b3be 638c 413f aa0c a4be
000001d0: ce27 8bbe 4f75 c23e aa44 04bf c54f 16be
000001e0: e228 31be eee8 db3d d355 373e c0c2 bdbe
000001f0: 9180 153f 1cfc 3a3c 16be 323e bc85 83be
00000200: a50a 1a3e 6d78 8e3e 9a0b 953e 4117 da3e
00000210: 9196 703d f3da f83e 0451 b23e 6219 89be
00000220: c3cd 6e3e 5e8f b33d 9438 aebe b4d3 093e
00000230: e6c8 4bbc 585e c2be ca4d 04be c890 84bd
00000240: 7fc3 adbe 4ea7 9cbd 39f5 163f ebf3 033f
00000250: 3762 353d 1aba 733e 9e88 fbbd 71d1 71be
00000260: 69a4 c4be f961 dfbe b447 65be d955 87bb
00000270: 6070 083f 8640 9ebd 4129 253e a777 8f3e
00000280: cc19 b93e 35a8 8b3d 7ee7 cebe 3331 fd3e
00000290: f097 49be b687 f2bd 1f9b bebc df47 1abf
000002a0: 1614 e03e b769 de3e ac6f 0a3f 8a2c 01bf
000002b0: b2e6 0e3f 0dcb 5e3e c856 47be 9f3c 153e
000002c0: 5ceb 4cbe 4a89 82be d362 55be 760f 1b3f
000002d0: 3a78 ee3e 7353 a73d 6550 36be 3d62 abbe
000002e0: 346a 6dbf 8e97 1d3e f0cc e8be 0c18 9b3e
000002f0: eaf6 0cbf 34e0 913c 935a 193e af13 9abe
00000300: 0446 183e eb3b 7bbf ea52 ebbe b2d5 fe3d
00000310: 8024 49be b213 5ebf 4726 b33e 1891 9e3f
00000320: 2dc6 063c 8bd3 efbc 1291 533e 30e3 b33e
00000330: eb42 81bd 2c0f 133d 04ea 76be 91ce d03e
00000340: 33f9 9dbe 6d78 12be bb9a 98bd d51c 323d
00000350: 3a3e 34be 2133 aebe 6104 b6be 1812 25bf
00000360: 9a28 16bd 160a cf3e 3ba2 0fbf 0fea 54bf
00000370: e5cc 03be 2eb6 cc3e 7218 803e 884f 053b
00000380: 8815 dd3b 9033 6a3e d088 793e 1453 b6be
00000390: acd6 a4be b18d 303f 2c55 923e e193 57bd
000003a0: 570d 1bbe e560 8d3e 768d 8a3e 43c3 22bf
000003b0: 69b8 733b 9cb3 d53d b115 6abf 6081 473e
000003c0: 06ac 013d baf0 8a3e 7013 89be 130b bbbe
000003d0: 801f a53e b24f eebe 9ab4 d53d 4e85 353e
000003e0: aa03 7f3e 4741 04bf 8b46 153e 103f 14bf
000003f0: d456 70be 7eb5 85be 6e40 a4bd a4cc 853e
-0.22027609 -0.27568793 -0.2670669 0.19053905 -0.9056891 0.7505377 0.17736691 1.1739558
-0.023767903 -0.46750426 0.61108035 -0.13737077 0.2643744 -0.44852546 0.63071823 -0.48134974
-0.17502488 0.2732719 0.46904147 -0.1257025 0.22414006 -0.08295966 0.6794875 0.3099583
-0.18914613 -0.29465118 -0.14847265 0.91212237 0.19633085 0.20031855 0.051517665 0.43270046
0.9208431 -0.013002495 -0.09481313 -0.024570182 1.0698254 1.1449944 0.101257496 0.19030143
0.005973787 0.5208458 0.06069672 -0.48746258 -0.20711155 -0.23487999 0.16908753 -0.49902207
-0.08322563 0.14885034 0.159775 0.13029736 -0.25547412 0.27998278 -0.78053343 -0.19928885
0.2480294 -0.10353021 -0.33923456 0.3390737 -0.13250406 -0.048253227 -0.42936632 0.32887828
0.361622 -0.25925356 0.10356348 -0.30375484 0.46296948 -0.036783878 0.7783638 -0.36222655
-0.34352174 1.1314378 0.47833252 -0.3435375 -0.20458484 -0.3868271 0.507606 0.17023113
0.19264874 0.3184325 -0.37853462 0.06661671 0.19814762 0.011972259 -0.3223666 0.14641541
0.48569652 -0.0013457144 -0.023534281 -0.21257077 -0.021606978 -0.1300961 0.5651044 0.15315142
-0.3899241 -0.06906034 0.5919636 -0.39542842 -0.43535343 0.2731936 -0.014555771 0.15690963
-0.05794174 -0.43733066 -0.19211908 -0.11587696 -0.6881286 -0.39313844 0.2597168 -0.088033795
0.9457661 -0.34989786 0.7560484 -0.32040912 -0.27178806 0.37980124 -0.51667273 -0.14678867
-0.17300752 0.10737787 0.17903833 -0.37062645 0.583993 0.011412647 0.17455325 -0.2568797
0.15043123 0.27826253 0.29110414 0.42595866 0.05873734 0.48604545 0.34827435 -0.26777178
0.2332068 0.087675795 -0.3402754 0.13459665 -0.012438035 -0.37962604 -0.12920299 -0.06472927
-0.33938214 -0.07649098 0.5896793 0.51544064 0.044283118 0.23801461 -0.12281917 -0.23615052
-0.38406685 -0.43629435 -0.22390634 -0.004130107 0.5329647 -0.077271506 0.16129018 0.28020975
0.36152494 0.06819192 -0.4041099 0.494516 -0.19686866 -0.11842291 -0.023267327 -0.60265917
0.43765324 0.4344003 0.5407665 -0.50458586 0.55820763 0.21757145 -0.19466698 0.14573906
-0.20011657 -0.25495368 -0.2083848 0.60570467 0.465761 0.081702136 -0.17804106 -0.33473387
-0.9274018 0.15389845 -0.45468855 0.30291784 -0.5506426 0.017807104 0.14975958 -0.30093142
0.14870459 -0.981383 -0.45961696 0.12443103 -0.1964283 -0.867488 0.3499014 1.2388029
0.00822596 -0.029275676 0.20660809 0.35134268 -0.06311592 0.03590314 -0.24112707 0.40782598
-0.30854186 -0.14303751 -0.074513875 0.043484528 -0.17601863 -0.34023383 -0.35550216 -0.64480734
-0.036659814 0.40437382 -0.5610692 -0.83169645 -0.1287113 0.39982742 0.2501865 0.0020341594
0.0067469515 0.22871232 0.24368596 -0.3561026 -0.32195032 0.68966204 0.28580606 -0.052631263
-0.15141807 0.27612987 0.2706105 -0.63579196 0.0037188774 0.104346484 -0.9143935 0.19482946
0.031658195 0.27136785 -0.26772642 -0.36531886 0.32250595 -0.46545178 0.10434838 0.17726633
0.24903741 -0.51662105 0.14577691 -0.57908726 -0.23470622 -0.2611503 -0.080201015 0.2613269

network_body._body_endoder.seq_layers.0.bias f4 [128]
00000000: 0000 0000 0000 0000 0000 0000 0000 0000
00000010: 0000 0000 0000 0000 0000 0000 0000 0000
00000020: 0000 0000 0000 0000 0000 0000 0000 0000
00000030: 0000 0000 0000 0000 0000 0000 0000 0000
00000040: 0000 0000 0000 0000 0000 0000 0000 0000
00000050: 0000 0000 0000 0000 0000 0000 0000 0000
00000060: 0000 0000 0000 0000 0000 0000 0000 0000
00000070: 0000 0000 0000 0000 0000 0000 0000 0000
00000080: 0000 0000 0000 0000 0000 0000 0000 0000
00000090: 0000 0000 0000 0000 0000 0000 0000 0000
000000a0: 0000 0000 0000 0000 0000 0000 0000 0000
000000b0: 0000 0000 0000 0000 0000 0000 0000 0000
000000c0: 0000 0000 0000 0000 0000 0000 0000 0000
000000d0: 0000 0000 0000 0000 0000 0000 0000 0000
000000e0: 0000 0000 0000 0000 0000 0000 0000 0000
000000f0: 0000 0000 0000 0000 0000 0000 0000 0000
00000100: 0000 0000 0000 0000 0000 0000 0000 0000
00000110: 0000 0000 0000 0000 0000 0000 0000 0000
00000120: 0000 0000 0000 0000 0000 0000 0000 0000
00000130: 0000 0000 0000 0000 0000 0000 0000 0000
00000140: 0000 0000 0000 0000 0000 0000 0000 0000
00000150: 0000 0000 0000 0000 0000 0000 0000 0000
00000160: 0000 0000 0000 0000 0000 0000 0000 0000
00000170: 0000 0000 0000 0000 0000 0000 0000 0000
00000180: 0000 0000 0000 0000 0000 0000 0000 0000
00000190: 0000 0000 0000 0000 0000 0000 0000 0000
000001a0: 0000 0000 0000 0000 0000 0000 0000 0000
000001b0: 0000 0000 0000 0000 0000 0000 0000 0000
000001c0: 0000 0000 0000 0000 0000 0000 0000 0000
000001d0: 0000 0000 0000 0000 0000 0000 0000 0000
000001e0: 0000 0000 0000 0000 0000 0000 0000 0000
000001f0: 0000 0000 0000 0000 0000 0000 0000 0000
0.0 0.0 0.0 0.0 0.0 0.0 0.0 0.0
0.0 0.0 0.0 0.0 0.0 0.0 0.0 0.0
0.0 0.0 0.0 0.0 0.0 0.0 0.0 0.0
0.0 0.0 0.0 0.0 0.0 0.0 0.0 0.0
0.0 0.0 0.0 0.0 0.0 0.0 0.0 0.0
0.0 0.0 0.0 0.0 0.0 0.0 0.0 0.0
0.0 0.0 0.0 0.0 0.0 0.0 0.0 0.0
0.0 0.0 0.0 0.0 0.0 0.0 0.0 0.0
0.0 0.0 0.0 0.0 0.0 0.0 0.0 0.0
0.0 0.0 0.0 0.0 0.0 0.0 0.0 0.0
0.0 0.0 0.0 0.0 0.0 0.0 0.0 0.0
0.0 0.0 0.0 0.0 0.0 0.0 0.0 0.0
0.0 0.0 0.0 0.0 0.0 0.0 0.0 0.0
0.0 0.0 0.0 0.0 0.0 0.0 0.0 0.0
0.0 0.0 0.0 0.0 0.0 0.0 0.0 0.0
0.0 0.0 0.0 0.0 0.0 0.0 0.0 0.0

network_body._body_endoder.seq_layers.2.weight f4 [128, 128]
00000000: 10ab 95bc 190b 36bc fdfa 373d 1737 f5bd
00000010: 9670 dfbd dbfb 053e d764 9e3b b148 a33d
00000020: 5838 b03d c181 803d b826 4a3d 0cfc 2db9
00000030: 5658 bb3d 1698 b1bb 967c 3d3d 3240 7a3d
00000040: 18d6 953c d47d 3f3d fd9b 2cbd b2c7 0cbe
00000050: 6caa 19bd 2fa4 b9bd 0cb6 9abd b780 e1bd
00000060: 4b3e 73bc a508 a5bd 754e bd3c 09fc 7f3d
00000070: 31f4 e7bd bbfc 4fbb c331 4abd dade 83ba
00000080: 99a9 7f3d 9d38 733c e179 933d f1c9 8dbd
00000090: ecf8 ac3d d368 aa3b 7b70 1abe 0dd1 e6bd
000000a0: eaf4 d1bd c6e3 3a3e e388 b8bc e197 383e
000000b0: e65f 943d 1e5f b4ba 50f0 b93d f677 243e
000000c0: 762a d3bc 72a2 6e3c 6c34 06be a9cc e5bc
000000d0: 2489 51bd 639c 25bd 6738 f0bc c77f 8d3d
000000e0: ffa4 31bd df23 163d 2719 773c b12f a9bd
000000f0: 2cd4 20be 4fbf bebd d0bb 403c 912e 133c
00000100: 5905 4e3d f517 583d cb7d 3b3e da41 833d
00000110: b2dc 60bc 4fae bcbd fb39 66be 2b19 b93d
00000120: de9c 243d 50d0 c33d 0ff8 6cbc a8a0 bb3b
00000130: 27bc ac3d a5c3 d93c 6250 cfbd a9fb d4bd
00000140: fdc5 0bbe 0bcd 083e cb4c 9d3d edc3 123e
00000150: 8e0e 1abc aa18 2cbd 91ec e2bc 4b01 393c
00000160: 25f2 6bbe a9e4 333d 35a9 07be cb63 d9bc
00000170: 91c3 73bc ebf7 2ebd 3e48 cabc 0eda a93c
00000180: 5570 01bd 9f32 903a 2371 88bd ee3e 8cbd
00000190: 29d7 ac3d 6b7c 1c3d bd52 bfbd c652 87bd
000001a0: 59c3 423e 9f12 56bd 9179 903c 2ef2 af3c
000001b0: 57c9 e53c f13f 813c 75b1 a13d b7e2 543e
000001c0: 5936 7a3d e46c e13c 944a 00be a6d6 043e
000001d0: 7f76 2f3e 8411 eabd f015 e73d 0d8f c6bc
000001e0: db4b 543d bd9e 23be d537 133d 06a6 3b3d
000001f0: 07b4 843d 2737 0bbe 1015 033d 7415 92bd
00000200: 379d 5d3d a054 8ebd 2339 a7bd 6f7c 24be
00000210: da71 9a3d c4ed e3bd 37fb 903c 05ff 91bc
00000220: 0fe0 4fbd 72b3 1dbe 8b76 95bd 9a16 1f3e
00000230: 0009 c83d 2539 a5bd 60f6 33bd 1400 bd3d
00000240: aff0 ec3c 6b7a cebd 5fe9 31be 8a09 a1bb
00000250: 13b3 a93d 9ee6 8c3d 52ec 59bd e97e 15bd
00000260: 1d31 003e b001 3bba 93e9 30bd 0b84 123e
00000270: e06c 1bbd abbd a1bd 6867 7dbd 9ffa 3c3e
00000280: d709 7bbd eb24 2dbe 32fd 7fbd 8f3c a33b
00000290: 36c3 51bd 5687 10bc f912 073c 33db b03d
000002a0: ffa7 a83d 0ffa 97bd 0903 783d 5098 22be
000002b0: b3b4 663d a198 13be 8129 3bbe 0e22 a0bd
000002c0: 4a98 e7bd edee 8d3d 7889 d2bd 8d8f b13c
000002d0: e3c6 04be 480a 95bd 26f6 833d 4c39 b33d
000002e0: 6ca1 c33d dd69 a93d 8282 76bc f97f 0dbe
000002f0: 8f18 ebbd 7b94 b43c a0f3 97bb 0c5b a63d
00000300: 9027 d43d 2890 f5bc f3bf 25bd 356a 283d
00000310: cdc9 c7bb cc8f f73d 316d 2abb 85ad 3c3d
00000320: 861a be3c caed c2bd 98d0 993d 1790 a5bd
00000330: f2c7 933d 5f3e 8b3d cd2b 69bd dd7a 513d
00000340: c41d 04b9 a8e9 e8bd 6710 87bc 579d 1abe
00000350: 6381 863d 797a 923d c6e5 44bd e231 11be
00000360: 2bf2 953c 5acd d63d 064e 373d 8092 103d
00000370: cdfc c93c c93c 363d a0df 67bb 88c9 dc3d
00000380: 5949 4dbd 2dbf 0cbc f17d f3bd d009 b83c
00000390: 8b32 2e3d 6568 2f3e c97a c43d 77a7 783d
000003a0: ed08 193d 9d78 9b3d d438 703c b3b6 a0bd
000003b0: d40b 3cbd 2ac4 bfbd 6c6e 69bd 65ab d43d
000003c0: 7eb6 733d bd23 ec3d 66d5 e0bd 9a84 ab3d
000003d0: 6058 2dbd e976 80bd 4588 c03d 3a88 1dbe
000003e0: 9fff 903d 5a80 363d 4ce5 cabd c43f 583d
000003f0: 8da7 cf3d 174b d43c 87bb 123d 618f f5bc
-0.018270046 -0.011111044 0.044917095 -0.11973398 -0.10910146 0.13084356 0.0048337984 0.07972849
0.08604497 0.062747486 0.04935333 -0.0001659246 0.09147708 -0.0054197414 0.046261393 0.061096378
0.018290564 0.04675086 -0.04214095 -0.13748053 -0.037516043 -0.09064519 -0.07554254 -0.110108785
-0.014846395 -0.080582894 0.0231087 0.06249622 -0.11325873 -0.0031736332 -0.049363863 -0.0010060922
0.0624176 0.014845041 0.07200981 -0.06923283 0.084459156 0.0052004843 -0.1508197 -0.11270342
-0.10251792 0.18250951 -0.02252621 0.18026687 0.07244854 -0.0013761257 0.09079039 0.16061386
-0.025777083 0.014565097 -0.13105935 -0.028051691 -0.051156178 -0.040432345 -0.02932377 0.06909137
-0.043370243 0.036655303 0.01508168 -0.082610495 -0.15705937 -0.09313833 0.011763528 0.00898327
0.05029807 0.052757222 0.18309705 0.064090446 -0.013724493 -0.09212934 -0.22483055 0.090380035
0.040188663 0.09561217 -0.014463439 0.005725939 0.08434325 0.026582548 -0.10122754 -0.10399563
-0.13649745 0.13359468 0.07680663 0.14332552 -0.009402884 -0.04201571 -0.027700694 0.011291812
-0.2304159 0.04391924 -0.13248141 -0.026536843 -0.01487817 -0.0427169 -0.02469265 0.02073386
-0.03160127 0.0011001414 -0.06662204 -0.068479404 0.08439476 0.03820459 -0.09341953 -0.06607585
0.19019832 -0.052263852 0.017636092 0.021477785 0.028050108 0.01577756 0.07895175 0.2078961
0.061086986 0.027517743 -0.1252845 0.12972507 0.17135046 -0.11429122 0.11283481 -0.024238134
0.051830154 -0.15978523 0.035941917 0.04581263 0.0647965 -0.13595258 0.03200251 -0.07132998
0.05410501 -0.06949735 -0.08165195 -0.16063093 0.07541247 -0.111293346 0.017697914 -0.017821798
-0.05075079 -0.15400484 -0.07298001 0.15535966 0.097673416 -0.0806754 -0.043936133 0.092285305
0.02892336 -0.10081943 -0.1737418 -0.004914467 0.08286109 0.06879924 -0.05320389 -0.036497984
0.12518735 -0.00071337353 -0.043191504 0.14308183 -0.03794563 -0.078975044 -0.061866194 0.1845498
-0.06128868 -0.16908614 -0.062497325 0.0049815844 -0.05121156 -0.008821329 0.0082442695 0.08635559
0.08235168 -0.07420742 0.06054977 -0.15878415 0.056324672 -0.14413692 -0.18277551 -0.078189954
-0.11308344 0.06930337 -0.10280126 0.021674896 -0.12966494 -0.072773516 0.064434335 0.08751163
0.09552273 0.08272145 -0.015045764 -0.13818349 -0.114792936 0.022043457 -0.0046371967 0.081228346
0.103591084 -0.029975966 -0.04046626 0.041116912 -0.0060970546 0.12087974 -0.0026005025 0.04606392
0.023206007 -0.09518011 0.07510489 -0.080841236 0.07215871 0.06799006 -0.056926537 0.051142562
-0.0001259959 -0.113726914 -0.016487313 -0.15099083 0.06567647 0.07152266 -0.04807069 -0.14179185
0.018303951 0.104883865 0.044752143 0.035295963 0.024656678 0.044491563 -0.0035381094 0.107806265
-0.050118778 -0.008590502 -0.11889256 0.022465616 0.04252867 0.17129667 0.09593732 0.060706582
0.037362028 0.075913645 0.014661986 -0.07847347 -0.045909718 -0.09363587 -0.056990072 0.103842534
0.05950021 0.11530254 -0.109782025 0.08374901 -0.04232061 -0.0627268 0.09400991 -0.15383998
0.07080006 0.044556 -0.09907016 0.052795187 0.1013938 0.025914712 0.03582337 -0.029975595

network_body._body_endoder.seq_layers.2.bias f4 [128]
00000000: 0000 0000 0000 0000 0000 0000 0000 0000
00000010: 0000 0000 0000 0000 0000 0000 0000 0000
00000020: 0000 0000 0000 0000 0000 0000 0000 0000
00000030: 0000 0000 0000 0000 0000 0000 0000 0000
00000040: 0000 0000 0000 0000 0000 0000 0000 0000
00000050: 0000 0000 0000 0000 0000 0000 0000 0000
00000060: 0000 0000 0000 0000 0000 0000 0000 0000
00000070: 0000 0000 0000 0000 0000 0000 0000 0000
00000080: 0000 0000 0000 0000 0000 0000 0000 0000
00000090: 0000 0000 0000 0000 0000 0000 0000 0000
000000a0: 0000 0000 0000 0000 0000 0000 0000 0000
000000b0: 0000 0000 0000 0000 0000 0000 0000 0000
000000c0: 0000 0000 0000 0000 0000 0000 0000 0000
000000d0: 0000 0000 0000 0000 0000 0000 0000 0000
000000e0: 0000 0000 0000 0000 0000 0000 0000 0000
000000f0: 0000 0000 0000 0000 0000 0000 0000 0000
00000100: 0000 0000 0000 0000 0000 0000 0000 0000
00000110: 0000 0000 0000 0000 0000 0000 0000 0000
00000120: 0000 0000 0000 0000 0000 0000 0000 0000
00000130: 0000 0000 0000 0000 0000 0000 0000 0000
00000140: 0000 0000 0000 0000 0000 0000 0000 0000
00000150: 0000 0000 0000 0000 0000 0000 0000 0000
00000160: 0000 0000 0000 0000 0000 0000 0000 0000
00000170: 0000 0000 0000 0000 0000 0000 0000 0000
00000180: 0000 0000 0000 0000 0000 0000 0000 0000
00000190: 0000 0000 0000 0000 0000 0000 0000 0000
000001a0: 0000 0000 0000 0000 0000 0000 0000 0000
000001b0: 0000 0000 0000 0000 0000 0000 0000 0000
000001c0: 0000 0000 0000 0000 0000 0000 0000 0000
000001d0: 0000 0000 0000 0000 0000 0000 0000 0000
000001e0: 0000 0000 0000 0000 0000 0000 0000 0000
000001f0: 0000 0000 0000 0000 0000 0000 0000 0000
0.0 0.0 0.0 0.0 0.0 0.0 0.0 0.0
0.0 0.0 0.0 0.0 0.0 0.0 0.0 0.0
0.0 0.0 0.0 0.0 0.0 0.0 0.0 0.0
0.0 0.0 0.0 0.0 0.0 0.0 0.0 0.0
0.0 0.0 0.0 0.0 0.0 0.0 0.0 0.0
0.0 0.0 0.0 0.0 0.0 0.0 0.0 0.0
0.0 0.0 0.0 0.0 0.0 0.0 0.0 0.0
0.0 0.0 0.0 0.0 0.0 0.0 0.0 0.0
0.0 0.0 0.0 0.0 0.0 0.0 0.0 0.0
0.0 0.0 0.0 0.0 0.0 0.0 0.0 0.0
0.0 0.0 0.0 0.0 0.0 0.0 0.0 0.0
0.0 0.0 0.0 0.0 0.0 0.0 0.0 0.0
0.0 0.0 0.0 0.0 0.0 0.0 0.0 0.0
0.0 0.0 0.0 0.0 0.0 0.0 0.0 0.0
0.0 0.0 0.0 0.0 0.0 0.0 0.0 0.0
0.0 0.0 0.0 0.0 0.0 0.0 0.0 0.0

action_model._discrete_distribution.branches.0.weight f4 [3, 128]
00000000: 8f0a 783b 4ef7 2f3c 7f4c 68ba 9d08 c0b9
00000010: db77 32b7 37ed 963b fba3 b5bb 1349 83bb
00000020: 3b42 fbbb 777c 913b a76a 253b 1a73 a83b
00000030: 376a 5cbb 4268 0ebc 754f 9f3c 8039 163b
00000040: f85c d0b9 8078 673b 2b81 aabb 5f6b 15bc
00000050: 5bf1 c939 47d1 0d3c fa34 a4bb 2dcb e53b
00000060: 1d10 37bc 395d a03b c0a6 993a 34de 853b
00000070: edac 5e3b 678a 38bc ebaf df39 c119 bf3b
00000080: 9086 743c b56a f839 5c73 8c3c c4bd 01bc
00000090: 8e28 c53b b2ff 363b bb72 bb3b 6f3a 36bc
000000a0: 4766 d0bb ab4b 19bc db08 81bb 5070 55bb
000000b0: 5904 a6bc a35d 2abb 15cd babb 9319 14bb
000000c0: 87b1 e5ba 2221 9a3b f6c6 4cba afdf 30bb
000000d0: 1551 9b3b 8f25 efbb 4bf6 883c 03f3 06bb
000000e0: 0a4b 673b 13e2 cf3b 308c 4f3b 0bf7 133b
000000f0: 53ef 8bbb cfba 8bbb 9b60 32bc 73f1 c0bb
00000100: 6a33 7b3a 3feb d8bb c3fc c13a e2b3 9ebb
00000110: bdd5 883b b334 4c3c 7f45 5d3b d765 193b
00000120: a64d 9bbb 88da 8e3c dff3 5bbb b2d6 87ba
00000130: ab6b e73b ac15 463c dbee 5bba b5f7 e5bb
00000140: 8538 d83a 707e 563c 9adb 5d3c 3b9d 0b3c
00000150: dd1d 7ebc 653c eabb fd23 e5bb be6c 133c
00000160: 0017 993c b5a8 63bc f74f 0fbc c7a8 123c
00000170: f802 d1ba 6d8a 6639 bb38 623b aa61 e5bb
00000180: 7c5b 05bc 1322 8abb 2830 273c 3f7c 1abb
00000190: cbae 0abc 330a 95ba 4b82 05bc 9d06 f6bb
000001a0: bf51 71bc a59a ec3b 1d44 f1bb 9ff9 14bc
000001b0: fbe8 74bb 91ce 31bb 4716 c23b c3d5 163c
000001c0: 4711 2cbb 2299 2c3a 9704 aabc 7f77 a439
000001d0: d2e0 3b3c 9bb5 723b 3dbc 8f3a c63d 163c
000001e0: b8bd 1db9 7209 1a3c f927 a03c 5b8b f53b
000001f0: 45c7 98bb 9f0f d6bb 099b 8d3b 1127 8cba
00000200: 48af 763b 2808 b1ba f559 5a3c 9639 033c
00000210: 2d64 c43b 794c a3bc e225 72ba aff5 2fbb
00000220: 35ba f5ba 71d6 94bb 83eb cb3b 0a45 783b
00000230: 3f9c 1b3c 066b c1ba fe0d 2f3c adf1 473c
00000240: 5570 41bb 209d f23a f73d 6fbc 9730 2abc
00000250: 5c7d b73b efd7 333c 5c91 93ba 3d73 633b
00000260: 749e 01bc 67e4 99bb 7f3d afbc 4828 903c
00000270: cd81 74bb 8ffd 6f3c acd6 07ba 17b8 cebb
00000280: 0ba9 283c d935 823c 869f c5bb 4dc1 26bc
00000290: 9e99 42bb b478 993c 58e8 f5bb d346 2fb9
000002a0: 0f1a 2c3c 7f46 83bb 4ff8 753c 5a75 d4bb
000002b0: d9bf 363c f9d1 ca3b 05b4 693c ef1f b93b
000002c0: c22e 96ba 858b 003c 899e 8c3c bf07 0ebb
000002d0: b3eb 0d3c 5522 043c ff3d 5dba 27b8 093b
000002e0: cb6c fb3a ef67 ab3b d0ce 47bb 1f87 4f3b
000002f0: 8561 243b a35f 35bb 7b4e 203c f4f2 9fbb
00000300: 12f7 72ba 8f9a 4ebc 5e9f a2bb 5510 8fbb
00000310: fd4b 913c 13a4 84ba 9f01 f43b a00e 0abc
00000320: d771 ac3b a0f0 5b3a 578f 92bc b0d4 e8bb
00000330: 8d98 763c 733e 0f3b 5bd8 b3bb 0fc4 d4bb
00000340: e524 5e3b e058 de3a 723b 763c e513 93bc
00000350: c814 173c db2b 693b e233 43bb e6f8 033c
00000360: 3d77 e5b7 48bf 563c 67ce 303c dd34 7cbb
00000370: ebcb 113c 1dd2 23bb e69a bebb 351e 393b
00000380: d206 963b 1ace 613b 9d72 ef3b 3f28 02bc
00000390: d07f 4fba e342 be3a af17 babb cf16 8bbb
000003a0: 15a2 81bc a7b7 9c3a a714 abbb 0e58 b0bb
000003b0: d091 7f3c 7c70 93b9 9b76 7fbb 0271 823c
000003c0: 3ba4 ae3b 9ada 7b3b e6c8 35bb 6553 cbbb
000003d0: 0b5a a7bc 4542 5d3b 039e 743b 9579 22bb
000003e0: 97ce 923b cd7e f63b d54f 81bc 20b8 2b3a
000003f0: 8fe9 b6bb ad69 e4bb c3a6 f23b df4b 563c
0.003784809 0.010740114 -0.00088614965 -0.0003662751 -1.0637533e-05 0.004605915 -0.0055432296 -0.004006514
-0.0076678074 0.004439886 0.0025240572 0.0051406743 -0.0033632645 -0.008691849 0.019447068 0.0022922456
-0.0003974212 0.0035319626 -0.0052033863 -0.009119838 0.0003851753 0.008655853 -0.005011198 0.007012746
-0.011173275 0.0048939255 0.0011722669 0.0040853266 0.0033977584 -0.011263466 0.00042664944 0.0058319275
0.01492466 0.0004738175 0.017144851 -0.007918779 0.0060167974 0.0027923402 0.005720464 -0.01112233
-0.0063598487 -0.00935642 -0.003937823 -0.0032568164 -0.020265745 -0.0025995753 -0.005700717 -0.0022598251
-0.0017524221 0.004703657 -0.000781163 -0.0026988795 0.0047398903 -0.0072981785 0.016719004 -0.0020591624
0.003529253 0.006344089 0.0031669252 0.002257767 -0.004270473 -0.0042642127 -0.01088729 -0.005888158
0.00095825514 -0.0066198404 0.001480006 -0.004843221 0.00417587 0.012463736 0.0033763347 0.0023406649
-0.004739481 0.017438188 -0.0033562107 -0.0010363667 0.0070623956 0.012090128 -0.0008389779 -0.0070180544
0.0016496336 0.0130916685 0.013541127 0.008521373 -0.01551005 -0.007148313 -0.0069928155 0.008998094
0.018687725 -0.013895203 -0.008747092 0.0089513725 -0.0015946319 0.00021986077 0.0034518677 -0.007000168
-0.008139487 -0.0042154877 0.010204352 -0.0023572592 -0.008464525 -0.0011370837 -0.00814874 -0.0075081126
-0.014728962 0.0072205835 -0.007362856 -0.009092717 -0.0037370312 -0.002713118 0.005923066 0.009206238
-0.0026255415 0.0006584098 -0.020754142 0.0003136955 0.011467176 0.0037034515 0.0010966134 0.009170001
-0.00015043363 0.009401666 0.01955031 0.007493419 -0.0046624267 -0.006532624 0.00432146 -0.0010692795
0.0037641097 -0.0013506459 0.0133271115 0.008009335 0.005993387 -0.019933926 -0.00092372124 -0.002684932
-0.0018747511 -0.004542165 0.0062231435 0.0037882947 0.009497701 -0.0014756627 0.010684488 0.012203616
-0.0029516418 0.0018509962 -0.014602176 -0.010387561 0.005599661 0.010976776 -0.001125853 0.0034706139
-0.007911313 -0.004696417 -0.021391628 0.017597333 -0.0037308813 0.014647855 -0.000518183 -0.0063085663
0.010294209 0.015894817 -0.0060309796 -0.010177922 -0.0029693614 0.018734314 -0.007504504 -0.00016715685
0.01050426 -0.0040062065 0.015012815 -0.006483716 0.0111541385 0.0061895815 0.014264111 0.0056495587
-0.0011458027 0.007845764 0.01716544 -0.0021672098 0.008662152 0.008064826 -0.0008439719 0.0021014304
0.0019182203 0.0052308957 -0.003048826 0.0031666232 0.002508254 -0.0027675412 0.009784336 -0.004881257
-0.0009268384 -0.012610092 -0.0049628457 -0.0043659606 0.01773643 -0.0010119699 0.0074464823 -0.008426338
0.005262594 0.0008390043 -0.017890615 -0.0071054325 0.015051019 0.002185729 -0.005488438 -0.0064930986
0.0033896503 0.0016963743 0.015028821 -0.017953822 0.009221263 0.0035579118 -0.0029785563 0.0080549475
-2.7354452e-05 0.013107128 0.010791398 -0.0038483657 0.0088987155 -0.0024997063 -0.005816805 0.0028246765
0.0045784498 0.0034455121 0.007307364 -0.007944166 -0.0007915469 0.0014515783 -0.005679093 -0.0042446624
-0.015824357 0.0011956588 -0.005220968 -0.0053815907 0.015598729 -0.00028121832 -0.0038980606 0.015923027
0.0053296364 0.0038429857 -0.0027738153 -0.0062050098 -0.020428678 0.0033761424 0.0037325628 -0.0024791707
0.004480194 0.00752244 -0.015785137 0.0006550569 -0.0055820416 -0.0069706053 0.0074051335 0.0130796125

action_model._discrete_distribution.branches.0.bias f4 [3]
00000000: 0000 0000 0000 0000 0000 0000
0.0 0.0 0.0

action_model._discrete_distribution.branches.1.weight f4 [3, 128]
00000000: 9a65 55ba 373a 353b 99b9 8dbc 677c fab8
00000010: 1d26 cf3b 5e7d 8cbb 7f1f d6bb 5525 f03a
00000020: f5f9 013c 98eb a63c f530 0dbb 6b43 fbbb
00000030: ae34 9739 0df2 6ebb bdd6 06bb 7d0e e73a
00000040: 4b86 9e3a 27a4 14bc 3481 09bc 4b22 b0bb
00000050: 77bb 21bc a8ec f13b 65b9 993b f3d6 18bc
00000060: c10e b4bb 7666 03bc 6941 04bc 5d7b 8dba
00000070: ab3e 87bc 53b0 e33b 7352 073c 8213 9f3b
00000080: e9dc bd39 afa4 aebb 9a0d ff37 ab5f adbb
00000090: 32fc 67bb d1ab 073a cb6f d73a 42e2 a43b
000000a0: 17a5 983b e76d e0ba 1b51 9a3c 1af8 15bc
000000b0: 0a57 623a de7c 1f3b 33c1 703c 72c0 823a
000000c0: 9bb7 90bb fbc9 22bc 06a6 463c 7223 57bb
000000d0: 9dc8 98bb 4d3f 00bc 30f6 103b 181a 4cbc
000000e0: 3f84 bebb f7a6 5f3a 1fe1 6a3c 5517 c43b
000000f0: ddf3 b6bb 0044 59bc bb8b d7bb 9eb8 37bc
00000100: 8da7 edba 1fb7 4dbc aeb2 143c 8c5c c53c
00000110: f051 273c 2716 8b3b 9c78 913c 2f98 b33a
00000120: 269f b43b 5def 3c3c 68fd 9c3b 59d8 42bc
00000130: 7f95 b7ba c3d1 a53c 2d07 09bc 5901 0cbc
00000140: a294 793c 686a 433c cade 10ba 1d46 07bc
00000150: 5007 0b3c 447a ccbb efc4 713b a81d d63b
00000160: cd29 4cbc 93d1 86ba ca03 e63b 450d 653b
00000170: 1875 d5bb 9bc8 24bc 4502 243c 4da6 e1ba
00000180: 128e 67bc b094 f0bb d3ff 72bc 56a6 02bc
00000190: 9e3b 81bc 9a56 d7bb 8523 1bbc 8df3 94bb
000001a0: 2578 d7bb 5906 133b db33 6ebb 4f0d 253c
000001b0: e0ed afbb 4677 2e3c 955b 4bbc 1d9b 2a3b
000001c0: 3211 a83b cbc1 fe3b f094 cd3b 82dc f8bb
000001d0: f3fb 26bb 7743 6ebc 1fe4 2aba 20af 62bc
000001e0: a093 793b 58f4 fbba 30cf c43b fa93 9b3a
000001f0: ff93 af3c 4587 dd3b c3bf fc3a a6f2 9d3b
00000200: 070b 6ebc 25b6 d23b 65ae 3fbc 3bd2 513c
00000210: d090 72bb e6ca 433b a46e be3a 58a5 483b
00000220: 2c05 a8bb 98d3 dc3b 29f8 4b3b 2b6a f13b
00000230: 3ba6 193b b7af 103c aac2 7abb e8e5 f73a
00000240: 433e 6cba 01c8 9c3b 8f3b 47bb 1310 17bc
00000250: 2f90 e0bb 0c5e 9fbb d91c 0cbc 6426 113c
00000260: 6f39 6b3b 2bb2 c53b c076 8d3b 83d5 2e3c
00000270: 46e3 a639 6891 cdba c89e 0b3b 5e28 87bc
00000280: b7e9 753c db19 1bbc 502c d23a 25ed 0c3c
00000290: 2c53 c2bb 7fbc af3c 5798 20bc 39b9 bf3b
000002a0: 8aeb b9b9 f356 d2bb 3168 8dbb 3b89 52bb
000002b0: 1502 cd37 6b65 023b daf6 673c c03a 713a
000002c0: 6f3b 9fbb a86e 0dbc 6f9a 9ebb 32c4 563c
000002d0: c031 fcba bfc2 60ba efd2 343c fdb5 553c
000002e0: 407e 773c 256a f7bb c023 433c b83c fbbb
000002f0: 02a7 55bc f511 81bb e344 7a3c 5785 07bb
00000300: b335 783b fdcd 4e3c dcc2 a73a 72a2 0cbb
00000310: 68d4 b439 ce7a 8f3c 7393 24bb 6761 e7bb
00000320: cf19 afba 83ea 01bc f1dc 03bb b294 28bc
00000330: 1a02 d8bb 4ee2 1b3c efd3 253c a1e9 093a
00000340: a86e 73bc 0609 9cba c94e b93a 03df 81bb
00000350: 0ff2 a1bb d3c6 10bc d8bd 683c 2261 423c
00000360: ad22 98b9 a8ee d9ba 4ae0 beba a74e 173b
00000370: ab94 70b9 7b7f 013c 93b1 d7b9 a79f cabb
00000380: 6b3a 6d3b f478 80bb d764 d53a 505d dfbb
00000390: cb81 06bc e047 b9bb 08b4 e33b 5f73 89bc
000003a0: 1f58 07bc c51a 533c 6db4 ebba 6732 2bbc
000003b0: 6f38 91bb b755 9abb c985 0ebc d334 37ba
000003c0: 0e2f 1abb 4d16 d33b 98e4 d4bb 23ab b43c
000003d0: 205a 1a3c f7b7 843c e5bc 043c cec5 2a3b
000003e0: da28 d53b c86b 45bb 3a46 0bbc b310 873a
000003f0: 425a 75bc 90e5 1ebc 7fcf 2ebb a9e8 2c3c
-0.0008140445 0.0027653107 -0.017300414 -0.00011944101 0.006321682 -0.004287406 -0.0065345163 0.0018321673
0.00793313 0.020376012 -0.0021544073 -0.007667949 0.00028840214 -0.0036460191 -0.0020574771 0.0017628219
0.0012094466 -0.00907234 -0.008392621 -0.005375182 -0.009871355 0.007382948 0.00469129 -0.009328592
-0.005494923 -0.008020034 -0.008072236 -0.0010794211 -0.016509375 0.0069485097 0.0082594035 0.0048546204
0.0003621348 -0.0053296904 3.0404703e-05 -0.0052909455 -0.0035398123 0.0005175444 0.0016436515 0.005031855
0.004658352 -0.0017122597 0.018837502 -0.00915339 0.00086341857 0.0024335901 0.0146945 0.0009975566
-0.0044164187 -0.009935851 0.012124544 -0.0032827524 -0.004662587 -0.007827592 0.0022119395 -0.012457393
-0.005814105 0.00085316546 0.0143359 0.0059842267 -0.00558327 -0.013260841 -0.0065779365 -0.01121345
-0.0018131599 -0.0125558665 0.009075804 0.024091981 0.0102124065 0.004244584 0.017757706 0.001370197
0.005512136 0.011531678 0.0047909506 -0.011892402 -0.0014006345 0.020241624 -0.008363527 -0.008545243
0.015233191 0.011927225 -0.0005526362 -0.008256462 0.00848563 -0.006240161 0.0036891063 0.006534297
-0.012461138 -0.0010285847 0.0070194947 0.0034950536 -0.006514203 -0.010057594 0.010010307 -0.0017215699
-0.014132993 -0.0073419437 -0.014831501 -0.007974228 -0.015775498 -0.006571603 -0.009468918 -0.004545635
-0.0065756016 0.0022434203 -0.0036346826 0.010073974 -0.005368933 0.010648554 -0.012411972 0.0026032396
0.005129003 0.0077745668 0.0062738582 -0.007594646 -0.0025479763 -0.014542452 -0.0006518978 -0.013835698
0.0038082376 -0.00192226 0.006006144 0.0011869662 0.021432875 0.00676051 0.0019283224 0.0048201857
-0.014528996 0.0064304047 -0.011699294 0.0128064705 -0.0037012585 0.0029875576 0.0014528823 0.003061613
-0.0051275697 0.006739091 0.0031123257 0.0073673925 0.0023445028 0.008830956 -0.0038263001 0.0018913122
-0.0009011963 0.0047845845 -0.003040049 -0.009220141 -0.0068531255 -0.004863506 -0.0085518 0.008859251
0.0035892387 0.006033202 0.0043171346 0.010671022 0.0003183132 -0.0015683593 0.0021304358 -0.01649874
0.015009335 -0.009466614 0.0016034935 0.008601462 -0.005930325 0.021452187 -0.009801946 0.0058509377
-0.0003546144 -0.0064190566 -0.004315399 -0.0032125253 2.4438874e-05 0.0019896876 0.014157975 0.0009202175
-0.00485938 -0.00863234 -0.0048401873 0.0131083 -0.0019240901 -0.00085739413 0.011036619 0.013043878
0.015105784 -0.007550495 0.011910379 -0.0076671503 -0.013040306 -0.003938908 0.015275213 -0.0020678842
0.0037873804 0.012622354 0.0012799161 -0.002145913 0.0003449053 0.017514613 -0.00251123 -0.007061172
-0.0013359132 -0.007929447 -0.0020120705 -0.010289358 -0.0065920474 0.009514404 0.01012133 0.00052609487
-0.0148579255 -0.0011904545 0.001413786 -0.0039633526 -0.0049421857 -0.008836466 0.0142054185 0.011863979
-0.00029017535 -0.0016626911 -0.0014562693 0.0023087652 -0.00022943567 0.007903929 -0.000411403 -0.006183583
0.003619815 -0.0039206687 0.0016280663 -0.0068165436 -0.008209656 -0.00565432 0.0069489516 -0.016778646
-0.008260756 0.0128848 -0.0017982848 -0.010449029 -0.0044317762 -0.004709925 -0.008698889 -0.00069887674
-0.0023526582 0.0064418674 -0.006496977 0.02205426 0.009420902 0.016201003 0.008101677 0.0026057842
0.006505114 -0.0030124057 -0.00850063 0.0010304659 -0.014975132 -0.009698287 -0.002667397 0.010553517

action_model._discrete_distribution.branches.1.bias f4 [3]
00000000: 0000 0000 0000 0000 0000 0000
0.0 0.0 0.0

network_body._body_endoder.seq_layers.0.weight f4 [128, 6]
00000000: 38b4 8d3e 6d74 2dbe 6d28 78bf 0457 4abf
00000010: 0a25 25be 0130 85be d287 62bd 3079 03be
00000020: 5802 be3d 5a1d 2ebf 97fa 76bc 5913 4dbe
00000030: a24f 163e 785f d33e cd24 94be 06c2 5a3f
00000040: 770e a3bc d96c 023e eacd 85bc 0050 63be
00000050: 2b64 6fbe 638a a7be cab9 51be 53d3 0c3f
00000060: 7835 80bf 8f8d 003d 4e44 46bd 92ac 923e
00000070: 713e cd3e a708 65be b6aa 0dbf f1f1 31bf
00000080: df56 eabe 881b 8bbe dd51 f0be ba3a 35bf
00000090: 7237 e7be 03dd 1dbe a2b3 a43e 6906 56be
000000a0: e9fb 933e 5470 25bf 0b1b 0f3e 8c26 d73e
000000b0: 5cb1 9d3e 0ba1 0bbf f870 98bb c890 c3bd
000000c0: 17c4 963e 4967 013f 071a 68bd bed9 99be
000000d0: b41c 32be 3450 d1bd 7243 54be e51a 8fbe
000000e0: 2131 1fbe 17e9 a0be b294 acbe 9045 283e
000000f0: dc2a 3ebd f0ac 36bd 29c3 1abc 6f8b 91be
00000100: d977 5abf 2505 61be 332d 06bf 5050 8cbe
00000110: c2e5 1b3f 145f c83e de46 183e de09 87bc
00000120: 3c47 973d ae62 f7be 4b39 75bc ef7c 4bbf
00000130: fda2 c9be edc4 91be a675 f73c 1d1d 703e
00000140: 63f2 bebe 4f51 4abe 83bf d3be 4003 02bf
00000150: 2840 3b3d bcf6 64be c70e 483e f0e4 ffbd
00000160: 2eef 15bd 01b8 2c3f 2df4 e9be 75b7 023f
00000170: 7908 8cbe 0743 673e 2b23 a2be 8869 7bbe
00000180: b215 2cbe 09ea f2bd 69c5 cc3e 60f3 6dbe
00000190: 5fa6 34bf 2527 b93e cbfa 33bf 9dbb e13e
000001a0: 19cc 4bbf 736b 8f3e fed4 6fbf a3eb 4abe
000001b0: b4bb b9be 0a8a d6bd 4b4e 8d3d d9dc 023f
000001c0: 9539 0ebf f1b7 8e3e b1db 4a3e 15f0 9c3e
000001d0: fad3 793e 967d 29bd ae9a 8f3e ad2f 85bf
000001e0: ff57 0ebe 3a89 8ebe a4df de3e 6790 38bd
000001f0: 921e 6f3f 7040 063f 76b1 6fbd 8f3e 02bf
00000200: ada9 83be 7ef3 dabb 70e3 2dbf 87a0 6cbf
00000210: 1e12 e4be 2620 c63d 610f 503e a3f5 34be
00000220: adb4 87be d03d 493e ee83 5dbe 5e79 0fbf
00000230: 158d bdbe 9f8f 683d 0e8d 063f b124 dfbe
00000240: a9d5 f93d 3d2d 1b3f 1e6e 843e d3d8 213e
00000250: ea89 2abf 6a61 033e 13e7 eb3e 186e 5fbf
00000260: 2a48 efbc 1a95 bcbe a709 cc3e a12d a63e
00000270: 41f0 87bf 87e4 493f 9f7e ba3e 5020 57bd
00000280: 9fdd 213f 988f 4fbf bda9 8dbc 21f3 a1bd
00000290: 841a 403d ba17 73be c257 a0be 1047 1bbe
000002a0: 148b 59be 3eb7 c83e 61fc 2c3f 29f3 c6be
000002b0: 8152 aebd 20fa 873d 7703 893e 0c94 edbd
000002c0: 231a 15bd a939 103e 5db8 c5be 51a1 0b3e
000002d0: 93ea 00be ac8b 38bf d5e8 dc3e b3ca ab3d
000002e0: 26d5 2f3e f15f 2abe 9357 263e eba4 933e
000002f0: 34fe 6ebe 5108 053e 05f8 91bf 9319 233e
00000300: 32f0 dbbe ed9d 983e 5acf b83e a796 15bf
00000310: 7d6a e43e 5fc7 d43e 1dc3 283e 63a7 023f
00000320: a4fe 1b3e e21b 9939 d46b f93e 5a7a 893e
00000330: 5d17 fc3e 1e18 ec3e 63bd 0fbf f585 b0bd
00000340: c793 b13e c9e2 e8be 57d6 43bd 660a 243d
00000350: 77ed 50be 904a 22bc 0846 51bf 2a5e ab3f
00000360: 39bc f43e 62fe 90bc fa2e 053f bf49 0e3e
00000370: 9a9d 6d3d 7137 95be d88c d53d 5477 4dbe
00000380: c0ec cd3e 1208 76be f559 7abf 58ac 5dbf
00000390: da59 eebe 36a6 f8be 9dce 46bf f954 cb3e
000003a0: 702c 8cbe 69a1 2c3f 6767 113e 1a29 783d
000003b0: 1bc2 47be 8929 4d3f 8328 4c3f 1dda 603e
000003c0: 8e85 923e c31f 443f 1afb 613e c75b 183f
000003d0: 8de9 be3c 2dc8 563e 62d6 f43c 4e9c 0abf
000003e0: 3387 18be 9912 55be 9639 87bf fb22 1c3f
000003f0: 9eac cabe 9790 1cbf d511 373e 9c72 97bc
0.27676558 -0.16938944 -0.96936685 -0.79039025 -0.1612741 -0.26013187 -0.05530531 -0.12839198
0.09277791 -0.68013537 -0.015074394 -0.20026912 0.14678815 0.41283774 -0.28934327 0.85452306
-0.019904358 0.12736835 -0.016333539 -0.22198486 -0.23378055 -0.32722768 -0.20481029 0.55009955
-1.0016317 0.031385 -0.048404984 0.28647286 0.40086702 -0.22366582 -0.5533861 -0.695098
-0.45769402 -0.27169442 -0.46937457 -0.70792735 -0.4515949 -0.1541634 0.321683 -0.20900883
0.2890313 -0.64624524 0.1397516 0.42021596 0.30799377 -0.5454261 -0.004652139 -0.09549099
0.2944648 0.50548226 -0.056665447 -0.30048937 -0.17393762 -0.10220376 -0.20728853 -0.27950206
-0.15546085 -0.31427833 -0.33707196 0.16432786 -0.046427593 -0.04459852 -0.009445944 -0.28426692
-0.85339123 -0.21974619 -0.5241272 -0.27405024 0.6089746 0.3913504 0.14870784 -0.016484197
0.07386634 -0.48317474 -0.014967273 -0.7948751 -0.39382163 -0.28470555 0.030207466 0.23448606
-0.372943 -0.1975758 -0.4135705 -0.5078621 0.04571548 -0.22359747 0.19536887 -0.12494838
-0.036605053 0.6746827 -0.45694104 0.51061183 -0.27350214 0.22584163 -0.31667456 -0.24551976
-0.16805151 -0.11861045 0.39994362 -0.23237371 -0.7056636 0.36162677 -0.70304555 0.4408845
-0.79608303 0.28011665 -0.93684375 -0.19816451 -0.3627602 -0.104755476 0.06899699 0.51118237
-0.55556613 0.2787471 0.19810368 0.30651918 0.24397269 -0.041379534 0.280477 -1.0405174
-0.13900755 -0.2783907 0.4353 -0.045059588 0.9340602 0.52442074 -0.05851885 -0.50876707
-0.2571539 -0.0066818586 -0.6792517 -0.92432445 -0.44545072 0.096741006 0.20318367 -0.17671828
-0.26505032 0.19652486 -0.21632358 -0.56044567 -0.370217 0.056777593 0.5255898 -0.4358268
0.121989556 0.60615903 0.25865263 0.15805368 -0.6661669 0.1283013 0.46074733 -0.87277365
-0.029209215 -0.36832505 0.39851114 0.32456687 -1.0620195 0.7886433 0.3642473 -0.05252105
0.6322879 -0.8107848 -0.017292852 -0.07907701 0.046900287 -0.2373952 -0.31316954 -0.15163827
-0.2124446 0.39202303 0.675726 -0.3885739 -0.0851183 0.066395044 0.26760456 -0.11600503
-0.03640188 0.14084496 -0.3861722 0.13635756 -0.12589483 -0.7208812 0.43146387 0.08388271
0.17171153 -0.16638161 0.16244344 0.2883676 -0.23339158 0.12991454 -1.1403815 0.15927725
-0.42956692 0.29807988 0.36095697 -0.58433 0.44612494 0.41558358 0.1648068 0.5103666
0.15233856 0.00029203208 0.4871508 0.2685116 0.49236575 0.4611215 -0.56148356 -0.086193
0.34683058 -0.45485523 -0.047811832 0.04004898 -0.20403086 -0.009905472 -0.81747484 1.3388112
0.47799852 -0.017699424 0.52024806 0.1389532 0.05801163 -0.2914386 0.104272544 -0.20065051
0.40219688 -0.24026516 -0.97793514 -0.865911 -0.46552926 -0.4856431 -0.77659017 0.39713266
-0.27377653 0.6743379 0.14199601 0.060586073 -0.19507639 0.801415 0.79749316 0.21958204
0.2861752 0.76610965 0.22068444 0.5951504 0.023304725 0.20974799 0.029887382 -0.5414475
-0.14895324 -0.20807876 -1.0564449 0.60990876 -0.3958482 -0.61158127 0.17877896 -0.018487267

network_body._body_endoder.seq_layers.0.bias f4 [128]
00000000: 0000 0000 0000 0000 0000 0000 0000 0000
00000010: 0000 0000 0000 0000 0000 0000 0000 0000
00000020: 0000 0000 0000 0000 0000 0000 0000 0000
00000030: 0000 0000 0000 0000 0000 0000 0000 0000
00000040: 0000 0000 0000 0000 0000 0000 0000 0000
00000050: 0000 0000 0000 0000 0000 0000 0000 0000
00000060: 0000 0000 0000 0000 0000 0000 0000 0000
00000070: 0000 0000 0000 0000 0000 0000 0000 0000
00000080: 0000 0000 0000 0000 0000 0000 0000 0000
00000090: 0000 0000 0000 0000 0000 0000 0000 0000
000000a0: 0000 0000 0000 0000 0000 0000 0000 0000
000000b0: 0000 0000 0000 0000 0000 0000 0000 0000
000000c0: 0000 0000 0000 0000 0000 0000 0000 0000
000000d0: 0000 0000 0000 0000 0000 0000 0000 0000
000000e0: 0000 0000 0000 0000 0000 0000 0000 0000
000000f0: 0000 0000 0000 0000 0000 0000 0000 0000
00000100: 0000 0000 0000 0000 0000 0000 0000 0000
00000110: 0000 0000 0000 0000 0000 0000 0000 0000
00000120: 0000 0000 0000 0000 0000 0000 0000 0000
00000130: 0000 0000 0000 0000 0000 0000 0000 0000
00000140: 0000 0000 0000 0000 0000 0000 0000 0000
00000150: 0000 0000 0000 0000 0000 0000 0000 0000
00000160: 0000 0000 0000 0000 0000 0000 0000 0000
00000170: 0000 0000 0000 0000 0000 0000 0000 0000
00000180: 0000 0000 0000 0000 0000 0000 0000 0000
00000190: 0000 0000 0000 0000 0000 0000 0000 0000
000001a0: 0000 0000 0000 0000 0000 0000 0000 0000
000001b0: 0000 0000 0000 0000 0000 0000 0000 0000
000001c0: 0000 0000 0000 0000 0000 0000 0000 0000
000001d0: 0000 0000 0000 0000 0000 0000 0000 0000
000001e0: 0000 0000 0000 0000 0000 0000 0000 0000
000001f0: 0000 0000 0000 0000 0000 0000 0000 0000
0.0 0.0 0.0 0.0 0.0 0.0 0.0 0.0
0.0 0.0 0.0 0.0 0.0 0.0 0.0 0.0
0.0 0.0 0.0 0.0 0.0 0.0 0.0 0.0
0.0 0.0 0.0 0.0 0.0 0.0 0.0 0.0
0.0 0.0 0.0 0.0 0.0 0.0 0.0 0.0
0.0 0.0 0.0 0.0 0.0 0.0 0.0 0.0
0.0 0.0 0.0 0.0 0.0 0.0 0.0 0.0
0.0 0.0 0.0 0.0 0.0 0.0 0.0 0.0
0.0 0.0 0.0 0.0 0.0 0.0 0.0 0.0
0.0 0.0 0.0 0.0 0.0 0.0 0.0 0.0
0.0 0.0 0.0 0.0 0.0 0.0 0.0 0.0
0.0 0.0 0.0 0.0 0.0 0.0 0.0 0.0
0.0 0.0 0.0 0.0 0.0 0.0 0.0 0.0
0.0 0.0 0.0 0.0 0.0 0.0 0.0 0.0
0.0 0.0 0.0 0.0 0.0 0.0 0.0 0.0
0.0 0.0 0.0 0.0 0.0 0.0 0.0 0.0

network_body._body_endoder.seq_layers.2.weight f4 [128, 128]
00000000: 3822 743b a684 d8bd a9df 6e3d 0ad6 e4bd
00000010: cc35 903d 248c acbc 2f76 c4bd 233a 2ebd
00000020: b572 6a3d 5375 503e 783b 833d 8726 713d
00000030: 3d1a 1a3e 693d 303e 7e9d 49bd 15dc 4d3d
00000040: de44 c33c fdbf 443d 598c 8bbe 41f8 143e
00000050: 6495 7c3d 7a51 2b3e da6e b9bb d13c 913d
00000060: eb64 dfbc e662 6d3b b412 f33d 99ee f3bd
00000070: 6719 413c 863a 07be ba26 ae3c cf44 09be
00000080: 00e0 173e fb0d 21bd 01d4 22be 979b 383d
00000090: 3428 433c 277b e43d 412d c1bd 4ad6 06be
000000a0: 17d9 8b3d 6267 a1bc 39e7 88bd 0d67 e9bc
000000b0: bb9a 553c 7696 0f3d b705 febc f28c 863d
000000c0: 832e a7bd 9c41 b3ba e9f3 893c 6239 f73d
000000d0: 06a4 0a3e 0d9d a1bd 469d 143d c250 f2bd
000000e0: a77a a73c 9442 94bd db61 7f3d 768a 773d
000000f0: 51e9 b23d 7f7a e93d 79ff 12be d398 723d
00000100: dcb8 0bbe 0df5 213d 1097 0cbc f0ad 76bd
00000110: 99cd a23c 493e 123e d701 863d 3201 cc3d
00000120: 6100 483e 0170 8a3d c22f 013d 0aa8 e3bd
00000130: 53a8 9338 4346 edbd a93b b3bd 35d9 cabd
00000140: 942e 0b3e 5f08 e4bc 34b2 9a3c 380b de3c
00000150: b5e4 e83c 3120 623d ebc6 51be e951 cebd
00000160: 5f11 1b3e 318a 213d 5bf5 02be 8b9d 0e3e
00000170: a994 173d 5e60 183c f21c c73d d5b2 97bc
00000180: 9450 a03b ffb2 dabd 0623 8b3d 802b 7fbb
00000190: 4e2c 8d3c 4f42 70bd d56f 173d 1021 b23d
000001a0: ba6b c23c 2d14 e2bc 54a3 b2bd 7626 0dbd
000001b0: 2ee1 483d 6250 b9bd 5f1c 3fbd 80ee f73c
000001c0: 154e 923d 096c 543a 003b 823c d35f bdbd
000001d0: 1b49 7b3c 3c12 ae3d ad31 cc3d db29 58bd
000001e0: d7f8 d93c 9eee 6d3e 6ffc 33bd be9f bebd
000001f0: cb5e 79bc 294c 98bd 320a 99bd b1ab fbbc
00000200: a623 be3b 0446 be3c ee46 423c 83d7 35bd
00000210: 81d9 0fbe 9969 0e3d 8ce8 183d c9f0 b73d
00000220: a25b e7bc 92de 9c3d cc1d ed3c f15c 853d
00000230: 6d9d 30bd 8e51 a93d beb0 173d 02dd b5bd
00000240: 2f97 1fbd 46e1 c53d 9804 d03d 43bb 1abe
00000250: 1f79 d63d 9e0c 143e 1e0b 65bd 2b15 943d
00000260: 90a4 a9bd 830c 7fbd 29b5 80bd c6d5 15bd
00000270: 9065 b9bc fd6a 39ba f725 c5bd ae3b 393d
00000280: 8b02 4f3d cbeb 273d 4f8a 653d 5e64 1a3d
00000290: 3c01 32bd 0382 eabd 178d aa3d dedc 93bd
000002a0: 1a0e ff3c bd88 7c3d 732f 4d3d ca50 2e3d
000002b0: 9f98 12be 2c9a e33c 841e 90bd 510f f03d
000002c0: b670 dcbd 20e4 3abd 385f f93d ec8c be3d
000002d0: f703 423e 24b1 cebd 6043 213d 1ff2 3d3b
000002e0: 29a0 07be b717 ed3c 294a 673d 16e3 60bd
000002f0: 90a5 e33d 0dc5 20bc 4cfe aebd 2a77 51bc
00000300: a1ef c53d e0c9 b1bb a30a 31bd 5cba 8bbd
00000310: 18d0 31bd 2e4d 7a3c 9514 cc3c 5bd8 a03d
00000320: b1c8 633d 3ec1 663d 1320 2b3e e7de ec3d
00000330: 1043 d1bd dcdf 90bd 812d 963c 293c 83bd
00000340: 38e3 643e bed6 333e 1d58 0c3e be8e ccbd
00000350: 51fb 10bc f337 863d b97a 0cbe 37f5 51bc
00000360: 2c0f 38bd 26c1 483d 0d8b dc3d c5ab 21bd
00000370: aebd 093d 9266 953d 94dc babd 3bf5 ce3c
00000380: 35ef e53d 6dde 2e3d 6cf6 b63d 40ab 91bd
00000390: cf7a 913d 1257 86bc 241b 5cbe a1ff 223e
000003a0: 3cc2 e0bc c068 a5bc ca07 db3d 9def 0bbe
000003b0: 90c5 aa3d 2522 973d 94a1 ea3d 21d1 fd3d
000003c0: 7463 08be a663 9b3d fc4b 8d3e be9f 28be
000003d0: e8d2 1ebe 2d16 ab3c 697d 1c3d 107d 2d3e
000003e0: 34fe 5a3d 9954 f6bd 1b55 dfbd 7e2f a1bc
000003f0: 9b70 dd3c 6d60 33bc 7a19 49bc e3be 983d
0.0037251841 -0.10572176 0.058318768 -0.11173637 0.07041511 -0.021062918 -0.09592854 -0.042535912
0.0572383 0.20357256 0.06407827 0.058874633 0.15049072 0.17210926 -0.049222462 0.050258715
0.02383655 0.048034657 -0.27255514 0.14547826 0.061665908 0.167303 -0.0056589665 0.07091678
-0.027269801 0.0036222278 0.11868802 -0.11910743 0.011785842 -0.13205919 0.0212587 -0.13405155
0.14831543 -0.039319973 -0.15901186 0.045070257 0.011911441 0.11156302 -0.094324596 -0.13167682
0.06828516 -0.019702617 -0.06684727 -0.028491521 0.013037379 0.0350556 -0.031008584 0.06569852
-0.08163168 -0.0013676169 0.016839938 0.12071492 0.13539132 -0.07891283 0.0362828 -0.118318096
0.020444227 -0.07239261 0.06234918 0.06043478 0.08735908 0.114003174 -0.14355268 0.059227776
-0.13644737 0.03954034 -0.008580938 -0.060224473 0.019873427 0.14281572 0.0654332 0.099611655
0.19531395 0.06759644 0.031539686 -0.11116035 7.040859e-05 -0.11585667 -0.08751614 -0.0990471
0.13591987 -0.027836023 0.018883802 0.027104959 0.028429369 0.05520648 -0.20486037 -0.10074217
0.15143345 0.03943843 -0.12788908 0.13927285 0.037007008 0.0093003195 0.09722318 -0.018517891
0.004892418 -0.10678672 0.067937896 -0.003893584 0.01723304 -0.058656987 0.036971886 0.086977124
0.023733009 -0.027597511 -0.087225586 -0.034460507 0.049042873 -0.09048535 -0.046657916 0.030265093
0.07143799 0.00081032567 0.015897274 -0.09246793 0.015337254 0.08499572 0.099704124 -0.05277429
0.026607914 0.23235556 -0.04394191 -0.09307812 -0.015220354 -0.074364014 -0.07472648 -0.030721517
0.0058025895 0.023226745 0.011857731 -0.04439498 -0.14047815 0.034768675 0.03733115 0.08981473
-0.028241936 0.076596394 0.028944872 0.06511868 -0.043118883 0.082675084 0.03703379 -0.088800445
-0.03896254 0.09662108 0.10157126 -0.15110497 0.10472321 0.14457938 -0.055918805 0.072306
-0.08283341 -0.06226779 -0.062845536 -0.036580823 -0.022631437 -0.00070731324 -0.09626382 0.04522293
0.050539535 0.040996354 0.056040104 0.037693374 -0.04345821 -0.11450579 0.08327692 -0.072198614
0.031134654 0.06165384 0.05009408 0.042557515 -0.14316033 0.027783476 -0.070370704 0.117216714
-0.107636854 -0.045627713 0.12176365 0.093042225 0.18946825 -0.10092381 0.039370894 0.0028983427
-0.1324469 0.028941972 0.05646721 -0.054904066 0.11115563 -0.009812606 -0.08544597 -0.012784759
0.09664846 -0.0054256767 -0.043223035 -0.068226546 -0.043411344 0.01527719 0.024912158 0.078537665
0.055611316 0.056336634 0.16711454 0.11565953 -0.10217869 -0.07073948 0.018332245 -0.06407959
0.22352302 0.17562386 0.13705488 -0.099881634 -0.008848981 0.0655364 -0.1371869 -0.012814811
-0.044936344 0.049012326 0.10768709 -0.039470453 0.03362816 0.07294954 -0.09124103 0.02526342
0.11227266 0.04269259 0.0893372 -0.071127415 0.07103502 -0.01639894 -0.21494728 0.15917827
-0.027436368 -0.02019155 0.10694845 -0.13665624 0.08338463 0.073795594 0.114566 0.12393404
-0.13319188 0.07587366 0.27597034 -0.16467187 -0.15510142 0.020884598 0.038205538 0.16942239
0.053465083 -0.120278545 -0.109049045 -0.019675966 0.027031234 -0.010948283 -0.0122741405 0.07458284

network_body._body_endoder.seq_layers.2.bias f4 [128]
00000000: 0000 0000 0000 0000 0000 0000 0000 0000
00000010: 0000 0000 0000 0000 0000 0000 0000 0000
00000020: 0000 0000 0000 0000 0000 0000 0000 0000
00000030: 0000 0000 0000 0000 0000 0000 0000 0000
00000040: 0000 0000 0000 0000 0000 0000 0000 0000
00000050: 0000 0000 0000 0000 0000 0000 0000 0000
00000060: 0000 0000 0000 0000 0000 0000 0000 0000
00000070: 0000 0000 0000 0000 0000 0000 0000 0000
00000080: 0000 0000 0000 0000 0000 0000 0000 0000
00000090: 0000 0000 0000 0000 0000 0000 0000 0000
000000a0: 0000 0000 0000 0000 0000 0000 0000 0000
000000b0: 0000 0000 0000 0000 0000 0000 0000 0000
000000c0: 0000 0000 0000 0000 0000 0000 0000 0000
000000d0: 0000 0000 0000 0000 0000 0000 0000 0000
000000e0: 0000 0000 0000 0000 0000 0000 0000 0000
000000f0: 0000 0000 0000 0000 0000 0000 0000 0000
00000100: 0000 0000 0000 0000 0000 0000 0000 0000
00000110: 0000 0000 0000 0000 0000 0000 0000 0000
00000120: 0000 0000 0000 0000 0000 0000 0000 0000
00000130: 0000 0000 0000 0000 0000 0000 0000 0000
00000140: 0000 0000 0000 0000 0000 0000 0000 0000
00000150: 0000 0000 0000 0000 0000 0000 0000 0000
00000160: 0000 0000 0000 0000 0000 0000 0000 0000
00000170: 0000 0000 0000 0000 0000 0000 0000 0000
00000180: 0000 0000 0000 0000 0000 0000 0000 0000
00000190: 0000 0000 0000 0000 0000 0000 0000 0000
000001a0: 0000 0000 0000 0000 0000 0000 0000 0000
000001b0: 0000 0000 0000 0000 0000 0000 0000 0000
000001c0: 0000 0000 0000 0000 0000 0000 0000 0000
000001d0: 0000 0000 0000 0000 0000 0000 0000 0000
000001e0: 0000 0000 0000 0000 0000 0000 0000 0000
000001f0: 0000 0000 0000 0000 0000 0000 0000 0000
0.0 0.0 0.0 0.0 0.0 0.0 0.0 0.0
0.0 0.0 0.0 0.0 0.0 0.0 0.0 0.0
0.0 0.0 0.0 0.0 0.0 0.0 0.0 0.0
0.0 0.0 0.0 0.0 0.0 0.0 0.0 0.0
0.0 0.0 0.0 0.0 0.0 0.0 0.0 0.0
0.0 0.0 0.0 0.0 0.0 0.0 0.0 0.0
0.0 0.0 0.0 0.0 0.0 0.0 0.0 0.0
0.0 0.0 0.0 0.0 0.0 0.0 0.0 0.0
0.0 0.0 0.0 0.0 0.0 0.0 0.0 0.0
0.0 0.0 0.0 0.0 0.0 0.0 0.0 0.0
0.0 0.0 0.0 0.0 0.0 0.0 0.0 0.0
0.0 0.0 0.0 0.0 0.0 0.0 0.0 0.0
0.0 0.0 0.0 0.0 0.0 0.0 0.0 0.0
0.0 0.0 0.0 0.0 0.0 0.0 0.0 0.0
0.0 0.0 0.0 0.0 0.0 0.0 0.0 0.0
0.0 0.0 0.0 0.0 0.0 0.0 0.0 0.0

value_heads.value_heads.extrinsic.weight f4 [1, 128]
00000000: 1e5e b13d e6bb c03d 2f32 f8bd 4587 54bd
00000010: 58ea 18be 22a9 7e3d b5bc ebbd cfe2 463d
00000020: f17b 5cbe e2df 3bbe 9a62 babc 0f41 28be
00000030: 6d2e 993d 6dfc 703c afb2 303e 9e39 5c3d
00000040: f6e8 553e 1911 f7bb da14 e03d 31f9 dabd
00000050: 9c43 873d d99e 4ebe 58e6 0fbd 3aca 843c
00000060: b821 7fbd 8d27 473d 7bc1 81bd 6e81 093e
00000070: ca82 3a3e 55bc 473e 367e ef3c c49b f8ba
00000080: a564 b0bd 1c0d efbd 473c d3bd 2fc8 99bd
00000090: cce2 38bd aca1 1cbe 9836 113e 4833 67bd
000000a0: 6d0f 573c 6087 563e a4cc 163e d0d6 46bd
000000b0: 53f6 abbd f394 54be 4adc f0bc 8ac7 83bd
000000c0: f8eb 9c3d 61f8 3a3d 2bc7 13be 99ac 563d
000000d0: 9c04 f33b bdc2 533e c7dd c93a 9828 4abe
000000e0: c00e 44be 801d e1bc d93b 4dbe 5542 563e
000000f0: 6028 4f3c a54e 2e3e 28ab 8f3d 9a50 883d
00000100: 500f 543e 9f41 3f3e c50c 033d d0b8 4e3e
00000110: fdd1 403e 3f91 90bd 346b 443e 4277 58be
00000120: 2bf7 babd b42c 32be 6685 56be be3e c03d
00000130: 889a 393e 1d15 c43d d585 40bd 5cf9 f13d
00000140: 7136 8fbd ed1d afbd 51bd ca3d d258 08bd
00000150: 6266 33bd 73b2 1a3e b6f8 98bd 6023 033e
00000160: 5e8f 62bb 447e 103e 7eb1 38bd e575 e73c
00000170: eecc dcbd ad6e e6bc 772b 413e afcf 2dbd
00000180: d204 743b c6c9 3d3e 4864 2bbe bdbe f13b
00000190: 0f4c 4bbe 51f6 53bc 0e4b 273e 87fe ed3d
000001a0: 27ad 4d3e 63ce 2e3e 55d5 45be f43f 103e
000001b0: 2ed7 533e abbc 94bc 53a0 1c3c a817 babb
000001c0: de4f 08be 3b2e 1dbe 53fd eb3d da2c d93c
000001d0: 63cc 093d a502 55be 14f4 953d ff3e 523e
000001e0: 8f35 0abe 22b7 393e 541a 293e ff07 4abe
000001f0: c6bd 0fbd fbcc 44bd 3496 8b3d 0733 32be
0.086605296 0.09410839 -0.12118947 -0.051886816 -0.14933145 0.062173016 -0.115106024 0.048556145
-0.21531655 -0.18347123 -0.022752095 -0.16431068 0.07479558 0.0147086205 0.17255662 0.053765886
0.20889649 -0.00753988 0.10941477 -0.10692061 0.06604692 -0.20177783 -0.035131782 0.01620971
-0.062288016 0.048621703 -0.063357316 0.1342828 0.18213955 0.19505437 0.029234987 -0.001896732
-0.086129464 -0.11672422 -0.10314231 -0.07508885 -0.045138165 -0.15296048 0.14180982 -0.05644539
0.013126236 0.20950079 0.14726502 -0.048544705 -0.08396592 -0.20759945 -0.029401917 -0.064345434
0.07662195 0.04564703 -0.14431445 0.052410696 0.007416321 0.20679756 0.0015401178 -0.19742048
-0.19146252 -0.027479887 -0.20042361 0.20923741 0.0126439035 0.17022188 0.07015067 0.066559985
0.20708966 0.18677376 0.0319946 0.20187688 0.18830104 -0.070589535 0.1918152 -0.21139243
-0.09129175 -0.17399865 -0.20949325 0.09386967 0.18125355 0.095743395 -0.047002632 0.1181514
-0.06992806 -0.0855063 0.098993905 -0.03328783 -0.04379881 0.15107135 -0.07469313 0.12806463
-0.0034570317 0.14110667 -0.045091145 0.028254459 -0.10781275 -0.028128946 0.18864237 -0.04243439
0.0037234318 0.18534002 -0.16737473 0.007377474 -0.19853233 -0.012937144 0.16337225 0.11620813
0.20085584 0.17070918 -0.19319661 0.14086896 0.20687553 -0.01815637 0.009559709 -0.0056790896
-0.13311717 -0.15349667 0.11522927 0.026510645 0.033642184 -0.2080179 0.07321945 0.20531844
-0.13496993 0.18136266 0.1651395 -0.19729613 -0.03509309 -0.048047047 0.06815758 -0.17402278
