MLBase/results/ppo/CloseToTargetBehaviour/CloseToTargetBehaviour-64.pt (torch, 149627 bytes, 11 tensors)

network_body._body_endoder.seq_layers.0.weight f4 [128, 6]
000000 3c ca 2b 3f da 69 b0 3d d3 45 41 bf 85 24 d4 3e
       0.6710546 0.086139396 -0.7549717 0.41434112
000010 12 b2 65 bf de eb cd be 6a 8e 2c 3c cd 77 9a bb
       -0.8972484 -0.40219015 0.010532001 -0.0047139884
000020 a3 e3 00 bf dc 0c 41 bf 16 e5 71 be b2 ef a5 3d
       -0.50347346 -0.75410247 -0.23622546 0.08102359
000030 1e 43 ce 3e ee c4 90 3e 01 4c ca be b5 0c 62 bc
       0.4028558 0.28275245 -0.3951111 -0.013796975
000040 08 f3 e3 3e 4c 0b 2c 3e 97 40 b8 3d 82 b5 81 bd
       0.44521356 0.16801184 0.089966945 -0.06333448
000050 3e 45 0d bf c1 7a f0 3e c1 91 33 bd 71 1d bf be
       -0.5518378 0.46968654 -0.043840174 -0.3732715
000060 c7 c4 fa bc 5d 92 ef be bf 2a 7d bd ef 99 b5 be
       -0.030611409 -0.46791354 -0.061808344 -0.35469005
000070 7a fc a7 3e b3 76 9a 3e a9 89 20 3f 4b cd 93 3e
       0.32809812 0.30168685 0.6271005 0.28867564
000080 9b d5 04 bf 81 52 99 bd 2f 31 df be 4e 38 ec 3e
       -0.51888436 -0.074864395 -0.43592212 0.46136707
000090 3e a3 1b 3e b9 31 33 3e a9 7d f8 3e b8 e5 1c 3e
       0.1519899 0.17499436 0.4853337 0.15322006
0000a0 91 3f 9e 3c ea 29 60 bd 90 75 1f bf c3 79 c5 3c
       0.01931742 -0.054727472 -0.6228876 0.024105912
0000b0 08 a2 ad be 62 e6 51 bd 7b 3a 7d be 13 d0 43 be
       -0.33912683 -0.0512451 -0.2472934 -0.19122343
0000c0 0c 54 9c 3c eb 3d 79 be 04 5b 71 be 23 46 34 3e
       0.019083045 -0.24340026 -0.23569876 0.1760488
0000d0 38 2c 18 3f 13 d5 32 bd 2a 59 b1 be 7e e4 26 bf
       0.5944247 -0.043660235 -0.3463834 -0.651924
0000e0 5a 52 0b 3c 48 81 2d 3f 1b 99 16 3f 9e 94 b9 3e
       0.008503521 0.6777539 0.5882737 0.36246198
0000f0 44 df 08 3f d1 97 93 3e 74 72 e8 be 5b 04 31 3f
       0.53465676 0.28826764 -0.4539982 0.6914727
000100 f5 e9 1a bf b9 32 7a bf dd f1 e4 3d 7c 62 80 bf
       -0.6051324 -0.97733647 0.11178944 -1.0030055
000110 bc 6f 8c 3e 92 fc e9 3d ed d6 84 bd 34 a5 3e 3e
       0.27428997 0.11425127 -0.06486306 0.18617707
000120 a0 69 9b bf 07 9f 39 be 25 7f b5 3e ce 09 9b bc
       -1.2141609 -0.1812707 0.35448566 -0.018925574
000130 3c 37 66 bf a1 cc 04 bf ba 4a 5e 3e 4c 23 77 3d
       -0.8992803 -0.5187474 0.21708193 0.060336396
000140 15 e8 b5 bc 0b fa 06 3f 1b 57 0a bd ed 42 5e 3d
       -0.022205392 0.52725285 -0.033774476 0.054263044
000150 06 4c 9f 3e 06 18 2b 3f a8 7b f4 3e d2 b1 8f 3e
       0.3111269 0.6683353 0.47750592 0.28065354
000160 25 88 07 3f 06 b4 35 bf 20 54 01 3e ef b5 e4 3e
       0.52942115 -0.7097782 0.12629747 0.44670054
000170 28 a1 41 3f 7a 1c 17 3f d6 6f 38 3f 46 29 3d be
       0.7563653 0.59027827 0.7204565 -0.18472776
000180 b6 c3 b0 3c bb a4 c0 be c6 0d 8b 3e 1c 58 be 3e
       0.021577697 -0.3762568 0.27158946 0.37176597
000190 6f e9 eb be cc 09 a0 bd df b2 76 be fd b8 5b bc
       -0.46076533 -0.078143686 -0.24091671 -0.013410804
0001a0 35 f4 01 bf 75 84 0d bb 56 7b 0b bf 24 3d 66 bd
       -0.50763255 -0.0021593843 -0.5448507 -0.056210652
0001b0 53 48 a5 3e 13 16 71 3e 4c 02 6d 3e 3a 30 cd be
       0.32281741 0.23543577 0.23145407 -0.40075856
0001c0 c2 da a0 bd b5 2c b4 3c ca cc 3b 3f ad 3d 48 bf
       -0.07854225 0.021993974 0.7335936 -0.7821911
0001d0 3c bc 62 3f b3 c3 3e be 20 9f 63 3d 83 e2 5c 3e
       0.8856847 -0.18629341 0.055571675 0.21570782
0001e0 62 97 3b 3d de a4 14 3f 32 a8 84 be a0 e5 63 3e
       0.045798667 0.5806407 -0.25909573 0.22255564
0001f0 37 99 f2 be 4e a5 40 bf 0b 89 09 bf 89 f9 7d be
       -0.4738252 -0.75252235 -0.53724736 -0.24802221
000200 c9 97 49 3e 6c 3e fb 3e 64 54 f0 3d 4b 02 8c 3e
       0.19686808 0.49071062 0.11734846 0.273455
000210 e6 9a d7 3e 88 4d 2c bd 68 cf 0d 3e 29 24 3a 3e
       0.42110366 -0.042066127 0.1384865 0.18177857
000220 0f 16 3e bf 5a 30 d6 3e a1 01 a9 bd 65 a1 9d be
       -0.7425241 0.41833764 -0.08252264 -0.30787197
000230 e1 c9 a0 be 55 2e 3d be bc dc 0f bf c7 43 a1 bc
       -0.3140402 -0.18474706 -0.5619619 -0.019685639
000240 be 06 d2 bd 14 2d bb be 9e 28 e1 bd 2c 28 72 3e
       -0.10255192 -0.3655783 -0.10994075 0.23648137
000250 ef 08 0e 3f a3 16 41 bf 29 43 bf 3e 61 04 7f be
       0.5548238 -0.75425166 0.37355927 -0.24904014
000260 7f d5 97 3e d0 cc 67 bf 9b 41 d2 3e 73 cb 18 bf
       0.29655072 -0.90546894 0.41065678 -0.5968544
000270 0b d8 6a 3e 2f 31 14 bc 30 ac 2c be e0 0c 5f be
       0.22933976 -0.009044929 -0.1686256 -0.21782255
000280 11 79 b5 3e 06 bd c0 3e 80 f5 14 bf 15 f3 bc bd
       0.3544393 0.37644213 -0.58187103 -0.09226052
000290 fe d0 6f be 6a 02 bf be c3 08 1c bf c8 b4 aa 3d
       -0.23419568 -0.3730653 -0.6095087 0.083352625
0002a0 e5 4e 17 3b 96 a7 ab bc db 33 e8 3d 86 8e 4f 3e
       0.0023087796 -0.020953935 0.11338016 0.20269212
0002b0 e8 f1 76 3f 0c e1 87 be 89 6a 2b 3f 6e 2c 82 3e
       0.9646287 -0.26538885 0.66959435 0.25424522
0002c0 76 18 52 bd b3 da 86 be e1 10 82 be b7 52 2f bf
       -0.05129286 -0.2633873 -0.25403503 -0.6848559
0002d0 05 4c de 3e 81 55 56 3d 71 01 1a be a0 d2 15 3e
       0.43417373 0.052327637 -0.15039612 0.14631128
0002e0 ee d2 db 3e a0 05 a4 3e a5 b7 1e be 22 c3 38 be
       0.42934364 0.32035542 -0.15499742 -0.18043187
0002f0 e4 38 de bd ac d5 2c 3d 33 40 78 3e 55 bb 0f be
       -0.10850695 0.04219596 0.2424324 -0.14036305
000300 e5 df 37 bf ad 0a 9d be e8 83 a3 be 62 50 98 be
       -0.7182601 -0.30672207 -0.31936574 -0.29748827
000310 d2 a5 21 be 95 06 44 be d9 fc 54 3e 1d e8 1f 3f
       -0.15785912 -0.19143136 0.20799579 0.6246355
000320 2d fa dd 3e 7b 99 36 bc 08 85 1a 3e d3 6c 71 3e
       0.4335493 -0.011144991 0.1508981 0.2357667
000330 37 88 15 bf f0 19 5d 3e 09 8a 8a be 57 e4 7a 3d
       -0.5841097 0.21591926 -0.27058437 0.061252918
000340 0c db 85 3c db 82 3a bf 8d f3 b2 3e ee 9d 87 bd
       0.016339801 -0.7285592 0.3495144 -0.066219196
000350 15 f6 b0 3e 01 14 de 3e e3 a3 9f 3e 5e e1 eb be
       0.34562746 0.43374637 0.31179723 -0.4607038
000360 0b 70 11 3c 51 7d 79 3e 70 02 b7 be 2d 45 aa be
       0.008876811 0.2436421 -0.35744047 -0.33255902
000370 2a cf 6e 3e 04 fd 41 3f 6f 4d 99 bc 2d 97 ee 3e
       0.23321214 0.75776696 -0.018713681 0.46599713
000380 ed 30 25 3f d3 34 7a be 32 95 2e 3e 3d 60 d7 bd
       0.6452778 -0.24434213 0.17049101 -0.10516403
000390 da a0 be be 6d dc cb 3e 5b a5 a6 3e d9 a9 0b bf
       -0.37232095 0.3981661 0.3254803 -0.5455604
0003a0 ac fa f1 3e 18 68 09 3e 13 56 a6 3e 1d 8a b1 3e
       0.4726156 0.13418615 0.32487544 0.34675685
0003b0 1b 0f e1 3e ed 1c 20 3f eb a6 04 bf 0d d5 1e 3f
       0.43956837 0.6254414 -0.51817197 0.6204384
0003c0 7e 7b c7 3e 5d e0 1b 3d da 04 5e 3e 21 a8 e6 3e
       0.38961405 0.038055766 0.21681538 0.45050147
0003d0 71 e7 e8 be 8f 5d 8e be d6 bb c3 3e cd f2 ab 3e
       -0.45489076 -0.27805755 0.38229245 0.3358368
0003e0 5c e8 34 3f 99 7c e7 be c8 5e 39 3f fb e3 35 3e
       0.7066705 -0.45212248 0.7241025 0.17762749
0003f0 6c 0c f3 be f1 45 b6 3e 07 77 31 be 86 e8 00 bf
       -0.47470415 0.35600236 -0.17330562 -0.503548

network_body._body_endoder.seq_layers.0.bias f4 [128]
000000 00 00 00 00 00 00 00 00 00 00 00 00 00 00 00 00
       0.0 0.0 0.0 0.0
000010 00 00 00 00 00 00 00 00 00 00 00 00 00 00 00 00
       0.0 0.0 0.0 0.0
000020 00 00 00 00 00 00 00 00 00 00 00 00 00 00 00 00
       0.0 0.0 0.0 0.0
000030 00 00 00 00 00 00 00 00 00 00 00 00 00 00 00 00
       0.0 0.0 0.0 0.0
000040 00 00 00 00 00 00 00 00 00 00 00 00 00 00 00 00
       0.0 0.0 0.0 0.0
000050 00 00 00 00 00 00 00 00 00 00 00 00 00 00 00 00
       0.0 0.0 0.0 0.0
000060 00 00 00 00 00 00 00 00 00 00 00 00 00 00 00 00
       0.0 0.0 0.0 0.0
000070 00 00 00 00 00 00 00 00 00 00 00 00 00 00 00 00
       0.0 0.0 0.0 0.0
000080 00 00 00 00 00 00 00 00 00 00 00 00 00 00 00 00
       0.0 0.0 0.0 0.0
000090 00 00 00 00 00 00 00 00 00 00 00 00 00 00 00 00
       0.0 0.0 0.0 0.0
0000a0 00 00 00 00 00 00 00 00 00 00 00 00 00 00 00 00
       0.0 0.0 0.0 0.0
0000b0 00 00 00 00 00 00 00 00 00 00 00 00 00 00 00 00
       0.0 0.0 0.0 0.0
0000c0 00 00 00 00 00 00 00 00 00 00 00 00 00 00 00 00
       0.0 0.0 0.0 0.0
0000d0 00 00 00 00 00 00 00 00 00 00 00 00 00 00 00 00
       0.0 0.0 0.0 0.0
0000e0 00 00 00 00 00 00 00 00 00 00 00 00 00 00 00 00
       0.0 0.0 0.0 0.0
0000f0 00 00 00 00 00 00 00 00 00 00 00 00 00 00 00 00
       0.0 0.0 0.0 0.0
000100 00 00 00 00 00 00 00 00 00 00 00 00 00 00 00 00
       0.0 0.0 0.0 0.0
000110 00 00 00 00 00 00 00 00 00 00 00 00 00 00 00 00
       0.0 0.0 0.0 0.0
000120 00 00 00 00 00 00 00 00 00 00 00 00 00 00 00 00
       0.0 0.0 0.0 0.0
000130 00 00 00 00 00 00 00 00 00 00 00 00 00 00 00 00
       0.0 0.0 0.0 0.0
000140 00 00 00 00 00 00 00 00 00 00 00 00 00 00 00 00
       0.0 0.0 0.0 0.0
000150 00 00 00 00 00 00 00 00 00 00 00 00 00 00 00 00
       0.0 0.0 0.0 0.0
000160 00 00 00 00 00 00 00 00 00 00 00 00 00 00 00 00
       0.0 0.0 0.0 0.0
000170 00 00 00 00 00 00 00 00 00 00 00 00 00 00 00 00
       0.0 0.0 0.0 0.0
000180 00 00 00 00 00 00 00 00 00 00 00 00 00 00 00 00
       0.0 0.0 0.0 0.0
000190 00 00 00 00 00 00 00 00 00 00 00 00 00 00 00 00
       0.0 0.0 0.0 0.0
0001a0 00 00 00 00 00 00 00 00 00 00 00 00 00 00 00 00
       0.0 0.0 0.0 0.0
0001b0 00 00 00 00 00 00 00 00 00 00 00 00 00 00 00 00
       0.0 0.0 0.0 0.0
0001c0 00 00 00 00 00 00 00 00 00 00 00 00 00 00 00 00
       0.0 0.0 0.0 0.0
0001d0 00 00 00 00 00 00 00 00 00 00 00 00 00 00 00 00
       0.0 0.0 0.0 0.0
0001e0 00 00 00 00 00 00 00 00 00 00 00 00 00 00 00 00
       0.0 0.0 0.0 0.0
0001f0 00 00 00 00 00 00 00 00 00 00 00 00 00 00 00 00
       0.0 0.0 0.0 0.0

network_body._body_endoder.seq_layers.2.weight f4 [128, 128]
000000 c7 37 48 bd be 05 bc 3d 7e 1d b6 3d 32 7d 69 3d
       -0.04888132 0.09180783 0.08892344 0.05700416
000010 fe b4 81 3d 82 9e 25 be ca 28 d9 3d 66 80 57 3d
       0.0633335 -0.16173747 0.10603483 0.052612685
000020 b7 f0 4f bc ef 86 c0 3d 54 31 ea ba 3e 71 29 3e
       -0.012691668 0.094007365 -0.0017867484 0.16547105
000030 13 bd 9a 3d 2f ed 01 3c 2c de e7 3c b2 91 3f bd
       0.07555594 0.007930084 0.028304182 -0.046769805
000040 ea 1d 1d bd 71 6a da 3d d4 ab 1b 3d a7 2a 2c be
       -0.038358606 0.10664833 0.038005665 -0.16813146
000050 95 14 05 3e 7e 75 d7 bd 34 a5 8e 3c 33 ca 8e 3d
       0.12996133 -0.10520457 0.01741276 0.0697216
000060 96 ff a4 bc 29 0d 17 be ad 7c 81 3d 0b 55 18 3d
       -0.020141404 -0.14751114 0.06322608 0.03719048
000070 8c 40 d2 bc 36 33 5d 3d 55 41 07 be 64 7b 97 3d
       -0.025665544 0.054003917 -0.13208516 0.07396582
000080 0a 12 59 bb cc 91 a5 bd a9 48 6d 3c d1 b5 9d bd
       -0.0033122324 -0.08084449 0.014482656 -0.07700694
000090 8f 72 2a 3e a6 1e a9 bd 3b 55 76 bc 52 a4 9e 3d
       0.16645263 -0.08257799 -0.015034969 0.07746185
0000a0 d4 af 1c be 96 3a 23 be 58 6f 79 bc b7 3e db 3c
       -0.15301448 -0.15940318 -0.0152243 0.026763303
0000b0 ab de f5 bd e5 9c ee 3b fd 3f 9b bc 6b f4 a6 bd
       -0.12005361 0.007281887 -0.01895141 -0.08152088
0000c0 a2 00 c0 bc 0c 9a 95 bd 4b 90 21 3e f1 49 90 bd
       -0.023437802 -0.07304773 0.157777 -0.07045353
0000d0 e1 52 82 3c e5 1c 62 bd 03 26 ec 3d 92 d7 e1 3d
       0.01590866 -0.055203337 0.11530688 0.11027445
0000e0 af d4 75 3c b3 e9 3b bd 49 47 d2 bc 52 c2 cd bc
       0.015004321 -0.04587717 -0.025668757 -0.025117073
0000f0 ad ec 23 3b 17 7e dd 3a 6b ca 7d bc 30 09 07 3e
       0.0025012896 0.001689854 -0.015490155 0.13187099
000100 f3 f9 44 3e 65 35 d0 3d 66 b6 99 bc 78 9a e3 bc
       0.19235973 0.10166434 -0.018763732 -0.027783617
000110 ef 79 d6 bd 12 95 19 bd 0a ff e2 3c 8a 8c 20 be
       -0.10472476 -0.03749568 0.027709503 -0.15678611
000120 6b d7 10 bc 1f b5 3f 3e 86 0e 39 3e c1 54 e1 ba
       -0.008840422 0.18721436 0.18071947 -0.0017191396
000130 dd 6b 77 ba 7c 7e ca bd 09 71 af 3d 4a cb 97 bc
       -0.0009438375 -0.09887406 0.085664816 -0.018529553
000140 22 ff de 3d 17 62 e9 3d 01 b1 fb 3c 72 5b 61 be
       0.108885065 0.11395662 0.03072405 -0.2200754
000150 00 aa 07 3e 5d 66 82 3d f2 1e 15 3d ce 95 96 bb
       0.13248444 0.063671805 0.036406465 -0.004595495
000160 9a 90 32 be 72 32 de 3d 00 73 41 be 10 3b 2b 3d
       -0.17437974 0.108494654 -0.18891525 0.041804373
000170 40 41 99 3c 21 d8 4f 3d a0 b2 c2 bd 05 d7 35 3d
       0.018707871 0.050743226 -0.09506726 0.04439451
000180 5c 2e 00 3e 2a c9 c2 bc c9 ff 93 3d a5 b9 bd 3d
       0.12517685 -0.023777563 0.072265215 0.092639245
000190 76 ba 67 3e 3d 81 83 bd 09 db d1 bc 16 9b dd 3c
       0.22629723 -0.064211346 -0.02561714 0.02705149
0001a0 a5 e4 e0 bd 3a e7 06 bd d9 e2 11 bd 05 32 48 3e
       -0.109811105 -0.03293536 -0.03561673 0.19550331
0001b0 5e 9d 6e bd 0d 32 a0 3b 78 61 33 3d ea d7 9e 3d
       -0.058255546 0.004888779 0.043794125 0.07756026
0001c0 e2 9c 98 bc 66 c8 ed bc e7 69 d1 bd 08 ce ca bd
       -0.018629495 -0.029026221 -0.102252774 -0.099025786
0001d0 80 17 f0 3d ee 4f 9b 3d e3 5d 9e bd 64 7c a7 bd
       0.11723232 0.07583605 -0.07732751 -0.081780225
0001e0 17 1f 60 3d cf 55 09 3e df 80 63 39 27 62 6a bc
       0.05471715 0.1341164 0.00021696415 -0.014305628
0001f0 ef 1f 90 bc 79 f9 b9 bc 9b c3 b9 3b 96 f8 25 be
       -0.017593352 -0.022701966 0.00566907 -0.1620811
000200 05 4f d3 3d d1 b6 50 bd ce 1f d0 bc 1c 75 ce bb
       0.10317806 -0.050955597 -0.02540579 -0.0063005816
000210 e4 ac e8 3d ea fe 1c bc 39 59 ab 3c 2b 39 6d bd
       0.11361101 -0.009582261 0.020916568 -0.057915848
000220 27 6c 55 3d aa 9d 2c bd 89 df 49 be a9 fb 08 3d
       0.052105095 -0.042142548 -0.19714178 0.033443127
000230 ca 9d 72 bd 84 ee 0a 3e c9 3b 56 3e 88 67 6a 3d
       -0.05923251 0.13567549 0.20921244 0.05722764
000240 3b b9 f3 3d d8 d5 cb 3c 1e fb 7c bd 05 d9 2d 3e
       0.11900564 0.024882242 -0.06176292 0.16977318
000250 0c 32 9f bd 1f 35 c9 bd 16 b1 13 3e eb 1c 33 3d
       -0.077732176 -0.09824585 0.14423022 0.04372875
000260 9f 1a f5 bd 28 1e ef 3c b7 d9 20 3d 9c 64 a2 bd
       -0.11967968 0.029189184 0.03927013 -0.07929346
000270 c8 06 fd 3c 24 19 64 3d cd 69 2b be f0 d2 49 3e
       0.030887023 0.05568804 -0.16739579 0.19709373
000280 32 e2 de bd 81 d3 e8 bd 77 4f 04 be 2f cb 3c be
       -0.10882987 -0.11368466 -0.12920938 -0.18436883
000290 7e 3f 90 bd 85 d9 16 3e bc 6a 2c 3d 54 05 13 3d
       -0.0704336 0.14731415 0.042093977 0.035893753
0002a0 67 70 01 3e b7 52 0a 3e fa 55 7f bd 6e 1b b8 bd
       0.12640534 0.13508116 -0.062337853 -0.08989607
0002b0 21 97 2f 3e 28 ad 8b bd 29 8c 6a bd b3 eb 7d 3c
       0.17147495 -0.06820136 -0.057262573 0.01549809
0002c0 7e 46 6b 3d c4 0b 21 3c c5 c8 81 bc 7d 7a 85 bc
       0.057440273 0.009829465 -0.015842805 -0.016293759
0002d0 9a 9d f4 bc 21 f4 7c 3e d5 60 54 3d 4f d5 0a be
       -0.029860307 0.24702503 0.05185016 -0.13557933
0002e0 4f 9e 11 3d f8 7c 68 3d 6c 1b 08 39 b8 ae e3 3d
       0.035551365 0.056759804 0.00012980186 0.11117309
0002f0 d4 0f 38 bd 75 3f 1d be 42 49 98 bd db 8d 22 3d
       -0.04493697 -0.15356238 -0.07435848 0.039686065
000300 4b 49 b9 3d a9 85 b8 bc dd 4b 21 3b c3 b2 f5 bb
       0.09047183 -0.022524672 0.0024611868 -0.0074981167
000310 0c 8b 2c 3d ab 7e e9 3d 66 6b 07 bd c4 d3 c8 bd
       0.042124793 0.11401113 -0.033061408 -0.09806016
000320 5a 12 89 bd 54 09 bf 3c 22 1c 27 bd 96 5c ee 3c
       -0.066929534 0.023319878 -0.040798314 0.029096883
000330 68 aa a8 3c d8 28 59 3a 0a 76 45 3d 17 5f ce 3c
       0.020589069 0.0008283979 0.048208274 0.025191827
000340 41 9d 9f 3e b6 ac 26 bd 86 f5 a9 bc 2b da 6c 3d
       0.31174663 -0.040692054 -0.020746958 0.05782525
000350 2a dd a6 bc b1 22 24 3d 28 78 c8 3d ed 23 96 bd
       -0.020369131 0.040072147 0.09788543 -0.07331071
000360 d0 d6 dd 3c ee eb 23 bd 5c 8d ad 3d 70 7a d7 3d
       0.02707997 -0.040019922 0.08474228 0.105214
000370 51 11 45 be 58 5d 67 3e 07 6a 00 3d e8 68 1b be
       -0.19244887 0.22594202 0.031351116 -0.15176737
000380 57 6f 0c 3e 91 4e 75 3d 39 31 10 be 37 b5 d0 3c
       0.13714348 0.05988938 -0.14081277 0.025477035
000390 4d 11 c7 3c 30 6d cb bc 9d 8e 35 bd ce 66 7e 3d
       0.024300242 -0.024832338 -0.04432546 0.06210976
0003a0 48 b9 11 3e 8a 3b 0d bb c4 3f 4b 3b 76 ad d9 3c
       0.14230835 -0.002155038 0.003101335 0.02657197
0003b0 13 26 e9 bd c5 bf ee bd 96 b5 9f 3d c1 ff a5 3c
       -0.11384215 -0.11657671 0.07798307 0.020263555
0003c0 e1 e8 90 bd b0 52 96 bd 02 32 d5 bc aa b3 ff bd
       -0.07075668 -0.0733999 -0.026024822 -0.1248544
0003d0 37 fa 72 bd 81 30 a1 3d 85 bd 9a bc 1a 84 9b 3d
       -0.059320655 0.078705795 -0.018889198 0.07593556
0003e0 b3 44 f7 3d fa b3 e6 bb 92 c1 de 3d 10 fc a3 3c
       0.1207365 -0.007040498 0.10876764 0.020017654
0003f0 15 b7 e7 3d 08 9c 69 3d af 9a d6 bd d3 d2 8b bd
       0.11314217 0.05703357 -0.10478722 -0.06827321

network_body._body_endoder.seq_layers.2.bias f4 [128]
000000 00 00 00 00 00 00 00 00 00 00 00 00 00 00 00 00
       0.0 0.0 0.0 0.0
000010 00 00 00 00 00 00 00 00 00 00 00 00 00 00 00 00
       0.0 0.0 0.0 0.0
000020 00 00 00 00 00 00 00 00 00 00 00 00 00 00 00 00
       0.0 0.0 0.0 0.0
000030 00 00 00 00 00 00 00 00 00 00 00 00 00 00 00 00
       0.0 0.0 0.0 0.0
000040 00 00 00 00 00 00 00 00 00 00 00 00 00 00 00 00
       0.0 0.0 0.0 0.0
000050 00 00 00 00 00 00 00 00 00 00 00 00 00 00 00 00
       0.0 0.0 0.0 0.0
000060 00 00 00 00 00 00 00 00 00 00 00 00 00 00 00 00
       0.0 0.0 0.0 0.0
000070 00 00 00 00 00 00 00 00 00 00 00 00 00 00 00 00
       0.0 0.0 0.0 0.0
000080 00 00 00 00 00 00 00 00 00 00 00 00 00 00 00 00
       0.0 0.0 0.0 0.0
000090 00 00 00 00 00 00 00 00 00 00 00 00 00 00 00 00
       0.0 0.0 0.0 0.0
0000a0 00 00 00 00 00 00 00 00 00 00 00 00 00 00 00 00
       0.0 0.0 0.0 0.0
0000b0 00 00 00 00 00 00 00 00 00 00 00 00 00 00 00 00
       0.0 0.0 0.0 0.0
0000c0 00 00 00 00 00 00 00 00 00 00 00 00 00 00 00 00
       0.0 0.0 0.0 0.0
0000d0 00 00 00 00 00 00 00 00 00 00 00 00 00 00 00 00
       0.0 0.0 0.0 0.0
0000e0 00 00 00 00 00 00 00 00 00 00 00 00 00 00 00 00
       0.0 0.0 0.0 0.0
0000f0 00 00 00 00 00 00 00 00 00 00 00 00 00 00 00 00
       0.0 0.0 0.0 0.0
000100 00 00 00 00 00 00 00 00 00 00 00 00 00 00 00 00
       0.0 0.0 0.0 0.0
000110 00 00 00 00 00 00 00 00 00 00 00 00 00 00 00 00
       0.0 0.0 0.0 0.0
000120 00 00 00 00 00 00 00 00 00 00 00 00 00 00 00 00
       0.0 0.0 0.0 0.0
000130 00 00 00 00 00 00 00 00 00 00 00 00 00 00 00 00
       0.0 0.0 0.0 0.0
000140 00 00 00 00 00 00 00 00 00 00 00 00 00 00 00 00
       0.0 0.0 0.0 0.0
000150 00 00 00 00 00 00 00 00 00 00 00 00 00 00 00 00
       0.0 0.0 0.0 0.0
000160 00 00 00 00 00 00 00 00 00 00 00 00 00 00 00 00
       0.0 0.0 0.0 0.0
000170 00 00 00 00 00 00 00 00 00 00 00 00 00 00 00 00
       0.0 0.0 0.0 0.0
000180 00 00 00 00 00 00 00 00 00 00 00 00 00 00 00 00
       0.0 0.0 0.0 0.0
000190 00 00 00 00 00 00 00 00 00 00 00 00 00 00 00 00
       0.0 0.0 0.0 0.0
0001a0 00 00 00 00 00 00 00 00 00 00 00 00 00 00 00 00
       0.0 0.0 0.0 0.0
0001b0 00 00 00 00 00 00 00 00 00 00 00 00 00 00 00 00
       0.0 0.0 0.0 0.0
0001c0 00 00 00 00 00 00 00 00 00 00 00 00 00 00 00 00
       0.0 0.0 0.0 0.0
0001d0 00 00 00 00 00 00 00 00 00 00 00 00 00 00 00 00
       0.0 0.0 0.0 0.0
0001e0 00 00 00 00 00 00 00 00 00 00 00 00 00 00 00 00
       0.0 0.0 0.0 0.0
0001f0 00 00 00 00 00 00 00 00 00 00 00 00 00 00 00 00
       0.0 0.0 0.0 0.0

action_model._discrete_distribution.branches.0.weight f4 [2, 128]
000000 e9 5f 27 bc f2 03 90 3b b3 58 22 bc 09 d5 b7 bc
       -0.010215738 0.0043950016 -0.009908843 -0.02244045
000010 1a 51 26 3c ab 0a 56 3b ef 38 45 bc 96 09 0d bb
       0.010151172 0.0032660167 -0.0120375 -0.0021520606
000020 4b 76 6b ba e7 52 90 bb 15 79 97 bb 22 85 90 3b
       -0.00089821656 -0.004404414 -0.0046225884 0.004410402
000030 a5 3c f7 ba 7b 20 3b 3c 93 83 9c 3a c0 6e aa b6
       -0.0018862678 0.011421318 0.0011941068 -5.079288e-06
000040 8d bd 4a 3c f0 f9 7a bb bf 44 83 bc 41 8d 3e 3c
       0.012374294 -0.0038295947 -0.016023992 0.011630357
000050 63 04 42 3b 8a 58 25 bc 0b 66 29 bb 20 9e 07 3c
       0.0029604665 -0.01009191 -0.0025848176 0.008277446
000060 49 70 b8 ba 2f a5 07 bb b2 62 4e 3b ef 49 dc 39
       -0.001407155 -0.0020697822 0.0031491932 0.00042016755
000070 ea 60 04 bc c5 c7 59 ba 5f 33 07 3c 3a 29 c4 bb
       -0.008079747 -0.0008307661 0.008251994 -0.00598636
000080 6d 52 54 3c 84 46 19 3c 69 50 93 3c 8d 74 3c bc
       0.012959105 0.009355191 0.017982678 -0.011502397
000090 1f bd 8b bb 27 83 c5 3b 02 bf cf b8 c5 2a 19 3b
       -0.0042644884 0.0060275975 -9.906107e-05 0.002337144
0000a0 c8 b8 1f bc 54 d2 14 3c 0f ee 58 3b af 34 05 3b
       -0.009748645 0.009083349 0.0033100878 0.0020325591
0000b0 2e 05 3b 3c c1 88 3c bc c5 cd 1f 3c 77 3f fe 3b
       0.011414809 -0.011507214 0.009753649 0.0077590304
0000c0 27 7c 29 3c c9 7b 25 bc 13 2a d2 bb 81 53 31 bc
       0.010344542 -0.010100313 -0.006413707 -0.010823132
0000d0 4c fb 24 bb 1c a9 4a 3c 60 58 4d bc bf 5c d9 bc
       -0.0025174199 0.01236942 -0.012533277 -0.026533483
0000e0 37 a5 ef 3a 4f 20 44 bc 52 14 22 bb 7a c5 ea ba
       0.0018283491 -0.011970594 -0.002473135 -0.0017911636
0000f0 e1 7d 00 3c ff fe b3 3b 0b b8 60 3c 87 f2 04 3b
       0.007842512 0.0054930444 0.013715754 0.002028616
000100 af 8b 07 bc 7e ec ac 3b 75 b9 d1 3b f3 56 93 3b
       -0.008273049 0.0052772155 0.006400282 0.004496449
000110 df 81 ba bb 5b dd 43 3b 4b ba 1b 3b 34 19 25 bc
       -0.0056917514 0.0029886577 0.0023762162 -0.01007681
000120 d3 06 b6 bb f5 15 76 3a f4 ab 8b 3b 98 42 13 3c
       -0.0055550127 0.0009387427 0.004262442 0.008988045
000130 c7 6f 4c 3c cd 45 5f 3c 70 ec 00 3c eb 33 94 3b
       0.012477822 0.013627482 0.007868871 0.0045227907
000140 a7 cc ba 3a b5 c5 a9 3b 65 c2 6c bc b0 51 dd 3b
       0.0014251665 0.005181039 -0.014450644 0.0067541227
000150 7a 17 ee 3b e7 64 f1 3b e8 d0 76 3b d1 fa 25 3c
       0.007265982 0.007366765 0.003766114 0.0101306
000160 9a ef 51 bc ed f1 2c bb bd 46 53 3a ec 0f 8f ba
       -0.012813473 -0.0026389316 0.0008059552 -0.0010914779
000170 32 bf c3 3b ef f4 57 bb 82 8d f0 3a 32 26 1e bc
       0.00597372 -0.0032952388 0.001835272 -0.009652661
000180 29 24 46 3b fe 76 8a bb ef af 48 bc 8d 05 3c bc
       0.0030233955 -0.0042256108 -0.012248977 -0.011475933
000190 7c 8e 30 bb 1c 17 9f bc e3 59 1c 3c 1b 79 be b9
       -0.0026940396 -0.0194202 0.009542915 -0.00036329855
0001a0 05 2c f1 bb 1b c5 00 ba 42 ea 01 3a bd d1 d2 bb
       -0.007359984 -0.00049121835 0.00049558666 -0.006433694
0001b0 17 08 70 3b 68 0a d6 bb a2 fd 56 bb d0 76 ee ba
       0.0036625916 -0.0065320022 -0.0032804986 -0.0018193368
0001c0 8f d0 b3 3b 8b f2 2c bc 12 0e 82 bb 07 bd 9a bb
       0.0054875086 -0.010555874 -0.0039689625 -0.004722241
0001d0 9b 91 37 bc 48 5b 79 3b 5a ef 63 3b a7 03 3b bc
       -0.011204149 0.0038048793 0.0034780116 -0.011414445
0001e0 25 4f 9a b9 62 c3 e3 bb cf 65 34 3c a7 dc cf bb
       -0.00029432136 -0.0069507817 0.011010601 -0.0063434425
0001f0 4b b1 93 3b 96 3b ad 3a 4d a0 9b bb 83 0a af 3b
       0.004507219 0.001321661 -0.004749334 0.0053418293
000200 e3 3e a3 b9 1b bc 84 3b 73 a7 86 bc ad 86 c6 bb
       -0.00031136637 0.004050744 -0.016437268 -0.006058535
000210 61 99 9b 3b b2 c3 9b bb e5 f1 94 bb 7b c4 f8 3b
       0.004748509 -0.0047535533 -0.0045454376 0.0075917817
000220 9b f1 66 bb 6d ed 86 bc 72 9f 51 bc 77 d9 e8 ba
       -0.0035239223 -0.016470635 -0.012794362 -0.0017765005
000230 13 41 94 bb 24 cb 81 3b 2a d6 e6 bb 77 61 1f 3c
       -0.004524359 0.003960984 -0.0070445733 0.009727827
000240 38 21 6e 3b af 45 3e ba 70 08 db bb 0b 2e 8a 3a
       0.0036335718 -0.00072583085 -0.0066843554 0.0010542286
000250 3f 6b b5 bc 95 d1 fa bb 17 60 47 3b 2b 23 46 ba
       -0.022145865 -0.0076543787 0.0030422264 -0.0007558341
000260 6a 4b 72 bc c9 0a 48 bc be be 12 3b cf fc 83 bc
       -0.014788488 -0.012209603 0.0022391523 -0.01611176
000270 dd 76 be bb 2c 35 39 bb 5d 3f ef bb 58 36 74 bc
       -0.0058125095 -0.0028260453 -0.0073012547 -0.014905535
000280 ec 15 b1 3b 46 0d 99 3b e8 a7 3e 3c 6a d5 57 bc
       0.0054042246 0.004670772 0.011636712 -0.0131734405
000290 12 2a ef bb 2a 53 b1 3a bf 14 aa 3b 24 77 17 3b
       -0.0072987163 0.0013528813 0.0051904614 0.0023111785
0002a0 db 21 12 3b c9 a7 22 bb f7 15 5e 39 9b 61 54 bb
       0.0022298011 -0.0024819246 0.00021179752 -0.003240681
0002b0 f1 1d 11 bc 92 75 0c 3c 3b cf 59 3a 17 5c dc bb
       -0.008857236 0.008572953 0.0008308773 -0.006724845
0002c0 03 16 1f 3b 1d e1 62 3c da ca f3 bb c3 92 d3 3a
       0.0024274595 0.0138476165 -0.0074399533 0.0016141761
0002d0 cd db e2 39 8b 81 2a 3c b2 e2 5c 3c d2 0e e0 3b
       0.00043269843 0.010406862 0.013481783 0.006837704
0002e0 3c 8e 83 bb bd d8 a9 bb a3 db ed bb a5 0b ce 3b
       -0.0040147584 -0.005183308 -0.0072588488 0.006288009
0002f0 43 8e 5e 3b df 55 08 3c 94 ea 36 bc 66 6f 0a bb
       0.0033959306 0.0083212545 -0.011164326 -0.0021123528
000300 26 dd c0 bb b3 b2 a4 3a e7 98 03 3b 2c ba 86 3c
       -0.005885738 0.0012565464 0.002008015 0.016446196
000310 1f ca 12 bb b2 4a fd 3b 2d 1f 49 3b 27 bf 5f bb
       -0.0022398306 0.0077298516 0.0030688748 -0.0034141035
000320 fd 00 ae 3b 6f 50 18 bc 8c 9a 0d bb 75 26 a1 37
       0.0053101764 -0.009296521 -0.002160701 1.9210604e-05
000330 33 15 82 bb cf bc 4c 3c e8 1c b0 3b 73 00 72 bc
       -0.0039698123 0.012496187 0.0053745396 -0.014770615
000340 ab 20 10 3c b3 47 06 3c 9b 91 c6 3b 4f 64 ec 3a
       0.008796851 0.008195805 0.006059838 0.0018035265
000350 6e a5 86 3b ce ab 91 3b e2 1d 4f bb 79 00 3f bc
       0.004109076 0.0044455295 -0.0031603505 -0.0116578275
000360 c3 ed 20 bc fb 24 80 bb 57 93 47 b9 8f 50 17 3c
       -0.009822312 -0.0039106584 -0.00019033007 0.009235515
000370 57 8f 78 bb 43 18 46 3c 7b c8 99 bb 6e e7 18 bc
       -0.0037927234 0.012090745 -0.0046930886 -0.009332521
000380 4b 27 1e 3c 88 67 5c bb 7b 86 c5 ba a0 d0 96 bb
       0.009652923 -0.0033631045 -0.0015069986 -0.0046025068
000390 ef 3b 00 3c f0 38 83 3c 43 ff db 3a 65 60 62 bb
       0.007826789 0.01601836 0.0016784448 -0.003454232
0003a0 b8 3e 4e 3c 04 0e b3 bb 48 c0 dc 3a 20 39 cd ba
       0.0125881955 -0.0054643173 0.0016841972 -0.0015657283
0003b0 29 c8 1b bc 9a ce 3c bc d6 35 1f bc 0c 7d b9 ba
       -0.009508171 -0.011523867 -0.009717425 -0.0014151647
0003c0 20 35 d7 bb 8e 71 35 3a ac c1 aa b9 02 c6 bd 3b
       -0.0065676123 0.0006921523 -0.00032569224 0.0057914266
0003d0 fd d1 e2 3b f5 80 c0 3b 8d d9 1c 3c 1d b0 2d bb
       0.006922005 0.005874748 0.0095733525 -0.0026502677
0003e0 6b f9 77 b9 90 c5 2f 3b 2e 61 07 bb cb e3 1f 3c
       -0.00023648671 0.0026820637 -0.002065729 0.0097589
0003f0 51 b8 26 bc fe 59 46 3c 95 af b0 3a 93 ce ea ba
       -0.01017578 0.012106417 0.0013480062 -0.0017914347

action_model._discrete_distribution.branches.0.bias f4 [2]
000000 00 00 00 00 00 00 00 00
       0.0 0.0

network_body._body_endoder.seq_layers.0.weight f4 [128, 6]
000000 9d 76 ee be 89 ee bf be 0d 95 e1 3e 22 6c ca 3e
       -0.4657487 -0.37486675 0.4405903 0.39535624
000010 d2 54 71 3f c5 82 88 be b9 12 27 3f a7 62 d6 bd
       0.9427005 -0.2666227 0.65262944 -0.10468035
000020 cf 13 20 3e 1c 70 46 bf 85 09 b8 bd 17 ed db 3e
       0.15632556 -0.77514815 -0.08986191 0.42954323
000030 14 8e 93 be ab 5e e6 3e 17 16 0a be 31 de bd 3e
       -0.28819335 0.449941 -0.13484989 0.3708358
000040 81 bd 80 3e 9b 29 30 be ce 56 c6 be 0d 31 53 be
       0.2514458 -0.17203371 -0.38738102 -0.2062418
000050 8e e1 a7 3e ee 08 55 bf 69 62 b7 3e c6 64 78 3e
       0.32789272 -0.8321675 0.35817268 0.24257192
000060 62 2c 13 3d 9f 10 e1 be 59 16 e6 be b8 3e 2f bf
       0.035931 -0.43957993 -0.44938925 -0.68455076
000070 a4 8a 5f be 49 7e 50 3e 7a 4c 8a bd b5 23 b2 bd
       -0.21830231 0.20360674 -0.06752868 -0.08698217
000080 cb f2 82 bd 4f 7c f7 3e 05 22 2b 3f 24 2c 1b be
       -0.06393965 0.48337027 0.66848785 -0.15153557
000090 56 f4 77 be ba 7a b1 3c cb 85 5a be bd 16 86 bd
       -0.242143 0.021664966 -0.213401 -0.06547306
0000a0 58 d7 ba be 05 9a 0a 3e a7 82 09 be 11 2b ab 3e
       -0.3649242 0.13535316 -0.13428746 0.33431295
0000b0 06 60 f6 be 50 f7 dc 3e 21 d6 95 3e 8e ac 8b 3d
       -0.48120135 0.43157434 0.2926493 0.068200216
0000c0 7d 16 34 bf cf 65 82 3e cb 6e a9 bf 94 9f d9 bc
       -0.70346814 0.254683 -1.3236936 -0.02656535
0000d0 c9 5f 1d 3e 76 e7 8c bd b8 8f 11 be b0 d3 8d be
       0.1536857 -0.06880085 -0.1421498 -0.27700567
0000e0 ab b7 4c be d3 f0 df 3e 8b d2 dd 3d 68 9a 38 3f
       -0.19991939 0.43738422 0.108311735 0.72110605
0000f0 a7 ba 2f be 40 65 f9 3c d0 ea f6 3e a9 97 0b 3d
       -0.17161046 0.030443788 0.48226023 0.03408018
000100 29 37 0a be a5 dd 2e bf d6 73 1a bd c9 6a 87 3e
       -0.13497604 -0.6830695 -0.037708126 0.26448658
000110 e9 fe 14 bf 2f 89 a9 bc 1f 26 81 be 81 7e 8d be
       -0.5820146 -0.020695297 -0.25224397 -0.27635577
000120 c1 bc d5 3e a3 40 ef be cc e2 63 3d 84 a7 a8 3d
       0.4174557 -0.46729 0.055636212 0.08235076
000130 13 3c 9b 3e a3 d4 7f be 37 2f 93 3d 7d 4e 55 bf
       0.3031927 -0.24983458 0.0718674 -0.8332289
000140 a6 8c cc 3e fd e3 f8 3e b4 4a 56 3f f4 9a 7c be
       0.39951056 0.4861144 0.8370774 -0.24668485
000150 29 72 11 be d8 8b de be f4 9a 05 3f 49 0a cb bd
       -0.14203705 -0.43466067 0.52189565 -0.09914071
000160 03 f9 66 be 77 61 28 3e 25 57 75 be f8 96 44 bf
       -0.22555928 0.1644343 -0.23959024 -0.7679286
000170 86 9d 38 bf fe 66 40 3e 7e 96 83 be e9 b0 4e bf
       -0.7211536 0.18789288 -0.25700754 -0.80738693
000180 86 0a e5 be 62 a9 2b 3e 57 d3 3e be ed 11 81 be
       -0.4473459 0.16763833 -0.18635307 -0.2520899
000190 bd 4c 5f bf 4d fc d7 be 73 b8 83 3e 8b 58 32 3e
       -0.8722647 -0.42184678 0.2572666 0.17416589
0001a0 53 4d b0 3e 7b fb 54 3e ee 92 f5 3c 52 14 c0 be
       0.34433994 0.20799057 0.029977288 -0.37515503
0001b0 79 05 b1 bc 5a 3a 27 bd 8b 94 01 3f 4e 17 17 3e
       -0.021609055 -0.040827133 0.50617284 0.14754984
0001c0 18 26 0f 3f b5 de be 3e 7b c8 01 bf 93 b4 2b 3f
       0.559175 0.37279287 -0.50696534 0.6707241
0001d0 ba 6d a0 be 09 77 1a be 15 bb f5 3e 44 dd 3a 3d
       -0.31333715 -0.15084471 0.47994295 0.04562117
0001e0 96 1a 44 bd 5a 39 98 3e b0 7f c3 3c 17 33 10 3f
       -0.047876917 0.29731256 0.023864597 0.56327957
0001f0 1f e4 05 3e 68 d3 d5 bc 0f f7 ec bd 5e 6f 0b 3e
       0.13075303 -0.026101783 -0.1157056 0.13616702
000200 8b 42 9a 3e 40 b3 0b bf 59 3a 92 3e de 1f 50 3f
       0.30128893 -0.5457039 0.2856014 0.81298625
000210 0d b8 92 bd 86 86 48 3e a8 a3 ab bd 40 a0 b1 be
       -0.07164011 0.19582567 -0.08380824 -0.34692574
000220 57 8a 19 bf 35 ba 83 3e cb d7 a3 bf 6b 19 57 bf
       -0.59976715 0.25728002 -1.280023 -0.8402316
000230 f9 22 b2 3e de 55 9e 3d ba d0 1f 3e 54 ec 35 be
       0.34792307 0.077312216 0.15606967 -0.17765933
000240 bc d6 5c be f0 35 7b be dd 5b 4a bc 50 7a 9e 3e
       -0.2156629 -0.24532294 -0.0123510035 0.30952692
000250 fe c0 2d 3d 81 1c bb be cc 8f 13 bf c5 7c b0 3d
       0.04242038 -0.36545184 -0.5764129 0.08617548
000260 75 7c ab bd 86 22 3b 3f f4 27 41 3e b2 3c 99 bc
       -0.08373348 0.73099554 0.18862897 -0.0187057
000270 16 da f5 3d 00 87 ea 3d fa fc 96 3e 8f fd 80 3f
       0.12004487 0.114515305 0.2948988 1.007738
000280 0d 55 b2 3e 9c 2f a8 be a9 c8 4c 3f cf d0 66 3e
       0.34830514 -0.32848823 0.79993683 0.22540592
000290 8f b9 8e be 76 45 d1 bd 88 92 2f 3e 8f 35 87 bd
       -0.27875945 -0.10218327 0.17145741 -0.06602012
0002a0 1b 09 34 3f 90 8a 07 3f e4 89 62 3e 17 f7 30 3e
       0.70326394 0.52945805 0.22122914 0.17281757
0002b0 97 28 90 3f 4c 96 b2 3d bf 8b ad be bb 9c 00 3e
       1.1262387 0.08720073 -0.3389568 0.12559788
0002c0 a7 65 c9 bd 00 49 6b 3d 8e 13 e7 be 41 ea 45 be
       -0.09833842 0.057442665 -0.45132107 -0.19327642
0002d0 d8 cc 2f bf 9f 88 cb 3d e3 62 fc be 8a 52 12 3d
       -0.6867194 0.09938168 -0.49294195 0.035723247
0002e0 e1 58 a9 3e 62 d5 03 bf 3a b0 ce be 19 b6 0c 3e
       0.33075622 -0.5149747 -0.40368825 0.1374134
0002f0 9d c7 9c 3e 7a 1e ca 3e a1 a4 6a 3e 40 6e 4f 3e
       0.30621043 0.39476377 0.22914363 0.20256901
000300 ef f5 fd 3e 46 67 dd 3e de 28 9c 3d 8d 06 74 3f
       0.49601695 0.43242854 0.07624982 0.95322496
000310 4f 31 3b bf 11 c3 a4 bd 5a 8a 9e be 7f 6a 00 bf
       -0.73122114 -0.080450185 -0.3096493 -0.501625
000320 ff a4 29 3f 66 67 8a 3e 5c 68 f8 bd 6c 71 8c be
       0.6626739 0.27032012 -0.1212928 -0.27430284
000330 b6 f6 99 be 46 2c 90 bd a5 8b 7e be 77 12 11 bf
       -0.30071038 -0.070396945 -0.24857958 -0.566688
000340 7f 78 43 3d 3b da 09 3f 35 eb 1b bf 2f 50 89 be
       0.047722336 0.5384862 -0.6090577 -0.26818988
000350 f6 33 9d 3e e5 d7 12 3f 15 b5 f7 3c c6 93 91 be
       0.30703706 0.5736068 0.030237714 -0.28433055
000360 14 b5 72 be e7 dc 33 3f df 23 4e bf 37 bd 2e 3e
       -0.23701888 0.70258945 -0.80523485 0.17064367
000370 cd a2 02 3d c7 27 aa 3e aa 71 11 3f d6 f2 b3 3e
       0.03189354 0.33233473 0.5681406 0.35146207
000380 1b f0 a8 3e b7 f0 37 bc df 00 0f be 7d 87 af 3e
       0.32995686 -0.0112268245 -0.13965176 0.34283057
000390 d5 a6 0d bb 00 81 02 bf b5 cf b6 3d 70 fe b0 ba
       -0.0021614332 -0.5097809 0.08926336 -0.0013503563
0003a0 84 24 36 3e cc 0b 5e 3e fe d5 3e bf fa 07 fa 3e
       0.17787367 0.21684188 -0.74545276 0.4883421
0003b0 96 2f e9 3e ca 09 ea bd 50 03 c4 3e ca 1f 15 3d
       0.45544118 -0.11427648 0.38283777 0.03640727
0003c0 df f6 df 3d 5c 75 39 3f 1a a4 db be ad d3 21 bf
       0.10935759 0.724447 -0.42898637 -0.63213617
0003d0 72 7a 23 bd 1a af af 3e f2 e1 d9 3d 3e f6 92 be
       -0.039911695 0.3431328 0.10638799 -0.28703493
0003e0 dd 64 3b 3f d5 c9 77 3d 8d 28 48 3e a1 45 7e be
       0.7320078 0.060495216 0.19546719 -0.24831249
0003f0 70 a0 12 3e 03 26 d4 3d 7b c4 87 bb a2 f3 5b be
       0.14319015 0.10358813 -0.0041432953 -0.21479657

network_body._body_endoder.seq_layers.0.bias f4 [128]
000000 00 00 00 00 00 00 00 00 00 00 00 00 00 00 00 00
       0.0 0.0 0.0 0.0
000010 00 00 00 00 00 00 00 00 00 00 00 00 00 00 00 00
       0.0 0.0 0.0 0.0
000020 00 00 00 00 00 00 00 00 00 00 00 00 00 00 00 00
       0.0 0.0 0.0 0.0
000030 00 00 00 00 00 00 00 00 00 00 00 00 00 00 00 00
       0.0 0.0 0.0 0.0
000040 00 00 00 00 00 00 00 00 00 00 00 00 00 00 00 00
       0.0 0.0 0.0 0.0
000050 00 00 00 00 00 00 00 00 00 00 00 00 00 00 00 00
       0.0 0.0 0.0 0.0
000060 00 00 00 00 00 00 00 00 00 00 00 00 00 00 00 00
       0.0 0.0 0.0 0.0
000070 00 00 00 00 00 00 00 00 00 00 00 00 00 00 00 00
       0.0 0.0 0.0 0.0
000080 00 00 00 00 00 00 00 00 00 00 00 00 00 00 00 00
       0.0 0.0 0.0 0.0
000090 00 00 00 00 00 00 00 00 00 00 00 00 00 00 00 00
       0.0 0.0 0.0 0.0
0000a0 00 00 00 00 00 00 00 00 00 00 00 00 00 00 00 00
       0.0 0.0 0.0 0.0
0000b0 00 00 00 00 00 00 00 00 00 00 00 00 00 00 00 00
       0.0 0.0 0.0 0.0
0000c0 00 00 00 00 00 00 00 00 00 00 00 00 00 00 00 00
       0.0 0.0 0.0 0.0
0000d0 00 00 00 00 00 00 00 00 00 00 00 00 00 00 00 00
       0.0 0.0 0.0 0.0
0000e0 00 00 00 00 00 00 00 00 00 00 00 00 00 00 00 00
       0.0 0.0 0.0 0.0
0000f0 00 00 00 00 00 00 00 00 00 00 00 00 00 00 00 00
       0.0 0.0 0.0 0.0
000100 00 00 00 00 00 00 00 00 00 00 00 00 00 00 00 00
       0.0 0.0 0.0 0.0
000110 00 00 00 00 00 00 00 00 00 00 00 00 00 00 00 00
       0.0 0.0 0.0 0.0
000120 00 00 00 00 00 00 00 00 00 00 00 00 00 00 00 00
       0.0 0.0 0.0 0.0
000130 00 00 00 00 00 00 00 00 00 00 00 00 00 00 00 00
       0.0 0.0 0.0 0.0
000140 00 00 00 00 00 00 00 00 00 00 00 00 00 00 00 00
       0.0 0.0 0.0 0.0
000150 00 00 00 00 00 00 00 00 00 00 00 00 00 00 00 00
       0.0 0.0 0.0 0.0
000160 00 00 00 00 00 00 00 00 00 00 00 00 00 00 00 00
       0.0 0.0 0.0 0.0
000170 00 00 00 00 00 00 00 00 00 00 00 00 00 00 00 00
       0.0 0.0 0.0 0.0
000180 00 00 00 00 00 00 00 00 00 00 00 00 00 00 00 00
       0.0 0.0 0.0 0.0
000190 00 00 00 00 00 00 00 00 00 00 00 00 00 00 00 00
       0.0 0.0 0.0 0.0
0001a0 00 00 00 00 00 00 00 00 00 00 00 00 00 00 00 00
       0.0 0.0 0.0 0.0
0001b0 00 00 00 00 00 00 00 00 00 00 00 00 00 00 00 00
       0.0 0.0 0.0 0.0
0001c0 00 00 00 00 00 00 00 00 00 00 00 00 00 00 00 00
       0.0 0.0 0.0 0.0
0001d0 00 00 00 00 00 00 00 00 00 00 00 00 00 00 00 00
       0.0 0.0 0.0 0.0
0001e0 00 00 00 00 00 00 00 00 00 00 00 00 00 00 00 00
       0.0 0.0 0.0 0.0
0001f0 00 00 00 00 00 00 00 00 00 00 00 00 00 00 00 00
       0.0 0.0 0.0 0.0

network_body._body_endoder.seq_layers.2.weight f4 [128, 128]
000000 48 ec 29 3d 22 22 87 bd a7 75 e4 3b af fc ca 3c
       0.0414851 -0.06598307 0.006972033 0.024778692
000010 28 d8 1d 3e 74 44 3b 3c b9 ae 6a 3c aa 98 79 bc
       0.15414488 0.011429895 0.014323884 -0.015234152
000020 3d e7 de 3d c9 27 08 be 66 1b 9c bd 6c 26 1f 3e
       0.10883949 -0.13296427 -0.07622413 0.15542
000030 ad 01 f6 bd b2 ae 1c 3d b7 f2 21 3d 98 ae 15 bd
       -0.120120384 0.03825254 0.03953811 -0.03654346
000040 04 cd 98 bd d7 85 57 3d be 3d 5d bd c7 b1 b6 3d
       -0.074609786 0.052617874 -0.05401396 0.08920627
000050 bf 21 21 3e 77 91 71 3d fc bc 07 3d ee a3 6c 3c
       0.1573553 0.058976617 0.033139214 0.014443381
000060 2b c0 02 be 19 3b d7 bb 71 c0 29 be 49 76 ef 3d
       -0.12768619 -0.0065683243 -0.16577317 0.11692483
000070 57 f3 b7 bc 8b ea 09 be 12 31 83 3c 1e 61 29 3d
       -0.0224549 -0.13468377 0.01601461 0.041352384
000080 78 9f a8 bd cc 22 89 bd ea f8 92 bc e2 33 95 3d
       -0.08233541 -0.0669609 -0.017940957 0.072852865
000090 ba 52 cc bd 85 fc b3 3d ba 7c 9d 3c 19 79 38 3d
       -0.09976716 0.08788399 0.019224513 0.045037363
0000a0 96 18 57 3e b8 09 e2 bd 5b 53 a0 bd 6e 55 ed bd
       0.21005473 -0.1103701 -0.07828399 -0.1158856
0000b0 00 2a ed bb e0 70 c4 3c ba d3 02 3d dc 48 8b bd
       -0.007237673 0.023979604 0.0319402 -0.06801006
0000c0 78 7e cb 3d 59 e9 aa bd 55 5c 8a 3d 28 9b 93 3a
       0.099362314 -0.08345289 0.06755892 0.001126145
0000d0 68 6a a1 bc 7c be 14 3d fe 84 c9 3c b8 79 c0 3d
       -0.019704059 0.036314473 0.024599548 0.09398216
0000e0 94 e0 c7 3d ac 5c 53 be f7 a0 92 bd 13 8b 16 be
       0.09759632 -0.2064082 -0.07159608 -0.1470149
0000f0 42 f2 fd 3d 2f 94 f9 3d c8 64 3a bd 6d 8d 80 3e
       0.12399723 0.12186467 -0.04550627 0.251079
000100 17 21 10 be f0 71 f3 bc 44 56 72 3d 83 02 41 3c
       -0.14075123 -0.029717416 0.0591643 0.011780384
000110 26 69 df bd 30 dd b5 3d aa 91 95 bc ec 98 c3 3d
       -0.10908727 0.08880079 -0.018257935 0.09550652
000120 4d 4c 5b bd ac 0e 0b 3e 50 4f b4 3c 6a a6 79 bd
       -0.053539563 0.13579816 0.022010475 -0.06094972
000130 a8 6f 73 3c b3 a6 91 bd 70 45 bc 3c 77 dd 3e 3b
       0.014858164 -0.071118735 0.02298233 0.0029123703
000140 4c b9 19 3d 3f d8 5a bd 92 f2 17 3d 78 84 d5 3d
       0.03753023 -0.053428885 0.037096567 0.10425657
000150 b8 0e b0 bd 76 5d a9 bb f3 6e ce bd 2d 5c 81 ba
       -0.085965574 -0.005168612 -0.10079756 -0.000986939
000160 fd cb 82 bd 03 23 00 3e 7e a3 40 be d1 f1 54 bd
       -0.06386564 0.12513356 -0.18812367 -0.051988427
000170 63 85 de bc a0 23 48 bd 9b 13 15 3d c5 52 31 3c
       -0.027163213 -0.0488621 0.03639565 0.010822956
000180 e5 e1 25 3e 44 91 4c 3d 45 f9 9e 3d 79 1c d1 bd
       0.16199453 0.049943224 0.07762388 -0.10210509
000190 80 c3 b4 bd f4 2c 84 bd 56 e5 1f bd 10 27 1e 3e
       -0.08826351 -0.06453887 -0.03903707 0.15444589
0001a0 1e a7 8a 3e e1 31 f1 bd c1 d6 96 bd 96 4d 18 3c
       0.27080625 -0.11777092 -0.0736518 0.009295842
0001b0 70 62 ca 3c 9c a3 53 bd da 94 49 be 72 1e e5 3d
       0.024705142 -0.051669702 -0.19685689 0.111874476
0001c0 17 14 11 bc de be c4 bc 9a 35 ed 3c 52 ae 9b 3c
       -0.008854887 -0.024016794 0.028956223 0.01900402
0001d0 06 50 0d 3d 9b 53 2d bd 31 52 69 bd e0 19 11 3d
       0.034500144 -0.04231606 -0.05696315 0.035425067
0001e0 dc ff 8c bd f0 76 c6 bb 0b d7 f1 3c 1a f8 3b 3c
       -0.06884739 -0.006056659 0.029521486 0.011472726
0001f0 ab 4d 50 3d e0 e7 1a 3b f0 65 03 be 99 21 e0 bd
       0.05085532 0.0023636743 -0.12831855 -0.10943908
000200 21 f8 bc bd 8e c1 36 bd 09 b7 0e be 41 51 c7 3d
       -0.09227014 -0.044618182 -0.1393701 0.09732295
000210 79 41 85 bc fc d7 d2 bb 72 91 08 bd 57 2d c3 bd
       -0.016266571 -0.0064344388 -0.033341832 -0.09530132
000220 b6 3f 11 3e 53 d8 b5 bd 51 e6 06 be 9d 3b 7c 3c
       0.1418446 -0.08879151 -0.13173796 0.015395072
000230 52 77 af 3b 01 77 30 3e 30 7d 99 ba 79 9b 0a bd
       0.0053548003 0.17232896 -0.0011710282 -0.033839677
000240 e5 36 6e 3d 61 d8 73 bd 50 73 0f bd 34 ca 71 3d
       0.05815782 -0.059532527 -0.03502208 0.059030727
000250 ee 71 d6 bd 09 9f 39 be 30 ab 65 3d 21 3d 84 3e
       -0.10470949 -0.18127073 0.05607146 0.25827888
000260 fa 62 14 3d 1f 5e 0b bc 46 2f 78 bd 62 9e 1d be
       0.036227204 -0.008506327 -0.06059196 -0.1539245
000270 b0 fe 85 3c 0e 40 80 3d 4f a8 48 3d 75 c9 51 3e
       0.016356796 0.062622175 0.048988637 0.20487006
000280 18 02 1d 3c f4 05 5f 3d 2f 88 7f bd 02 7d f0 3d
       0.009583019 0.054449037 -0.062385734 0.11742593
000290 90 42 25 3e 8f 31 37 3d 6a 2c df 3d d3 02 9a bd
       0.16138673 0.044724997 0.10897143 -0.0752007
0002a0 ca 5d 90 3a 0c b7 be bd cf 5e 71 bd 54 0e bf 3d
       0.001101428 -0.09312257 -0.058928307 0.09328905
0002b0 18 40 00 3d 66 8a b2 bd 78 e5 04 bd 09 1c 96 bd
       0.031311125 -0.08717804 -0.0324454 -0.07329566
0002c0 01 1e 51 ba 3f 2d 9a 3d 86 c1 0d be 49 c6 51 bd
       -0.0007977188 0.07528161 -0.13843355 -0.05121449
0002d0 c2 d6 30 3d ac 0a a6 bd 75 54 93 bc d3 1e 0a be
       0.04317356 -0.08107504 -0.017984608 -0.13488321
0002e0 bb fe cd bd 74 5b 5a bc 19 3a 85 3d 32 49 5a 3d
       -0.100583516 -0.013327468 0.06505222 0.05329246
0002f0 5c 97 32 bd 31 65 98 3c ce 7f fc bc a4 d3 03 bd
       -0.04360138 0.01860294 -0.03082266 -0.032184258
000300 88 dc 83 3d 5c bb 56 bc 8a 6d a7 3b 9e fe ee 3d
       0.064385474 -0.013106193 0.0051094936 0.11669658
000310 17 2a a6 3d 0c 28 d4 bd 98 bb be bd 90 b4 ae 3d
       0.08113497 -0.10359201 -0.093131244 0.08530533
000320 a8 4c 6c 3d b4 30 4d bd 12 66 60 3d 54 38 ed bd
       0.057690293 -0.050095275 0.05478484 -0.11583009
000330 13 8d bf bd 71 b8 92 3d 81 c1 21 3d d2 f7 bd 3d
       -0.0935308 0.07164086 0.03949118 0.092757836
000340 c0 73 84 3d bc 50 3d 3d 8c f0 21 3d a4 03 ba bd
       0.0646739 0.046219572 0.039536044 -0.09082726
000350 63 0c 0c 3d 66 6e 8d 3d cf d6 54 bc 60 a3 8b bd
       0.0341915 0.069058225 -0.0129906675 -0.06818271
000360 4f c1 88 3d 5a ca 7a 3d f2 cf 01 bc c6 f3 5e 3d
       0.06677496 0.061228134 -0.007923113 0.0544317
000370 3e 5f 28 bd 0d 41 45 3d 91 a7 34 be be 69 90 3d
       -0.041106455 0.04815774 -0.17642047 0.07051419
000380 88 bb ed 3b 85 4e 35 3e 05 f1 f6 3b 44 d8 fe 3c
       0.0072550215 0.17705734 0.007536056 0.031108983
000390 8b c8 e0 3c 26 82 4c bd 30 62 1c bd 64 74 76 bd
       0.027439376 -0.049928807 -0.038179576 -0.060169592
0003a0 14 7c d6 3c 5a 01 92 bb f1 17 4a 3e c9 e7 2d 3e
       0.026182212 -0.0044557275 0.19735695 0.1698295
0003b0 d8 c8 9c 3a 39 40 58 bc d1 77 82 bd 06 1b 05 3d
       0.0011961712 -0.013198906 -0.063705094 0.032496475
0003c0 73 c2 d2 3c 5d 4e 3e 3d 80 aa e9 3d c2 1e 1a ba
       0.025727486 0.04646145 0.114094734 -0.0005879217
0003d0 f6 f0 42 be 8c 76 e1 bc 18 ea 7e 3d f3 96 05 bd
       -0.19037232 -0.027522348 0.062234968 -0.03261466
0003e0 29 ab 05 3d 89 2f c4 bd 02 87 52 bd 94 56 d2 3d
       0.032633934 -0.09579379 -0.051398285 0.1027042
0003f0 98 fe 78 3c 67 3b 91 3e dc 14 22 3c 04 2d c1 bd
       0.015197419 0.28365633 0.009892669 -0.09432414

network_body._body_endoder.seq_layers.2.bias f4 [128]
000000 00 00 00 00 00 00 00 00 00 00 00 00 00 00 00 00
       0.0 0.0 0.0 0.0
000010 00 00 00 00 00 00 00 00 00 00 00 00 00 00 00 00
       0.0 0.0 0.0 0.0
000020 00 00 00 00 00 00 00 00 00 00 00 00 00 00 00 00
       0.0 0.0 0.0 0.0
000030 00 00 00 00 00 00 00 00 00 00 00 00 00 00 00 00
       0.0 0.0 0.0 0.0
000040 00 00 00 00 00 00 00 00 00 00 00 00 00 00 00 00
       0.0 0.0 0.0 0.0
000050 00 00 00 00 00 00 00 00 00 00 00 00 00 00 00 00
       0.0 0.0 0.0 0.0
000060 00 00 00 00 00 00 00 00 00 00 00 00 00 00 00 00
       0.0 0.0 0.0 0.0
000070 00 00 00 00 00 00 00 00 00 00 00 00 00 00 00 00
       0.0 0.0 0.0 0.0
000080 00 00 00 00 00 00 00 00 00 00 00 00 00 00 00 00
       0.0 0.0 0.0 0.0
000090 00 00 00 00 00 00 00 00 00 00 00 00 00 00 00 00
       0.0 0.0 0.0 0.0
0000a0 00 00 00 00 00 00 00 00 00 00 00 00 00 00 00 00
       0.0 0.0 0.0 0.0
0000b0 00 00 00 00 00 00 00 00 00 00 00 00 00 00 00 00
       0.0 0.0 0.0 0.0
0000c0 00 00 00 00 00 00 00 00 00 00 00 00 00 00 00 00
       0.0 0.0 0.0 0.0
0000d0 00 00 00 00 00 00 00 00 00 00 00 00 00 00 00 00
       0.0 0.0 0.0 0.0
0000e0 00 00 00 00 00 00 00 00 00 00 00 00 00 00 00 00
       0.0 0.0 0.0 0.0
0000f0 00 00 00 00 00 00 00 00 00 00 00 00 00 00 00 00
       0.0 0.0 0.0 0.0
000100 00 00 00 00 00 00 00 00 00 00 00 00 00 00 00 00
       0.0 0.0 0.0 0.0
000110 00 00 00 00 00 00 00 00 00 00 00 00 00 00 00 00
       0.0 0.0 0.0 0.0
000120 00 00 00 00 00 00 00 00 00 00 00 00 00 00 00 00
       0.0 0.0 0.0 0.0
000130 00 00 00 00 00 00 00 00 00 00 00 00 00 00 00 00
       0.0 0.0 0.0 0.0
000140 00 00 00 00 00 00 00 00 00 00 00 00 00 00 00 00
       0.0 0.0 0.0 0.0
000150 00 00 00 00 00 00 00 00 00 00 00 00 00 00 00 00
       0.0 0.0 0.0 0.0
000160 00 00 00 00 00 00 00 00 00 00 00 00 00 00 00 00
       0.0 0.0 0.0 0.0
000170 00 00 00 00 00 00 00 00 00 00 00 00 00 00 00 00
       0.0 0.0 0.0 0.0
000180 00 00 00 00 00 00 00 00 00 00 00 00 00 00 00 00
       0.0 0.0 0.0 0.0
000190 00 00 00 00 00 00 00 00 00 00 00 00 00 00 00 00
       0.0 0.0 0.0 0.0
0001a0 00 00 00 00 00 00 00 00 00 00 00 00 00 00 00 00
       0.0 0.0 0.0 0.0
0001b0 00 00 00 00 00 00 00 00 00 00 00 00 00 00 00 00
       0.0 0.0 0.0 0.0
0001c0 00 00 00 00 00 00 00 00 00 00 00 00 00 00 00 00
       0.0 0.0 0.0 0.0
0001d0 00 00 00 00 00 00 00 00 00 00 00 00 00 00 00 00
       0.0 0.0 0.0 0.0
0001e0 00 00 00 00 00 00 00 00 00 00 00 00 00 00 00 00
       0.0 0.0 0.0 0.0
0001f0 00 00 00 00 00 00 00 00 00 00 00 00 00 00 00 00
       0.0 0.0 0.0 0.0

value_heads.value_heads.extrinsic.weight f4 [1, 128]
000000 3d ef 4b 3c dc 30 d6 bd a5 98 b6 bd e2 db 47 3e
       0.012447176 -0.10458538 -0.089158334 0.19517472
000010 5a 6d 56 bb f2 ce 48 be 82 a7 0d be 2f 75 3c 3e
       -0.0032718987 -0.19610193 -0.1383343 0.18404077
000020 42 d4 ea 3d 7f ed 1a be 51 be 41 be c8 d9 b2 3d
       0.11466266 -0.1512966 -0.18920256 0.08732945
000030 2c a1 09 bd 1c 9a 2f be 74 c1 b2 bd d8 dc fd 3d
       -0.03360097 -0.17148632 -0.087283045 0.12395638
000040 f1 81 57 bd fb 0e 4f be 1b ed 05 3d 48 57 bc bd
       -0.052614156 -0.20220558 0.032696825 -0.09196335
000050 00 a4 84 bc d0 2a 9c 3d 72 8e a2 bd 0c 6a 59 bd
       -0.016191483 0.07625353 -0.079373255 -0.05307965
000060 85 5e 37 bc 4c 92 93 bc fe c3 17 3e 07 07 21 be
       -0.011191969 -0.018014096 0.14820859 -0.15725337
000070 da c0 fa 3c 6b 6a 14 be 2f c4 c6 3c 5b 3e 17 3e
       0.030609537 -0.1449372 0.02426347 0.1476988
000080 87 28 fc bd 72 61 5c 3e d7 72 79 3d 84 a6 b3 bc
       -0.123124175 0.21521547 0.060900535 -0.021929987
000090 13 7c 95 3d 9a 52 37 be 8b 4c 1f 3e 11 ae 53 3e
       0.07299056 -0.17902604 0.15556543 0.2067187
0000a0 b6 26 5c be 76 56 0b be 4e 3d 2f be 6f 23 46 bd
       -0.21499142 -0.13607201 -0.1711323 -0.048373636
0000b0 1a f7 a4 bd 6d ba e6 bd 44 34 4a be 8c 54 86 3d
       -0.080549434 -0.11266027 -0.197465 0.06559095
0000c0 ae 7c d3 39 cf 34 38 3d 7b 02 8c bc 59 77 c7 3d
       0.0004033795 0.044972237 -0.017091027 0.09739561
0000d0 0f 05 52 be 0f 80 ab 3c cd d9 41 be 01 51 b6 3d
       -0.20509742 0.020935087 -0.1893074 0.08902169
0000e0 fb ba bd 3d 15 b4 f8 3d 86 0e 16 be 47 33 7d 3d
       0.09264179 0.12143723 -0.14653978 0.06181648
0000f0 be 2d 2b be ce 72 4f bd f4 50 4e be b9 03 ed bd
       -0.16716668 -0.050646596 -0.20148069 -0.11572976
000100 4e b1 27 bd 86 5a 4b 3e d1 54 86 bd 3a ac 14 3c
       -0.040940575 0.1985875 -0.06559146 0.009074265
000110 d3 67 d4 bd 84 01 22 be 33 d1 a9 bd 86 37 99 b9
       -0.103713654 -0.1582089 -0.08291855 -0.00029223802
000120 34 55 d5 bb 6f d8 49 3e dc 03 e2 3d d7 18 9a 3c
       -0.006510401 0.19711469 0.11035892 0.018810673
000130 a2 ac 1d be ee 7e a0 bd ed ae 1e 3d 5e 34 60 bc
       -0.15397885 -0.0783671 0.03874104 -0.01368436
000140 4d 15 f2 bd 52 b3 0b 3e ac 97 a1 3b 91 0e ec 3c
       -0.11820469 0.13642624 0.004931411 0.02881554
000150 dc 3a 15 3e b0 f3 e0 3d 47 7a 5c 3e df b4 3b be
       0.14573234 0.1098398 0.2153102 -0.18330716
000160 61 e9 18 3e b7 74 2a 3d 3f 15 7d bd e8 d1 56 bd
       0.14932777 0.041615214 -0.06178784 -0.052446276
000170 ed 3c e3 3c 7b 0c 13 3e 21 b0 f9 3d b3 bb 51 3e
       0.027739013 0.1436023 0.12191797 0.20481758
000180 94 80 2e be 44 0a 64 bd 28 3c 5b 3e 8b 0a 27 3e
       -0.17041236 -0.055673853 0.21409667 0.16312616
000190 62 58 2b be 8b 6b 1b 3d e7 90 97 bd f0 6e 9c bb
       -0.16732934 0.037944358 -0.07400685 -0.004773967
0001a0 4a e8 8e 3d c2 22 14 3e 1c 91 46 be da a4 4e 3e
       0.069778994 0.14466384 -0.19391292 0.20180073
0001b0 d1 9e 29 3e ea db 04 3d f0 11 56 bd 56 77 ef bd
       0.1656449 0.03243629 -0.0522632 -0.116926834
0001c0 d0 de 06 be 30 33 33 bc 88 15 50 be cf d6 45 be
       -0.13170934 -0.010937497 -0.20320714 -0.19320224
0001d0 67 e4 aa 3d 94 c1 b9 3d b4 19 c5 3c 44 97 af 3d
       0.083443455 0.09070125 0.024060108 0.085737735
0001e0 a0 0a 2f 3e 96 88 4d 3e f2 06 0e bc cf cd 10 bd
       0.17093897 0.20071635 -0.008668648 -0.035352524
0001f0 0a ab ac 3d 32 ec 14 3d f2 1f 54 3e cd 45 38 be
       0.084310606 0.036358066 0.20715311 -0.17995377
