MLBase/results/ppo/CloseToTargetBehaviour/CloseToTargetBehaviour-3128.onnx (onnx, 79519 bytes, 7 tensors)

discrete_act_size_vector f4 [1, 2]
000000 00 00 40 40 00 00 40 40
       3.0 3.0

network_body._body_endoder.seq_layers.0.weight f4 [128, 6]
000000 7b 8d 6e 3e af 93 cf be 16 76 88 be f0 ce 61 be
       0.23296158 -0.4054236 -0.26652592 -0.22051597
000010 fd 33 40 3e 57 ba ae 3e 75 55 b2 3e 85 83 83 be
       0.18769832 0.3412654 0.34830824 -0.2568628
000020 07 db ff 3e e9 02 01 3f 62 7d e4 3e 01 e8 f9 3c
       0.49971792 0.50395066 0.4462691 0.030506136
000030 e4 13 2f bf a2 04 a9 3e c0 cd 65 be f8 64 bc 3c
       -0.68389726 0.33011347 -0.22441769 0.022997364
000040 2d 9f 27 3f 51 70 c0 3e 52 d5 9a be 69 81 44 3f
       0.6547726 0.3758569 -0.30240875 0.76759964
000050 60 9f b1 3d 92 34 47 be d3 ba 25 bd e3 1b 87 3f
       0.086729765 -0.19453648 -0.040461373 1.0555385
000060 a5 28 8a be cd 0b 19 3e b8 a7 8c 3e 64 9b 40 bf
       -0.26984134 0.14945908 0.2747171 -0.7523711
000070 4d bd bd 3e f9 26 e2 bd 09 0f cf 3e 39 91 8d be
       0.37058488 -0.1104259 0.40441158 -0.2764986
000080 92 b9 5f bf 8d b0 25 be 49 03 07 3f 0c db b4 be
       -0.8739253 -0.1618063 0.5273939 -0.3532337
000090 2b d9 24 3d 08 14 bc 3e 15 a2 d8 bd 7d 59 a3 be
       0.04024617 0.36734033 -0.1057779 -0.31904212
0000a0 aa f6 f4 3e 63 3e 62 3c f8 d9 f1 3e dd 4e 4d 3f
       0.4784444 0.013808819 0.4723661 0.8019846
0000b0 be eb cc 3e a7 a8 ef bd af c1 37 3e f3 7f 34 3e
       0.40023607 -0.1170209 0.17944978 0.17626934
0000c0 5c c0 39 be f7 9e 46 be 56 1b 2c be 02 81 0b bf
       -0.18139786 -0.19396578 -0.16807303 -0.54493725
0000d0 62 02 0f 3f bd 48 3b be 3a 07 a0 3e 6b a6 82 3d
       0.5586301 -0.18289466 0.31255513 0.06379398
0000e0 06 bd 12 3e 16 c5 7e 3f 8f 07 cb 3e 4e a8 c0 be
       0.14329919 0.9951948 0.39654204 -0.37628406
0000f0 bc e6 24 3d ba b4 a4 bd 7d c1 f9 be e1 31 01 3f
       0.040259108 -0.08042283 -0.48780432 0.50466734
000100 af df 8e be 71 b2 83 be 6f d7 df ba 6d 1f 3a be
       -0.27905032 -0.25722077 -0.0017077754 -0.1817605
000110 0a ae 2f 3e b3 3d ad 3e 03 38 07 be 12 fd 58 3f
       0.17156234 0.33836135 -0.1320496 0.84761155
000120 aa 10 1e 3e 5f ba 9b 3e dd f4 f1 3d 7a 87 96 bf
       0.15436044 0.30415627 0.11814282 -1.1760094
000130 0c b9 1b be ef 69 f7 3c 4d b3 40 bc a9 dc e1 3e
       -0.15207309 0.03020188 -0.011761499 0.44113663
000140 25 67 e5 3d a9 50 0c bf ee 75 3c bf f4 02 15 39
       0.11201314 -0.5481058 -0.73617446 0.00014210847
000150 95 53 db 3e 58 2c 99 3e 6f 97 67 3f 09 cb 1b bf
       0.42837206 0.29916644 0.90465444 -0.6085668
000160 cf 6b 56 3e 8d 0d ca 3e be 62 19 bf 59 88 29 bf
       0.20939563 0.39463463 -0.59916294 -0.66223675
000170 e3 f2 13 3f 01 15 53 bd c9 68 c0 3e e3 de 85 3e
       0.5779249 -0.051533703 0.37579945 0.26146612
000180 24 56 eb 3e cd 09 ea 3e 4d 9f 01 3e 9c f1 f8 bd
       0.45964158 0.45710602 0.12658425 -0.12155458
000190 49 aa 4a bd e6 ae 9c 3e 75 3a db 3d a7 ab 86 3b
       -0.049478803 0.30602187 0.10704509 0.004109818
0001a0 69 35 c6 bc 45 f0 80 bd 37 ee 0f be cf 1d 31 be
       -0.02419539 -0.06295828 -0.14055716 -0.17296527
0001b0 56 a4 91 3e 78 02 5b be 20 55 1a 3e df 01 c1 3e
       0.2844569 -0.2138766 0.15071535 0.3769674
0001c0 44 e1 d1 3e 21 e8 01 bf fb 26 4a 3f 4d f3 aa 3e
       0.40992177 -0.50744826 0.7896573 0.3338875
0001d0 af c6 83 bf 9e 46 05 bc 84 5a b0 3e 9d ae e2 3e
       -1.0295008 -0.008134512 0.34444058 0.44273844
0001e0 28 8e 92 be 4e cb de be 3e 70 11 3e 33 0a e2 bd
       -0.28624082 -0.43514484 0.14202973 -0.110371016
0001f0 ce be 67 bf fc d0 05 bd 84 34 e2 3e a3 98 cd be
       -0.9052552 -0.032670006 0.4418069 -0.40155515
000200 ba 9c fe 3e f5 04 be 3e cf fa 69 bd 26 04 3d 3e
       0.49728948 0.37113157 -0.057123955 0.18458614
000210 32 10 a8 3c 43 e4 05 bf 24 93 f7 3d 6b 36 ac 3c
       0.020515535 -0.52301425 0.12088612 0.021022042
000220 9e f1 01 bf a5 e2 94 bd 4f 8d ec bd 35 0f 42 3e
       -0.50759304 -0.072697915 -0.1155039 0.18951114
000230 a9 11 53 bd 9c ae 33 3e fd 63 ef be 96 05 1d bf
       -0.051530514 0.17547077 -0.46755973 -0.6133665
000240 44 29 10 3f 3b 67 91 be 48 c5 ed be bd fb b3 3e
       0.56312966 -0.2839907 -0.46439576 0.35153
000250 ff b7 af be d6 a3 a4 3c 9e 92 15 3f ae 9b 2c 3e
       -0.34320065 0.020097654 0.58426845 0.16856262
000260 90 00 f2 bd 56 99 69 be b2 0c d3 be 97 e0 f3 3e
       -0.118165135 -0.228124 -0.41220623 0.47632286
000270 f8 75 55 3d 89 0b 81 3d 85 14 92 be 61 d2 c7 be
       0.052114457 0.06301028 -0.2853128 -0.39027694
000280 b5 b3 84 3d 39 cc df bd 16 8f 7a bd c4 b3 fc be
       0.06479589 -0.10927624 -0.061171614 -0.493559
000290 ae e2 39 bf df bf a1 be 81 a6 3d 3e 23 a0 4b 3e
       -0.7261151 -0.315917 0.18520547 0.19885306
0002a0 64 5f 6a 3e ab 25 4e be 41 b9 0b 3f 71 0c af be
       0.22887951 -0.20131557 0.5457955 -0.3418918
0002b0 4e 8b 2d 3e 4a 2a 73 be eb d9 55 3f 6f 2b 5d 3e
       0.16947672 -0.23746601 0.8353564 0.215986
0002c0 34 47 d5 be 4d ce 04 bf 3c cb 35 3e 01 d5 82 be
       -0.41655886 -0.5187729 0.17753309 -0.25553134
0002d0 47 f7 e0 be db 1f 49 3e 26 f5 9f 3f 9e d1 ea bd
       -0.43938658 0.19641058 1.2496688 -0.114657626
0002e0 65 3f 12 be db 5e 93 bd 65 fe 1a 3e 58 f3 29 3f
       -0.14281996 -0.071958266 0.15136106 0.6638694
0002f0 13 6f 1f bf b9 aa f9 bd 06 0a 94 be 7f b9 ae bf
       -0.6227886 -0.12190766 -0.28913897 -1.3650359
000300 a9 c5 b1 3c 83 4e 9b be e5 06 8a 3e 3a af 64 bf
       0.021700697 -0.30333337 0.26958385 -0.89329875
000310 91 ba b7 3e 11 b9 16 3f 66 8c 9c be 69 5c 7b be
       0.35884526 0.5887614 -0.30575866 -0.2454697
000320 74 db e1 bd 29 0a 06 3f e1 22 d4 3d f8 28 12 3f
       -0.110281855 0.52359253 0.10358215 0.57093763
000330 18 3b 6d bd ae 7b 4f be 32 d2 9b be 68 36 59 3e
       -0.057917684 -0.20262024 -0.30433804 0.2121216
000340 6c 13 e0 3d c5 38 a4 3e f7 fc 7c be 38 8c f9 3d
       0.109412044 0.32074562 -0.24705873 0.12184948
000350 76 a1 c5 3e 90 86 31 be 4a d3 02 3e db 50 e8 be
       0.38599747 -0.17336488 0.12775913 -0.45374188
000360 3c 04 e2 3e a4 d0 cb 3e f1 3f e2 3e 17 d9 19 3d
       0.44143856 0.39807618 0.44189408 0.03756055
000370 55 29 87 bf df 27 1f 3f ec 0e 23 3e 41 a8 9a 3e
       -1.0559489 0.62170213 0.15923661 0.30206493
000380 64 92 3f 3f 1d be b0 3e 64 b5 56 be c9 d0 0e bf
       0.7483275 0.34520045 -0.20967633 -0.5578733
000390 6c ca 49 be 46 f9 bb bd 70 38 82 bf 13 d2 37 3d
       -0.19706124 -0.091784045 -1.0173473 0.044878077
0003a0 78 ba eb be d2 ab 08 3f 06 fb 14 3e bd 1f fe bd
       -0.46040702 0.53387177 0.14548883 -0.12408397
0003b0 b3 56 82 3f e5 9f cf be fb 4e 07 3f 16 b1 66 3d
       1.0182709 -0.40551677 0.5285489 0.056321226
0003c0 52 c5 80 bd 9b 2e 0c be 31 15 c6 be 4a 9c b1 3e
       -0.06287636 -0.13689654 -0.38688043 0.34689552
0003d0 78 7f b5 be f5 d0 2e 3e 46 79 c6 3b 81 2a 09 3d
       -0.35448813 0.17071898 0.0060569374 0.0334878
0003e0 35 31 ed 3e e6 47 16 be 9a e1 c6 be 7f 14 cc 3e
       0.46326604 -0.14675865 -0.38843995 0.39859387
0003f0 04 eb bd bc 0c be 4d bf 79 3a 86 be 39 20 7e 3e
       -0.023183353 -0.80368114 -0.26216486 0.2481698

network_body._body_endoder.seq_layers.0.bias f4 [128]
000000 00 00 00 00 00 00 00 00 00 00 00 00 00 00 00 00
       0.0 0.0 0.0 0.0
000010 00 00 00 00 00 00 00 00 00 00 00 00 00 00 00 00
       0.0 0.0 0.0 0.0
000020 00 00 00 00 00 00 00 00 00 00 00 00 00 00 00 00
       0.0 0.0 0.0 0.0
000030 00 00 00 00 00 00 00 00 00 00 00 00 00 00 00 00
       0.0 0.0 0.0 0.0
000040 00 00 00 00 00 00 00 00 00 00 00 00 00 00 00 00
       0.0 0.0 0.0 0.0
000050 00 00 00 00 00 00 00 00 00 00 00 00 00 00 00 00
       0.0 0.0 0.0 0.0
000060 00 00 00 00 00 00 00 00 00 00 00 00 00 00 00 00
       0.0 0.0 0.0 0.0
000070 00 00 00 00 00 00 00 00 00 00 00 00 00 00 00 00
       0.0 0.0 0.0 0.0
000080 00 00 00 00 00 00 00 00 00 00 00 00 00 00 00 00
       0.0 0.0 0.0 0.0
000090 00 00 00 00 00 00 00 00 00 00 00 00 00 00 00 00
       0.0 0.0 0.0 0.0
0000a0 00 00 00 00 00 00 00 00 00 00 00 00 00 00 00 00
       0.0 0.0 0.0 0.0
0000b0 00 00 00 00 00 00 00 00 00 00 00 00 00 00 00 00
       0.0 0.0 0.0 0.0
0000c0 00 00 00 00 00 00 00 00 00 00 00 00 00 00 00 00
       0.0 0.0 0.0 0.0
0000d0 00 00 00 00 00 00 00 00 00 00 00 00 00 00 00 00
       0.0 0.0 0.0 0.0
0000e0 00 00 00 00 00 00 00 00 00 00 00 00 00 00 00 00
       0.0 0.0 0.0 0.0
0000f0 00 00 00 00 00 00 00 00 00 00 00 00 00 00 00 00
       0.0 0.0 0.0 0.0
000100 00 00 00 00 00 00 00 00 00 00 00 00 00 00 00 00
       0.0 0.0 0.0 0.0
000110 00 00 00 00 00 00 00 00 00 00 00 00 00 00 00 00
       0.0 0.0 0.0 0.0
000120 00 00 00 00 00 00 00 00 00 00 00 00 00 00 00 00
       0.0 0.0 0.0 0.0
000130 00 00 00 00 00 00 00 00 00 00 00 00 00 00 00 00
       0.0 0.0 0.0 0.0
000140 00 00 00 00 00 00 00 00 00 00 00 00 00 00 00 00
       0.0 0.0 0.0 0.0
000150 00 00 00 00 00 00 00 00 00 00 00 00 00 00 00 00
       0.0 0.0 0.0 0.0
000160 00 00 00 00 00 00 00 00 00 00 00 00 00 00 00 00
       0.0 0.0 0.0 0.0
000170 00 00 00 00 00 00 00 00 00 00 00 00 00 00 00 00
       0.0 0.0 0.0 0.0
000180 00 00 00 00 00 00 00 00 00 00 00 00 00 00 00 00
       0.0 0.0 0.0 0.0
000190 00 00 00 00 00 00 00 00 00 00 00 00 00 00 00 00
       0.0 0.0 0.0 0.0
0001a0 00 00 00 00 00 00 00 00 00 00 00 00 00 00 00 00
       0.0 0.0 0.0 0.0
0001b0 00 00 00 00 00 00 00 00 00 00 00 00 00 00 00 00
       0.0 0.0 0.0 0.0
0001c0 00 00 00 00 00 00 00 00 00 00 00 00 00 00 00 00
       0.0 0.0 0.0 0.0
0001d0 00 00 00 00 00 00 00 00 00 00 00 00 00 00 00 00
       0.0 0.0 0.0 0.0
0001e0 00 00 00 00 00 00 00 00 00 00 00 00 00 00 00 00
       0.0 0.0 0.0 0.0
0001f0 00 00 00 00 00 00 00 00 00 00 00 00 00 00 00 00
       0.0 0.0 0.0 0.0

network_body._body_endoder.seq_layers.2.weight f4 [128, 128]
000000 e7 48 29 3d f2 78 fe bd ae e4 d8 3d bc 04 86 3d
       0.04132929 -0.12425412 0.10590492 0.06543872
000010 9b 98 e9 3d e3 04 bf 3b 41 8e 1a bd df e5 40 bd
       0.1140606 0.00582944 -0.03773332 -0.047094222
000020 67 5c 29 3c d3 fa be bd a6 50 2a 3c 96 d9 fc bd
       0.010336972 -0.09325185 0.010395205 -0.12346189
000030 23 ff b3 bd 27 0f f2 3c 06 df 7c bd ef be ab 3d
       -0.08788898 0.02954824 -0.06173613 0.08386027
000040 6e bf 0d bc c2 8d 93 3d 96 2c b9 bb 8e bf cc 3d
       -0.008651597 0.072047725 -0.005651067 0.09997474
000050 f7 e6 5b bd ac f0 f5 3d aa d5 64 bd 72 8c 69 3d
       -0.053687062 0.12008795 -0.05586783 0.057018705
000060 93 a2 79 3d 75 91 31 be 0d b1 58 3d 58 20 91 bb
       0.06094606 -0.17340644 0.052903224 -0.0044289045
000070 a1 8b 3d be d8 2c 6d bc e7 ef f4 3b 23 a0 4f bd
       -0.18510295 -0.014476024 0.0074748877 -0.050689828
000080 fc 12 3c 3d 6f 4e 2b 3e 0d 32 fb bc 78 6e ef ba
       0.045916542 0.16729139 -0.030663515 -0.0018267175
000090 b6 a7 49 3d bd 3f 6b 3c f1 e7 98 bd a6 3e 29 3d
       0.049232207 0.014358458 -0.07466114 0.04131951
0000a0 a1 90 91 3d 32 83 2f 3d e5 fb 0d bd 47 31 1c 3d
       0.07107664 0.042849727 -0.034664053 0.038132932
0000b0 dc cc 64 bd 41 8f c7 bd 4e 83 56 3c 86 55 d1 bc
       -0.05585943 -0.097441204 0.013092829 -0.025553476
0000c0 38 3c 9c bd 5d 2c 8c bd 90 bf 40 be 64 6e 6a bd
       -0.07628673 -0.06844399 -0.18823075 -0.057234183
0000d0 bf 5a 45 bd 0a 01 2f 3d a3 1b 7d be 7c c4 79 3d
       -0.048182245 0.0427256 -0.24717574 0.060978398
0000e0 62 c7 b8 ba e7 44 c8 bd 43 13 40 3c 41 7b 43 3d
       -0.0014097507 -0.09778767 0.011723342 0.047724966
0000f0 c6 ff 6c 3d b7 c2 f6 3d 7c e5 3f 3c 1b 8f 9c 3d
       0.057861112 0.12048858 0.011712428 0.07644483
000100 db 3b 93 3d 7d 73 42 be da 03 4f 3d 15 fa 16 bd
       0.07189151 -0.18989368 0.050540783 -0.03685959
000110 a8 31 bf 3c 4a 7e df bd 82 d3 3b 3d 2c 30 76 bc
       0.023339108 -0.109127596 0.045856006 -0.0150261335
000120 2d 69 d7 3d a1 1c 06 bc 61 63 fe 3d 48 cc 49 3d
       0.105181076 -0.008185537 0.12421299 0.049267083
000130 e4 ba eb bd c0 e2 02 3e c0 35 ac bd 29 2b c6 3d
       -0.11510256 0.12781811 -0.084086895 0.09676201
000140 c7 85 a0 bd ba fd d3 bd 47 7f 6f bd 9d de e4 bb
       -0.07838016 -0.10351129 -0.05847099 -0.0069845454
000150 95 b1 17 bd 11 18 cf bb 3f 16 11 3d 7d 91 1c 3e
       -0.03703459 -0.0063200076 0.035421606 0.15289874
000160 1a 9c 51 3d 0c 8a 03 be d1 9f 01 be 2d c8 02 3d
       0.05117426 -0.1284563 -0.12658621 0.031929184
000170 e2 80 7d bc d4 8c b2 3d 78 9b 12 be b2 1a c1 bd
       -0.015472623 0.08718267 -0.14317119 -0.0942892
000180 8e 8f f7 3d 75 13 0c 3d 1e 89 f1 bb ab f1 59 bb
       0.12087928 0.034198243 -0.007371082 -0.0033255618
000190 af fe 15 3d d2 1b be bc 1b 56 39 3d ee ca 54 3c
       0.03661984 -0.023206625 0.045248132 0.012987835
0001a0 8d 94 1e be 55 9c a9 3c a6 7e 10 3d 38 a4 18 3d
       -0.15486355 0.020704428 0.03527703 0.037265986
0001b0 84 ee 3b 3e e6 cc 26 3d 95 5b 48 3d 16 88 13 3d
       0.18352705 0.04072275 0.048915464 0.036018454
0001c0 2c ab 52 bd d1 b8 11 3e 34 4d 57 bd 3a 45 bc bd
       -0.051432773 0.14230658 -0.05256386 -0.091928914
0001d0 cc 5f 07 be fe 37 ea bd c8 de 2a 3d 00 56 b7 3d
       -0.13220137 -0.11436461 0.041716367 0.0895195
0001e0 95 aa 46 3d 9c 55 db bc 77 17 7c 3e da c4 98 3d
       0.048502523 -0.02677422 0.24618326 0.074594215
0001f0 18 60 23 3c c6 2d 16 bc 96 80 0d 3d 8c 4d e8 3c
       0.009971641 -0.009166187 0.034546457 0.02835729
000200 58 63 b7 bd 68 70 d8 3a c3 dc b3 3d f6 9d 94 bd
       -0.08954495 0.0016512992 0.08782341 -0.07256691
000210 e2 81 b2 3c 26 47 26 bd 74 0a 8d 3c 22 79 08 be
       0.021790449 -0.040595196 0.017216899 -0.13327459
000220 4d ad b5 3c 8e 05 30 3e ce 6b 95 bd 1d 92 60 3e
       0.022177363 0.17189619 -0.07295953 0.21930738
000230 1e ee a2 3d 79 ba 8b 3d ab f7 e0 3d 02 1b 29 be
       0.079555735 0.06822676 0.10984739 -0.16514209
000240 a1 cd 24 3e 37 95 8b bb cc 67 3d 3e 86 66 43 3c
       0.16094066 -0.004259731 0.18496627 0.011926299
000250 69 47 25 be 18 57 82 3d d9 a7 89 3d 3a ab 2f 3b
       -0.16140522 0.06364268 0.067214675 0.002680494
000260 17 59 cb 3b f0 25 11 bd fe f8 91 bd 73 21 5c 3d
       0.0062056887 -0.03543657 -0.071275696 0.053742837
000270 34 6f b8 bd e2 76 dc bd f9 c7 b7 bd a8 6c 38 be
       -0.09005585 -0.107648626 -0.08973689 -0.18010199
000280 2b ee 3b 3e 61 55 1a 3d c6 f2 cc bd 84 63 6a 3e
       0.18352573 0.03767908 -0.10007243 0.22889525
000290 0c 9a 9b bd 18 23 98 3d ca 47 2c 3d ca 8e 50 bc
       -0.075977415 0.074285686 0.04206065 -0.012729356
0002a0 f0 29 0e be 4c 40 f3 3d f1 38 28 3e 7f 26 7e 3d
       -0.13883185 0.11877498 0.16427971 0.06204843
0002b0 6a f8 44 bd b0 3d 0a be a1 3f e8 bd 93 c2 dd 3d
       -0.04808847 -0.13500094 -0.11340261 0.10828128
0002c0 58 b6 ad 3d dc cd 5c 3e d0 15 be bc ce e6 31 bd
       0.08482045 0.21562904 -0.02320376 -0.043433003
0002d0 e6 7f fa 3d 68 b2 9f 3b 45 2d ac 3d 7e ff 0a 3c
       0.12231426 0.0048735626 0.08407072 0.008483766
0002e0 ef 8b 9e bc ac e6 2a be d1 7c 2a be b2 6d 11 3e
       -0.019353835 -0.16689557 -0.16649176 0.14202002
0002f0 5a c9 47 3c 23 b1 40 3a 42 4f 3d bd ab 25 5b bb
       0.012194002 0.0007350614 -0.046218164 -0.00334392
000300 a9 ac 29 be 17 09 1d 3e 3e ab be 3c 6e eb 1d be
       -0.16569771 0.15335499 0.023275014 -0.1542184
000310 7b 32 e4 3d 61 1c e0 bc d7 73 35 be 64 1f 3a bd
       0.11142441 -0.027357282 -0.1771997 -0.045440093
000320 e6 58 14 bd f1 76 47 3c 52 e6 21 bd 54 e2 c9 3d
       -0.036217593 0.012174354 -0.03952629 0.09857622
000330 24 f3 54 3d 0d e6 97 3c 0c 1d 38 3e b9 ea fe bc
       0.05198969 0.018542314 0.1797983 -0.031117784
000340 00 bd 11 3e f5 2d fd bd 42 69 10 bc d6 b6 af 3d
       0.14232254 -0.12362281 -0.008814158 0.08579795
000350 c6 27 7f bd 16 85 d3 3c 2c d0 2b bd 2f 46 29 3c
       -0.06229379 0.025820296 -0.041946575 0.0103316745
000360 d3 c6 63 bc 4f a4 a9 3c b7 5f d4 3b 8c 09 04 be
       -0.013902384 0.020708231 0.0064811367 -0.12894267
000370 22 7a a2 3a 3c 44 a3 bc 75 c1 e3 3d e3 2a fb 3c
       0.0012396018 -0.019929998 0.111208834 0.030660098
000380 5e 6b 12 be 4e c2 34 bd 49 54 50 bd eb 17 c5 bd
       -0.1429877 -0.044130616 -0.05086163 -0.096237026
000390 be 53 b9 bd 91 77 ca 3d e4 aa 44 bb 46 ed f3 bd
       -0.09049176 0.09886087 -0.0030009085 -0.11910491
0003a0 98 2c 88 bb cd 26 34 be 40 4d ea bd c3 8f 27 3e
       -0.0041557066 -0.17592926 -0.114405155 0.16363434
0003b0 d4 77 0d bc f7 e9 2a bd 82 7e 4c bd 17 1f 29 bd
       -0.008634526 -0.041727033 -0.049925335 -0.041289415
0003c0 18 95 05 bd 42 b0 2c be 9d c7 30 3c cd 6c 0f 3e
       -0.03261289 -0.16864112 0.010789779 0.14006348
0003d0 19 13 ef 3d ef fa 9d 3c ee 68 a5 3c 3f ea b5 bd
       0.116735645 0.019284694 0.020191636 -0.088825695
0003e0 20 f5 60 bc 4d 0f 59 bd 14 ba e1 bd 1d b6 b2 3d
       -0.013730317 -0.052993108 -0.1102182 0.087261416
0003f0 6f c2 ca 3a ca d1 90 3d dd da 80 3d 20 53 85 3d
       0.0015469323 0.07071264 0.06291745 0.065099955

action_model._discrete_distribution.branches.0.weight f4 [3, 128]
000000 6b ba ca ba df 50 92 bb 9b 01 e9 3b ee 6d 26 3c
       -0.0015466934 -0.004465207 0.007110787 0.010158045
000010 f7 3b 95 b9 8c 71 b7 3a 11 22 9f 3b a5 6e 9b bc
       -0.00028464172 0.0013995632 0.004856356 -0.018973658
000020 80 d1 13 bc ff 59 c8 bb b7 c7 0b bb 5a 46 a9 3b
       -0.009022117 -0.006114244 -0.0021328756 0.0051658573
000030 e8 01 7d ba 1f 1b 01 bc f4 b4 34 bb 5f 25 c4 ba
       -0.0009651468 -0.007880001 -0.0027573677 -0.0014964751
000040 05 c9 f9 bb 60 6b 49 bb 6f e5 c9 ba 41 9d 9d bc
       -0.0076228403 -0.0030734167 -0.001540346 -0.019240024
000050 c4 17 3b 3b 0a 90 05 bb 1e f2 45 bc 59 57 83 3b
       0.00285481 -0.0020380043 -0.012081651 0.0040082154
000060 78 36 f3 bb 91 65 9f bb 82 66 4b 3c dc 2e 39 3c
       -0.0074222647 -0.0048644026 0.0124145765 0.011302676
000070 c2 8d 2a bc f0 45 ee 3a 2b 60 0c 3c 3f e4 2b 3c
       -0.010409774 0.0018178802 0.00856785 0.01049143
000080 90 f1 db 3b d7 32 3e bc 7d 2b d6 bb e5 21 c1 3a
       0.006712146 -0.011608801 -0.006535946 0.0014734833
000090 3e 04 0f 3a d4 f0 34 bb 50 4b 1e 3b 7d c8 3f 3b
       0.0005455649 -0.0027609365 0.0024153776 0.0029263787
0000a0 73 49 34 3b 83 b3 56 3a 9f cf cd 3b 4a b0 54 bc
       0.00275096 0.00081902015 0.006280854 -0.012981484
0000b0 72 b9 59 3c bc 72 a9 ba 01 86 8c bb 47 cd ad bb
       0.0132888425 -0.001292787 -0.0042884354 -0.005304012
0000c0 10 33 dc ba 74 a0 27 3b ff 3f 5e 3a 77 6b 48 bb
       -0.0016799886 0.0025577815 0.0008478164 -0.0030581632
0000d0 f3 a7 fe bb eb f1 6b bc 9c fe c6 bb cf 44 73 ba
       -0.007771486 -0.014400939 -0.0060728323 -0.00092799676
0000e0 1a d2 85 bb fb 7c 79 bc 0f 13 ec bb 28 09 5d 39
       -0.004083884 -0.015227552 -0.0072044204 0.00021079613
0000f0 c0 7c 88 bb a8 7e 4e bc ac c6 bd 39 dd c4 52 3b
       -0.004165262 -0.012603439 0.0003619691 0.0032160797
000100 b4 2f a0 bb c4 fc 42 3b 4a 9e cd 3b bb 97 ba 39
       -0.004888499 0.002975271 0.006274973 0.00035589733
000110 af 64 84 bb 56 7d ae bb ea 35 8d bb 75 63 69 bc
       -0.0040403227 -0.005325 -0.0043094056 -0.014244904
000120 00 92 ed bb 6e 42 88 bb e2 fc 55 bc 54 e0 18 bc
       -0.0072500706 -0.0041583097 -0.01306078 -0.009330828
000130 fb ef 00 ba 64 96 1c 3c 85 6a f1 bb a3 d5 32 3b
       -0.00049185724 0.00955734 -0.0073674344 0.0027287982
000140 2b 64 d9 3b 08 3e a8 3b 75 f2 d8 ba e4 4c af bb
       0.0066342554 0.005134348 -0.001655175 -0.0053497422
000150 af 19 9d bb 7f 8d fd bb 4f 1d 70 bc e7 b8 9b bc
       -0.0047943215 -0.007737815 -0.014655425 -0.019009067
000160 4b 1c 04 bc 92 8b 05 3c 40 c5 4e bc 73 cb 3d bc
       -0.008063386 0.008150952 -0.01262027 -0.011584151
000170 4a af 14 bc c2 8f 29 bc 10 01 55 3b 07 0c 89 3a
       -0.009074995 -0.010349216 0.0032501854 0.0010455855
000180 0b 5f 11 b8 4c f7 34 bc 02 61 3f 3a 05 f8 a5 3b
       -3.465921e-05 -0.011045288 0.0007300527 0.0050649666
000190 3e 84 20 bb 88 d3 ef ba cf 81 4e bc db c7 ad bb
       -0.0024492885 -0.0018297294 -0.012604191 -0.0053033656
0001a0 59 57 91 3c 63 b0 64 ba 76 a8 15 bc d3 33 0f 3c
       0.017741846 -0.00087237934 -0.0091344025 0.008740383
0001b0 e2 6b 04 bb f3 bd 51 3c ea 13 88 3b 0a 39 89 bb
       -0.0020205905 0.012801635 0.0041527646 -0.004187708
0001c0 46 11 81 3c f3 47 3d 3c 40 26 ba bb 14 59 ad 3b
       0.015755307 0.011552799 -0.0056808293 0.00529016
0001d0 43 0c 3e 3c f4 81 be 3b 83 15 77 bc 65 45 a6 ba
       0.011599603 0.0058138315 -0.015080812 -0.0012685476
0001e0 07 1b ef ba db 80 29 bb fb 77 35 bc 76 04 01 bc
       -0.0018242308 -0.0025864157 -0.011075969 -0.007874599
0001f0 c1 3c 0a bc 0b 0d 47 3b f7 ba 31 bc d8 98 23 3c
       -0.008437336 0.0030372764 -0.010847799 0.009985171
000200 cd 3f 7c bc c3 d3 24 3a bd c3 07 bc 32 7d 57 3b
       -0.015396071 0.00062876585 -0.008286414 0.0032881019
000210 88 8e 05 3c e7 19 b3 3b 52 6e 13 bb 27 43 e1 bb
       0.008151658 0.0054657343 -0.0022496176 -0.0068744603
000220 72 44 ca 3a 93 17 b7 3b a2 07 bb 3b 46 4e 99 3b
       0.0015431775 0.005587527 0.005707697 0.0046785204
000230 8a aa 70 bb b0 4d 02 3c a3 e7 20 bc d5 60 ad 3c
       -0.0036722743 0.007953092 -0.0098208515 0.021164337
000240 02 23 56 3b ff 85 28 bb c7 d8 96 3b ff 13 7c bc
       0.0032674675 -0.0025714634 0.0046034786 -0.015385627
000250 42 42 f0 3b 1a dc 19 bc 30 89 2b bb b0 4c 92 bc
       0.0073321173 -0.009390855 -0.00261743 -0.017858833
000260 a9 8d 1f 3b d7 0c 83 3a a8 f8 52 bb 87 dc a0 bb
       0.002434591 0.0009998333 -0.0032191668 -0.0049091014
000270 32 e2 92 b9 77 c3 ad bb ea 71 ee bb 6b d0 41 3c
       -0.0002801582 -0.0053028422 -0.007276763 0.011829476
000280 5b 0a cf bb 77 56 67 3c 36 0e 88 bb bc 3f c7 bb
       -0.006318373 0.014119736 -0.0041520847 -0.006080596
000290 48 d7 73 3b 6a 2b d5 bb 4d cb ac 3b 4c f4 1a 3b
       0.0037207175 -0.0065054195 0.005273259 0.0023644147
0002a0 4d 3d 90 bc 25 24 1d 3c b0 d0 96 bb c1 da c9 bb
       -0.017607355 0.009591137 -0.004602514 -0.0061601107
0002b0 1e 40 8a b9 02 06 fd bb 98 26 10 bb 9b 27 aa 3a
       -0.00026369182 -0.0077216635 -0.002199566 0.0012981774
0002c0 70 9f 73 bb 9f 69 fd 3b 17 1f 77 bc 7a 6a f9 3b
       -0.003717389 0.0077335383 -0.015083096 0.00761157
0002d0 2b e2 dc 3b 6b 0b 5d 3a 99 c4 02 bc f8 85 16 bc
       0.0067408285 0.00084321824 -0.007981443 -0.009187214
0002e0 dd 41 23 3c 94 b6 15 3b 15 b9 9a bb db 37 89 3a
       0.0099644335 0.002284442 -0.0047217705 0.0010468917
0002f0 83 61 1f 3b cd 65 ef 3a 78 14 e7 38 5d a7 a0 bb
       0.0024319596 0.0018264592 0.00011018751 -0.0049027638
000300 a4 d2 93 3a 10 5c 1f 3b f6 9a 3d 3c 34 44 2b 3c
       0.0011277986 0.0024316348 0.01157259 0.010453273
000310 97 a7 bd ba da 74 bf bb cd 26 d0 b9 77 e9 10 bc
       -0.0014469501 -0.005842787 -0.0003970176 -0.008844725
000320 10 03 7b bb 12 ea c1 3b 3b 44 b8 bb da 2c f7 ba
       -0.0038301386 0.005917796 -0.005623368 -0.0018857971
000330 33 d3 c9 bb 2b e0 91 bb 36 12 28 3b 0c a7 21 bb
       -0.00615921 -0.0044517717 0.002564562 -0.0024666218
000340 6b 4e 84 3a d8 28 dc bb 1f 45 90 bb eb d2 54 3b
       0.0010094171 -0.006718736 -0.004402771 0.003247435
000350 5f a1 60 3a b6 cf ac bb d0 f3 21 ba 5f c3 a5 3c
       0.0008568968 -0.0052737845 -0.00061779935 0.020234762
000360 3e 11 1e 3b 80 52 79 3c e5 5e f7 3b 74 f6 90 3c
       0.0024119164 0.015217423 0.007549154 0.017695643
000370 83 e9 3d bc e0 88 c4 3b 7d c7 09 3c f4 e7 15 3c
       -0.011591318 0.005997762 0.008409378 0.00914954
000380 69 23 3d bc 5d 58 6e bc 1c 77 47 bc 06 c0 88 3b
       -0.011544087 -0.014547435 -0.012174394 0.0041732816
000390 18 c6 4b 3c a5 db f4 3b 1d de 56 3c 0e 15 96 3b
       0.012437366 0.0074724727 0.013114479 0.0045801466
0003a0 ad 41 59 bb e0 42 77 39 6a 12 48 bc cd e5 7b bc
       -0.0033150718 0.00023580668 -0.0122114215 -0.015374613
0003b0 b6 8e ae bb 56 15 a3 bb 74 c0 34 bb 17 32 93 bc
       -0.005327071 -0.0049769087 -0.0027580531 -0.01796822
0003c0 76 aa 11 3c 1a fd 21 bc ac b3 0b bc 4a db 4c bc
       0.008890739 -0.009887004 -0.008526724 -0.012503454
0003d0 ab fb 83 3c a8 67 e1 3b c0 2f 72 3c 7d 49 76 3c
       0.016111216 0.006878812 0.014781892 0.015032169
0003e0 7b ba 10 bc 9f a8 98 bc a3 1e 09 3c 9f 85 4a 3c
       -0.008833523 -0.018635092 0.008369121 0.012360959
0003f0 4b 02 89 3c 7f 49 88 3b e2 90 52 39 ca 97 66 bb
       0.016724726 0.004159152 0.00020081134 -0.0035185688

action_model._discrete_distribution.branches.0.bias f4 [3]
000000 00 00 00 00 00 00 00 00 00 00 00 00
       0.0 0.0 0.0

action_model._discrete_distribution.branches.1.weight f4 [3, 128]
000000 52 d6 c0 3b 5b 8d 35 bb 5a e2 49 3b 2b de 72 3a
       0.005884924 -0.0027702663 0.0030805082 0.0009264673
000010 e6 7a 27 b9 7b fe 79 bc a7 74 c6 3a e6 29 38 bc
       -0.00015972144 -0.015258427 0.0015140966 -0.011240458
000020 47 a5 b2 3b e6 c6 a2 bc f7 4d 75 bb 8a 4a 26 3b
       0.0054518315 -0.019870233 -0.0037430504 0.0025374019
000030 3d 73 e4 bb eb 96 38 3c 7a 2a af 3c e7 14 08 3c
       -0.0069717453 0.01126645 0.02138256 0.008305765
000040 2a 1f 61 bb ed 5d 29 3b ff ec c8 3b 00 8e a4 ba
       -0.003435085 0.0025843338 0.0061317678 -0.0012554526
000050 06 88 18 3b c6 f5 4a 3b 23 b2 0c 3c 13 ea 72 bb
       0.0023274436 0.0030969246 0.008587393 -0.0037065789
000060 69 0c 46 3b a7 6f b6 3b 18 30 18 3c cb ac 85 bb
       0.00302198 0.005567509 0.00928881 -0.0040794364
000070 b5 99 96 bc e3 9b ab 3c 92 9a 25 3c 0b 3c ed bb
       -0.01838384 0.020948356 0.010107653 -0.0072398237
000080 2f 5e 23 bc ab 11 24 3c ab 5b 13 bc 85 6c 9b 3a
       -0.009971186 0.010013978 -0.008994023 0.0011857903
000090 33 d3 16 bc 57 e2 ed 3a 53 9c 97 bb f8 53 af ba
       -0.009205627 0.001814912 -0.0046267896 -0.0013376465
0000a0 f4 55 1b 3c ab 7b 53 bc 05 f8 5a ba aa 7f c0 3c
       0.009480942 -0.012907903 -0.0008352998 0.023498375
0000b0 b4 76 9e 3b 33 37 41 3b 7a a1 97 bc c6 82 1d 3b
       0.004835928 0.0029482364 -0.018509615 0.0024034246
0000c0 87 93 eb 3b f5 a2 6a 3b 5c 3c 90 3c 4f 51 d8 bb
       0.0071892175 0.0035802696 0.017606907 -0.0066014896
0000d0 f3 d9 a9 bc 8b f1 9d 3b 8a 9d 08 3c ec db b7 3a
       -0.02073381 0.004820054 0.0083383415 0.0014027334
0000e0 a8 8d 35 bb 0d 55 3c bc e2 d7 1c 3c 96 b0 97 3b
       -0.0027702842 -0.011494887 0.009572955 0.004629205
0000f0 89 31 97 3a 9b a3 26 bc e8 71 5a bb 9f 1c 38 bc
       0.0011535148 -0.0101708425 -0.0033332054 -0.011237293
000100 5c 26 0c bc ba 27 1d 3c f4 a0 91 bb cb 97 2e bb
       -0.008554067 0.009591991 -0.004444236 -0.0026640769
000110 1b 77 06 3b ed 86 62 bb 97 91 97 3c e3 a0 23 3c
       0.002051777 -0.0034565285 0.01850204 0.009987089
000120 87 bb e6 bb 26 29 93 3c 41 71 0c bc af 0e 66 bc
       -0.007041398 0.017963957 -0.008571924 -0.014041587
000130 da 81 d8 3a 0f db 0f 3c 2a 26 6b 3b 8a 12 5a bb
       0.0016518191 0.008780255 0.0035880902 -0.003327521
000140 1b b8 51 3c 98 0e 47 bc e4 f0 8f bb 00 d2 7f 3a
       0.012800242 -0.0121494755 -0.00439273 0.00097587705
000150 07 4e 05 3c cf 96 c1 bb 57 27 01 3b c2 d3 5b bc
       0.008136279 -0.0059078704 0.0019707286 -0.013417186
000160 05 ab a3 bb 98 23 e6 3b 73 ca a6 bb bf 12 9f bb
       -0.0049947524 0.007023286 -0.005090052 -0.0048545296
000170 1c c1 38 bb dd fd 75 b9 57 8c 3c ba 85 a7 47 3c
       -0.0028191274 -0.00023459592 -0.0007192543 0.012185936
000180 db 84 b5 bb fb 43 81 3c 8c f0 03 bc 3e 65 34 bc
       -0.0055395192 0.015779486 -0.008052956 -0.011010466
000190 57 20 7c bc 83 89 f9 bb 30 2a 31 3c 1d bf 30 3b
       -0.01538857 -0.0076152696 0.010813281 0.002696938
0001a0 fa f0 38 bc 3a 87 e7 b9 bf 04 0e bc 54 28 b4 3b
       -0.011287922 -0.00044160505 -0.008668124 0.0054979715
0001b0 12 90 52 bc 83 3b 04 3a da 03 da bb 78 93 44 bb
       -0.012851732 0.00050442683 -0.006653291 -0.0029995125
0001c0 2f cf e8 3b d7 a1 79 bc 1b 20 ae ba bd 59 9d bb
       0.0071047763 -0.0152363395 -0.0013284715 -0.0048019574
0001d0 86 8c 91 bb f3 1a 52 bc f1 84 2e 3c 11 3a 41 3c
       -0.0044418005 -0.012823808 0.010651813 0.011793629
0001e0 d3 c0 e9 3b f7 4d 86 b9 9d be bf bb 8d d4 c1 ba
       0.007133582 -0.0002561656 -0.0058515803 -0.0014788077
0001f0 b0 b5 14 ba 08 52 86 bc 66 29 06 bc 14 af 85 bc
       -0.00056728255 -0.016396537 -0.008188581 -0.016318835
000200 57 6c 48 bc 02 30 95 bb 6f 9f 0a bc 85 ec 7c 3c
       -0.0122328615 -0.004552842 -0.0084608635 0.01543725
000210 af eb 95 bc c2 33 d2 3b 9f ce 5a 3a 6b 31 c4 bb
       -0.01830086 0.0064148614 0.0008346829 -0.0059873364
000220 44 d5 b8 bb 9d 14 4f bc c2 ba a8 ba 72 37 0b 3c
       -0.0056406576 -0.012639192 -0.0012873041 0.008497106
000230 c2 94 98 3b fd a6 24 bc e5 70 3b bb 8f a2 80 bc
       0.004656405 -0.010049579 -0.0028601226 -0.015702514
000240 e2 46 47 3c fb 51 28 bb d2 ce 00 3c f0 72 3c bc
       0.012162896 -0.002568363 0.00786181 -0.011502013
000250 d3 83 8f 3c ca 3b 2d bc ec a7 07 3c a7 88 b0 bb
       0.017518913 -0.010573337 0.008279782 -0.005387384
000260 4f 32 cb ba 79 7f 47 3c c3 dc 4f 3c 45 38 98 3a
       -0.0015502664 0.012176388 0.012686911 0.0011613449
000270 c3 38 21 3b b7 3e 3d bc 2a a8 8f bb db 8b 67 3c
       0.0024600483 -0.011550597 -0.0043840604 0.014132465
000280 05 59 05 bc b0 43 d2 bb 78 4d 61 ba af 25 73 bb
       -0.0081389 -0.0064167604 -0.00085946126 -0.0037101319
000290 9b 60 3c bc f1 bf 02 3c 1f f0 2c 3b aa aa d1 3b
       -0.011497642 0.007980333 0.002638824 0.0063985186
0002a0 da af c3 bb e6 72 08 3b 57 60 08 3c 13 1a 6c bc
       -0.005971891 0.0020820438 0.00832375 -0.014410513
0002b0 25 8e 41 bb e3 c3 cd bb 1b f7 0e bc e1 ac b5 3b
       -0.0029534188 -0.006279455 -0.008725907 0.0055442904
0002c0 3f 7c 67 bc 9f 14 d2 bc 8f 6c 8d ba 4d e9 7e bb
       -0.014128744 -0.025644599 -0.0010789799 -0.0038896382
0002d0 a6 2d 97 bc 2b 30 97 3c 0b bc 2d 3c 8e 4b 89 3c
       -0.018454384 0.018455585 0.010603915 0.01675966
0002e0 41 bb a3 ba 06 54 bf bb 62 2d 03 bb d2 eb 51 bc
       -0.0012491719 -0.005838874 -0.0020016064 -0.012812572
0002f0 05 f3 56 bc 7d e7 58 bc 99 f6 43 bc 88 62 ec 3b
       -0.013119464 -0.013238785 -0.011960649 0.0072138943
000300 45 4c 54 bc a4 c4 a7 3b c7 83 9a 3a e0 3c 7f bc
       -0.012957637 0.005119877 0.001178854 -0.015578479
000310 aa 4f c3 bb 5c 04 a6 ba 85 ac 08 3c df 7e 24 3c
       -0.0059604244 -0.0012666094 0.008341913 0.010040014
000320 17 26 04 3c 5d a2 0a 3c 37 27 8f 3b 15 11 ec b9
       0.008065722 0.008461562 0.0043686884 -0.00045026155
000330 e0 d7 e3 bb 7a 6a db 3b c2 3e 28 bb 32 33 82 3b
       -0.0069532245 0.0066960426 -0.0025672172 0.003973388
000340 5c c9 43 3a bc 3d 2b bc ff 4f db bb 35 db 3b bc
       0.00074686646 -0.01045173 -0.006692886 -0.011465837
000350 33 ae b7 bb d5 69 65 bb 18 1a d1 ba ea 03 be bb
       -0.005605483 -0.0035005708 -0.0015953211 -0.0057988064
000360 6e d6 3d 3c 59 68 b4 3a e6 82 12 3b 4e a0 cb ba
       0.011586769 0.0013764008 0.0022355854 -0.0015535445
000370 59 a3 b2 ba ab e4 85 bb 77 29 8a 3c 88 99 eb bb
       -0.0013629004 -0.0040860972 0.016865475 -0.007189933
000380 3e 81 26 3c bb 2d 29 bb 5b ca a2 bc 25 ca f0 3a
       0.01016265 -0.002581461 -0.019871881 0.0018370791
000390 4d 1a 86 bc 48 5f 80 ba 27 ba a7 bb b8 46 35 bb
       -0.016369963 -0.0009794021 -0.0051186266 -0.002766056
0003a0 6a 64 74 3b b8 6a 8b bb af d7 83 3b 78 75 d2 3b
       0.0037291297 -0.004254665 0.004023514 0.006422695
0003b0 de af 8f 3c 63 70 e6 bb b0 5e 7b bb fc 8e ca bb
       0.017539915 -0.0070324405 -0.0038355999 -0.006181596
0003c0 f3 64 59 bb 8a 67 ec bb 65 6e a9 3a 58 bf 30 3c
       -0.0033171743 -0.0072144913 0.0012926577 0.010787807
0003d0 1d 39 52 bb 12 be 22 bb 88 98 ef bb 1f df dc b9
       -0.00320775 -0.002483253 -0.0073118843 -0.00042127908
0003e0 88 d5 a8 ba ca 09 96 bb 19 dd 30 3b f2 3c 5d bc
       -0.001288102 -0.0045788037 0.0026987253 -0.0135033
0003f0 19 97 09 bc 23 4d 4d 3c 6f f3 76 3c 17 a0 57 3c
       -0.008397841 0.012530598 0.0150726875 0.013160727
