MLBase/results/ppo/CloseToTargetBehaviour/CloseToTargetBehaviour-64.onnx (onnx, 75146 bytes, 5 tensors)

network_body._body_endoder.seq_layers.0.weight f4 [128, 6]
00000000: 3cca 2b3f da69 b03d d345 41bf 8524 d43e
00000010: 12b2 65bf deeb cdbe 6a8e 2c3c cd77 9abb
00000020: a3e3 00bf dc0c 41bf 16e5 71be b2ef a53d
00000030: 1e43 ce3e eec4 903e 014c cabe b50c 62bc
00000040: 08f3 e33e 4c0b 2c3e 9740 b83d 82b5 81bd
00000050: 3e45 0dbf c17a f03e c191 33bd 711d bfbe
00000060: c7c4 fabc 5d92 efbe bf2a 7dbd ef99 b5be
00000070: 7afc a73e b376 9a3e a989 203f 4bcd 933e
00000080: 9bd5 04bf 8152 99bd 2f31 dfbe 4e38 ec3e
00000090: 3ea3 1b3e b931 333e a97d f83e b8e5 1c3e
000000a0: 913f 9e3c ea29 60bd 9075 1fbf c379 c53c
000000b0: 08a2 adbe 62e6 51bd 7b3a 7dbe 13d0 43be
000000c0: 0c54 9c3c eb3d 79be 045b 71be 2346 343e
000000d0: 382c 183f 13d5 32bd 2a59 b1be 7ee4 26bf
000000e0: 5a52 0b3c 4881 2d3f 1b99 163f 9e94 b93e
000000f0: 44df 083f d197 933e 7472 e8be 5b04 313f
00000100: f5e9 1abf b932 7abf ddf1 e43d 7c62 80bf
00000110: bc6f 8c3e 92fc e93d edd6 84bd 34a5 3e3e
00000120: a069 9bbf 079f 39be 257f b53e ce09 9bbc
00000130: 3c37 66bf a1cc 04bf ba4a 5e3e 4c23 773d
00000140: 15e8 b5bc 0bfa 063f 1b57 0abd ed42 5e3d
00000150: 064c 9f3e 0618 2b3f a87b f43e d2b1 8f3e
00000160: 2588 073f 06b4 35bf 2054 013e efb5 e43e
00000170: 28a1 413f 7a1c 173f d66f 383f 4629 3dbe
00000180: b6c3 b03c bba4 c0be c60d 8b3e 1c58 be3e
00000190: 6fe9 ebbe cc09 a0bd dfb2 76be fdb8 5bbc
000001a0: 35f4 01bf 7584 0dbb 567b 0bbf 243d 66bd
000001b0: 5348 a53e 1316 713e 4c02 6d3e 3a30 cdbe
000001c0: c2da a0bd b52c b43c cacc 3b3f ad3d 48bf
000001d0: 3cbc 623f b3c3 3ebe 209f 633d 83e2 5c3e
000001e0: 6297 3b3d dea4 143f 32a8 84be a0e5 633e
000001f0: 3799 f2be 4ea5 40bf 0b89 09bf 89f9 7dbe
00000200: c997 493e 6c3e fb3e 6454 f03d 4b02 8c3e
00000210: e69a d73e 884d 2cbd 68cf 0d3e 2924 3a3e
00000220: 0f16 3ebf 5a30 d63e a101 a9bd 65a1 9dbe
00000230: e1c9 a0be 552e 3dbe bcdc 0fbf c743 a1bc
00000240: be06 d2bd 142d bbbe 9e28 e1bd 2c28 723e
00000250: ef08 0e3f a316 41bf 2943 bf3e 6104 7fbe
00000260: 7fd5 973e d0cc 67bf 9b41 d23e 73cb 18bf
00000270: 0bd8 6a3e 2f31 14bc 30ac 2cbe e00c 5fbe
00000280: 1179 b53e 06bd c03e 80f5 14bf 15f3 bcbd
00000290: fed0 6fbe 6a02 bfbe c308 1cbf c8b4 aa3d
000002a0: e54e 173b 96a7 abbc db33 e83d 868e 4f3e
000002b0: e8f1 763f 0ce1 87be 896a 2b3f 6e2c 823e
000002c0: 7618 52bd b3da 86be e110 82be b752 2fbf
000002d0: 054c de3e 8155 563d 7101 1abe a0d2 153e
000002e0: eed2 db3e a005 a43e a5b7 1ebe 22c3 38be
000002f0: e438 debd acd5 2c3d 3340 783e 55bb 0fbe
00000300: e5df 37bf ad0a 9dbe e883 a3be 6250 98be
00000310: d2a5 21be 9506 44be d9fc 543e 1de8 1f3f
00000320: 2dfa dd3e 7b99 36bc 0885 1a3e d36c 713e
00000330: 3788 15bf f019 5d3e 098a 8abe 57e4 7a3d
00000340: 0cdb 853c db82 3abf 8df3 b23e ee9d 87bd
00000350: 15f6 b03e 0114 de3e e3a3 9f3e 5ee1 ebbe
00000360: 0b70 113c 517d 793e 7002 b7be 2d45 aabe
00000370: 2acf 6e3e 04fd 413f 6f4d 99bc 2d97 ee3e
00000380: ed30 253f d334 7abe 3295 2e3e 3d60 d7bd
00000390: daa0 bebe 6ddc cb3e 5ba5 a63e d9a9 0bbf
000003a0: acfa f13e 1868 093e 1356 a63e 1d8a b13e
000003b0: 1b0f e13e ed1c 203f eba6 04bf 0dd5 1e3f
000003c0: 7e7b c73e 5de0 1b3d da04 5e3e 21a8 e63e
000003d0: 71e7 e8be 8f5d 8ebe d6bb c33e cdf2 ab3e
000003e0: 5ce8 343f 997c e7be c85e 393f fbe3 353e
000003f0: 6c0c f3be f145 b63e 0777 31be 86e8 00bf
0.6710546 0.086139396 -0.7549717 0.41434112 -0.8972484 -0.40219015 0.010532001 -0.0047139884
-0.50347346 -0.75410247 -0.23622546 0.08102359 0.4028558 0.28275245 -0.3951111 -0.013796975
0.44521356 0.16801184 0.089966945 -0.06333448 -0.5518378 0.46968654 -0.043840174 -0.3732715
-0.030611409 -0.46791354 -0.061808344 -0.35469005 0.32809812 0.30168685 0.6271005 0.28867564
-0.51888436 -0.074864395 -0.43592212 0.46136707 0.1519899 0.17499436 0.4853337 0.15322006
0.01931742 -0.054727472 -0.6228876 0.024105912 -0.33912683 -0.0512451 -0.2472934 -0.19122343
0.019083045 -0.24340026 -0.23569876 0.1760488 0.5944247 -0.043660235 -0.3463834 -0.651924
0.008503521 0.6777539 0.5882737 0.36246198 0.53465676 0.28826764 -0.4539982 0.6914727
-0.6051324 -0.97733647 0.11178944 -1.0030055 0.27428997 0.11425127 -0.06486306 0.18617707
-1.2141609 -0.1812707 0.35448566 -0.018925574 -0.8992803 -0.5187474 0.21708193 0.060336396
-0.022205392 0.52725285 -0.033774476 0.054263044 0.3111269 0.6683353 0.47750592 0.28065354
0.52942115 -0.7097782 0.12629747 0.44670054 0.7563653 0.59027827 0.7204565 -0.18472776
0.021577697 -0.3762568 0.27158946 0.37176597 -0.46076533 -0.078143686 -0.24091671 -0.013410804
-0.50763255 -0.0021593843 -0.5448507 -0.056210652 0.32281741 0.23543577 0.23145407 -0.40075856
-0.07854225 0.021993974 0.7335936 -0.7821911 0.8856847 -0.18629341 0.055571675 0.21570782
0.045798667 0.5806407 -0.25909573 0.22255564 -0.4738252 -0.75252235 -0.53724736 -0.24802221
0.19686808 0.49071062 0.11734846 0.273455 0.42110366 -0.042066127 0.1384865 0.18177857
-0.7425241 0.41833764 -0.08252264 -0.30787197 -0.3140402 -0.18474706 -0.5619619 -0.019685639
-0.10255192 -0.3655783 -0.10994075 0.23648137 0.5548238 -0.75425166 0.37355927 -0.24904014
0.29655072 -0.90546894 0.41065678 -0.5968544 0.22933976 -0.009044929 -0.1686256 -0.21782255
0.3544393 0.37644213 -0.58187103 -0.09226052 -0.23419568 -0.3730653 -0.6095087 0.083352625
0.0023087796 -0.020953935 0.11338016 0.20269212 0.9646287 -0.26538885 0.66959435 0.25424522
-0.05129286 -0.2633873 -0.25403503 -0.6848559 0.43417373 0.052327637 -0.15039612 0.14631128
0.42934364 0.32035542 -0.15499742 -0.18043187 -0.10850695 0.04219596 0.2424324 -0.14036305
-0.7182601 -0.30672207 -0.31936574 -0.29748827 -0.15785912 -0.19143136 0.20799579 0.6246355
0.4335493 -0.011144991 0.1508981 0.2357667 -0.5841097 0.21591926 -0.27058437 0.061252918
0.016339801 -0.7285592 0.3495144 -0.066219196 0.34562746 0.43374637 0.31179723 -0.4607038
0.008876811 0.2436421 -0.35744047 -0.33255902 0.23321214 0.75776696 -0.018713681 0.46599713
0.6452778 -0.24434213 0.17049101 -0.10516403 -0.37232095 0.3981661 0.3254803 -0.5455604
0.4726156 0.13418615 0.32487544 0.34675685 0.43956837 0.6254414 -0.51817197 0.6204384
0.38961405 0.038055766 0.21681538 0.45050147 -0.45489076 -0.27805755 0.38229245 0.3358368
0.7066705 -0.45212248 0.7241025 0.17762749 -0.47470415 0.35600236 -0.17330562 -0.503548

network_body._body_endoder.seq_layers.0.bias f4 [128]
00000000: 0000 0000 0000 0000 0000 0000 0000 0000
00000010: 0000 0000 0000 0000 0000 0000 0000 0000
00000020: 0000 0000 0000 0000 0000 0000 0000 0000
00000030: 0000 0000 0000 0000 0000 0000 0000 0000
00000040: 0000 0000 0000 0000 0000 0000 0000 0000
00000050: 0000 0000 0000 0000 0000 0000 0000 0000
00000060: 0000 0000 0000 0000 0000 0000 0000 0000
00000070: 0000 0000 0000 0000 0000 0000 0000 0000
00000080: 0000 0000 0000 0000 0000 0000 0000 0000
00000090: 0000 0000 0000 0000 0000 0000 0000 0000
000000a0: 0000 0000 0000 0000 0000 0000 0000 0000
000000b0: 0000 0000 0000 0000 0000 0000 0000 0000
000000c0: 0000 0000 0000 0000 0000 0000 0000 0000
000000d0: 0000 0000 0000 0000 0000 0000 0000 0000
000000e0: 0000 0000 0000 0000 0000 0000 0000 0000
000000f0: 0000 0000 0000 0000 0000 0000 0000 0000
00000100: 0000 0000 0000 0000 0000 0000 0000 0000
00000110: 0000 0000 0000 0000 0000 0000 0000 0000
00000120: 0000 0000 0000 0000 0000 0000 0000 0000
00000130: 0000 0000 0000 0000 0000 0000 0000 0000
00000140: 0000 0000 0000 0000 0000 0000 0000 0000
00000150: 0000 0000 0000 0000 0000 0000 0000 0000
00000160: 0000 0000 0000 0000 0000 0000 0000 0000
00000170: 0000 0000 0000 0000 0000 0000 0000 0000
00000180: 0000 0000 0000 0000 0000 0000 0000 0000
00000190: 0000 0000 0000 0000 0000 0000 0000 0000
000001a0: 0000 0000 0000 0000 0000 0000 0000 0000
000001b0: 0000 0000 0000 0000 0000 0000 0000 0000
000001c0: 0000 0000 0000 0000 0000 0000 0000 0000
000001d0: 0000 0000 0000 0000 0000 0000 0000 0000
000001e0: 0000 0000 0000 0000 0000 0000 0000 0000
000001f0: 0000 0000 0000 0000 0000 0000 0000 0000
0.0 0.0 0.0 0.0 0.0 0.0 0.0 0.0
0.0 0.0 0.0 0.0 0.0 0.0 0.0 0.0
0.0 0.0 0.0 0.0 0.0 0.0 0.0 0.0
0.0 0.0 0.0 0.0 0.0 0.0 0.0 0.0
0.0 0.0 0.0 0.0 0.0 0.0 0.0 0.0
0.0 0.0 0.0 0.0 0.0 0.0 0.0 0.0
0.0 0.0 0.0 0.0 0.0 0.0 0.0 0.0
0.0 0.0 0.0 0.0 0.0 0.0 0.0 0.0
0.0 0.0 0.0 0.0 0.0 0.0 0.0 0.0
0.0 0.0 0.0 0.0 0.0 0.0 0.0 0.0
0.0 0.0 0.0 0.0 0.0 0.0 0.0 0.0
0.0 0.0 0.0 0.0 0.0 0.0 0.0 0.0
0.0 0.0 0.0 0.0 0.0 0.0 0.0 0.0
0.0 0.0 0.0 0.0 0.0 0.0 0.0 0.0
0.0 0.0 0.0 0.0 0.0 0.0 0.0 0.0
0.0 0.0 0.0 0.0 0.0 0.0 0.0 0.0

network_body._body_endoder.seq_layers.2.weight f4 [128, 128]
00000000: c737 48bd be05 bc3d 7e1d b63d 327d 693d
00000010: feb4 813d 829e 25be ca28 d93d 6680 573d
00000020: b7f0 4fbc ef86 c03d 5431 eaba 3e71 293e
00000030: 13bd 9a3d 2fed 013c 2cde e73c b291 3fbd
00000040: ea1d 1dbd 716a da3d d4ab 1b3d a72a 2cbe
00000050: 9514 053e 7e75 d7bd 34a5 8e3c 33ca 8e3d
00000060: 96ff a4bc 290d 17be ad7c 813d 0b55 183d
00000070: 8c40 d2bc 3633 5d3d 5541 07be 647b 973d
00000080: 0a12 59bb cc91 a5bd a948 6d3c d1b5 9dbd
00000090: 8f72 2a3e a61e a9bd 3b55 76bc 52a4 9e3d
000000a0: d4af 1cbe 963a 23be 586f 79bc b73e db3c
000000b0: abde f5bd e59c ee3b fd3f 9bbc 6bf4 a6bd
000000c0: a200 c0bc 0c9a 95bd 4b90 213e f149 90bd
000000d0: e152 823c e51c 62bd 0326 ec3d 92d7 e13d
000000e0: afd4 753c b3e9 3bbd 4947 d2bc 52c2 cdbc
000000f0: adec 233b 177e dd3a 6bca 7dbc 3009 073e
00000100: f3f9 443e 6535 d03d 66b6 99bc 789a e3bc
00000110: ef79 d6bd 1295 19bd 0aff e23c 8a8c 20be
00000120: 6bd7 10bc 1fb5 3f3e 860e 393e c154 e1ba
00000130: dd6b 77ba 7c7e cabd 0971 af3d 4acb 97bc
00000140: 22ff de3d 1762 e93d 01b1 fb3c 725b 61be
00000150: 00aa 073e 5d66 823d f21e 153d ce95 96bb
00000160: 9a90 32be 7232 de3d 0073 41be 103b 2b3d
00000170: 4041 993c 21d8 4f3d a0b2 c2bd 05d7 353d
00000180: 5c2e 003e 2ac9 c2bc c9ff 933d a5b9 bd3d
00000190: 76ba 673e 3d81 83bd 09db d1bc 169b dd3c
000001a0: a5e4 e0bd 3ae7 06bd d9e2 11bd 0532 483e
000001b0: 5e9d 6ebd 0d32 a03b 7861 333d ead7 9e3d
000001c0: e29c 98bc 66c8 edbc e769 d1bd 08ce cabd
000001d0: 8017 f03d ee4f 9b3d e35d 9ebd 647c a7bd
000001e0: 171f 603d cf55 093e df80 6339 2762 6abc
000001f0: ef1f 90bc 79f9 b9bc 9bc3 b93b 96f8 25be
00000200: 054f d33d d1b6 50bd ce1f d0bc 1c75 cebb
00000210: e4ac e83d eafe 1cbc 3959 ab3c 2b39 6dbd
00000220: 276c 553d aa9d 2cbd 89df 49be a9fb 083d
00000230: ca9d 72bd 84ee 0a3e c93b 563e 8867 6a3d
00000240: 3bb9 f33d d8d5 cb3c 1efb 7cbd 05d9 2d3e
00000250: 0c32 9fbd 1f35 c9bd 16b1 133e eb1c 333d
00000260: 9f1a f5bd 281e ef3c b7d9 203d 9c64 a2bd
00000270: c806 fd3c 2419 643d cd69 2bbe f0d2 493e
00000280: 32e2 debd 81d3 e8bd 774f 04be 2fcb 3cbe
00000290: 7e3f 90bd 85d9 163e bc6a 2c3d 5405 133d
000002a0: 6770 013e b752 0a3e fa55 7fbd 6e1b b8bd
000002b0: 2197 2f3e 28ad 8bbd 298c 6abd b3eb 7d3c
000002c0: 7e46 6b3d c40b 213c c5c8 81bc 7d7a 85bc
000002d0: 9a9d f4bc 21f4 7c3e d560 543d 4fd5 0abe
000002e0: 4f9e 113d f87c 683d 6c1b 0839 b8ae e33d
000002f0: d40f 38bd 753f 1dbe 4249 98bd db8d 223d
00000300: 4b49 b93d a985 b8bc dd4b 213b c3b2 f5bb
00000310: 0c8b 2c3d ab7e e93d 666b 07bd c4d3 c8bd
00000320: 5a12 89bd 5409 bf3c 221c 27bd 965c ee3c
00000330: 68aa a83c d828 593a 0a76 453d 175f ce3c
00000340: 419d 9f3e b6ac 26bd 86f5 a9bc 2bda 6c3d
00000350: 2add a6bc b122 243d 2878 c83d ed23 96bd
00000360: d0d6 dd3c eeeb 23bd 5c8d ad3d 707a d73d
00000370: 5111 45be 585d 673e 076a 003d e868 1bbe
00000380: 576f 0c3e 914e 753d 3931 10be 37b5 d03c
00000390: 4d11 c73c 306d cbbc 9d8e 35bd ce66 7e3d
000003a0: 48b9 113e 8a3b 0dbb c43f 4b3b 76ad d93c
000003b0: 1326 e9bd c5bf eebd 96b5 9f3d c1ff a53c
000003c0: e1e8 90bd b052 96bd 0232 d5bc aab3 ffbd
000003d0: 37fa 72bd 8130 a13d 85bd 9abc 1a84 9b3d
000003e0: b344 f73d fab3 e6bb 92c1 de3d 10fc a33c
000003f0: 15b7 e73d 089c 693d af9a d6bd d3d2 8bbd
-0.04888132 0.09180783 0.08892344 0.05700416 0.0633335 -0.16173747 0.10603483 0.052612685
-0.012691668 0.094007365 -0.0017867484 0.16547105 0.07555594 0.007930084 0.028304182 -0.046769805
-0.038358606 0.10664833 0.038005665 -0.16813146 0.12996133 -0.10520457 0.01741276 0.0697216
-0.020141404 -0.14751114 0.06322608 0.03719048 -0.025665544 0.054003917 -0.13208516 0.07396582
-0.0033122324 -0.08084449 0.014482656 -0.07700694 0.16645263 -0.08257799 -0.015034969 0.07746185
-0.15301448 -0.15940318 -0.0152243 0.026763303 -0.12005361 0.007281887 -0.01895141 -0.08152088
-0.023437802 -0.07304773 0.157777 -0.07045353 0.01590866 -0.055203337 0.11530688 0.11027445
0.015004321 -0.04587717 -0.025668757 -0.025117073 0.0025012896 0.001689854 -0.015490155 0.13187099
0.19235973 0.10166434 -0.018763732 -0.027783617 -0.10472476 -0.03749568 0.027709503 -0.15678611
-0.008840422 0.18721436 0.18071947 -0.0017191396 -0.0009438375 -0.09887406 0.085664816 -0.018529553
0.108885065 0.11395662 0.03072405 -0.2200754 0.13248444 0.063671805 0.036406465 -0.004595495
-0.17437974 0.108494654 -0.18891525 0.041804373 0.018707871 0.050743226 -0.09506726 0.04439451
0.12517685 -0.023777563 0.072265215 0.092639245 0.22629723 -0.064211346 -0.02561714 0.02705149
-0.109811105 -0.03293536 -0.03561673 0.19550331 -0.058255546 0.004888779 0.043794125 0.07756026
-0.018629495 -0.029026221 -0.102252774 -0.099025786 0.11723232 0.07583605 -0.07732751 -0.081780225
0.05471715 0.1341164 0.00021696415 -0.014305628 -0.017593352 -0.022701966 0.00566907 -0.1620811
0.10317806 -0.050955597 -0.02540579 -0.0063005816 0.11361101 -0.009582261 0.020916568 -0.057915848
0.052105095 -0.042142548 -0.19714178 0.033443127 -0.05923251 0.13567549 0.20921244 0.05722764
0.11900564 0.024882242 -0.06176292 0.16977318 -0.077732176 -0.09824585 0.14423022 0.04372875
-0.11967968 0.029189184 0.03927013 -0.07929346 0.030887023 0.05568804 -0.16739579 0.19709373
-0.10882987 -0.11368466 -0.12920938 -0.18436883 -0.0704336 0.14731415 0.042093977 0.035893753
0.12640534 0.13508116 -0.062337853 -0.08989607 0.17147495 -0.06820136 -0.057262573 0.01549809
0.057440273 0.009829465 -0.015842805 -0.016293759 -0.029860307 0.24702503 0.05185016 -0.13557933
0.035551365 0.056759804 0.00012980186 0.11117309 -0.04493697 -0.15356238 -0.07435848 0.039686065
0.09047183 -0.022524672 0.0024611868 -0.0074981167 0.042124793 0.11401113 -0.033061408 -0.09806016
-0.066929534 0.023319878 -0.040798314 0.029096883 0.020589069 0.0008283979 0.048208274 0.025191827
0.31174663 -0.040692054 -0.020746958 0.05782525 -0.020369131 0.040072147 0.09788543 -0.07331071
0.02707997 -0.040019922 0.08474228 0.105214 -0.19244887 0.22594202 0.031351116 -0.15176737
0.13714348 0.05988938 -0.14081277 0.025477035 0.024300242 -0.024832338 -0.04432546 0.06210976
0.14230835 -0.002155038 0.003101335 0.02657197 -0.11384215 -0.11657671 0.07798307 0.020263555
-0.07075668 -0.0733999 -0.026024822 -0.1248544 -0.059320655 0.078705795 -0.018889198 0.07593556
0.1207365 -0.007040498 0.10876764 0.020017654 0.11314217 0.05703357 -0.10478722 -0.06827321

action_model._discrete_distribution.branches.0.weight f4 [2, 128]
00000000: e95f 27bc f203 903b b358 22bc 09d5 b7bc
00000010: 1a51 263c ab0a 563b ef38 45bc 9609 0dbb
00000020: 4b76 6bba e752 90bb 1579 97bb 2285 903b
00000030: a53c f7ba 7b20 3b3c 9383 9c3a c06e aab6
00000040: 8dbd 4a3c f0f9 7abb bf44 83bc 418d 3e3c
00000050: 6304 423b 8a58 25bc 0b66 29bb 209e 073c
00000060: 4970 b8ba 2fa5 07bb b262 4e3b ef49 dc39
00000070: ea60 04bc c5c7 59ba 5f33 073c 3a29 c4bb
00000080: 6d52 543c 8446 193c 6950 933c 8d74 3cbc
00000090: 1fbd 8bbb 2783 c53b 02bf cfb8 c52a 193b
000000a0: c8b8 1fbc 54d2 143c 0fee 583b af34 053b
000000b0: 2e05 3b3c c188 3cbc c5cd 1f3c 773f fe3b
000000c0: 277c 293c c97b 25bc 132a d2bb 8153 31bc
000000d0: 4cfb 24bb 1ca9 4a3c 6058 4dbc bf5c d9bc
000000e0: 37a5 ef3a 4f20 44bc 5214 22bb 7ac5 eaba
000000f0: e17d 003c fffe b33b 0bb8 603c 87f2 043b
00000100: af8b 07bc 7eec ac3b 75b9 d13b f356 933b
00000110: df81 babb 5bdd 433b 4bba 1b3b 3419 25bc
00000120: d306 b6bb f515 763a f4ab 8b3b 9842 133c
00000130: c76f 4c3c cd45 5f3c 70ec 003c eb33 943b
00000140: a7cc ba3a b5c5 a93b 65c2 6cbc b051 dd3b
00000150: 7a17 ee3b e764 f13b e8d0 763b d1fa 253c
00000160: 9aef 51bc edf1 2cbb bd46 533a ec0f 8fba
00000170: 32bf c33b eff4 57bb 828d f03a 3226 1ebc
00000180: 2924 463b fe76 8abb efaf 48bc 8d05 3cbc
00000190: 7c8e 30bb 1c17 9fbc e359 1c3c 1b79 beb9
000001a0: 052c f1bb 1bc5 00ba 42ea 013a bdd1 d2bb
000001b0: 1708 703b 680a d6bb a2fd 56bb d076 eeba
000001c0: 8fd0 b33b 8bf2 2cbc 120e 82bb 07bd 9abb
000001d0: 9b91 37bc 485b 793b 5aef 633b a703 3bbc
000001e0: 254f 9ab9 62c3 e3bb cf65 343c a7dc cfbb
000001f0: 4bb1 933b 963b ad3a 4da0 9bbb 830a af3b
00000200: e33e a3b9 1bbc 843b 73a7 86bc ad86 c6bb
00000210: 6199 9b3b b2c3 9bbb e5f1 94bb 7bc4 f83b
00000220: 9bf1 66bb 6ded 86bc 729f 51bc 77d9 e8ba
00000230: 1341 94bb 24cb 813b 2ad6 e6bb 7761 1f3c
00000240: 3821 6e3b af45 3eba 7008 dbbb 0b2e 8a3a
00000250: 3f6b b5bc 95d1 fabb 1760 473b 2b23 46ba
00000260: 6a4b 72bc c90a 48bc bebe 123b cffc 83bc
00000270: dd76 bebb 2c35 39bb 5d3f efbb 5836 74bc
00000280: ec15 b13b 460d 993b e8a7 3e3c 6ad5 57bc
00000290: 122a efbb 2a53 b13a bf14 aa3b 2477 173b
000002a0: db21 123b c9a7 22bb f715 5e39 9b61 54bb
000002b0: f11d 11bc 9275 0c3c 3bcf 593a 175c dcbb
000002c0: 0316 1f3b 1de1 623c daca f3bb c392 d33a
000002d0: cddb e239 8b81 2a3c b2e2 5c3c d20e e03b
000002e0: 3c8e 83bb bdd8 a9bb a3db edbb a50b ce3b
000002f0: 438e 5e3b df55 083c 94ea 36bc 666f 0abb
00000300: 26dd c0bb b3b2 a43a e798 033b 2cba 863c
00000310: 1fca 12bb b24a fd3b 2d1f 493b 27bf 5fbb
00000320: fd00 ae3b 6f50 18bc 8c9a 0dbb 7526 a137
00000330: 3315 82bb cfbc 4c3c e81c b03b 7300 72bc
00000340: ab20 103c b347 063c 9b91 c63b 4f64 ec3a
00000350: 6ea5 863b ceab 913b e21d 4fbb 7900 3fbc
00000360: c3ed 20bc fb24 80bb 5793 47b9 8f50 173c
00000370: 578f 78bb 4318 463c 7bc8 99bb 6ee7 18bc
00000380: 4b27 1e3c 8867 5cbb 7b86 c5ba a0d0 96bb
00000390: ef3b 003c f038 833c 43ff db3a 6560 62bb
000003a0: b83e 4e3c 040e b3bb 48c0 dc3a 2039 cdba
000003b0: 29c8 1bbc 9ace 3cbc d635 1fbc 0c7d b9ba
000003c0: 2035 d7bb 8e71 353a acc1 aab9 02c6 bd3b
000003d0: fdd1 e23b f580 c03b 8dd9 1c3c 1db0 2dbb
000003e0: 6bf9 77b9 90c5 2f3b 2e61 07bb cbe3 1f3c
000003f0: 51b8 26bc fe59 463c 95af b03a 93ce eaba
-0.010215738 0.0043950016 -0.009908843 -0.02244045 0.010151172 0.0032660167 -0.0120375 -0.0021520606
-0.00089821656 -0.004404414 -0.0046225884 0.004410402 -0.0018862678 0.011421318 0.0011941068 -5.079288e-06
0.012374294 -0.0038295947 -0.016023992 0.011630357 0.0029604665 -0.01009191 -0.0025848176 0.008277446
-0.001407155 -0.0020697822 0.0031491932 0.00042016755 -0.008079747 -0.0008307661 0.008251994 -0.00598636
0.012959105 0.009355191 0.017982678 -0.011502397 -0.0042644884 0.0060275975 -9.906107e-05 0.002337144
-0.009748645 0.009083349 0.0033100878 0.0020325591 0.011414809 -0.011507214 0.009753649 0.0077590304
0.010344542 -0.010100313 -0.006413707 -0.010823132 -0.0025174199 0.01236942 -0.012533277 -0.026533483
0.0018283491 -0.011970594 -0.002473135 -0.0017911636 0.007842512 0.0054930444 0.013715754 0.002028616
-0.008273049 0.0052772155 0.006400282 0.004496449 -0.0056917514 0.0029886577 0.0023762162 -0.01007681
-0.0055550127 0.0009387427 0.004262442 0.008988045 0.012477822 0.013627482 0.007868871 0.0045227907
0.0014251665 0.005181039 -0.014450644 0.0067541227 0.007265982 0.007366765 0.003766114 0.0101306
-0.012813473 -0.0026389316 0.0008059552 -0.0010914779 0.00597372 -0.0032952388 0.001835272 -0.009652661
0.0030233955 -0.0042256108 -0.012248977 -0.011475933 -0.0026940396 -0.0194202 0.009542915 -0.00036329855
-0.007359984 -0.00049121835 0.00049558666 -0.006433694 0.0036625916 -0.0065320022 -0.0032804986 -0.0018193368
0.0054875086 -0.010555874 -0.0039689625 -0.004722241 -0.011204149 0.0038048793 0.0034780116 -0.011414445
-0.00029432136 -0.0069507817 0.011010601 -0.0063434425 0.004507219 0.001321661 -0.004749334 0.0053418293
-0.00031136637 0.004050744 -0.016437268 -0.006058535 0.004748509 -0.0047535533 -0.0045454376 0.0075917817
-0.0035239223 -0.016470635 -0.012794362 -0.0017765005 -0.004524359 0.003960984 -0.0070445733 0.009727827
0.0036335718 -0.00072583085 -0.0066843554 0.0010542286 -0.022145865 -0.0076543787 0.0030422264 -0.0007558341
-0.014788488 -0.012209603 0.0022391523 -0.01611176 -0.0058125095 -0.0028260453 -0.0073012547 -0.014905535
0.0054042246 0.004670772 0.011636712 -0.0131734405 -0.0072987163 0.0013528813 0.0051904614 0.0023111785
0.0022298011 -0.0024819246 0.00021179752 -0.003240681 -0.008857236 0.008572953 0.0008308773 -0.006724845
0.0024274595 0.0138476165 -0.0074399533 0.0016141761 0.00043269843 0.010406862 0.013481783 0.006837704
-0.0040147584 -0.005183308 -0.0072588488 0.006288009 0.0033959306 0.0083212545 -0.011164326 -0.0021123528
-0.005885738 0.0012565464 0.002008015 0.016446196 -0.0022398306 0.0077298516 0.0030688748 -0.0034141035
0.0053101764 -0.009296521 -0.002160701 1.9210604e-05 -0.0039698123 0.012496187 0.0053745396 -0.014770615
0.008796851 0.008195805 0.006059838 0.0018035265 0.004109076 0.0044455295 -0.0031603505 -0.0116578275
-0.009822312 -0.0039106584 -0.00019033007 0.009235515 -0.0037927234 0.012090745 -0.0046930886 -0.009332521
0.009652923 -0.0033631045 -0.0015069986 -0.0046025068 0.007826789 0.01601836 0.0016784448 -0.003454232
0.0125881955 -0.0054643173 0.0016841972 -0.0015657283 -0.009508171 -0.011523867 -0.009717425 -0.0014151647
-0.0065676123 0.0006921523 -0.00032569224 0.0057914266 0.006922005 0.005874748 0.0095733525 -0.0026502677
-0.00023648671 0.0026820637 -0.002065729 0.0097589 -0.01017578 0.012106417 0.0013480062 -0.0017914347

action_model._discrete_distribution.branches.0.bias f4 [2]
00000000: 0000 0000 0000 0000
0.0 0.0
