MLBase/results/ppo/CloseToTargetBehaviour/CloseToTargetBehaviour-308921.pt (torch, 450203 bytes, 40 tensors)

discrete_act_size_vector f4 [1, 2]
00000000: 0000 4040 0000 4040
3.0 3.0

network_body._body_endoder.seq_layers.0.weight f4 [128, 6]
00000000: d179 0bbe b69e 64be 6ff6 19bf 339b 44bd
00000010: 08de 813d b441 9ebe a28a 41be 5d6d b3bd
00000020: e0f6 89be 21c9 e6be f23c bd3e 3a11 a0bc
00000030: a3c7 15bf 23a2 93be 196e c7be 6e1f 17bf
00000040: 8c64 6d3e 9ec6 8dbe ee1a c7be 904f a63e
00000050: 7628 173e 09c8 acbd 18d6 27bf 3e98 4f3e
00000060: 35cf 0f3e ba7d b2be 3018 3a3e 2f3e 363e
00000070: 71e8 9abd bdcc 133f f034 953e 4308 2fbe
00000080: 6fc8 2ebc f497 8a3e 9ad1 a2be d263 d1bd
00000090: e885 25be a796 b23e d106 4cbe ca77 693e
000000a0: e588 963c 2ba5 5f3e 05d4 c0bd 5eb6 603e
000000b0: 328b 48bf 3fe5 6ebe 9c02 df3d 6d08 50be
000000c0: cb8b 2d3f 4b75 d43e cdfa 45be 12bc 6bbe
000000d0: 3dfc cd3e a377 ea3e 9e7a 41bf 4bda 66be
000000e0: af72 143e ea8e fbbe 8296 883c 5d42 163d
000000f0: d562 17bf f049 3bbe b881 8c3e a865 cdbd
00000100: 4bef 063f db5b 933e 4c2d 9cbe 47d4 a73c
00000110: bedc 6fbd 05e7 ca3e 1182 20bd 63cd 893e
00000120: 9d00 833e 5ea0 2fbe 0d77 cbbe 755c 12bf
00000130: 631b a0be 2834 10bf b014 073f 9102 6f3f
00000140: 48cf 87be f959 143e d87d 143f b139 0dbf
00000150: 4faa 37be 7600 793d 01c7 70bc aacc be3e
00000160: 43e9 af3e a6d3 98be 032b b1be b8a7 46be
00000170: 348d a5be 1c78 843d c9d4 bebd bfee db3e
00000180: 6827 d7be 3369 283e 97de 313e 84fe ca3c
00000190: 1756 c23e 8e98 d9be dc9e 303e 3b05 0b3e
000001a0: f53f 2c3e a682 6ebf acac a33e 7c9c 3c3e
000001b0: 2530 233f 83af 953e 728f 533e 487e 8b3e
000001c0: 005b adbd 93fb 3a3f ddef acbe 387a 71bf
000001d0: 284e cc3e 2512 5a3e ffd2 c83d 81f4 193f
000001e0: bcd6 3abe f549 8abe d4bb 373e 121c fbbe
000001f0: ee03 38bf 0280 d7be 5646 503e ed0b 023f
00000200: 9d2e 3bbf b56c 95bf f581 acbe 26f9 1ebf
00000210: b0e2 883d cbf3 16bf d96e 3ebd a453 ad3d
00000220: 102a b03c 80c3 05be 123c 6e3e 1f9e 8bbf
00000230: b4bb 66be 3eec 8b3e 00e6 d8be aed6 15be
00000240: a546 c33c e42a b13d 79a4 523e 6a7b 683c
00000250: f63c 1ebe b6bf e6bd be9e 2cbe 9a69 9c3e
00000260: 02c2 f4bc b4c1 55be a218 d6be 3270 2dbf
00000270: c1ce 1dbf ff23 c2bd 5a39 833e ccdf aa3d
00000280: 0ed0 d93d 5a1c 053f bb1c 15bf d579 0fbe
00000290: 4449 203f 5389 253f 7b80 823e 90d1 de3d
000002a0: 5a62 453e 3a7f 19bf ba3d 603f 062b 80be
000002b0: 41e4 8fbe 7d32 21bf c377 183f 8793 bd3d
000002c0: 4b24 64be cf19 02bf beec d3be 20eb f4be
000002d0: 692c 9a3e f472 1c3f 2bdd 38bd f12b b2bd
000002e0: 2e18 f7be e54d 723e e7b6 553e 052b 54bd
000002f0: 6321 45bf da41 ad3e 097d bb3e 2317 37bd
00000300: f6d7 4f3f 3f85 bdbd 1bd6 023f d7ad 5c3e
00000310: b8a9 4dbe 12a8 3e3d a8b7 0f3f 50bf febe
00000320: 5f9d 97bd 19be 9abf 98bf ccbc 230e 96be
00000330: a3fe 50bf 3750 23bd d9c9 f53e e8ec 1b3e
00000340: 21c5 7fbe 1789 343f d36f c4bd 178b fbbd
00000350: b0c2 28be 5302 11be 1534 4e3e ff54 78be
00000360: 13ae 94bf 3681 f1bd 5d91 bcbe aae1 91bf
00000370: 4b4b 7d3f ff9d bf3e b87c 5bbe 5263 c0be
00000380: b13b 17bf f66b 1ebf 8c1c be3e 4cb7 28bf
00000390: ac3d 5fbe 7b7c 21bf 9f0f 1d3e 57f1 cdbe
000003a0: 38e1 ac3e c9c3 26bf aeca 4d3d 7665 66be
000003b0: 8c30 57bf ac6e f43e af72 ffbc 489b 3abf
000003c0: 5d52 3c3d 65b7 db3d d99b 9abe 9875 98be
000003d0: e756 ea3e 637e 403f 7e81 803f ab2a 2bbf
000003e0: a0e0 09bf e9a4 40be 9334 5dbd bd8d dbbe
000003f0: 7a86 b4bd 51fb 92be 97f6 653e fac1 04bc
-0.13620688 -0.22326168 -0.6014165 -0.047999572 0.06341177 -0.30909503 -0.1890054 -0.08761094
-0.26946163 -0.45075324 0.3696056 -0.019539464 -0.58507746 -0.28834638 -0.38951185 -0.5903233
0.23182887 -0.27690595 -0.38887733 0.32482576 0.14761528 -0.08436591 -0.65561056 0.2027292
0.14043887 -0.34861547 0.1817329 0.17797159 -0.07563866 0.5773428 0.2914195 -0.17092995
-0.010667904 0.27069056 -0.31800538 -0.10224117 -0.16164362 0.34880564 -0.19924475 0.22799602
0.018375823 0.2184035 -0.094154395 0.21944568 -0.78337395 -0.23329638 0.108891696 -0.20315714
0.6779143 0.41495737 -0.19333954 -0.23020962 0.40231505 0.457944 -0.75577724 -0.2254421
0.14496873 -0.49132472 0.01667333 0.036684383 -0.5913518 -0.18289924 0.27442718 -0.10029155
0.5270888 0.28781018 -0.3050331 0.020486964 -0.058560126 0.3962938 -0.03918654 0.2691451
0.25586405 -0.17151019 -0.39739266 -0.5717233 -0.31270894 -0.56329584 0.5276594 0.9336329
-0.2652533 0.14487447 0.5800452 -0.55166155 -0.17936061 0.060791455 -0.014695884 0.3726552
0.34357652 -0.29848975 -0.34603128 -0.19399917 -0.32334292 0.064682215 -0.09317929 0.42955586
-0.42022252 0.1644638 0.17370068 0.024779566 0.37956306 -0.42499202 0.172481 0.13576214
0.16821273 -0.93168104 0.31967676 0.18419069 0.6374534 0.29235467 0.20660189 0.27244782
-0.084646225 0.7304012 -0.3377675 -0.94327116 0.39903378 0.21295984 0.09805869 0.6013871
-0.18245977 -0.2700955 0.17942744 -0.49044853 -0.71880996 -0.4208985 0.20339331 0.5079945
-0.73118 -1.16738 -0.336929 -0.6209892 0.06683862 -0.5896575 -0.04649243 0.08463219
0.021504432 -0.13062859 0.23265103 -1.090763 -0.2253254 0.27328676 -0.42362976 -0.14632675
0.023837397 0.08650759 0.20570554 0.01418958 -0.15452942 -0.11267035 -0.1685743 0.30549318
-0.029877666 -0.20874673 -0.41815668 -0.6774932 -0.61643606 -0.09479522 0.25629693 0.08343467
0.106353864 0.51996386 -0.58246964 -0.14011319 0.62611794 0.64662665 0.25488648 0.108798146
0.192758 -0.5995976 0.8759419 -0.25032824 -0.2810383 -0.62967664 0.5955774 0.09256654
-0.2227947 -0.5082063 -0.41391557 -0.47835636 0.30112007 0.61112905 -0.045132797 -0.086997874
-0.48260635 0.23662527 0.20870553 -0.05179884 -0.7700407 0.33839303 0.36618832 -0.0446998
0.81188905 -0.0925393 0.5110795 0.2155069 -0.20084274 0.046547003 0.5613961 -0.49755335
-0.07403063 -1.2089263 -0.024993703 -0.2930766 -0.81638545 -0.03987142 0.4800556 0.15227091
-0.24977542 0.7052168 -0.09591641 -0.12282389 -0.16480517 -0.14161043 0.20137055 -0.24251173
-1.1615623 -0.11792223 -0.36829653 -1.1396992 0.9894301 0.3742523 -0.21434295 -0.37575775
-0.59075457 -0.61883485 0.37131155 -0.6590469 -0.2180087 -0.6308057 0.1533799 -0.4022319
0.33765578 -0.65142494 0.05024212 -0.22499642 -0.8405845 0.47740686 -0.031182615 -0.7289319
0.045976985 0.10728339 -0.30197027 -0.29777217 0.45769426 0.7519285 1.0039518 -0.6686198
-0.53858376 -0.18812908 -0.054005217 -0.42881575 -0.08814712 -0.28707364 0.22457348 -0.008102888

network_body._body_endoder.seq_layers.0.bias f4 [128]
00000000: f2ed 78ba 4ee6 683d 085f 223d c7a3 9b3c
00000010: e1c7 153b 70e0 2e3c 584c 173b f560 dcbb
00000020: 9b20 8abb 212e a73c 6e4f 073c 8468 9fba
00000030: e661 7139 21a0 f73b 62a6 4f3c 98ce 8abb
00000040: d512 553c dc71 07bb 3ef5 683a 498c a83b
00000050: fee3 1d3c e94d 933b 94d6 b93b 72e1 763c
00000060: bed2 be3c 9145 cbba 6cec 733c 593b b539
00000070: f695 4a3c 8de1 df3a 5ef9 f23c fe6a 033c
00000080: 3c49 2dbc 3b7a c63c 0c65 733c 82c0 ee3b
00000090: 1e42 4d3c 72e4 333a 9ab9 403d dc41 733c
000000a0: eb0a c23b 0229 09bb 7be7 a13b 07c5 9a3b
000000b0: 7d30 8c39 05a4 bc3c 5245 40bb e73d aebc
000000c0: 2a6a d23c 0485 d23c 7f0b a63b 6396 1dbc
000000d0: 2365 a83c 582a 113d 07bf 56bc da76 b8bb
000000e0: 9d14 703b 3c9c 9b3a 3e78 5e3c 5e8f 053c
000000f0: 3b50 f63a 0318 b43b e298 31bc 1eb5 243d
00000100: 1d5f 6b3c db19 87bb 50c1 3d3c c742 1ebb
00000110: ca79 e9ba 3aa0 8b3c 9082 d23b f83d 283d
00000120: cd10 363b 62fe e63c c1fb 183c f7d9 8b3c
00000130: 5af3 b23c 3439 d93c bd58 333c b29b 043d
00000140: a066 173b 9e22 983b 180a c43b 8ff7 5f3c
00000150: f99f 103b 3cca 8e3c 5928 1dbc bb33 0fbd
00000160: 8865 163d 57c4 b0bc ee78 92bc 7244 a23c
00000170: 7925 a53a 097b a83c 560b 10bc ddb8 83bb
00000180: 0f98 b53b 0af3 3dba 3124 c13c 703b 8fbb
00000190: a223 c6bb a7c8 15bb 80e8 ebbb e1cd a33c
000001a0: 1aa0 18bb c980 093d af97 25bc b615 51bc
000001b0: c654 aebb bf01 873c beec b23c b42d 66bc
000001c0: b959 d2bb 907b 3a3d 08e7 fcbb 43f9 183c
000001d0: 4b53 99bc 3f71 fdbb 026d 2a3c 4c74 273c
000001e0: 53cd 723c a973 f13c e185 25bc 5183 8eba
000001f0: 015f 59bc 6f49 0bbc 62f8 e7bb a5e5 cf3b
-0.0009495906 0.05686026 0.03964141 0.018998994 0.0022854733 0.010673627 0.0023086276 -0.0067254254
-0.0042153127 0.020407738 0.008258684 -0.0012161885 0.00023020021 0.0075569307 0.012673946 -0.0042360537
0.013004978 -0.002066723 0.00088866416 0.0051436764 0.009636877 0.0044953716 0.0056713317 0.015068399
0.02329385 -0.0015508403 0.01488791 0.00034567228 0.012364855 0.0017080769 0.029659923 0.008021114
-0.0105765425 0.024228206 0.014855634 0.0072861323 0.012527971 0.0006862349 0.047052003 0.014847245
0.0059217117 -0.0020928984 0.0049409247 0.0047231945 0.00026739007 0.02302743 -0.0029338193 -0.021269752
0.025685389 0.025698192 0.0050672884 -0.0096183745 0.020556038 0.035440773 -0.013107068 -0.0056294026
0.003663338 0.0011872123 0.013578473 0.008151857 0.0018792221 0.0054960265 -0.010839673 0.04021179
0.0143659385 -0.0041229553 0.011581734 -0.002414869 -0.0017812785 0.017044175 0.0064242557 0.041074723
0.002778101 0.028197471 0.009337367 0.017071707 0.021844555 0.026516534 0.01094645 0.032375045
0.002310194 0.0046427986 0.0059826486 0.013669862 0.0022068007 0.017430417 -0.009592139 -0.034961443
0.03671792 -0.021577997 -0.01787993 0.019808028 0.0012599669 0.02056648 -0.008791765 -0.00401984
0.0055418084 -0.00072459935 0.023576828 -0.004371099 -0.006046728 -0.0022855194 -0.007199347 0.019995632
-0.0023288787 0.033570085 -0.010106965 -0.012761524 -0.0053201644 0.016480325 0.021841403 -0.014048982
-0.006419387 0.045527995 -0.0077179708 0.009336772 -0.018716475 -0.0077344473 0.010401966 0.010220598
0.014819461 0.029474096 -0.01010272 -0.0010872876 -0.01326728 -0.008501395 -0.00707917 0.0063445144

network_body._body_endoder.seq_layers.2.weight f4 [128, 128]
00000000: 16fd 49bd d075 fd3c a493 76bd a9ab 69bd
00000010: 3d2e 093b f78b cfbd d797 9bbd 79bf a8bd
00000020: 0e00 33be 2be5 db3a 9e42 00bc 0172 aabd
00000030: 6ea9 15be 65a7 743d fa48 2f3d 9b7c 06be
00000040: 4891 c53d 2e76 43bd 9c75 35bd ee6c 9e3d
00000050: 2228 843d e627 8b3d 0da4 2c3e 771b 203e
00000060: aad8 51ba e750 583d c401 37bd 5913 39be
00000070: 7b9a 4dbd 8c10 3abd 1334 153e 65f0 97bd
00000080: 2415 693c 558b 593d 2838 1abe f86a 713d
00000090: 7301 853c b01f 01bc f3cb 86bd 620b dc3d
000000a0: 1147 c13d d2ae 72bd 4185 ca3b ff87 033d
000000b0: 78af e1bc de1d fc3a 9c25 0cbd 620b e53b
000000c0: 5b17 3f3d 4426 e13d 46cd ffbd a066 9fbd
000000d0: 852b b1bd 78ac 263d f02f 03be fe06 d0bc
000000e0: e953 d6bc 1f62 bb3d 06d5 153e dd30 6ebe
000000f0: 90f2 cdbd 84f5 973d 1b11 c53b 043c d3bd
00000100: 1994 373d d233 e03c 32ac a0bd d129 e4bd
00000110: 9cd6 8d3c 2032 d6bd 5d06 643d e464 65b7
00000120: c8b3 4e3d 5c14 a1bd feaf 8fbc a9c3 3d3b
00000130: 9e28 17be 46ec 04bb 3973 b9bc 4607 1abe
00000140: dcc3 f73d d31d e83d 81c2 1abe a896 f0bd
00000150: fa1b 0bbb 412b 563d 1c58 463d a040 25be
00000160: 0546 45be 9a1d 4abd 3703 063d 530f 193d
00000170: 8544 013d a6fe 473e a1cb d53b d06f 643d
00000180: 71e5 c03d e007 98bd 6a29 5abd 0679 83bd
00000190: c3e9 a9bd f399 613e 151b 4ebd f69b 933d
000001a0: 84ea 823d 36fd 6b3e dd93 9ebd b75b 103e
000001b0: 1739 1cbd e04b 403d 3585 60bb f820 0d3d
000001c0: 6061 ec3c e6af 15bd ae6c 0e3d 8ac7 73bd
000001d0: 9fde b63c ab7b 46be cfd6 4c3d e84c 113d
000001e0: f8dd 64bd 4cbb a23c 6b17 113e 8daa 36bd
000001f0: 0a81 b6bb 9e72 b33d 1c15 4a3d e403 88bd
00000200: a7a9 423d 4942 fd3c 05a5 2abd 642b edbd
00000210: d1cb 023d ce6b 46bd c3e0 053d 1d04 ccbd
00000220: 7979 113e 7cd9 75bd 1b36 7f3d a7fc a33c
00000230: 270f bc3d 6a75 d43d efbb 42bd 593a 9c3d
00000240: 1419 92bc 7e95 c43d d884 ec3d cd5a 063b
00000250: 6436 e2bc 6dd8 9b3c 2dc1 973d 7ba8 08bd
00000260: 5c0f 13bb a326 773e 0553 0cbc 51ea 053d
00000270: 6cee ab3d 42d3 6f3d d6bf 5cbd 18a2 3cbd
00000280: 717a 08b9 f0f4 a6bd 2cd4 a9bd 05a0 28be
00000290: db85 2f3e 2a0c fcbd f663 033e c576 00bd
000002a0: ac88 44bd 5ebd f5bd f72a dd3c 683b 573d
000002b0: 8df0 c1bc 7f82 803e d96e f43c f9df 9c3d
000002c0: 1ee2 2fbc 8870 18be 9ca6 ba3c 5224 47bc
000002d0: 1007 97bd 73b4 413e 910c 9c3d 3a25 163d
000002e0: 0eed 233d 949f 9c3e 1375 44bd 3e00 993c
000002f0: 7547 9a3c 8cbb ccbd 1f12 6f3d 6e39 9ebc
00000300: d422 adba c9ec febc 134d 52bd 6ec0 40bd
00000310: 0e7d b2bd 7094 4f3d d72c ca3d 1532 02bd
00000320: 9a0c b53d 6477 8dbd 23b2 33bd 5d6c 7abd
00000330: 8e32 903d 1ce6 f6bd 3fad 27bc 7f8f 1ebd
00000340: f40c debd 8027 86bd 0667 b53d b7fa 883b
00000350: 12bd 39bd 471b 9ebd bdd5 64bd 1306 5ebd
00000360: c426 553d 5c4d 46bd 200a f23d baa4 f939
00000370: 3a75 6c3d 1d65 84bc 210e 2ebe 7855 95ba
00000380: 002c 813d 84b7 723c 9db4 6b3d f674 b23d
00000390: e195 103d 4bb9 7f3d bd36 0fbd d37e d7bd
000003a0: dacc a93c 2629 4cbd 5f5b e4bd 9ffe f0bd
000003b0: 933f 5fbc a954 0e3d c57b 4fbc 1adc adbd
000003c0: cc8d 8c3d faa8 ed3c 781a 033e c5ae 973d
000003d0: d0fd e3bd ab89 25be ad13 e2bc 6007 cabd
000003e0: 2dc1 783d 8d90 293d 4973 3bbb e6cd 833c
000003f0: a00b c83d f264 06be 84b5 d93d cd90 023d
-0.049313627 0.030939966 -0.060199395 -0.057048474 0.0020932101 -0.10134118 -0.075973205 -0.082396455
-0.1748049 0.0016776671 -0.007828383 -0.08322526 -0.14615414 0.059729952 0.042794205 -0.1313347
0.09646851 -0.047720127 -0.044301614 0.077356204 0.06452967 0.067947194 0.16859455 0.15635477
-0.0008005003 0.05281153 -0.04467942 -0.18073787 -0.050196152 -0.045425937 0.14570646 -0.074188985
0.014226232 0.053111393 -0.15060484 0.058939904 0.016236043 -0.00788109 -0.06581869 0.107443586
0.09437383 -0.059248753 0.006180436 0.032112118 -0.02754949 0.0019234975 -0.034215555 0.0069898823
0.046653133 0.10993627 -0.12490325 -0.07783246 -0.08650879 0.040691823 -0.12811255 -0.02539396
-0.026163058 0.091495745 0.14632043 -0.23260827 -0.10056031 0.07419875 0.006014002 -0.103141814
0.04481897 0.02736846 -0.07845344 -0.11140788 0.017314248 -0.10458779 0.05567013 -1.3672954e-05
0.05046442 -0.07865211 -0.017539974 0.0028955734 -0.14761588 -0.0020282432 -0.02263795 -0.15041837
0.12097904 0.113338135 -0.1511326 -0.117474854 -0.0021226392 0.052287344 0.04842387 -0.16137934
-0.19264992 -0.049344636 0.03271791 0.03736813 0.031559486 0.19530734 0.0065245186 0.055770695
0.094187625 -0.07423377 -0.05326215 -0.06419568 -0.0829654 0.22031383 -0.050318796 0.072074816
0.063923866 0.23045811 -0.077430464 0.14097486 -0.038140383 0.04694736 -0.0034259085 0.03445527
0.028855026 -0.036544703 0.034771614 -0.059516467 0.02232295 -0.19383113 0.050009545 0.035473734
-0.05587575 0.0198647 0.1416909 -0.044596244 -0.005569582 0.08762096 0.049336538 -0.06641367
0.047525074 0.030915396 -0.04166128 -0.11580542 0.031932656 -0.048442654 0.032685053 -0.09961722
0.14206494 -0.060021862 0.06230746 0.020017935 0.091825776 0.103739575 -0.04754251 0.076283164
-0.017834224 0.09598826 0.115487754 0.0020500899 -0.027613826 0.019024098 0.07409892 -0.0333638
-0.0022439575 0.24135832 -0.008564715 0.032694165 0.08395085 0.05855108 -0.053893887 -0.046053022
-0.00013015584 -0.08152187 -0.08292422 -0.16467293 0.17140906 -0.123070076 0.12831101 -0.031363267
-0.047981903 -0.119990095 0.026998026 0.05254689 -0.023674274 0.2509956 0.029838013 0.07659907
-0.010735063 -0.14886677 0.022784524 -0.0121546555 -0.07374394 0.18916492 0.07619584 0.036656596
0.040020995 0.30590498 -0.047963213 0.018676873 0.018832901 -0.09996709 0.05836689 -0.019314494
-0.0013209232 -0.031118767 -0.051343035 -0.047058515 -0.087152585 0.05067867 0.09871834 -0.031786043
0.08840294 -0.069075376 -0.043871056 -0.0611385 0.070408925 -0.12055609 -0.010234176 -0.038711067
-0.10842314 -0.06550503 0.08857541 0.004180278 -0.045346327 -0.077200465 -0.0558679 -0.05420501
0.052038923 -0.04841362 0.118183374 0.00047615712 0.057728983 -0.016161496 -0.16997577 -0.001139327
0.063072205 0.014814261 0.057545293 0.08713715 0.035299186 0.06243257 -0.034964312 -0.10522237
0.020727564 -0.04984393 -0.1115024 -0.11767315 -0.013625997 0.034748707 -0.012663786 -0.08489247
0.06862983 0.029011238 0.12803066 0.074063815 -0.11132395 -0.16165797 -0.027597273 -0.09864688
0.0607311 0.04139762 -0.002860265 0.016089391 0.09767842 -0.13124445 0.106303245 0.031876374

network_body._body_endoder.seq_layers.2.bias f4 [128]
00000000: 852d c4bb c875 91ba 0b5d 133d 1fdd 6c3c
00000010: 8e0a 773c 68da ea3c 9d28 30bc f9d0 f13c
00000020: bdeb 49bb a4c3 bcbb fa50 ce3b f080 c43b
00000030: 0225 743c 9c9e 283c f82a 76b9 96f3 6f39
00000040: b2b8 60ba 9f8a e5bb f7f9 f7bb 71f1 9d3b
00000050: 4dd1 10bb fc86 123c 1080 f3bb 5d8d 86bb
00000060: 50b5 c9bb d121 afbb ea1d 253c 891f 11bb
00000070: 17ed ed3a b5ad c1bb fc0f 2abc 20eb 153d
00000080: eba1 a0b9 a78e 4c3b 01e6 2dbb 56cf 57bb
00000090: 4e99 993b 0800 37bc bf28 413c 29f6 bb3c
000000a0: 608d 1abb 544c 2dba 8c92 11bc 1dd0 db3c
000000b0: aaf2 643c bd38 88bb 3d1c d83b 2411 873c
000000c0: 4cc0 ee3c 415b 9abb 0191 78bb daa3 4d3c
000000d0: 4a15 3cbb 615c 82bb 77a9 ee3c 62fb 343c
000000e0: a26a c23c 040e cb3b a0ad 1cbb ab4c 4e3b
000000f0: c460 6ebb feb5 9b3c 5f92 a03c ad3c f43c
00000100: 74eb f53b 1122 bab9 ab30 813c e00f 163b
00000110: 371a 79bb 9056 3b3b f1bc 263c bac8 233c
00000120: 8e41 68bc 105e 7cbb 5192 033c 26f7 b33c
00000130: 4761 44bb 9853 073c 0c41 a23a 1c20 e0bb
00000140: f27f c43a 11b8 26bb 9b38 5bbc 0fa6 003b
00000150: ac46 2d3c 951a 17bc e285 763c dfef 413c
00000160: de3c bf3b 84a4 923c 0f57 11bc 9ee1 d43c
00000170: 53d0 fcbb a8cc b3bb 7550 76ba b0e1 003c
00000180: 9445 b53a 479b 99b9 e50c 2fbb 92d8 003d
00000190: 1fe9 843b d958 30bc fe6c 32bb fe24 313a
000001a0: e118 9dbb 5890 a33c c458 373c e690 3cba
000001b0: 37c3 853b 3d4d 373a edc7 aabb 77ce 523c
000001c0: cd27 093c 7fd4 783c 778b a03a 39b3 b93c
000001d0: ffad bc3b f073 013d bfa3 c53c 7a30 a73c
000001e0: 4b06 163c b881 5cbc 67c4 6fbc d9cc 8dbb
000001f0: 8b21 8f3c 4fe0 18ba f3b1 e938 b6dc 3d3c
-0.0059868717 -0.0011097724 0.035977405 0.014457016 0.0150782 0.028668597 -0.01075187 0.029518591
-0.0030810677 -0.005760627 0.0062962743 0.005996816 0.0149014015 0.010291722 -0.00023476395 0.00022883559
-0.00085724436 -0.0070050503 -0.00756764 0.004820042 -0.002209741 0.008943316 -0.0074310377 -0.0041062073
-0.0061556473 -0.0053446074 0.010077933 -0.002214404 0.0018152323 -0.0059106 -0.010379788 0.036601186
-0.00030638216 0.0031212957 -0.0026534798 -0.0032929978 0.004687465 -0.011169441 0.0117895 0.022944527
-0.0023582801 -0.00066108 -0.008885037 0.026832635 0.013973871 -0.0041571544 0.006595163 0.016487665
0.029144429 -0.0047105853 -0.0037928226 0.012551272 -0.0028699213 -0.0039782976 0.029133542 0.011046262
0.023732487 0.006196739 -0.00239072 0.0031478803 -0.0036373595 0.01900768 0.019601045 0.029814089
0.007504875 -0.00035502066 0.015770277 0.0022897646 -0.003801001 0.002858553 0.010176883 0.009996587
-0.014175786 -0.0038508214 0.00803049 0.021968435 -0.0029965208 0.008259676 0.0012379005 -0.0068397652
0.0014991744 -0.0025439302 -0.013380195 0.0019630229 0.0105759315 -0.009222646 0.015046569 0.011836975
0.0058361134 0.017900713 -0.008870854 0.025986489 -0.007715264 -0.0054870434 -0.00093961443 0.007866308
0.001382994 -0.00029298125 -0.0026710567 0.031456538 0.0040561105 -0.01076337 -0.002722561 0.00067575264
-0.0047942256 0.01996629 0.011190597 -0.00071932224 0.0040821093 0.00069924054 -0.0052118213 0.012866608
0.008371306 0.015187382 0.0012248595 0.022668468 0.0057580466 0.031604707 0.024125932 0.020408858
0.009156774 -0.013458662 -0.014634228 -0.0043273983 0.01747205 -0.00058317644 0.000111434514 0.011588266

action_model._discrete_distribution.branches.0.weight f4 [3, 128]
00000000: 64d2 203c 1835 bdbb f08d 57bd ea35 0dbd
00000010: ca20 913c 6fc3 fd3c b982 20bc e874 223d
00000020: a511 99bb 7436 d6bb 465d 0fbc 0111 b3bc
00000030: 97e5 80bb 132a 733c ac63 b4bb e8cf f23c
00000040: dbd3 93bc 86f1 a7bb 288f fdbb 17fc 223c
00000050: 162e 5db9 776c 953c 37e9 78bc 7dfd e9bc
00000060: 0c65 06bd c684 8a3b c6f8 0c3c 333a 083c
00000070: c6fe 5f3a ec06 32bc f474 abbb 38f0 d9bc
00000080: b0b9 abb9 50fb 463c 32ef 653b a183 1ebc
00000090: 9dd6 5cbc dcc6 8d3a 45ee c53c 78b0 20bb
000000a0: 0eb6 a0bc 484a 3a3c 3e7c 8539 bb51 66bd
000000b0: 6a2b c43c 5984 41bc d24e 76bc dd61 03bd
000000c0: da6e 913c e315 f638 9f1a ae3b 88a3 ccbc
000000d0: ed12 273b 3969 4b3a 912b 4fbd da01 023c
000000e0: 46dc eb3c e0fa f9bc 63c2 0e3c 0ed9 08bc
000000f0: 71d5 84bc 7673 debc 99a2 713c 962a 513c
00000100: afcb 0f3c f785 443c 09c0 c03c abd3 1cbd
00000110: 4ade 42bc e2b3 983c ce84 2f3d fb2b 3f3c
00000120: 7f7e aebc 6a4b fcba 6dc6 fb3b 447c 57bd
00000130: 835e ebbb 6abe 0e3b 4f21 b8bc ad6e b9bb
00000140: b23a 6fbc 9622 a83a 0409 92bc d4d1 91bc
00000150: 6988 763c a453 9f3c c41f 81bc f827 0e3d
00000160: 6ee3 093c 3499 45bd e9dd 113b 9f15 49bd
00000170: f9e8 583c 2b9a 99bc 82b4 9ebb bc75 debc
00000180: d142 b9bc 3b5f bcbb 9880 5abb 7e2e 54bd
00000190: 0e66 42bc dec4 333c 901c 07bc 6a08 94bc
000001a0: 9a7b ab3c 8f31 e9bc 3a7c 4f3c fe41 bdba
000001b0: a22c 3639 a164 0d3a fe9e f4bb 62eb 9cbc
000001c0: 4258 403c 6fef f63b 8d01 0cbc 8dc0 8e3c
000001d0: 9b3e 383c a283 083d de62 293c 280d 7ebd
000001e0: b7a0 08bc 5080 4ebc cf7d 6b3b 5963 62bb
000001f0: 4fac a43b 2c8c c7bc 622f eebc 44ca 933c
00000200: b3fa 273b 046f 753c 0bc9 8b3c 46a3 00bc
00000210: d65e 5ebc 1c64 ba3b 0816 9ebb 33e9 abbc
00000220: 6354 e8ba 385f 57bc 7628 943b bbbc 99bb
00000230: 6077 a2ba a63e 933b 4b1d 22bc 0a29 28bc
00000240: 81ce 873c d0f9 3d3b b213 893b b4d8 a7bc
00000250: 7e25 f73b 59f8 c73a 92f6 3f3b 8cfb 813b
00000260: 9d5e 083b 39e4 bfbb 2eed e7bb 5acb fbba
00000270: 055a 713b 27bf c8ba 786a 203b 5593 72bc
00000280: 0265 21bb ee81 ae3b fa0a ab3c 7cf5 3bbc
00000290: d358 4f3c 0cfd a73b 940d 89bb 2d27 dc3b
000002a0: 7df1 80bb f7a5 12bb 5f3e b63b 45e3 573c
000002b0: cfc1 74bc c2d0 e3ba 7b74 0a3c 8ae7 713b
000002c0: cc20 71bc 6f3f 5fbb 3a0f 3bbb 1cea 72bb
000002d0: fbd1 7cbb 54e7 89bb 7acc 993c 77a5 97bb
000002e0: a5fe b0bc bf37 913c af16 e63b d147 2b3c
000002f0: 4fda 8b39 4673 703c 6d39 4bbc d9a3 9fbc
00000300: 8270 78bb f32c 64bb 7c1d dbbb 0d6d 183b
00000310: 8c7a 42bc 7c6d 4ebb 0297 12bc b292 8abc
00000320: 19d8 f43b 4600 963c 7ca9 e7ba 0971 2b3d
00000330: 1926 c83b 735f 05bc 2458 ff3b b8ec ddbb
00000340: dfd2 e33c 8f4b c5bb 41f3 53bb 2f1c 013c
00000350: 1dc9 903c 77ed 8ebc ea36 093d f44c c4bb
00000360: d606 86ba 2cb2 db3c b3e9 873b 2213 4e3d
00000370: 9fa6 0a3c 090d 82bb 774c 5f3b cf82 6c3c
00000380: 8f22 553c f53f 7c3b 2516 763c 8896 bb3c
00000390: f66f 0a3c 2870 8f3b c984 363a a4da c2ba
000003a0: 7a63 b238 ce06 713b ce5b 1cbc 31e8 0f3c
000003b0: 3805 62bc b52e adbc abb8 51bb 5062 a43b
000003c0: eb0a abba bb31 a3bc 2f94 a83b 60e0 67bc
000003d0: 912c 383c 1e6d 2e3b ec09 56ba 3e23 103d
000003e0: a68a cd3a 764e d9bb 58dd c2ba afd4 c3ba
000003f0: 62e8 073c fe10 343c 5893 3c3c 185e f0bb
0.009815786 -0.0057741515 -0.052625597 -0.034475245 0.01771583 0.030976979 -0.009796792 0.03966227
-0.004671293 -0.006537253 -0.008750265 -0.021858694 -0.0039336192 0.014841574 -0.005505046 0.029640153
-0.018045356 -0.0051252274 -0.007738013 0.009947798 -0.00021093371 0.018240197 -0.0151923215 -0.028563255
-0.03281121 0.0042272536 0.008604234 0.008314657 0.0008544739 -0.010865908 -0.0052324478 -0.026603803
-0.0003275401 0.0121448785 0.0035085198 -0.009674937 -0.013478902 0.0010816711 0.024161467 -0.0024519246
-0.01961806 0.011370249 0.00025460304 -0.056230288 0.023946483 -0.011811339 -0.015033441 -0.03207575
0.017753053 0.00011734271 0.005313232 -0.024980322 0.0025493458 0.0007759515 -0.050578658 0.007935012
0.028791558 -0.030515134 0.008713338 -0.008352531 -0.016215058 -0.027154665 0.014748239 0.012766501
0.008776589 0.01199483 0.02352907 -0.0382878 -0.011893818 0.018640462 0.04285126 0.011668201
-0.021300552 -0.0019248549 0.0076835663 -0.052608743 -0.0071828975 0.0021780976 -0.02247682 -0.0056589455
-0.014601396 0.001282769 -0.017826565 -0.01780025 0.015047171 0.019449063 -0.015762217 0.034706086
0.00841604 -0.04824181 0.0022257513 -0.049092885 0.013239139 -0.01875027 -0.0048432956 -0.02715575
-0.022614868 -0.005748657 -0.0033340808 -0.05180215 -0.011865152 0.01097223 -0.008246556 -0.018070418
0.020932961 -0.028466014 0.012663895 -0.0014439223 0.000173735 0.0005393718 -0.0074652424 -0.019155208
0.011739792 0.007535867 -0.008545292 0.0174258 0.011245395 0.03332866 0.010338513 -0.062024266
-0.008339099 -0.012603834 0.0035933142 -0.003454408 0.0050254236 -0.024358831 -0.029075328 0.018040784
0.0025631606 0.0149800815 0.017063638 -0.007851427 -0.013572415 0.0056882035 -0.0048244037 -0.020985221
-0.0017725345 -0.0131452605 0.004521425 -0.004691688 -0.0012395196 0.0044935523 -0.009894679 -0.010263691
0.01657796 0.0028988011 0.004183256 -0.020489074 0.007542311 0.0015256508 0.0029291254 0.0039667543
0.0020808347 -0.0058560637 -0.0070778346 -0.0019210384 0.0036827337 -0.0015315757 0.0024477523 -0.0148056345
-0.0024626856 0.0053255474 0.020879257 -0.011472102 0.012655455 0.005126601 -0.004182527 0.0067185373
-0.0039350376 -0.0022376755 0.0055616344 0.013176744 -0.014938786 -0.001738094 0.008450623 0.003691169
-0.014717292 -0.003406491 -0.0028543011 -0.003706581 -0.0038577307 -0.0042084847 0.01877426 -0.0046278792
-0.021605799 0.017726777 0.007021747 0.010454134 0.000266748 0.014675921 -0.012403828 -0.019487308
-0.0037908857 -0.003481683 -0.0066868644 0.0023258359 -0.011870038 -0.0031498363 -0.008947136 -0.016915653
0.00747205 0.018310677 -0.0017674412 0.041855846 0.006108057 -0.008140433 0.0077924896 -0.006772604
0.027810512 -0.00602097 -0.0032341036 0.007880255 0.017674023 -0.017447216 0.033499636 -0.005990619
-0.0010225426 0.026818357 0.004147732 0.050311215 0.008462577 -0.003968839 0.0034072676 0.014435484
0.013008728 0.003849027 0.015019928 0.022898927 0.008449545 0.0043773837 0.00069625356 -0.0014866185
8.5062304e-05 0.0036777738 -0.009543372 0.008783386 -0.01379519 -0.021140436 -0.003200094 0.0050166026
-0.0013049518 -0.019921174 0.005144618 -0.014152616 0.011241094 0.0026615332 -0.00081649306 0.03518986
0.0015681579 -0.0066316677 -0.0014866991 -0.0014940704 0.0082951505 0.010990379 0.011509739 -0.0073354356

action_model._discrete_distribution.branches.0.bias f4 [3]
00000000: f5c3 e03b c8cb 21bb e51b 97bb
0.0068592974 -0.0024688113 -0.0046114796

action_model._discrete_distribution.branches.1.weight f4 [3, 128]
00000000: 6e21 db3a 0dc8 e43a 076f 2ebd 53b0 113d
00000010: 63fa 363d ce24 6dbd eb33 3c3b 4325 54bc
00000020: 8bb2 9d3c 9aad 97ba 7421 15bc d38b bf3c
00000030: e76e 243d bdf5 a4bc 59a5 92bb 167d 223b
00000040: c455 763c c549 b53b fe66 4a3c c667 583b
00000050: 832c 523c 2f17 4bbb 4d06 0a3c bc4d 66bb
00000060: b070 503c cb2e 9bbb 8458 25bc ef80 813c
00000070: e7f4 1cbb 736f 2f3c ada0 0b3c 0284 893d
00000080: 1959 523c 2d2f f9bb 6227 62bc cc9e 31bc
00000090: 8765 f03c a648 543c 763d dbbb f425 1bbc
000000a0: ab6e ae3c 89cb 5e3c 4012 5fbc b692 6f3d
000000b0: 113c 9cbb 8194 063c 2031 e43c a900 bd3c
000000c0: 8136 9ebc 220b 97bb 9dec 98ba 4427 723c
000000d0: 7e36 ab3c 8054 da3b e36e 323d 2796 4abb
000000e0: 39a6 9cbc f2f1 e9ba 733a 73bb cfb1 8bba
000000f0: 8641 6f3b a6c9 c33c 81f1 2f3d bb26 813d
00000100: 2965 a2bb 618b 053a 2b6c 97bc 6267 983c
00000110: b645 0d3b 2b08 bb3c df55 c0bc 2e14 85bb
00000120: 1a5a de3b 160c 823c eaff 29bc e33e 943c
00000130: 72bc ad3b 4bcf c6bc daac 33bb 6f98 7fbc
00000140: 1f02 10bb ccab 1abc b4c7 b53b 71c7 9abc
00000150: 3382 4bbb b2a6 27bc 22b6 72bc 3101 67bc
00000160: a534 003c e8c0 b939 4542 643c 4449 01bc
00000170: 815e c33b de75 b5bb 6794 dcbb e903 0fbc
00000180: 34d4 1c3c 4c21 f6bb eab1 f9ba f1a1 4e3d
00000190: 3002 133c 2f49 4ebc 5187 843c 80a7 6abc
000001a0: 9b66 25bc 0b30 d83c aee2 9cbc fdd4 0f3c
000001b0: 2438 973b 9489 8f3c b902 f4bb bf24 763c
000001c0: cfed 74bc 66fb 83bc 998e 893b f09e 8fbc
000001d0: 6ca7 60bc ae0c 1b3a d069 f5bc 74fe 80bc
000001e0: 1e9a 57bc 4cf2 0d3c a19c 16bb f5d7 d6bb
000001f0: bfcf 5f3b 27b7 443c 31b7 6bbb 1ac6 39bc
00000200: 6efa 22bc 8c51 2f3b ed5a 6bbb 7fe6 583c
00000210: 820c af3c 3f3d 55bc 1def 53bb ab1b e73c
00000220: 7fe7 a63b a000 30bc 12ec 6cbc 26d3 403b
00000230: 083b 7c3c 8af5 1ebc 0c4d 23bc defe 993c
00000240: a3d9 1b3c ce9a bc3a e2a4 a238 f77c c83b
00000250: 351f 5c3c 4ab4 963b e067 18bc a319 943c
00000260: 3438 3ebc 4c4c 1abc 485c 5fbb 5786 5dbb
00000270: 3f8e 0ebc b3b6 473c 5efb 5e3c 1622 c83c
00000280: 86ea 863b e67b 62bc 88da 103a 6b3b d23c
00000290: 5f64 29bb d612 223b 7e45 c9bb 47f0 9cbc
000002a0: 0223 04bc 30a5 2a3c e676 0e3b 8d72 a73c
000002b0: 28fb 87bc 51a5 753c 8c17 b13c 1cbb 7d3c
000002c0: afe2 94bb 9418 343c 86b9 233c 833e 803c
000002d0: 1fbb 68bb 659e 28bb ab8d 7f3b b681 883a
000002e0: d686 92bc 90d5 1fbc 6b0f 803c 9268 98bc
000002f0: 46bb b13b ad08 9cba c6a0 8e3c e2a3 da3c
00000300: 567c 74bc 280c 4c3c 94cf 1abc 050f 4cbc
00000310: c3d0 0dbc 1ef5 afbc 9e12 03bc a70a 303c
00000320: 1d23 a9bc 253d a23b 8b06 80bc fbd2 a73b
00000330: 9449 6dbc 31e6 41bc 60c8 52bc 4c68 bdbb
00000340: a2fa 973b c8bb 8b3a ad0b 4b39 8e3e b3bb
00000350: 42a7 8ebb 6325 033c 5453 53bc 58ac fdb9
00000360: 8c7f a3bb cd10 703b 58df a7bb 4502 9dbc
00000370: e9fa 72bb 84af 563c 157b b4bb 7e51 0c3b
00000380: 5578 173c 33c5 443c 09f2 6dbb 044b d83c
00000390: a461 d43a 793c e73b 18e4 963c 8a93 5bbc
000003a0: f05c bf3b 3993 c8bc d557 d4ba 2a36 39bc
000003b0: ebe2 963b 2d94 9e3c c2b0 003c 9435 7ebb
000003c0: 07c5 83bb 30f5 0bbc 9f40 96bc a920 af3a
000003d0: 7e4d f33b 5e57 49bc 1ea1 293b 97f2 3cbc
000003e0: 0cbc aebc e5ab 6d39 6467 b43b 0536 8c3b
000003f0: 4dd6 aabb 3d38 f53b db29 dbbb 560f e6bb
0.0016718337 0.0017454639 -0.042586353 0.035568547 0.04467238 -0.057896428 0.002871747 -0.012948337
0.019250175 -0.0011572123 -0.009102214 0.023382103 0.040144827 -0.020136708 -0.0044752774 0.0024793795
0.015035097 0.0055324757 0.012353657 0.0033020838 0.012827995 -0.003098916 0.008424354 -0.0035141548
0.012722179 -0.0047358028 -0.010091905 0.01580855 -0.0023949684 0.010707724 0.008522195 0.067146316
0.012838625 -0.0076045007 -0.013803335 -0.010841083 0.029345287 0.012956774 -0.0066906763 -0.009469498
0.021293005 0.013598331 -0.013615191 0.058489524 -0.0047679027 0.008214117 0.027855456 0.023071604
-0.019313099 -0.0046094814 -0.0011667196 0.0147798695 0.020900007 0.006662905 0.04356278 -0.0030912252
-0.01912223 -0.0017848595 -0.0037113696 -0.001065785 0.003650756 0.023899864 0.042954925 0.063062154
-0.004955907 0.00050943164 -0.018484196 0.018603984 0.0021556444 0.022831043 -0.023478447 -0.0040612435
0.0067856433 0.015874904 -0.010375956 0.018096393 0.0053020054 -0.024268767 -0.002741626 -0.015600308
-0.002197392 -0.009440374 0.005547488 -0.01889393 -0.0031052947 -0.010232614 -0.014813932 -0.014099405
0.007825051 0.00035429676 0.0139318155 -0.007891003 0.0059621935 -0.0055377325 -0.006731558 -0.00872896
0.009572078 -0.0075112935 -0.0019050215 0.050447408 0.0089726895 -0.0125906905 0.016177805 -0.014322162
-0.010095264 0.026390096 -0.019151058 0.008778808 0.004614847 0.017521657 -0.0074466136 0.015023409
-0.014949276 -0.016111087 0.004197907 -0.017531842 -0.0137117915 0.000591467 -0.029957682 -0.015746333
-0.013159303 0.008663725 -0.0022981542 -0.006556506 0.0034150926 0.012006558 -0.0035967345 -0.011338735
-0.009947402 0.0026751487 -0.003591235 0.013238548 0.021368269 -0.0130150905 -0.0032338568 0.028211435
0.0050935145 -0.0107423365 -0.01446058 0.002942273 0.0153949335 -0.009702096 -0.0099671 0.018798288
0.009512338 0.0014389397 7.755474e-05 0.0061184126 0.013435175 0.004599129 -0.0093021095 0.01807863
-0.01161008 -0.009417605 -0.0034082104 -0.0033801997 -0.008700906 0.012189555 0.013609735 0.024430316
0.004117313 -0.013823485 0.0005525728 0.025663098 -0.002584718 0.0024730465 -0.0061423173 -0.019157542
-0.008064987 0.01041536 0.002173835 0.020440364 -0.016599253 0.014993028 0.021617673 0.015486505
-0.0045436244 0.010992188 0.009992963 0.015654808 -0.0035511923 -0.0025729176 0.0038994353 0.0010414633
-0.01788656 -0.009755507 0.015632352 -0.01860455 0.005423936 -0.0011904441 0.017410647 0.026689474
-0.014922222 0.01245407 -0.009448905 -0.012454753 -0.00865573 -0.021479186 -0.008000044 0.010744727
-0.020646626 0.0049511367 -0.01562812 0.0051215864 -0.014482874 -0.011834667 -0.012865156 -0.0057802554
0.004638032 0.0010660822 0.00019363938 -0.0054701036 -0.004353435 0.008004519 -0.012898285 -0.00048384327
-0.00498957 0.0036631108 -0.00512306 -0.019166121 -0.0037075824 0.01310337 -0.0055078366 0.0021410878
0.009244998 0.012009907 -0.0036307594 0.026402958 0.0016203416 0.0070567694 0.01841931 -0.013401875
0.0058399364 -0.024484264 -0.0016200492 -0.011304418 0.0046046874 0.019357765 0.007854642 -0.003878926
-0.00402129 -0.008542344 -0.01834136 0.0013361174 0.0074250093 -0.012288896 0.0025883387 -0.011532447
-0.021329902 0.00022666117 0.005505489 0.0042789006 -0.005213535 0.0074835108 -0.006688339 -0.007020871

action_model._discrete_distribution.branches.1.bias f4 [3]
00000000: ff43 e5bb 77dc 95bb ecd3 243c
-0.006996631 -0.0045734006 0.010060292

exp_avg f4 [128, 6]
00000000: 729c 2036 3c8e 37b4 c471 65b6 5790 68b5
00000010: 3c8e 37b4 e851 e836 8e6c e53a 7b19 03b9
00000020: d7df 23bb a16d dd3a 7b19 03b9 ff72 44bb
00000030: 118f 7e3a 5476 91b8 efd3 b5ba cf38 503a
00000040: 5476 91b8 7a7b bbba a893 0ab9 a25f 1e37
00000050: 72f7 4539 f1a6 1f39 a25f 1e37 47b0 9638
00000060: e59a 7eb8 fe7c 9136 30dc b538 43f7 c3b9
00000070: fe7c 9136 7c0c c839 53cb 2039 c9c3 37b7
00000080: beb4 65b9 7bbf 99b9 c9c3 37b7 2980 1c39
00000090: 349a 6ab9 ff0e 8637 ba92 a739 956f 72b9
000000a0: ff0e 8637 757b bb39 6288 aa35 fce4 c2b3
000000b0: 4d9e f3b5 8e1e 13b5 fce4 c2b3 c896 0336
000000c0: cc26 abb8 0d9a c336 8c80 f438 41c2 77b8
000000d0: 0d9a c336 a221 f138 7345 57b9 4606 7637
000000e0: eec3 9939 0c0a bcb8 4606 7637 45ba 02b8
000000f0: 51de 88ba c96b 9c38 bb86 c33a 9dea bdb9
00000100: c96b 9c38 7253 473a e20b 29ba 2832 4138
00000110: a97e 713a a8e4 16ba 2832 4138 3c8a 793a
00000120: f0a0 4cb7 7adc 6935 cc29 9237 c527 5c36
00000130: 7adc 6935 d4e1 f5b7 d46c 8539 5b7c 98b7
00000140: 759b beb9 4ade 96b9 5b7c 98b7 5cce fc39
00000150: 9b10 55b9 b480 7337 6f30 9839 60ce 8639
00000160: b480 7337 bf61 ccb9 8fd1 8f39 315d a4b7
00000170: 7f74 cdb9 6dc5 d339 315d a4b7 02bc 1bba
00000180: ace1 31ba 034b 4b38 c41d 7e3a 4f9b 25b9
00000190: 034b 4b38 6aa9 d839 5e26 373a 6b50 51b8
000001a0: 3ed2 82ba a410 a13a 6b50 51b8 968a dbba
000001b0: b58f 8d39 d6c8 a1b7 043b cab9 8164 6939
000001c0: d6c8 a1b7 4bed f2b9 24b4 7239 0cb0 8ab7
000001d0: 105c adb9 4380 6839 0cb0 8ab7 d3b9 9fb9
000001e0: 3a08 1c3a 8652 32b8 27e7 5eba 6b88 8339
000001f0: 8652 32b8 0359 c5b9 1b2a e235 9e3c 01b4
00000200: ce8b 21b6 7a8d e4b5 9e3c 01b4 bb2f 0737
00000210: 7f7c c238 2745 deb6 38eb 0ab9 69b2 5bb9
00000220: 2745 deb6 a97e 1439 0fe7 9038 5d9a a5b6
00000230: f400 cfb8 78c7 18b9 5d9a a5b6 95d1 c738
00000240: ff23 8a38 0ce0 9db6 f957 c5b8 681b 4137
00000250: 0ce0 9db6 4d0f 5639 6f53 5138 c53a 6fb6
00000260: bd84 95b8 510d f0b8 c53a 6fb6 8350 2a39
00000270: f463 85ba 3972 9838 c98e be3a 3060 f6b9
00000280: 3972 9838 a607 613a 28b4 4fba 2f60 6d38
00000290: 215c 943a 1164 22ba 2f60 6d38 41a4 663a
000002a0: 7caa 6fba aef3 8838 9530 ab3a 2e31 a7b7
000002b0: aef3 8838 985a 023a d469 26b7 d22f 3e35
000002c0: c6bb 6d37 cf5d 2c36 d22f 3e35 9d09 eab7
000002d0: 9c07 793a 794d 8eb8 e1e0 b1ba cf3b 513a
000002e0: 794d 8eb8 13a1 beba a8b2 1337 2ecc 28b5
000002f0: 3bff 52b7 9d16 9fb7 2ecc 28b5 e5a7 3737
00000300: 4557 afb7 b663 c835 997c fa37 8eac 6ab9
00000310: b663 c835 e168 a639 c9f7 a936 ba3f c2b4
00000320: 9bcf f2b6 b07d cf35 ba3f c2b4 b342 46b6
00000330: 2e20 d6ba 0db7 f438 69f2 183b f2db 3cba
00000340: 0db7 f438 c10a b43a 0b3e 0c39 e846 20b7
00000350: 9f58 48b9 9376 45b9 e846 20b7 0442 eb39
00000360: 9a50 7a3a 8109 8fb8 dacb b2ba fe6e b33a
00000370: 8109 8fb8 9138 06bb dbb1 0139 f938 14b7
00000380: 3847 39b9 7fab 0eb8 f938 14b7 93e1 6339
00000390: 15cf 1439 3811 2ab7 8995 54b9 f8ec 7339
000003a0: 3811 2ab7 0b88 bcb9 e548 8339 2a0a 96b7
000003b0: b38c bbb9 b137 c8b9 2a0a 96b7 8d0a de39
000003c0: f890 013a 6c13 14b8 3b18 39ba af2c 023a
000003d0: 6c13 14b8 0066 74ba 30ee b4b3 11c7 ce31
000003e0: 693c 0134 a6f4 0c33 11c7 ce31 c3d8 40b4
000003f0: 54b7 e339 9c1f 02b8 8ba7 22ba 5a38 313a
2.393292e-06 -1.7094948e-07 -3.418988e-06 -8.6636777e-07 -1.7094948e-07 6.923674e-06 0.0017503665 -0.00012502626
-0.0025005245 0.0016893634 -0.00012502626 -0.002997577 0.00097106496 -6.936179e-05 -0.0013872365 0.00079430355
-6.936179e-05 -0.0014303767 -0.00013215712 9.4398e-06 0.00018879565 0.00015225612 9.4398e-06 7.1853916e-05
-6.0702576e-05 4.3358878e-06 8.671766e-05 -0.00037377523 4.3358878e-06 0.00038156274 0.00015334533 -1.0953235e-05
-0.00021906474 -0.00029325098 -1.0953235e-05 0.00014925063 -0.00022373424 1.5981028e-05 0.00031962042 -0.00023120486
1.5981028e-05 0.00035759402 1.270568e-06 -9.075481e-08 -1.8150982e-06 -5.480623e-07 -9.075481e-08 1.9608287e-06
-8.161142e-05 5.8293867e-06 0.000116587704 -5.9070302e-05 5.8293867e-06 0.0001149804 -0.0002052987 1.4664203e-05
0.00029328413 -8.96641e-05 1.4664203e-05 -3.1167892e-05 -0.0010442232 7.458736e-05 0.0014917472 -0.0003622369
7.458736e-05 0.0007603682 -0.0006448609 4.6061497e-05 0.0009212294 -0.00057561183 4.6061497e-05 0.0009519195
-1.2196819e-05 8.71201e-07 1.742402e-05 3.2805704e-06 8.71201e-07 -2.9311435e-05 0.0002544882 -1.817772e-05
-0.00036355449 -0.00028775848 -1.817772e-05 0.00048218935 -0.00020319449 1.4513895e-05 0.00029027785 0.00025712233
1.4513895e-05 -0.0003898274 0.0002743122 -1.959372e-05 -0.00039187443 0.0004039215 -1.959372e-05 -0.0005940796
-0.0006785642 4.846883e-05 0.00096937665 -0.00015793483 4.846883e-05 0.00041324954 0.0006986613 -4.9904378e-05
-0.000998087 0.0012288284 -4.9904378e-05 -0.0016749676 0.00027000686 -1.9286217e-05 -0.00038572412 0.00022258052
-1.9286217e-05 -0.00046334634 0.00023146026 -1.653286e-05 -0.00033065723 0.00022173025 -1.653286e-05 -0.00030465293
0.00059521536 -4.2515363e-05 -0.00085030723 0.00025087906 -4.2515363e-05 -0.00037641087 1.6850566e-06 -1.2036114e-07
-2.4072247e-06 -1.7028499e-06 -1.2036114e-07 8.05774e-06 9.27383e-05 -6.624166e-06 -0.00013248331 -0.0002095193
-6.624166e-06 0.00014161564 6.909493e-05 -4.9353534e-06 -9.870707e-05 -0.00014570158 -4.9353534e-06 9.528097e-05
6.5870576e-05 -4.705047e-06 -9.410078e-05 1.15100775e-05 -4.705047e-06 0.0002041433 4.9907187e-05 -3.5647984e-06
-7.129598e-05 -0.00011446572 -3.5647984e-06 0.00016242456 -0.0010176883 7.2692004e-05 0.0014538403 -0.00046992442
7.2692004e-05 0.00085842086 -0.0007923269 5.659478e-05 0.001131896 -0.00061947206 5.659478e-05 0.00087982795
-0.00091425306 6.530374e-05 0.0013060743 -1.9930852e-05 6.530374e-05 0.0004972606 -9.919011e-06 7.0850103e-07
1.417002e-05 2.56846e-06 7.0850103e-07 -2.789945e-05 0.000949973 -6.785518e-05 -0.0013571047 0.00079816295
-6.785518e-05 -0.0014543853 8.803479e-06 -6.2882e-07 -1.2576401e-05 -1.8964807e-05 -6.2882e-07 1.0946741e-05
-2.0902264e-05 1.4930181e-06 2.9860343e-05 -0.0002238026 1.4930181e-06 0.00031740128 5.0654385e-06 -3.6181683e-07
-7.2363305e-06 1.5459282e-06 -3.6181683e-07 -2.9543123e-06 -0.0016336495 0.000116689225 0.0023337847 -0.0007204405
0.000116689225 0.0013736115 0.00013374553 -9.553252e-06 -0.000191065 -0.00018831556 -9.553252e-06 0.00044871878
0.0009548754 -6.8205416e-05 -0.0013641075 0.0013689694 -6.8205416e-05 -0.0020480494 0.00012368655 -8.834752e-06
-0.00017669506 -3.4015156e-05 -8.834752e-06 0.0002173244 0.00014191524 -1.0136799e-05 -0.00020273602 0.00023262564
-1.0136799e-05 -0.00035959514 0.00025040578 -1.7886126e-05 -0.00035772249 -0.00038188466 -1.7886126e-05 0.00042351
0.00049425615 -3.5304038e-05 -0.00070608006 0.0004965765 -3.5304038e-05 -0.00093230605 -8.425229e-08 6.0180203e-09
1.2036038e-07 3.2818797e-08 6.0180203e-09 -1.7960251e-07 0.00043433404 -3.1023854e-05 -0.00062047754 0.0006760411

exp_avg_sq f4 [128, 6]
00000000: c273 d52f ae65 0b2c efce 5930 faf3 1a30
00000010: ae65 0b2c 7a30 3e31 aa1d 7036 76cf 9c32
00000020: 2804 f536 ecea fd35 76cf 9c32 d166 e736
00000030: e51c 1536 77c2 4232 f227 9836 3aa3 6335
00000040: 77c2 4232 d034 3636 2252 9035 2680 bc31
00000050: 2044 1336 7609 a135 2680 bc31 1295 e235
00000060: b970 0b36 5120 3632 3f49 8e36 f0a4 8a35
00000070: 5120 3632 9b34 7236 60cf 6c34 cba6 9a30
00000080: 9ca4 f134 a001 b935 cba6 9a30 9706 8334
00000090: 47c5 4035 28c8 7b31 5bb4 c435 3791 ab35
000000a0: 28c8 7b31 6bc0 9d35 9900 532e 33cc 892a
000000b0: fd4e d72e 637d a82d 33cc 892a a05f 322f
000000c0: de46 3333 5028 6a2f 6def b633 9478 d032
000000d0: 5028 6a2f 56d8 c333 20e2 5035 ed69 8831
000000e0: 7725 d535 465e c434 ed69 8831 e7cf a835
000000f0: 0364 5e36 1a3c 9132 e2ed e236 7b86 2836
00000100: 1a3c 9132 6d5b 9536 7311 1236 6fc8 3e32
00000110: 970c 9536 7f20 e435 6fc8 3e32 535d 5e36
00000120: 4f0c b031 acf0 e52d 25a4 3332 e9f8 1d31
00000130: acf0 e52d 89f7 a832 0663 3634 2c38 6e30
00000140: e31b ba34 f91a d834 2c38 6e30 ff81 2f35
00000150: 3826 b134 f660 e730 b0c3 3435 23fe e935
00000160: f660 e730 9838 e834 80f3 9e35 029c cf31
00000170: e831 2236 72b5 8f35 029c cf31 3cb6 ff35
00000180: 5adf c536 0b39 0133 25e9 4937 2ff8 b036
00000190: 0b39 0133 d5e8 f236 2d05 cc36 da3c 0533
000001a0: 112f 5037 a8d7 3036 da3c 0533 f415 2c37
000001b0: 8aec 5535 94b4 8b31 364a da35 be4d b135
000001c0: 94b4 8b31 26fc a935 ebf1 6535 072b 9631
000001d0: 46a3 ea35 cb46 4235 072b 9631 9a37 9e35
000001e0: ffcc 9135 fe6e be31 b6c6 1436 4c93 d234
000001f0: fe6e be31 ad46 bd35 2f22 7731 a164 a12d
00000200: 4a2d fc31 fa82 ca30 a164 a12d 08ba 5332
00000210: 8122 7e33 38f7 a52f 1ba9 0134 f99a 9334
00000220: 38f7 a52f ffd2 0a34 7c2a 9733 0b71 c52f
00000230: 4440 1a34 1eb3 2f35 0b71 c52f f3d1 c733
00000240: 1556 1335 6c70 4031 d657 9635 1d7e 2b35
00000250: 6c70 4031 af1b 3e35 dd63 0534 5f39 2e30
00000260: c21c 8834 a832 af34 5f39 2e30 0da0 8634
00000270: ed4e b036 b347 e632 0fe8 3337 01b1 5336
00000280: b347 e632 30c2 ed36 770d 7736 2657 a132
00000290: 2718 fc36 b75a 5f36 2657 a132 05bc a336
000002a0: 10c3 9136 0e62 be32 9fbc 1437 9146 3a36
000002b0: 0e62 be32 ec22 f136 11c7 0131 6281 292d
000002c0: 106d 8431 e183 c72f 6281 292d cdbc 3332
000002d0: 4714 a635 7ceb d831 f877 2936 8edb 2635
000002e0: 7ceb d831 2e90 2836 cacb 2031 ee04 522d
000002f0: e313 a431 5b88 0133 ee04 522d d948 e630
00000300: 2042 a634 5127 d930 b3a6 2935 0fa6 e735
00000310: 5127 d930 60df b534 6405 8133 6d84 a82f
00000320: 7ca7 0334 eb34 8333 6d84 a82f 8187 c333
00000330: 33be 3a37 bee8 7333 cb8d be37 a050 e636
00000340: bee8 7333 5b03 7b37 146a ab33 63e3 df2f
00000350: a1e9 2e34 e9f5 2833 63e3 df2f 233e 7434
00000360: 6138 0137 0bc7 2833 7edb 8337 51c0 5636
00000370: 0bc7 2833 c3d5 4c37 5987 c233 1614 fe2f
00000380: a47f 4634 17ab f732 1614 fe2f bd58 a034
00000390: c428 8534 13ec ad30 6be0 0735 df44 7c34
000003a0: 13ec ad30 1de9 9534 2dc1 3334 0ac8 6a30
000003b0: 556c b734 5170 8c35 0ac8 6a30 a443 c734
000003c0: 1b41 3836 8fa8 7032 bc03 bc36 4d41 a835
000003d0: 8fa8 7032 cd61 a236 e4cc cf2a d3b4 0727
000003e0: 990a 542b d8a5 372a d3b4 0727 97c2 5b2c
000003f0: 07df 2036 141e 5232 7e27 a436 1013 ff35
3.8826725e-10 1.9809532e-12 7.923821e-10 5.6371585e-10 1.9809532e-12 2.7676195e-09 3.5780054e-06 1.8255133e-08
7.302053e-06 1.891834e-06 1.8255133e-08 6.896306e-06 2.221955e-06 1.1336502e-08 4.5346032e-06 8.4801616e-07
1.1336502e-08 2.7150854e-06 1.075274e-06 5.486089e-09 2.194436e-06 1.1998188e-06 5.486089e-09 1.6881697e-06
2.0778227e-06 1.0601142e-08 4.2404567e-06 1.0329804e-06 1.0601142e-08 3.609143e-06 2.2054655e-07 1.125238e-09
4.5009517e-07 1.3784047e-06 1.125238e-09 2.4405446e-07 7.181265e-07 3.6639083e-09 1.4655628e-06 1.2782756e-06
3.6639083e-09 1.1753413e-06 4.7976376e-11 2.447778e-13 9.791099e-11 1.9155072e-11 2.447778e-13 1.6222979e-10
4.174114e-08 2.1296498e-10 8.518587e-08 2.426922e-08 2.1296498e-10 9.1197464e-08 7.7815093e-07 3.9701633e-09
1.588064e-06 3.6576438e-07 3.9701633e-09 1.2577483e-06 3.3138792e-06 1.6907553e-08 6.763018e-06 2.5112229e-06
1.6907553e-08 4.4511894e-06 2.1765852e-06 1.1105029e-08 4.4420117e-06 1.6996781e-06 1.1105029e-08 3.31349e-06
5.1236735e-09 2.6141166e-11 1.04564934e-08 2.2987996e-09 2.6141166e-11 1.967034e-08 1.6986095e-07 8.666372e-10
3.466549e-07 4.025276e-07 8.666372e-10 6.538175e-07 3.2996627e-07 1.683502e-09 6.733999e-07 1.7433816e-06
1.683502e-09 4.3254545e-07 1.1842785e-06 6.042229e-09 2.416893e-06 1.0707138e-06 6.042229e-09 1.9052018e-06
5.897059e-06 3.0087033e-08 1.2034817e-05 5.274101e-06 3.0087033e-08 7.2392672e-06 6.0802763e-06 3.102182e-08
1.2408725e-05 2.6351572e-06 3.102182e-08 1.025711e-05 7.9692893e-07 4.065962e-09 1.6263864e-06 1.3210154e-06
4.065962e-09 1.2664866e-06 8.5661185e-07 4.370466e-09 1.7481877e-06 7.237365e-07 4.370466e-09 1.17881e-06
1.0863004e-06 5.542346e-09 2.2169384e-06 3.922272e-07 5.542346e-09 1.4102167e-06 3.5962662e-09 1.8348269e-11
7.339314e-09 1.473466e-09 1.8348269e-11 1.2324115e-08 5.9170365e-08 3.0188985e-10 1.2075581e-07 2.749364e-07
3.0188985e-10 1.2929011e-07 7.039213e-08 3.5914413e-10 1.4365747e-07 6.545323e-07 3.5914413e-10 9.304849e-08
5.4887033e-07 2.8003582e-09 1.1201435e-06 6.3885983e-07 2.8003582e-09 7.08208e-07 1.242292e-07 6.338236e-10
2.5352898e-07 3.2633147e-07 6.338236e-10 2.5075897e-07 5.254397e-06 2.6808129e-08 1.0723262e-05 3.154448e-06
2.6808129e-08 7.085757e-06 3.6813706e-06 1.8782497e-08 7.512997e-06 3.3282392e-06 1.8782497e-08 4.879667e-06
4.344045e-06 2.2163501e-08 8.865404e-06 2.7757235e-06 2.2163501e-08 7.186425e-06 1.8885127e-09 9.6352665e-12
3.8541046e-09 3.6291595e-10 9.6352665e-12 1.04621e-08 1.2373865e-06 6.313199e-09 2.5252793e-06 6.2159313e-07
6.313199e-09 2.5117874e-06 2.3398905e-09 1.1938213e-11 4.775289e-09 3.0159168e-08 1.1938213e-11 1.6755407e-09
3.0968022e-07 1.5800002e-09 6.3199985e-07 1.7259171e-06 1.5800002e-09 3.3876404e-07 6.008011e-08 3.0653116e-10
1.2261256e-07 6.1097886e-08 3.0653116e-10 9.105043e-08 1.1130748e-05 5.6789524e-08 2.2715793e-05 6.86392e-06
5.6789524e-08 1.4961547e-05 7.9821035e-08 4.0725032e-10 1.6290006e-07 3.9339202e-08 4.0725032e-10 2.2746876e-07
7.702126e-06 3.9296577e-08 1.5718626e-05 3.2000428e-06 3.9296577e-08 1.2209118e-05 9.0584486e-08 4.6216603e-10
1.8486622e-07 2.8832387e-08 4.6216603e-10 2.9866888e-07 2.480284e-07 1.2654503e-09 5.061799e-07 2.3494384e-07
1.2654503e-09 2.7923025e-07 1.6740951e-07 8.5412977e-10 3.4165228e-07 1.0463501e-06 8.5412977e-10 3.7115854e-07
2.7456033e-06 1.4008164e-08 5.6032713e-06 1.253598e-06 1.4008164e-08 4.8393617e-06 3.6912758e-13 1.8833039e-15
7.5332237e-13 1.6311204e-13 1.8833039e-15 3.122979e-12 2.3971677e-06 1.2230448e-08 4.8921784e-06 1.9004528e-06

exp_avg f4 [128]
00000000: 3a8e b7b4 7919 83b9 5776 11b9 955f 9e37
00000010: dd7c 1137 cbc3 b7b7 fb0e 0638 00e5 42b4
00000020: 0d9a 4337 4a06 f637 cb6b 1c39 2632 c138
00000030: 80dc e935 607c 18b8 b580 f337 335d 24b8
00000040: 0c4b cb38 6150 d1b8 d3c8 21b8 0eb0 0ab8
00000050: 8752 b2b8 9a3c 81b4 2645 5eb7 5c9a 25b7
00000060: f5df 1db7 ca3a efb6 3872 1839 2e60 ed38
00000070: aff3 0839 d12f be35 7c4d 0eb9 2dcc a8b5
00000080: aa63 4836 d23f 42b5 10b7 7439 e746 a0b7
00000090: 8409 0fb9 fb38 94b7 3c11 aab7 280a 16b8
000000a0: 6413 94b8 0dc7 4e32 9e1f 82b8 b5e7 f1b8
000000b0: d4d3 bdb7 3688 0eb7 dd95 4f36 d916 beb7
000000c0: f002 f7b8 6e28 b5b6 5235 98b6 c2a1 9b38
000000d0: ac6a 4538 97b4 0ab9 1e58 e5b6 4f8d cfb3
000000e0: c8ff 2ab5 e772 1fb7 d7ef a2b8 e519 e538
000000f0: 5988 b937 679c d5b2 4504 83b7 c036 1cb8
00000100: 7919 2238 c916 5d35 bb51 7538 1f61 8f33
00000110: ac66 1db8 33cd 0838 817e 8537 c0ac 5eb7
00000120: aac9 ac38 7711 3eb9 606c 6038 ee6e 3cb7
00000130: 2ed1 04b9 5d1a 3138 9095 4738 d9cc 20b6
00000140: f3dd 98b6 9edd a9b7 0d02 0b33 3b3e 9537
00000150: a832 04b8 55d2 d0b5 c540 7cb8 05b2 dcb5
00000160: 8b45 5f38 264f fdb5 c92e 80b7 bf65 63b8
00000170: 6575 0333 4ccf 52b7 8b6f 29b8 3ed9 58b4
00000180: 6408 eab8 5c40 a6b8 a977 9ab8 4e25 0fb7
00000190: dd17 ba38 a2cd 41b4 4b38 0e37 a92c 18b7
000001a0: 4d93 0136 c335 5838 93a5 3335 aacb 06b8
000001b0: cee8 d6b7 cc84 b4b7 8dc1 d436 7733 44b7
000001c0: cb1c 3bb8 0ae1 27b7 d6fe 2838 0c0d fd38
000001d0: d7b3 e038 8702 3738 fbcb 46b9 2c61 9338
000001e0: 33a5 e737 c878 2038 7121 7237 58ec 3f32
000001f0: 3b0c b4b8 854a 2db5 2733 1c35 eb87 84b6
-3.418989e-07 -0.00025005246 -0.00013872363 1.8879577e-05 8.6717455e-06 -2.1906473e-05 3.196204e-05 -1.8150968e-07
1.16587735e-05 2.9328414e-05 0.00014917475 9.212298e-05 1.7424027e-06 -3.6355457e-05 2.9027791e-05 -3.9187446e-05
9.693773e-05 -9.980868e-05 -3.8572423e-05 -3.3065728e-05 -8.503073e-05 -2.4072216e-07 -1.3248331e-05 -9.870706e-06
-9.410073e-06 -7.129599e-06 0.000145384 0.000113189555 0.0001306075 1.417002e-06 -0.0001357104 -1.2576398e-06
2.9860335e-06 -7.23635e-07 0.0002333785 -1.9106503e-05 -0.00013641088 -1.7669508e-05 -2.0273605e-05 -3.5772246e-05
-7.060802e-05 1.2036037e-08 -6.204772e-05 -0.00011534934 -2.2629196e-05 -8.495574e-06 3.0932636e-06 -2.2660404e-05
-0.00011778425 -5.398927e-06 -4.5361603e-06 7.421106e-05 4.7067806e-05 -0.0001322798 -6.83499e-06 -9.6648925e-08
-6.3702146e-07 -9.503891e-06 -7.7694356e-05 0.00010924394 2.211721e-05 -2.4867587e-08 -1.5618405e-05 -3.724429e-05
3.8647533e-05 8.236207e-07 5.848867e-05 6.6766226e-08 -3.7527338e-05 3.2616033e-05 1.5913743e-05 -1.3272453e-05
8.239162e-05 -0.00018126318 5.3506694e-05 -1.1231501e-05 -0.00012666426 4.222464e-05 4.7584588e-05 -2.3961095e-06
-4.5557913e-06 -2.0249568e-05 3.2365325e-08 1.7791162e-05 -3.151843e-05 -1.5558422e-06 -6.0141803e-05 -1.6443088e-06
5.323211e-05 -1.8873004e-06 -1.5280575e-05 -5.4215776e-05 3.0607584e-08 -1.25652405e-05 -4.0396622e-05 -2.01956e-07
-0.000111595524 -7.927485e-05 -7.365581e-05 -8.53215e-06 8.873616e-05 -1.8049334e-07 8.476966e-06 -9.070304e-06
1.9308238e-06 5.1548483e-05 6.692364e-07 -3.2137767e-05 -2.5619196e-05 -2.151951e-05 6.3406246e-06 -1.1694493e-05
-4.461109e-05 -1.0006372e-05 4.0291656e-05 0.0001206641 0.0001071465 4.3632954e-05 -0.0001895874 7.027606e-05
2.7614273e-05 3.825946e-05 1.443211e-05 1.1171402e-08 -8.585347e-05 -6.455596e-07 5.8188965e-07 -3.9497295e-06
