MLBase/results/Stage2/CaptureTheFlag/CaptureTheFlag-16298.pt (torch, 744016 bytes, 46 tensors)

discrete_act_size_vector f4 [1, 3]
0	0x40400000	3.0
1	0x40400000	3.0
2	0x40000000	2.0

network_body._body_endoder.seq_layers.0.weight f4 [128, 100]
0	0xbdd75b28	-0.105154335
1	0xbd8b20f8	-0.06793398
2	0xbc27fa91	-0.010252611
3	0xbd606972	-0.05478806
4	0x3cd8e0ae	0.026474323
5	0xbc7c3ade	-0.015394894
6	0x3e00fa82	0.12595561
7	0xbd88b314	-0.066747814
8	0xbd800e71	-0.062527545
9	0x3d5227e2	0.051307566
10	0xbdf055ce	-0.11735116
11	0xbe45e234	-0.19324571
12	0xbe456d8b	-0.19280069
13	0xbddc07bf	-0.10743665
14	0x3d7a12af	0.061052974
15	0x3cdba109	0.026810186
16	0x3c5ff3ad	0.013668937
17	0xbb5f81ff	-0.0034104583
18	0xbded0775	-0.11573688
19	0xbdcf3a8b	-0.10118588
20	0x3e4209b3	0.18949012
21	0xbc605aa7	-0.013693488
22	0x3de5f1f8	0.112277925
23	0xbd0fc748	-0.03510216
24	0x3ebc9adf	0.36836907
25	0xbd878148	-0.06616455
26	0x3e1b072f	0.15139459
27	0xbd2dd0cb	-0.04243545
28	0x3dcf983d	0.10136459
29	0xbd33cb65	-0.043895144
30	0x3ddc3c95	0.107537426
31	0x3d9b6d11	0.07589162
32	0xbd8619bb	-0.065478764
33	0xbd6f6edc	-0.058455333
34	0x3d21ae91	0.03947312
35	0xbdd5d78d	-0.10441504
36	0x3c540260	0.012940019
37	0x3ddc86a1	0.10767866
38	0x3e04250a	0.12904754
39	0x3cd96e13	0.026541745
40	0x3ea98ba8	0.33114362
41	0xbc45d3b2	-0.012074398
42	0x3de83050	0.1133734
43	0x3d886b72	0.066611186
44	0x3d6b4cc7	0.057446267
45	0x3c5f72cf	0.013638212
46	0xbc122575	-0.008920063
47	0x3dd564b9	0.10419602
48	0xbdb642db	-0.088994704
49	0x3e3c3ef7	0.18383394
50	0x3af08b52	0.0018352068
51	0xbe5b9c6c	-0.21446389
52	0xbdaac5cd	-0.08338509
53	0xbced53d6	-0.02897064
54	0x3dd8f03a	0.105926946
55	0xbe0577de	-0.13034007
56	0xbdb166e7	-0.08662205
57	0xbd826233	-0.06366386
58	0x3eb20a46	0.34773463
59	0xbe27cb00	-0.16386032
60	0xbbe3f7f3	-0.006957048
61	0xbcf7d9d0	-0.030255228
62	0x3e261dcd	0.16222306
63	0xbd2a161d	-0.041524995
64	0xbe51d0c0	-0.20489788
65	0xbd9d2e04	-0.076747924
66	0x3dfc1398	0.12308425
67	0x3db7f26e	0.08981787
68	0xbdf10ce3	-0.11770036
69	0x3d350f49	0.04420403
70	0xbdb72220	-0.08942056
71	0x3e9e5e09	0.30931118
72	0x3d609f67	0.054839518
73	0x3c45565e	0.012044517
74	0xbd4809e5	-0.04883756
75	0xbd38d3ba	-0.045123793
76	0xbe03377e	-0.12814137
77	0xbd630288	-0.055422336
78	0xbc821fad	-0.015884245
79	0x3dfb18f7	0.12260621
80	0x3e8b9873	0.27264747
81	0xbcc1f076	-0.023674231
82	0x3dca7e69	0.09887392
83	0x3d11ef70	0.035628736
84	0xbdf17e86	-0.117917106
85	0xbd7dffd6	-0.062011562
86	0x3e435759	0.19076289
87	0x3d8d801f	0.06909203
88	0xbc7614d9	-0.015019619
89	0xbd487334	-0.04893799
90	0x3e1dbe64	0.1540466
91	0xbd98e3d7	-0.07465332
92	0xbdcb2437	-0.09919017
93	0xbd8d0ae9	-0.068868466
94	0xbd5dea4d	-0.054178525
95	0x3d0201a6	0.031739853
96	0x3db7ae6f	0.089688174
97	0xbe0fe894	-0.14053565
98	0x3e5d026b	0.21582954
99	0xbe29451e	-0.16530272
100	0x3cc5bf65	0.024139116
101	0x3de40760	0.11134219
102	0xbdcbf5e7	-0.099590115
103	0xbd089c1f	-0.033352014
104	0xbdece1d3	-0.1156651
105	0xbd5df870	-0.054192007
106	0x3d4636aa	0.048391975
107	0xbdb53aec	-0.08849129
108	0x3c9eaf7c	0.019370787
109	0xbe447369	-0.1918465
110	0x3cab2b5d	0.0208947
111	0x3d28e8f7	0.041237798
112	0xbe079622	-0.13240865
113	0x3de7c670	0.11317146
114	0xbbcb8b44	-0.00621167
115	0xbdb759d5	-0.08952681
116	0xbd7d9584	-0.061910167
117	0x3c6a5ee3	0.014304849
118	0x3e48bac1	0.19602491
119	0x3d79a4bb	0.060948115
120	0xbdd03f11	-0.10168279
121	0x3e23ed7d	0.16008563
122	0x3e039f15	0.12853654
123	0x3d6d7af1	0.057978574
124	0x3cdf1f23	0.027236527
125	0xbdc2b795	-0.09507672
126	0xbe2e8fe8	-0.17047083
127	0x3e5d1068	0.2158829
128	0x3de80e37	0.11330836
129	0xbdc09cae	-0.09404884
130	0xbc5b19ed	-0.01337288
131	0x3d964288	0.073369086
132	0xbda28cc1	-0.07937003
133	0x3ccd6975	0.0250747
134	0x3e64022d	0.22266455
135	0x3b4dd177	0.0031405368
136	0xbdada6a2	-0.08479048
137	0x3c82f44d	0.015985632
138	0x3dc57867	0.096421055
139	0x3c0f2d88	0.008738883
140	0x3d0f8f2d	0.035048652
141	0xbddcf330	-0.10788572
142	0x3d37a868	0.04483834
143	0xbb97528a	-0.0046179937
144	0x3de388a0	0.111100435
145	0xbc794847	-0.015214986
146	0xbcc77c33	-0.024351215
147	0xbd8d3e39	-0.06896634
148	0x3d0d091f	0.034432527
149	0x3cc76d47	0.0243441
150	0x3d82e3fe	0.06391142
151	0x3e266e1b	0.1625294
152	0xbdedcde2	-0.11611535
153	0x3d10dcb0	0.035366714
154	0x3d6b7c88	0.05749181
155	0x3db4c845	0.08827261
156	0x3da89cb4	0.08233014
157	0xbdbc36d1	-0.09190143
158	0x3c7b5aad	0.015341443
159	0xbe38cdc5	-0.18047245
160	0xbe2a715f	-0.1664481
161	0x3d9c653f	0.07636499
162	0xbd618ef6	-0.05506798
163	0xbc3bd995	-0.01146545
164	0xbbc7d4ed	-0.006098381
165	0xbe2abf3a	-0.1667451
166	0xbc11fd02	-0.008910419
167	0xbcba4bd3	-0.022741234
168	0x3dbf5a7b	0.0934343
169	0xbd883f9b	-0.06652757
170	0x3e9af050	0.3026147
171	0x3e18a3d1	0.14906241
172	0x3d4257a6	0.04744687
173	0x3d13c050	0.036072075
174	0xbe385669	-0.18001713
175	0x3c4b34a1	0.012402684
176	0xbce7d2c3	-0.028298741
177	0xbbbf7f3a	-0.005844024
178	0xbdd59ce0	-0.10430312
179	0x3d9cbbea	0.07653029
180	0x3bff338a	0.0077881264
181	0xbce1c3b0	-0.027559131
182	0x3d93d2f1	0.07217968
183	0xbc06b1e7	-0.008221126
184	0xbe828cbb	-0.25497994
185	0x3d1081e0	0.03528011
186	0xbda0c4da	-0.078500465
187	0x3db77248	0.08957344
188	0x3d9f2c72	0.07772149
189	0x3d91956f	0.0710858
190	0x3e65a08e	0.22424528
191	0xbd75f0ad	-0.06004398
192	0x3db8a29f	0.090153925
193	0xbd9caeec	-0.07650551
194	0xbcbf68e1	-0.02336544
195	0xbd37fa3d	-0.04491638
196	0xbd205d83	-0.03915168
197	0xbe067fe9	-0.13134731
198	0xbcffa03a	-0.031204332
199	0x3db3a3f2	0.087715045
200	0xba576fdd	-0.0008218268
201	0x3e493451	0.19648863
202	0xbda2072c	-0.07911524
203	0x3cbfbc72	0.023405287
204	0x3e351ca9	0.17686714
205	0xbe14efae	-0.14544556
206	0xbe4b7eef	-0.1987264
207	0x3dc88681	0.097912796
208	0xbc79c129	-0.015243807
209	0x3d81f8c5	0.06346277
210	0x3c912435	0.01771746
211	0xbd14a491	-0.036289755
212	0x3dc022e3	0.09381654
213	0xbdc7416b	-0.09729274
214	0x3d00d1ea	0.03145019
215	0x3db8928b	0.09012326
216	0xbe353db4	-0.17699319
217	0x3d4340bc	0.047669157
218	0xbcd443b4	-0.02591119
219	0xbcdc1c6e	-0.026869025
220	0x3dca5f8b	0.098815046
221	0xbd15de29	-0.03658882
222	0xbd10ac07	-0.035320308
223	0x3dfdf61d	0.12400458
224	0x3d3908d8	0.04517445
225	0x3cf22fd2	0.029563818
226	0xbdccd1af	-0.100009315
227	0xbdfe56d8	-0.12418908
228	0xbdf0071a	-0.117201045
229	0xbd339afb	-0.043848973
230	0xbc9f243b	-0.019426456
231	0x3e425dfb	0.18981163
232	0x3e469d08	0.1939584
233	0xbd50172a	-0.05080334
234	0xbdbf5761	-0.09342838
235	0x3e2f6ae0	0.17130613
236	0x3de7238e	0.112860784
237	0x3d4698d5	0.048485596
238	0xbd87d5fd	-0.06632612
239	0x3db4eb33	0.08833923
240	0x3e0e8911	0.13919474
241	0x3cc510e2	0.024055902
242	0xbdbfc483	-0.093636535
243	0xbd5558f3	-0.05208678
244	0x3d40b510	0.047047675
245	0x3cc199b8	0.02363287
246	0xbd6ae015	-0.057342608
247	0x3ce58c4c	0.028021
248	0x3da47569	0.08030207
249	0xbe554f08	-0.2083093
250	0x3dc21d7c	0.0947828
251	0xbd9b94fb	-0.07596775
252	0x3dbff8fb	0.09373661
253	0x3eb0deac	0.34544885
254	0xbe6b2a64	-0.2296539
255	0xbbbcb4b6	-0.005758847

network_body._body_endoder.seq_layers.0.bias f4 [128]
0	0xba87ec2f	-0.0010370071
1	0xb89351d4	-7.024748e-05
2	0xbb1150f2	-0.0022173491
3	0x3a109712	0.00055156753
4	0x39f58f6a	0.00046836893
5	0xb9a22483	-0.0003092625
6	0xba80d86c	-0.0009830124
7	0x3a2c286a	0.00065673015
8	0x3b15ba8e	0.002284679
9	0x3b3c8326	0.0028764694
10	0x3b349e24	0.002756008
11	0xbac9b98a	-0.0015390378
12	0xba9dfe45	-0.0012053928
13	0xbafa60fe	-0.0019102392
14	0xbaa36fde	-0.0012469252
15	0x3a448be5	0.00074976526
16	0xb8ec2423	-0.00011260088
17	0xba763e77	-0.0009393463
18	0xbb597218	-0.0033179577
19	0xba8d8a0a	-0.0010798585
20	0xbb0bf27e	-0.0021354253
21	0x39f50cef	0.00046739678
22	0xba62d64f	-0.000865315
23	0x3add431a	0.001688096
24	0x39cf81ac	0.0003957873
25	0x3a14d32d	0.00056772196
26	0x3ac7ca93	0.0015242867
27	0x3aa12a95	0.0012296016
28	0xb995b044	-0.00028550823
29	0x3a820fac	0.0009922883
30	0xbb8c5ccf	-0.0042835246
31	0xbaed741b	-0.0018116267
32	0x3aa62290	0.0012675095
33	0xba85634a	-0.0010176685
34	0x3a988c7d	0.0011638548
35	0xbad2fb14	-0.0016096556
36	0xba0c56b2	-0.0005353495
37	0xbafe76c4	-0.0019414057
38	0xbb05d0b3	-0.0020418584
39	0x3a1594a3	0.00057060475
40	0xbb2a38ce	-0.00259738
41	0xba08ba45	-0.00052157446
42	0xbae50fb8	-0.0017475998
43	0x3b0925cf	0.0020927077
44	0xba9f9865	-0.0012176154
45	0xba7a27d8	-0.00095426803
46	0xbb251f5e	-0.0025195698
47	0xbafb72dd	-0.0019184012
48	0xbaae6ee6	-0.0013308197
49	0x37fe7f74	3.033851e-05
50	0x39af13d7	0.00033393383
51	0x39e20f70	0.0004311758
52	0xbb5fee15	-0.0034169008
53	0xba3ab631	-0.00071224855
54	0xba13080c	-0.0005608804
55	0xbb045615	-0.002019291
56	0x3797a2c2	1.8076393e-05
57	0xba8073b6	-0.000980011
58	0xbad81f80	-0.001648888
59	0xba773d2b	-0.0009431417
60	0x3aa3edaf	0.0012506748
61	0x3a7be8fe	0.00096096087
62	0x3b3e65f5	0.002905247
63	0xbb0e3ea8	-0.0021704827
64	0xb8f04f46	-0.000114588576
65	0xb6db8110	-6.5417335e-06
66	0x3ad83698	0.0016495762
67	0x3a2a2ffd	0.0006492136
68	0xbb03f7e1	-0.002013676
69	0x3a14a91c	0.0005670951
70	0xba87abc9	-0.0010350879
71	0xbad26be8	-0.0016053887
72	0xba9a7aec	-0.0011785901
73	0x3a5bc405	0.0008383396
74	0x396df20a	0.00022692248
75	0xbb1e686e	-0.0024171132
76	0xbb17cbf3	-0.0023162335
77	0x3ab99cd7	0.0014161122
78	0xbb2a0da5	-0.0025948074
79	0x3b19b3c2	0.0023453091
80	0xbb4dc03d	-0.00313951
81	0xb92ae373	-0.00016297195
82	0xb9eebddb	-0.0004553635
83	0x3a6f5747	0.0009130132
84	0x3a6bfe24	0.00090024085
85	0xbaec7bc1	-0.0018042253
86	0xba6802f8	-0.000885054
87	0xbada7828	-0.001666789
88	0xba88f6a1	-0.0010449478
89	0xbadf5851	-0.001703987
90	0x3a95814f	0.0011406335
91	0xbaf6a61a	-0.0018817813
92	0xbad61aa7	-0.0016334847
93	0xba7c0edf	-0.0009615253
94	0x39a594af	0.0003158203
95	0xba1ca26f	-0.0005975132
96	0x3a4120c8	0.00073672505
97	0x3aab832e	0.0013085359
98	0xbb07684d	-0.0020661533
99	0xbab19a5a	-0.0013550029
100	0xbab19310	-0.0013547856
101	0x3920c7ca	0.00015333216
102	0xba45c834	-0.0007544786
103	0x3a94673b	0.0011322269
104	0xbad11be6	-0.0015953749
105	0xbaf52cb6	-0.0018705341
106	0xbaf49ce8	-0.0018662484
107	0x39d20181	0.00040055442
108	0x3a9c1799	0.0011908888
109	0xbad9902e	-0.0016598755
110	0x3a7ea7fc	0.00097143627
111	0xba976645	-0.0011550864
112	0x3a60b349	0.00085716374
113	0xba92934e	-0.0011182816
114	0xbb6314c6	-0.0034649833
115	0x3a29a65b	0.0006471627
116	0x3a49bb58	0.0007695458
117	0x3b0e022e	0.002166878
118	0xbb26523a	-0.00253786
119	0xbafc3a77	-0.0019243498
120	0xb846f76c	-4.743731e-05
121	0xbb0831f4	-0.0020781728
122	0xba338f53	-0.0006849665
123	0x3a0bcdf9	0.00053331215
124	0xba56a357	-0.00081877917
125	0x3a806d4c	0.0009798198
126	0xbaddab29	-0.0016911972
127	0xb963c850	-0.00021723029

network_body._body_endoder.seq_layers.2.weight f4 [128, 128]
0	0x3c19322a	0.009350339
1	0xbe44a751	-0.19204451
2	0x3dc002b2	0.09375514
3	0xbdadb903	-0.08482554
4	0xbca7095b	-0.020390203
5	0xbdbfa4db	-0.093576156
6	0x3ce91125	0.028450558
7	0xbd93a63d	-0.07209442
8	0xbd627835	-0.05529042
9	0xbc884b3c	-0.016637437
10	0x3ddd6a5e	0.108113036
11	0x3d79777d	0.06090497
12	0xbd5672b4	-0.052355483
13	0x3c6027b5	0.013681342
14	0xbd839ced	-0.064264156
15	0xbd1c67fe	-0.038185112
16	0x3dd66827	0.10469084
17	0x3dfd3ff5	0.123657145
18	0xbd311fbd	-0.04324316
19	0xbcd9883e	-0.026554223
20	0xbd8c1208	-0.06839377
21	0x3ccd2a52	0.025044594
22	0x3d97fd23	0.07421329
23	0x39a57da4	0.00031564862
24	0x3c1c825f	0.009552567
25	0x3dbc85cc	0.09205207
26	0x3dcb2767	0.09919625
27	0x3e162466	0.14662322
28	0xbd4b03aa	-0.04956404
29	0xbc65ef83	-0.014034155
30	0x3de7e5a9	0.11323101
31	0x3e00a922	0.12564519
32	0x3d051633	0.032491874
33	0x3df768bb	0.120805226
34	0x3d4ea3e8	0.050449282
35	0xbd832998	-0.06404418
36	0xbd2f210b	-0.04275612
37	0xbd5b2108	-0.053498298
38	0x3cc3226a	0.02382012
39	0xbc83799c	-0.016049199
40	0x3cf66596	0.030077737
41	0xbd5a5e3c	-0.053312525
42	0x3da208c7	0.079118304
43	0x3dcd5bb8	0.100272596
44	0xbdca67e6	-0.09883098
45	0xbc9be353	-0.019029295
46	0xbdd7aff7	-0.105316095
47	0x3dbc6a6c	0.09199986
48	0x3c582768	0.013192989
49	0x3e16e4cb	0.14735715
50	0xbb9446e4	-0.0045250524
51	0xbc9296d3	-0.017894184
52	0x3c90e4fc	0.017687313
53	0x3d91eaf2	0.071248904
54	0xbd2afec1	-0.04174686
55	0xbcf086e4	-0.029361196
56	0xbd0eaf00	-0.03483486
57	0x3d480c5a	0.048839904
58	0xbd8f7fdc	-0.07006809
59	0x3d4a62bc	0.049410567
60	0x3d9270ac	0.07150397
61	0x3e2830f2	0.16424921
62	0xbdb35a77	-0.08757489
63	0xbd68e75a	-0.05686126
64	0x3d99795d	0.07493851
65	0xbdf37c25	-0.11888913
66	0xbd313240	-0.043260813
67	0xbc97c28c	-0.018525384
68	0xbcfbd7f2	-0.03074262
69	0x3d315428	0.04329315
70	0x3ddbb879	0.10728545
71	0x3cd4f67b	0.025996437
72	0xbd2d88b7	-0.04236671
73	0x3d74ed87	0.059796836
74	0xbdda310e	-0.10653888
75	0xbe2c619c	-0.1683411
76	0xbd04a102	-0.03238011
77	0xbdc1108a	-0.09426983
78	0x3d0a5b37	0.033778396
79	0x3db3d5f2	0.08781041
80	0xbc98b4c8	-0.01864089
81	0xbe57f478	-0.21089351
82	0x3cbed35f	0.023294149
83	0x3c16c4d9	0.009202206
84	0xbe0653cf	-0.13117908
85	0x3d88e9f9	0.06685252
86	0xbd4702fe	-0.048586838
87	0xbdbdd1c7	-0.092685275
88	0x3da83ef9	0.08215136
89	0xbd48adb4	-0.04899378
90	0xbd741480	-0.059589863
91	0xbd617b5f	-0.055049296
92	0xbd3b538a	-0.045733966
93	0xbaa36506	-0.001246602
94	0x3d594095	0.053040106
95	0x3ca5ed9d	0.020254904
96	0xbd9b0119	-0.07568569
97	0xbe30453d	-0.17213912
98	0xbda1ec79	-0.07906432
99	0xbd922a6a	-0.07136996
100	0x3d6de75a	0.058081962
101	0xbe194d76	-0.14970955
102	0x3dd89513	0.10575309
103	0xbcc2f919	-0.02380042
104	0x3c0b72fa	0.008511299
105	0xbd850bea	-0.06496413
106	0xbda1d7ca	-0.079024866
107	0xbdee1bf1	-0.11626423
108	0xbd82d5ca	-0.06388433
109	0x3b305ec0	0.0026911944
110	0x3dd10f94	0.102080494
111	0x3d88b62a	0.0667537
112	0xbd427a93	-0.047480177
113	0xbd7ba97f	-0.06144094
114	0x3da5a664	0.08088377
115	0x3e1bf8ab	0.15231578
116	0x3c9ce075	0.019149998
117	0xbcfbf8a2	-0.030758206
118	0xbddcece3	-0.1078737
119	0xbd6f47bc	-0.05841802
120	0xbe5e93ad	-0.21736021
121	0x3ce5f3c5	0.02807034
122	0x3e1ab07c	0.15106386
123	0xbd8c1a68	-0.06840974
124	0x3e3002aa	0.17188516
125	0x3d5b6743	0.053565275
126	0x3d7963e1	0.060886268
127	0xbd58e89a	-0.0529562
128	0xbdab46a3	-0.08363082
129	0x3bb31bff	0.005465984
130	0x3dfecd55	0.12441508
131	0xbe030d3f	-0.12798022
132	0xbce44991	-0.02786711
133	0xbe006564	-0.12538677
134	0xbcc554b8	-0.024088249
135	0x3e013642	0.12618354
136	0xbc87c74b	-0.016574522
137	0xbc7b613b	-0.015343006
138	0xbe1df328	-0.15424788
139	0xbdf28cfb	-0.11843296
140	0xbd1a783e	-0.037712328
141	0x3d97e034	0.0741581
142	0x3db47419	0.08811206
143	0xbb0aeb6f	-0.0021197458
144	0x3ddac53d	0.106821515
145	0xbd598e84	-0.05311443
146	0x3d84f9ed	0.06492982
147	0xbe2cb38c	-0.16865367
148	0x3d5c26d2	0.05374796
149	0xbc56c328	-0.013108052
150	0xbd47ece5	-0.048809905
151	0x3dbd070a	0.09229858
152	0xbdb0c52b	-0.08631357
153	0xba0da563	-0.00054033677
154	0xbd339c89	-0.043850455
155	0xbdea0025	-0.11425809
156	0x3d20fbaf	0.039302524
157	0x3cca2a37	0.024678333
158	0xbcab60f8	-0.020920262
159	0xbcf9247a	-0.030412901
160	0xbd3d2f92	-0.046187945
161	0x3cfe9dff	0.031081198
162	0x3c637ae7	0.013884283
163	0x3c4bcb21	0.012438566
164	0x3e7f8589	0.24953283
165	0xbdc6ad67	-0.097010426
166	0xbcf27634	-0.02959738
167	0x3d5d84cc	0.054081723
168	0x3c8fb1c1	0.017540814
169	0xbda064cd	-0.07831726
170	0x3c00e366	0.007866716
171	0xbe144730	-0.14480281
172	0x3d553eae	0.05206173
173	0xbd1658ec	-0.036705896
174	0x3b96fd5b	0.004607839
175	0x3c409100	0.011753321
176	0xbe35e456	-0.17762884
177	0x3df9de54	0.12200609
178	0x3e5d5cc3	0.21617417
179	0xbc1ad287	-0.009449608
180	0x3df6858f	0.12037193
181	0xbdc7ed01	-0.09762002
182	0xbd7e6124	-0.06210436
183	0xbdb9e8c0	-0.09077597
184	0xbd4e7b53	-0.05041058
185	0x3d3a3dcf	0.0454691
186	0x3d5fa572	0.05460114
187	0xbd345acc	-0.044031903
188	0x3dc397cb	0.095504366
189	0x3dc3485e	0.09535287
190	0xbc8ed4ea	-0.01743551
191	0xbde9d299	-0.114171214
192	0xbd8c0e1d	-0.068386294
193	0x3dbbfbb9	0.09178872
194	0xbe1f85d6	-0.15578398
195	0xb95d30c7	-0.00021094373
196	0x3cc9b1d3	0.024620926
197	0xbdad664c	-0.08466777
198	0xbbf5b6d3	-0.007498601
199	0xbd3757ef	-0.044761594
200	0xbe855d85	-0.26047912
201	0x3dd8d5fc	0.10587689
202	0x3e4b609a	0.1986107
203	0xbe192b56	-0.14957938
204	0x3e0f569b	0.13997881
205	0xbdadb840	-0.084824085
206	0xbd803733	-0.062605284
207	0xbd8ad2ed	-0.06778512
208	0x3c4292b0	0.011875793
209	0x3d1610d7	0.036637153
210	0x3d37da51	0.044885937
211	0x3de24927	0.11049109
212	0xbc8d7c01	-0.017271044
213	0xbd2ccb9b	-0.04218636
214	0x3e36b0c0	0.17840862
215	0xbc47d991	-0.012197868
216	0xba6ad036	-0.00089574174
217	0x3db43842	0.08799793
218	0xbdc97809	-0.09837348
219	0xbddbe62b	-0.107372604
220	0x3dde7148	0.108614504
221	0xbd2228be	-0.039589636
222	0xbd76f945	-0.060296316
223	0x3e2314c9	0.15925898
224	0xbcfd0782	-0.030887369
225	0xbd1509e7	-0.036386397
226	0xbd013e22	-0.031553395
227	0xbd985116	-0.07437341
228	0x3e0c54b3	0.13704185
229	0xbd650d6d	-0.055921007
230	0xbddca61f	-0.107738726
231	0xbce37793	-0.027766978
232	0xbd6c180f	-0.05764013
233	0x3d9de2e9	0.07709295
234	0xbde4696f	-0.11152922
235	0x3c6c80b3	0.014434981
236	0xbd91a6e2	-0.071119085
237	0x3e3bf9ca	0.18357006
238	0x3cad79af	0.021176187
239	0xbd8f3f2a	-0.069944695
240	0xbe1efac4	-0.15525347
241	0xbdba7b33	-0.0910553
242	0xbe367eb1	-0.17821766
243	0xbd32954d	-0.043599416
244	0x3c43344d	0.011914325
245	0x3d97fc4b	0.07421168
246	0x3cdd32ce	0.027001765
247	0xbd48e367	-0.049044993
248	0x3b14230e	0.0022603902
249	0x3e2f3077	0.17108332
250	0xbd84b710	-0.06480229
251	0x3dce5f9e	0.10076831
252	0x3c8e1c30	0.017347425
253	0x3becc644	0.0072257835
254	0x3c37dd2d	0.011222166
255	0xbe138dbc	-0.14409536

network_body._body_endoder.seq_layers.2.bias f4 [128]
0	0xba859757	-0.0010192198
1	0xba4200ae	-0.0007400614
2	0xbb775140	-0.0037737638
3	0x389d30b6	7.4954165e-05
4	0xba656a7a	-0.0008751523
5	0xbb3f6a75	-0.002920774
6	0xbac76e0b	-0.001521529
7	0xb9639f9d	-0.00021707868
8	0xbac71a23	-0.0015190284
9	0x392c6e44	0.00016444275
10	0x39e1d660	0.00043075066
11	0xbabb598f	-0.0014293658
12	0x3987c25a	0.0002589401
13	0xbb16aab6	-0.0022989935
14	0x3a3ed833	0.0007280141
15	0x3a3a869b	0.00071153947
16	0xba437184	-0.0007455575
17	0xbab5fb15	-0.0013884032
18	0xba03b12f	-0.0005023656
19	0xbb155f2e	-0.0022792327
20	0xba9d9e32	-0.0012025295
21	0x3ac7f75b	0.0015256213
22	0xba52067e	-0.00080118317
23	0xbaffc6b5	-0.0019514175
24	0xbae7a71a	-0.0017673702
25	0xbaa4aa4f	-0.0012562963
26	0xbb53cef1	-0.0032319392
27	0xbac7504c	-0.0015206425
28	0xba827f15	-0.0009956086
29	0xba0cf51a	-0.0005377099
30	0x39e8032d	0.00044252854
31	0x3a0c7a17	0.0005358769
32	0xbae1d95c	-0.0017230916
33	0x3a50dd7b	0.00079675735
34	0xbafffffd	-0.0019531247
35	0x3b9baa41	0.0047505205
36	0xbac93466	-0.0015350699
37	0xba7a760c	-0.00095543335
38	0xba9515cc	-0.0011374294
39	0xb96a0fba	-0.00022321838
40	0xbab095a2	-0.0013472328
41	0x3a3c9682	0.0007194058
42	0x39a00874	0.00030523876
43	0xbac74933	-0.001520431
44	0xbab8e174	-0.0014105276
45	0xbaa74ec6	-0.0012764565
46	0xba200486	-0.00061041897
47	0xbab996d8	-0.0014159335
48	0xbb3fb6a0	-0.002925314
49	0xb9ba5ae9	-0.00035544418
50	0x392c75d0	0.00016447087
51	0xb95e1fbd	-0.00021183393
52	0x39723fad	0.0002310264
53	0xbb03a36a	-0.0020086416
54	0xbad4c5f3	-0.001623331
55	0x3a26c3ff	0.0006361603
56	0x3a11ce44	0.0005562047
57	0xba8ebafc	-0.0010889466
58	0xba9bd468	-0.0011888864
59	0x3a803283	0.0009780679
60	0xbad76a5a	-0.0016434893
61	0x39d50f32	0.00040637847
62	0xbab94010	-0.0014133472
63	0xbaa264d1	-0.0012389665
64	0xbaa39f0c	-0.0012483313
65	0xb8c6f283	-9.486547e-05
66	0x3a573e60	0.0008210894
67	0xba107a8f	-0.0005511427
68	0x39913fb0	0.00027704006
69	0x3a58ca1a	0.00082698616
70	0xba395efa	-0.00070713426
71	0xbb05a9c4	-0.0020395378
72	0xbb008ad5	-0.0019614
73	0x3a484a19	0.0007640436
74	0xba038717	-0.00050173834
75	0xbae50757	-0.0017473501
76	0xb959be54	-0.00020765635
77	0x3a397ad3	0.0007075492
78	0xbaa1bbbb	-0.0012339273
79	0xbacfd6a1	-0.0015856811
80	0xba00b2ba	-0.0004909445
81	0x3965c33e	0.00021911875
82	0xbaddc6bd	-0.001692019
83	0xb8ea2ce8	-0.00011166354
84	0xbab4ba33	-0.0013788402
85	0xbb184dce	-0.0023239735
86	0xb98f39ac	-0.00027318054
87	0x3aa4ab7a	0.0012563311
88	0x3929ac49	0.00016181277
89	0xbae74b71	-0.0017646385
90	0xbb01d3f2	-0.0019810167
91	0xba9d4e97	-0.0012001571
92	0xbaec0e4f	-0.0018009635
93	0xba99c65c	-0.0011732089
94	0xba907590	-0.0011021364
95	0xba0bcd0f	-0.00053329853
96	0x3aaeb60a	0.0013329398
97	0x3a3c5b87	0.00071852695
98	0xba2e1119	-0.0006640121
99	0xbb102495	-0.002199446
100	0xb97ea9dc	-0.00024286605
101	0xb9231e59	-0.00015556197
102	0xba19bb65	-0.0005864411
103	0xbb0653e0	-0.002049677
104	0xbaf84677	-0.0018941899
105	0x3a3b9ad3	0.00071565545
106	0x3a255c5a	0.0006308012
107	0xba84045f	-0.0010072103
108	0x3a3f92c2	0.00073079404
109	0xba48206c	-0.0007634226
110	0xbad5dadb	-0.0016315834
111	0xbb54bff5	-0.0032463048
112	0x3a229368	0.0006201775
113	0xba7f4f61	-0.00097393064
114	0xb95c6010	-0.00021016621
115	0xbb78ece9	-0.0037983006
116	0xba977f43	-0.0011558313
117	0xbaf929d8	-0.0019009663
118	0xba187af2	-0.000581666
119	0x3a070ac2	0.00051514443
120	0x3a051f9d	0.0005078258
121	0x3a41e7c3	0.0007396901
122	0x3b151e5e	0.0022753696
123	0xbac2d67d	-0.0014864948
124	0xba1cb8d4	-0.0005978469
125	0xba87823c	-0.0010338495
126	0xbaf007b6	-0.0018312845
127	0x3a613535	0.00085909973

action_model._discrete_distribution.branches.0.weight f4 [3, 128]
0	0x3c883af5	0.016629675
1	0xbc67bc8a	-0.014144072
2	0x3bd0f8aa	0.0063772993
3	0xbb89fc0d	-0.004210955
4	0xbc2b1be4	-0.010443661
5	0xbbbf3e99	-0.0058363196
6	0x3c186d9e	0.0093034785
7	0x3c2f820f	0.010712161
8	0xbab57e49	-0.001384684
9	0x39ae7894	0.00033277704
10	0x3ad464da	0.0016204373
11	0xbbec240d	-0.007206446
12	0x3a963090	0.0011458565
13	0xbbbb3264	-0.005712794
14	0xbb390411	-0.0028231184
15	0x3c9d42e7	0.01919694
16	0xbbfc0fb9	-0.007692304
17	0xbbb7cd97	-0.005609225
18	0xbc23f17d	-0.010006306
19	0xbb4be3bb	-0.003111108
20	0x3c326574	0.010888446
21	0xbac8beda	-0.0015315667
22	0x3b88d256	0.0041754646
23	0x3c36c0bc	0.01115435
24	0xbca76151	-0.020432146
25	0x3c38f742	0.01128942
26	0xbb93b99f	-0.0045082117
27	0x3b3bc27e	0.0028649862
28	0xbc16a310	-0.009194151
29	0x3a5d6992	0.0008446212
30	0x3c4bbda3	0.01243535
31	0xbc20fc53	-0.009825784
32	0xbc535800	-0.012899399
33	0x3b8749fb	0.004128692
34	0x3c29765d	0.010343161
35	0xba380fcf	-0.00070213986
36	0xb9ca03ac	-0.00038531178
37	0x3c9ec4a1	0.01938087
38	0x3be5e2c5	0.0070155584
39	0xbba20084	-0.004943909
40	0x3c3367ba	0.010950023
41	0x3b1e0091	0.0024109224
42	0xbba55455	-0.0050454536
43	0x3c456a17	0.01204922
44	0xbb99e573	-0.004696542
45	0x3bb1fcc6	0.0054317443
46	0x3b8063a4	0.003918128
47	0x3c1be650	0.00951536
48	0x3a9ea5fc	0.001210391
49	0xbcb2e081	-0.021835567
50	0x3bcaf5fc	0.0061938744
51	0xbb8a2713	-0.004216084
52	0x3bc79450	0.0060906783
53	0xbba61b44	-0.0050691683
54	0xbba093a5	-0.004900413
55	0x3c36c4bd	0.0111553045
56	0xbba89203	-0.005144359
57	0x3b7097a5	0.003671148
58	0x3c10d769	0.00884042
59	0x3bf8475d	0.0075768665
60	0x3c11a6dd	0.008889881
61	0xbcb28484	-0.021791704
62	0xbc26bb0a	-0.0101764295
63	0xbbd69585	-0.006548586
64	0x3c044e28	0.0080752745
65	0x39d42e60	0.00040470343
66	0xba7894c8	-0.00094826194
67	0xbc835c9d	-0.016035372
68	0x3b7b8d3a	0.0038383738
69	0x3b12c538	0.0022395384
70	0x397d6ff4	0.00024169666
71	0x3b1501ab	0.002273659
72	0x3be8724e	0.0070937043
73	0x3b88eb51	0.0041784425
74	0x3bd19df4	0.0063970033
75	0xbc2cc4b7	-0.010544947
76	0x3c237c59	0.009978377
77	0xb9d104b3	-0.00039867088
78	0xbb19fe4c	-0.002349752
79	0xbac1ed61	-0.0014795476
80	0xba9be905	-0.0011895007
81	0xbb80b9c3	-0.0039283945
82	0x3a2760e2	0.0006384981
83	0xbc0202c6	-0.007935232
84	0x3bda641e	0.006664767
85	0xbc0209ad	-0.007936877
86	0x3c5c0b68	0.013430454
87	0x3b4638c3	0.0030246235
88	0x3c63777b	0.013883467
89	0x3bd72b82	0.006566466
90	0xbc208fd3	-0.009799915
91	0x3aacc174	0.0013180212
92	0xbbd2b2cb	-0.006430005
93	0x3b105e15	0.0022028734
94	0x3b672288	0.0035268385
95	0xbc85018a	-0.016236085
96	0x3b209047	0.0024500058
97	0xbbc3f481	-0.005980075
98	0x3bdf53e9	0.006815423
99	0xbc63bfa8	-0.013900675
100	0xbb837975	-0.0040122815
101	0x3b5bdac2	0.0033547138
102	0x3b3d2f2b	0.0028867226
103	0x3b70adfb	0.0036724794
104	0xbc2db079	-0.010601156
105	0xbc186749	-0.009301969
106	0x3b75151c	0.0037396615
107	0xb9acff46	-0.0003299659
108	0x3b5b1456	0.003342887
109	0x3b8d6d36	0.0043159975
110	0x3bd5eac1	0.006528229
111	0xbbb8f48d	-0.005644387
112	0xbb81a8c4	-0.003956886
113	0xba13ad7c	-0.0005633456
114	0xbbf42a00	-0.007451296
115	0xbab69643	-0.001393028
116	0x3bbffa62	0.0058587054
117	0x3a437afc	0.0007456986
118	0x3925b6c8	0.00015803718
119	0xbc355659	-0.01106795
120	0xbc24d995	-0.010061641
121	0xbc5b1717	-0.013372204
122	0xbc25a5f4	-0.010110367
123	0x3ba38a27	0.0049908343
124	0x3b369ea6	0.0027865558
125	0xbc2ab681	-0.010419489
126	0x3c2fc56a	0.0107282195
127	0x3b87fb90	0.0041498616
128	0xbb4cbb68	-0.0031239633
129	0xba708272	-0.00091747113
130	0x3baaf147	0.005216751
131	0x3a87ff0b	0.0010375691
132	0x3c0643d7	0.008194885
133	0xbbb205c9	-0.0054328186
134	0xbb4ddf05	-0.0031413448
135	0xbc8e8446	-0.017397057
136	0xbbec87e0	-0.007218346
137	0x3b3a8d68	0.0028465632
138	0xbc05fa8a	-0.008177409
139	0xbc11c83a	-0.008897835
140	0xbb7be32e	-0.003843497
141	0x3b300bfb	0.002686261
142	0xbc1ee40c	-0.009697925
143	0x3a94188b	0.0011298818
144	0xbba109f3	-0.004914516
145	0xbba75b07	-0.005107287
146	0xbb6b6890	-0.0035920478
147	0xba5c3959	-0.00084008795
148	0xbc0e2414	-0.008675594
149	0xbc24477c	-0.010026809
150	0x3c884918	0.016636416
151	0xbb9d99fe	-0.004809617
152	0x3ac451fd	0.0014978048
153	0xbaf7f4ff	-0.0018917619
154	0x3b53b4d6	0.0032303832
155	0xbb8483fe	-0.004044055
156	0x3ba01e21	0.004886404
157	0xba3b3f33	-0.00071429013
158	0xbbbff5b0	-0.0058581457
159	0xbc322d7d	-0.010875103
160	0x3be4b2cf	0.0069793235
161	0x3c0f4897	0.008745334
162	0xba2fbc78	-0.0006703804
163	0x39d9d6cd	0.00041549504
164	0x3b8a8fc2	0.004228563
165	0xbc8f6b05	-0.017507086
166	0xbc5ed4be	-0.013600526
167	0xbba31706	-0.00497711
168	0x3c239e6f	0.009986504
169	0xb9742cfe	-0.00023286414
170	0xbc778418	-0.015107177
171	0x3ae3bee4	0.0017375615
172	0x3c8853d9	0.016641544
173	0x3b181c32	0.0023210165
174	0x3cc0a4b5	0.023516038
175	0xbbf2c136	-0.0074082864
176	0x3c451efa	0.012031311
177	0x3c1ac65d	0.009446708
178	0x3b384d37	0.0028122196
179	0x3a11167b	0.0005534661
180	0x3c000f13	0.007816094
181	0x3b4e68b3	0.003149551
182	0xbc97726f	-0.018487183
183	0xb9b0f0c4	-0.0003374872
184	0x3a96cc2c	0.001150494
185	0xbba3ca3d	-0.004998474
186	0xbc93a36f	-0.018022267
187	0xbb212522	-0.0024588783
188	0xbbc85f9d	-0.0061149136
189	0x3c65e8ab	0.014032523
190	0x3c27d403	0.010243419
191	0x3b8149a8	0.003945548
192	0xbadd6314	-0.001689049
193	0x3b46f54e	0.0030358615
194	0xbc9ae8e2	-0.018909875
195	0xbc4c5dbd	-0.012473521
196	0xbc1d3a83	-0.00959647
197	0xbc1a20ca	-0.009407232
198	0xbb26e0e2	-0.002546363
199	0xbbf946fb	-0.0076073385
200	0x3c2606c2	0.010133447
201	0x3a723e79	0.00092408765
202	0x3c5f0ad0	0.013613418
203	0xbb880695	-0.0041511753
204	0xbbe36d19	-0.0069404957
205	0xbb252226	-0.0025197356
206	0x3b4b01dd	0.0030976452
207	0xbc1a0736	-0.009401133
208	0xbc4bf2c4	-0.012448017
209	0x3b4b9b78	0.0031068008
210	0x3bc777ad	0.0060872645
211	0xbb89ff97	-0.004211377
212	0x3bfff6e4	0.007811414
213	0x3bc4e0eb	0.0060082576
214	0xbb9c7ce3	-0.00477563
215	0xbaafeeec	-0.0013422645
216	0xbaba9eb4	-0.0014237971
217	0x3b3e7ce8	0.002906615
218	0x3aa4e718	0.0012581078
219	0xbba72377	-0.0051006633
220	0x3b0dc022	0.0021629413
221	0x3c1c4824	0.009538684
222	0xbc879896	-0.01655225
223	0x3c16bb19	0.009199881
224	0xba9234e8	-0.0011154683
225	0x3c998bfd	0.01874351
226	0xbb037dce	-0.0020064
227	0x3b11f469	0.0022270924
228	0x3bdd7dd2	0.0067593837
229	0x3c4add13	0.01238181
230	0xbb91538f	-0.00443501
231	0xbc310572	-0.010804521
232	0x387be603	6.005728e-05
233	0xbc19cbbb	-0.009386952
234	0xba0a686e	-0.00052798435
235	0x3a791a98	0.0009502559
236	0x3b52687f	0.0032105742
237	0x3bb408dc	0.00549422
238	0x3c7379f1	0.014860616
239	0xbc52de38	-0.012870364
240	0x3c02cc6d	0.007983309
241	0x39afbd54	0.00033519662
242	0x3a7e447f	0.0009699538
243	0x3bf070b5	0.0073376545
244	0x3c4f8d51	0.01266797
245	0xbc3959c9	-0.01131291
246	0x3bb428e0	0.0054980367
247	0x3c70ab30	0.014689252
248	0xbb7ffbaf	-0.0039059927
249	0xbcab8576	-0.020937663
250	0x3cb5b3de	0.022180494
251	0xbaa19757	-0.0012328428
252	0xbbe83a95	-0.0070870616
253	0x3bc3753e	0.005964904
254	0xbbe182cf	-0.0068820487
255	0x3c6e1b9f	0.014532953

action_model._discrete_distribution.branches.0.bias f4 [3]
0	0xba8ad85d	-0.0010593046
1	0xba8d10b6	-0.0010762427
2	0x3aa3e456	0.0012503962

action_model._discrete_distribution.branches.1.weight f4 [3, 128]
0	0x3c0baa54	0.008524496
1	0x3c00de6e	0.007865531
2	0x3bc191c1	0.005907268
3	0xbbace003	-0.0052757277
4	0x3ad16625	0.0015975876
5	0x3c1747fb	0.00923347
6	0x3abae533	0.001425898
7	0xbbf579c8	-0.007491324
8	0xbc3f1cc8	-0.011664577
9	0x3b8b8de5	0.0042588585
10	0xbbfc65f5	-0.007702584
11	0x3c25c42c	0.010117572
12	0xbb96a435	-0.0045972117
13	0x3b926e01	0.00446868
14	0xbb903bc5	-0.0044016563
15	0xba9ef260	-0.0012126677
16	0x3c097a52	0.00839098
17	0xbbe2ca27	-0.006921071
18	0x3768eaa7	1.3882912e-05
19	0xba835914	-0.0010021054
20	0xbbe0eb73	-0.0068640052
21	0xbbe15fdd	-0.006877883
22	0x3bd977fa	0.006636617
23	0xbc80ce96	-0.015723508
24	0x3c83e913	0.01610235
25	0xbc26b5ca	-0.010175178
26	0x3be6a518	0.0070387237
27	0xbb73120b	-0.0037089612
28	0x3c1a4df7	0.009418002
29	0xbc504c75	-0.012713541
30	0xbc5552ed	-0.013020259
31	0xbba7682e	-0.0051088547
32	0x3c052425	0.008126293
33	0x3a6810f5	0.00088526245
34	0xbc064d24	-0.008197103
35	0xbc10993a	-0.008825595
36	0x3c306e27	0.01076845
37	0x3bf89ced	0.0075870664
38	0x3b09ef66	0.0021047234
39	0xbc92a24d	-0.017899657
40	0xbc3da1ff	-0.011574267
41	0x3bf5df6b	0.00750344
42	0x3b919fe8	0.004444111
43	0xbc0c744b	-0.008572648
44	0x3a831449	0.0010000552
45	0x3bb9fc06	0.0056757955
46	0x3b7eb747	0.0038866566
47	0x3b643ab5	0.0034825031
48	0x3cb1e364	0.021714874
49	0xbc860afd	-0.016362661
50	0xbb99adcc	-0.0046899077
51	0x3c20f93b	0.009825046
52	0xbc0376c4	-0.008023921
53	0x3a3acae7	0.0007125572
54	0x3be8feb7	0.0071104425
55	0xbc104a25	-0.00880674
56	0xbb95a48c	-0.0045667347
57	0x3c3eedb6	0.011653354
58	0xbc7ecb74	-0.015551437
59	0xbb91886c	-0.0044413116
60	0xbb0a6c28	-0.0021121595
61	0xbb3291af	-0.0027247479
62	0x3c08b855	0.008344729
63	0x3c6d5ad4	0.014486987
64	0xbc0ad936	-0.008474639
65	0xbbe848bc	-0.0070887487
66	0x3ae198ea	0.001721171
67	0xbb9d6b87	-0.004804078
68	0x3b47b43c	0.0030472418
69	0xba72e07c	-0.0009265018
70	0x3c4b4f4e	0.012409044
71	0xbb655b5a	-0.0034997077
72	0x3ba4baa6	0.005027133
73	0xbb2a5e7d	-0.002599626
74	0x3ca5c9f3	0.020237898
75	0x3ae0a59c	0.0017139199
76	0xbc875cf5	-0.016523818
77	0xbc1c74a9	-0.009549298
78	0x3922ebf1	0.00015537419
79	0x3bc8272a	0.0061081843
80	0xbb71b553	-0.003688176
81	0xbc43292d	-0.011911673
82	0x3c129b99	0.00894823
83	0x3c8753d4	0.016519465
84	0xbc8d9594	-0.017283238
85	0x3c9b7063	0.018974489
86	0x3c2b5d9f	0.010459333
87	0xbbe9c4df	-0.0071340646
88	0x3adb3849	0.0016725148
89	0xbafbc386	-0.0019208051
90	0x3bf2ce2f	0.007409833
91	0x3b0accb8	0.002117915
92	0x3bf24f89	0.0073947352
93	0x3c87fd94	0.016600408
94	0x3bcdae32	0.006276869
95	0xbc51f7c6	-0.012815421
96	0x3bbcf389	0.0057663363
97	0xb970129f	-0.0002289512
98	0x3b0fefd5	0.002196302
99	0xbbe660bf	-0.007030576
100	0xbc81d38e	-0.015847947
101	0xbc12cea4	-0.0089604
102	0x3bbee401	0.00582552
103	0xb9a1a3ea	-0.00030830438
104	0xbb370436	-0.0027926094
105	0x3b166e3d	0.002295389
106	0xbb5ba5a5	-0.003351548
107	0x3c301059	0.010746085
108	0xbb11960b	-0.0022214677
109	0xbb487d9d	-0.003059245
110	0xbc58de20	-0.0132365525
111	0x3c1e49e2	0.00966117
112	0x3b9cfc54	0.004790822
113	0xbab0e917	-0.00134972
114	0xbc575ee0	-0.013145179
115	0xbbe7626e	-0.0070612943
116	0xbc3d1721	-0.011541159
117	0xbb8aea1a	-0.004239333
118	0xbba13d53	-0.0049206405
119	0xbc183a6a	-0.009291271
120	0x3c3a1505	0.0113575505
121	0x3c33955d	0.010960904
122	0x3c8e11fe	0.017342564
123	0x3bb91778	0.0056485496
124	0x3a64eef3	0.0008733116
125	0x3c1d48b7	0.009599856
126	0xbb9cd8c7	-0.004786584
127	0xbbbd3a11	-0.0057747443
128	0xbbc4fd79	-0.0060116616
129	0x3a2dce3e	0.0006630159
130	0x3c2d66f8	0.010583632
131	0xbb32fbdb	-0.0027310762
132	0x3c9470f9	0.018120276
133	0xbc58b0bc	-0.0132257305
134	0xba5b5aab	-0.00083676976
135	0xba528ac6	-0.0008031543
136	0x3b4807d0	0.0030522235
137	0x3b367eff	0.0027846692
138	0xbac45799	-0.0014979719
139	0x3b8c44f0	0.004280679
140	0x3c24eebd	0.010066685
141	0x3c1e920c	0.009678375
142	0x3bed8792	0.0072488273
143	0xbb434d9a	-0.0029800893
144	0x3c57179a	0.013128186
145	0xbbd08135	-0.006363059
146	0xbbfe7883	-0.007765831
147	0xbc622a92	-0.013804095
148	0x3c58cc1d	0.013232258
149	0xbc5d211d	-0.013496664
150	0xbba561f8	-0.005047079
151	0xba7e4e78	-0.0009701024
152	0x3c02de8f	0.007987632
153	0x3c8323be	0.016008254
154	0xbbe0be45	-0.0068586194
155	0x3bf02b9c	0.0073294174
156	0xbc0bf8eb	-0.008543233
157	0xbac247f5	-0.001482247
158	0x3bd8fc0d	0.0066218437
159	0xbbc8b756	-0.006125371
160	0x3bc13f62	0.0058974484
161	0xba84f4f6	-0.0010143805
162	0x3ad4f471	0.0016247166
163	0xbc085d7f	-0.008323072
164	0x3c326393	0.010887998
165	0xbaa8fc14	-0.0012892508
166	0x3c5757fd	0.013143537
167	0x3b55e7c0	0.0032639354
168	0xb86c9d08	-5.641303e-05
169	0x3c02a5a0	0.007974058
170	0x3a24394c	0.00062646414
171	0xbb8d2dfa	-0.0043084593
172	0x3bd6f69b	0.0065601594
173	0x3c17b2e6	0.009258961
174	0x3c4f3ed1	0.012649254
175	0x3b987ef3	0.0046538054
176	0xbb705d92	-0.0036676866
177	0xbaba27e1	-0.0014202559
178	0x3c207c58	0.009795271
179	0x3bc78cc2	0.0060897777
180	0x39e9fbb8	0.00044628768
181	0xbb7249d1	-0.0036970268
182	0xbb01cbc8	-0.00198053
183	0xbc6e35d3	-0.0145392
184	0xbc093481	-0.008374334
185	0xba901df4	-0.0010995255
186	0xbbe2bcfd	-0.006919502
187	0xbc1796d0	-0.009252265
188	0x3bafe783	0.0053681745
189	0xbb5e94a2	-0.0033963104
190	0x39bdd630	0.0003620847
191	0xb9e5ca4a	-0.00043829
192	0xbc2a9069	-0.010410407
193	0x3c3448fd	0.01100373
194	0xbbaa32a4	-0.005194025
195	0xba325d29	-0.0006804043
196	0x3c79b891	0.015241758
197	0x3b6bceeb	0.0035981487
198	0xbc129a1d	-0.008947876
199	0x3c01480c	0.0078907125
200	0x3bc96374	0.006145889
201	0xbcbd7590	-0.023127347
202	0xbae8c204	-0.0017758016
203	0xbb44811a	-0.0029984177
204	0x3c5ee83e	0.013605176
205	0xb78a4377	-1.6482298e-05
206	0x3a70b9dc	0.00091829686
207	0x3c7a400b	0.015274058
208	0x3c80fbdf	0.015745101
209	0x3c6a9960	0.014318794
210	0xbb99a392	-0.0046886886
211	0xbc563002	-0.013072969
212	0x3bfc08e7	0.007691491
213	0x3b821f1a	0.0039709928
214	0xbb3d37c0	-0.002887234
215	0xbc81ccee	-0.015844788
216	0x3adf45ac	0.0017034314
217	0x3a3aa5ca	0.00071200414
218	0xbc76cae5	-0.015063022
219	0x3b2e11d4	0.002656092
220	0xbb02fff2	-0.001998898
221	0xba889929	-0.0010421622
222	0x3bc69430	0.006060146
223	0x3ab32321	0.0013667085
224	0xbb152acf	-0.0022761112
225	0x3ae58ed4	0.001751388
226	0xbc8b0a62	-0.016972724
227	0xbb9162d6	-0.004436831
228	0x3b9f9a90	0.00487072
229	0x3bd15964	0.00638883
230	0xbbc7433c	-0.006081013
231	0x3bc2a719	0.0059403297
232	0xba4d8e5b	-0.0007841342
233	0x3c49d27b	0.012318249
234	0xbc9875b3	-0.01861081
235	0x3b6d14f2	0.0036175814
236	0xbb1675cc	-0.0022958396
237	0x3c64c438	0.013962798
238	0x3c303f2a	0.010757247
239	0x3b98a234	0.004658008
240	0xbbdd5f1d	-0.006755723
241	0xbbc9815c	-0.006149454
242	0xba2d497d	-0.0006610377
243	0xbc5165d2	-0.0127806235
244	0xbc01f0a0	-0.007930905
245	0x3b796bcf	0.0038058644
246	0x3b041976	0.0020156777
247	0xbbe08463	-0.006851719
248	0xba9c768e	-0.0011937188
249	0xbaead484	-0.0017916118
250	0x3c019618	0.00790932
251	0x3c2c965d	0.010533896
252	0x3ba28bfb	0.0049605346
253	0x3b170a18	0.0023046788
254	0x3bf9c872	0.007622772
255	0xb9fa99f6	-0.00047798426

action_model._discrete_distribution.branches.1.bias f4 [3]
0	0xba57f55f	-0.0008238162
1	0x38d4d8ea	0.00010149351
2	0x3a905232	0.0011010824

action_model._discrete_distribution.branches.2.weight f4 [2, 128]
0	0xbba8768d	-0.0051410855
1	0x3c7ef5af	0.015561505
2	0x3b28a79a	0.0025734664
3	0xbb51e9d8	-0.003203025
4	0x3c1afd31	0.00945978
5	0xbb92306d	-0.004461339
6	0x3c2d28dd	0.010568825
7	0x3be342d5	0.0069354572
8	0x3b3ddc69	0.0028970486
9	0xbaccee57	-0.0015634996
10	0xbb013f2b	-0.001972149
11	0x3abd9c1a	0.0014466078
12	0xbc3588a2	-0.011079939
13	0xbbc6d1db	-0.006067497
14	0x3c6c0902	0.0144064445
15	0xbcd89359	-0.026437448
16	0x3c0a2291	0.008431093
17	0xbba2b327	-0.0049652043
18	0xb9e8b46a	-0.00044384907
19	0xbbd18b8e	-0.00639481
20	0xbc456085	-0.012046938
21	0x3c8616fc	0.016368382
22	0xbc19be08	-0.009383686
23	0xbbf75118	-0.007547509
24	0xb9ec83ea	-0.0004511171
25	0x3c667ef6	0.014068356
26	0xbb606319	-0.0034238754
27	0x3c81cde9	0.015845256
28	0xbbca787b	-0.006178913
29	0x3b48cb5b	0.0030638787
30	0xbc5bbd5a	-0.013411844
31	0x3bcb1146	0.0061971275
32	0x3bd1dc7b	0.006404457
33	0x3c6e8688	0.014558442
34	0xbc2896d3	-0.010289866
35	0x39bcfaa0	0.00036044884
36	0xbc1d5621	-0.009603054
37	0x3b8ef6ca	0.0043629156
38	0x3bb8962e	0.005633137
39	0x3c3c8658	0.011506639
40	0xbb3b24ef	-0.002855595
41	0x3c1639c2	0.009169044
42	0xbc186b20	-0.009302884
43	0xbb864136	-0.004097129
44	0x3bf4d680	0.0074718595
45	0xbc8e87e7	-0.017398788
46	0xba0c545c	-0.00053531467
47	0xbc4d5756	-0.01253303
48	0x3c0985dc	0.008393731
49	0x3c0871c4	0.008327905
50	0xba92615f	-0.0011167935
51	0xbc419fe9	-0.011817911
52	0x3b5c993c	0.003366067
53	0xbc5e4016	-0.013565084
54	0x3bbe3847	0.0058050486
55	0x3b0581ee	0.0020371634
56	0x3c75922f	0.014988466
57	0xba5d54fb	-0.0008443144
58	0x3b8cbb7c	0.004294811
59	0xbb56628e	-0.0032712552
60	0xbc835778	-0.01603292
61	0x3ca4038c	0.020021223
62	0xbbd33b3e	-0.006446271
63	0x3c8a280b	0.016864797
64	0x3cac8f2a	0.02106436
65	0x3c9b397a	0.018948305
66	0xbb89f3fb	-0.004209993
67	0x3b82859c	0.0039832126
68	0xbb8586d0	-0.004074909
69	0xbb8333e2	-0.0040039876
70	0x3bdce8b6	0.0067416085
71	0xba29a827	-0.0006471895
72	0x3bf2cd8f	0.0074097584
73	0xbc9551dd	-0.018227512
74	0x3b80fe93	0.0039365976
75	0xbbffa5d5	-0.007801751
76	0x3be2a102	0.0069161663
77	0x3b2c7b36	0.0026318557
78	0x3ba32948	0.0049792863
79	0x3c515afc	0.01277804
80	0xbabff247	-0.0014644348
81	0x3c1e4280	0.0096594095
82	0xbc86fa9c	-0.016476922
83	0xbb5c01a2	-0.003357031
84	0xbb2fb86b	-0.0026812803
85	0xbb42d8fd	-0.0029731386
86	0x3b98a6ac	0.0046585407
87	0x3c9a4c92	0.01883534
88	0x3cb09228	0.021554068
89	0xba16dfe9	-0.0005755411
90	0xbc596ed8	-0.013271056
91	0x3b176d05	0.0023105752
92	0x3b3f0ccc	0.0029151915
93	0xbc4aff9f	-0.012390046
94	0xbb89db35	-0.0042070397
95	0x3c2f7317	0.010708592
96	0xbb41529c	-0.0029498702
97	0xbb6d9d97	-0.003625726
98	0x3b1f43c7	0.0024301873
99	0xbbcbc900	-0.0062190294
100	0x3c11e75d	0.008905259
101	0x3b92486c	0.0044641998
102	0x3c07941f	0.008275061
103	0x3b248a17	0.0025106722
104	0x3c897a6d	0.01678201
105	0xbcaf1ac0	-0.02137506
106	0xbb9a8374	-0.0047153775
107	0xbbe6aeb5	-0.0070398697
108	0xbb469fb4	-0.0030307593
109	0xbb38277a	-0.0028099702
110	0x3b9b5d62	0.0047413567
111	0xbc0bf187	-0.008541471
112	0x3ca362d5	0.019944588
113	0x3c9a837a	0.018861521
114	0x3c7b741c	0.015347507
115	0x3ac5941e	0.001507405
116	0x3afd4e47	0.0019325697
117	0x3b92d7f4	0.00448131
118	0x3b943f77	0.004524167
119	0x3b4081d0	0.002937425
120	0x3c2c0ccc	0.010501098
121	0xbc1719b8	-0.00922244
122	0x3a9258ab	0.0011165341
123	0xbc29b11f	-0.01035717
124	0xbc092cb9	-0.008372479
125	0x3c67b256	0.01414164
126	0xbc141b2d	-0.009039682
127	0x3bb0fcc1	0.0054012244
128	0x3c627b2a	0.01382331
129	0xbaa702e7	-0.0012741954
130	0xbc713c1c	-0.014723804
131	0xbb0084dc	-0.001961044
132	0x3cb23a42	0.021756295
133	0x3c19ac1f	0.009379416
134	0xbc0abec0	-0.00846833
135	0x3ba046ee	0.004891268
136	0x3b71de66	0.0036906241
137	0x3ce7848a	0.028261442
138	0x3c3eacb3	0.011637854
139	0x3bc75872	0.0060835415
140	0x3c28821b	0.010284926
141	0x3c0148d8	0.007890902
142	0xbb04b8fb	-0.0020251859
143	0x3c6106e3	0.013734552
144	0x3c38a20c	0.011269104
145	0xbc8f856c	-0.017519675
146	0x3b68b967	0.00355109
147	0xb9b1765e	-0.0003384826
148	0x3b706059	0.0036678521
149	0xbc0d8544	-0.00863773
150	0xbaba856c	-0.0014230437
151	0x38c5c2bc	9.429964e-05
152	0x3ab4127b	0.0013738418
153	0x3c94b328	0.018151835
154	0xbb9f17cc	-0.0048551317
155	0x3b933b96	0.004493187
156	0x3b8e2557	0.0043379473
157	0xbc7de913	-0.015497464
158	0xbc0fe690	-0.008782998
159	0xbbc6dd34	-0.00606885
160	0xb987ae24	-0.0002587895
161	0xbb3f06e2	-0.002914839
162	0xb83d6426	-4.5154382e-05
163	0x3b983800	0.0046453476
164	0xbc41c3e4	-0.011826489
165	0x3a599a0c	0.0008300848
166	0x3c04d18b	0.0081066
167	0x3b84b7b6	0.0040502204
168	0xba6fe863	-0.0009151755
169	0xbc5863a2	-0.013207348
170	0xbc700b43	-0.0146511225
171	0xbbd366bb	-0.0064514554
172	0xbc87d102	-0.016579155
173	0xbc2df949	-0.010618516
174	0x3bf5a0fd	0.007495998
175	0xbaca60bf	-0.001544021
176	0x3b57ca87	0.0032927112
177	0x3c0d0878	0.008607976
178	0x3ab4fbf8	0.0013808003
179	0xbc1c0672	-0.009523021
180	0xb9a2adca	-0.0003102853
181	0x3bf16fd9	0.0073680696
182	0x3b434982	0.0029798453
183	0x3d042c35	0.03226872
184	0x3ba587db	0.0050515956
185	0xbc9b235f	-0.018937765
186	0x3c0ee243	0.008720937
187	0xbb0adeb4	-0.002118987
188	0xbc045322	-0.008076461
189	0x3c698387	0.01425255
190	0xbb81b291	-0.0039580544
191	0x3ae086c4	0.0017130007
192	0xbb2fecfc	-0.0026844135
193	0x3b88421b	0.004158271
194	0x3bfb68d0	0.0076724067
195	0xbb2947c9	-0.002583014
196	0x3b682961	0.0035425054
197	0x3bdfadd5	0.0068261423
198	0xbc7efe7f	-0.015563606
199	0xbb062635	-0.002046955
200	0x3bc3cbb6	0.005975212
201	0x3ba1299e	0.0049182912
202	0xbc808124	-0.015686579
203	0xbb84d21f	-0.0040533687
204	0xbcad65bf	-0.02116668
205	0x3c1d2749	0.009591886
206	0x3b9d5a29	0.0048020077
207	0x3b5ed345	0.0034000438
208	0x3b1076f3	0.0022043556
209	0x3a9b1ccb	0.0011834142
210	0x3aca05dc	0.0015413123
211	0x3b20aa09	0.0024515411
212	0x3b1221ff	0.0022298095
213	0x3c151041	0.0090981135
214	0x3c33b1c5	0.0109676765
215	0xbc8dc948	-0.017307892
216	0xbc80f6ec	-0.015742742
217	0x3c8f5d73	0.017500615
218	0xbc196b42	-0.009363951
219	0xb87612cc	-5.8668476e-05
220	0xbc19b6cf	-0.009381964
221	0x3c085708	0.008321531
222	0xbbdc8990	-0.006730266
223	0x3acc0ab5	0.0015567156
224	0xbb063204	-0.002047659
225	0x3c10f696	0.008847853
226	0x3bae0a75	0.005311305
227	0xbc114398	-0.008866213
228	0x3af2211a	0.0018473
229	0xbaf46916	-0.0018647041
230	0x3b91ad3e	0.004445701
231	0x3c7e63f4	0.01552676
232	0x3ca2b94a	0.019863743
233	0xbbbc3a6e	-0.00574427
234	0xbbef9626	-0.0073116003
235	0xbbf02bbf	-0.0073294337
236	0x3bc1ef96	0.0059184534
237	0x3b796c9d	0.0038059123
238	0x3c40c82e	0.011766477
239	0x3c01cfbd	0.007923064
240	0x3c10a96c	0.008829456
241	0xbc33b5ea	-0.010968665
242	0xbca2925f	-0.019845186
243	0xb7d37aa6	-2.5210273e-05
244	0xbac669e4	-0.0015137759
245	0x3b8eda21	0.004359499
246	0xb9e69118	-0.00043977122
247	0x3a6acf64	0.0008957295
248	0x3c81e68a	0.015857
249	0xba313086	-0.0006759245
250	0x3b955b09	0.0045579714
251	0xbb32651d	-0.0027220913
252	0xbbf7f67b	-0.0075672246
253	0x3b18e8ea	0.0023332187
254	0x3bc2a98b	0.0059406213
255	0xbbe91e19	-0.0071141836

action_model._discrete_distribution.branches.2.bias f4 [2]
0	0xb9f1aecf	-0.00046097345
1	0x39f1aecc	0.00046097336

exp_avg f4 [128, 100]
0	0x00000000	0.0
1	0x3581cbf3	9.670606e-07
2	0xb601ec48	-1.9360032e-06
3	0xb0bd09f7	-1.3754392e-09
4	0xaf0b3dd0	-1.2663937e-10
5	0x3747d5f0	1.19111355e-05
6	0x3751f83f	1.251517e-05
7	0x00000000	0.0
8	0x34c83a6c	3.729541e-07
9	0x37303082	1.0501712e-05
10	0x2fedb6fd	4.324007e-10
11	0xb3d6c38a	-1.000072e-07
12	0x3431c164	1.6554765e-07
13	0x36924c79	4.3600417e-06
14	0x00000000	0.0
15	0x343783cb	1.7091149e-07
16	0x3738198f	1.09732055e-05
17	0x2f83cf38	2.3976e-10
18	0xb03ae46b	-6.799101e-10
19	0xb45a0351	-2.0304039e-07
20	0xb5825f22	-9.713442e-07
21	0x00000000	0.0
22	0x2c12788b	2.0814763e-12
23	0x373fa9f0	1.1424054e-05
24	0x2f45e6c5	1.7999031e-10
25	0xb501ccb2	-4.8354116e-07
26	0xaeb539eb	-8.2412153e-11
27	0x35c12c36	1.4392488e-06
28	0x00000000	0.0
29	0xb405e031	-1.246815e-07
30	0x3739a5e1	1.1065481e-05
31	0x2e3e90fc	4.332977e-11
32	0xaf17dcd7	-1.3811828e-10
33	0xaecce310	-9.3171804e-11
34	0xb48368b0	-2.4476822e-07
35	0x00000000	0.0
36	0x2a636014	2.0194984e-13
37	0x37258d71	9.867698e-06
38	0x2f68e69e	2.1182209e-10
39	0x358ffa1b	1.072712e-06
40	0xadc35d8f	-2.2210482e-11
41	0x3606eaee	2.0104303e-06
42	0x00000000	0.0
43	0xb42cd5e9	-1.6096568e-07
44	0x371531a9	8.8926545e-06
45	0xb59933cf	-1.1414467e-06
46	0x365d7a9f	3.300294e-06
47	0x33570e6b	5.00717e-08
48	0x35c04813	1.4326091e-06
49	0x00000000	0.0
50	0x3202b871	7.608933e-09
51	0x37221fe6	9.663379e-06
52	0x34219172	1.5047206e-07
53	0x35fe3286	1.8939179e-06
54	0xb54ffa24	-7.747751e-07
55	0x3625542e	2.4635915e-06
56	0x00000000	0.0
57	0xb4d1a2ca	-3.9047728e-07
58	0x37491424	1.1985223e-05
59	0xb64b63aa	-3.030737e-06
60	0xb54684a6	-7.3953777e-07
61	0x36511ece	3.1161358e-06
62	0x3628d544	2.5158088e-06
63	0x00000000	0.0
64	0xb48c046b	-2.6080247e-07
65	0x36f97700	7.4346317e-06
66	0xb633b429	-2.6777946e-06
67	0x36a3da93	4.883224e-06
68	0x35d3f3e3	1.5791705e-06
69	0x36efed88	7.1504073e-06
70	0x00000000	0.0
71	0x36155491	2.2251954e-06
72	0x36ace5d2	5.152754e-06
73	0x33f7d2fb	1.1540211e-07
74	0x356f009b	8.903532e-07
75	0x36359710	2.7059032e-06
76	0x3683992a	3.921935e-06
77	0xb4f927b9	-4.6408766e-07
78	0xb5796ea9	-9.292076e-07
79	0xb4adf055	-3.2398626e-07
80	0x356d2283	8.83396e-07
81	0xb5679bc3	-8.628087e-07
82	0x37325523	1.0629449e-05
83	0x3733a751	1.0708188e-05
84	0xb4f927b9	-4.6408766e-07
85	0xb5796ea9	-9.292076e-07
86	0xb4adf055	-3.2398626e-07
87	0x356d2283	8.83396e-07
88	0xb5679bc3	-8.628087e-07
89	0x37325523	1.0629449e-05
90	0x3733a753	1.070819e-05
91	0x00000000	0.0
92	0x34d8fd52	4.041745e-07
93	0x37517a28	1.24858125e-05
94	0xb95c44d0	-0.0002100647
95	0x00000000	0.0
96	0x34d8fd52	4.041745e-07
97	0x37517a28	1.24858125e-05
98	0x3a01f8e9	0.000495805
99	0x36218541	2.4068434e-06
100	0x00000000	0.0
101	0x35db366e	1.6332613e-06
102	0x3432bd0d	1.6646318e-07
103	0xb8323214	-4.2485146e-05
104	0x37d7d174	2.5727531e-05
105	0xb37ea21b	-5.9286418e-08
106	0xb748ddf3	-1.19726055e-05
107	0x00000000	0.0
108	0xb3ff2da3	-1.1882664e-07
109	0xb6f39cd0	-7.2602197e-06
110	0xb6eea11a	-7.1117074e-06
111	0xb6487db0	-2.9875482e-06
112	0x36378e20	2.7351853e-06
113	0xb7ac821a	-2.0564581e-05
114	0x00000000	0.0
115	0xb5063653	-4.999794e-07
116	0x36024330	1.9410618e-06
117	0xb7c2a672	-2.320411e-05
118	0x36cea227	6.1581554e-06
119	0x364d2066	3.0566239e-06
120	0xb79b3c25	-1.8505447e-05
121	0x00000000	0.0
122	0x34dd0617	4.116889e-07
123	0xb7ff7b8c	-3.04559e-05
124	0xb741d9ac	-1.1554377e-05
125	0x377b68a7	1.4985132e-05
126	0x375e0e71	1.32355935e-05
127	0xb6b0b44c	-5.266198e-06
128	0x00000000	0.0
129	0xb51411d0	-5.5160217e-07
130	0xb757d0f2	-1.28636475e-05
131	0xb6e1ebd7	-6.732978e-06
132	0x376ba9ab	1.4046595e-05
133	0xb629550e	-2.523247e-06
134	0xb7e676c3	-2.747344e-05
135	0x00000000	0.0
136	0x36057ff2	1.9893018e-06
137	0xb7dc4a06	-2.6260514e-05
138	0xb725c2bb	-9.880106e-06
139	0x371a6f95	9.205095e-06
140	0x3751d38b	1.2506624e-05
141	0x37916123	1.733058e-05
142	0x00000000	0.0
143	0x35035fca	4.8940694e-07
144	0xb7a3d7ea	-1.9531657e-05
145	0xb65e8844	-3.3159895e-06
146	0x36d73746	6.413934e-06
147	0x362d9c6d	2.587006e-06
148	0xb6aa6ed0	-5.079295e-06
149	0x00000000	0.0
150	0x342ae5f4	1.591614e-07
151	0xb83d8a7c	-4.5190085e-05
152	0x37c9caf7	2.405558e-05
153	0x377d110a	1.5083942e-05
154	0xb6ca028a	-6.0203647e-06
155	0xb53338c8	-6.6765324e-07
156	0x00000000	0.0
157	0x34dd5b93	4.1231087e-07
158	0xb847b903	-4.7617603e-05
159	0x3722f8af	9.713854e-06
160	0x37ea0bf3	2.7900538e-05
161	0xb63a4412	-2.7755782e-06
162	0xb5c1c6ed	-1.4437516e-06
163	0x00000000	0.0
164	0x354c61ad	7.613806e-07
165	0xb846018f	-4.720833e-05
166	0x373b851a	1.1177059e-05
167	0x37056908	7.951872e-06
168	0x37760d64	1.466586e-05
169	0x369c9b7b	4.6672626e-06
170	0x00000000	0.0
171	0x35dfd8aa	1.6677852e-06
172	0xb81616b1	-3.578392e-05
173	0x37116c22	8.66785e-06
174	0x374b76d5	1.2127411e-05
175	0x3512b01d	5.4645517e-07
176	0xb72a3eb2	-1.0147387e-05
177	0x31a2fea8	4.7437716e-09
178	0x35029cb0	4.8656784e-07
179	0x358237d8	9.702007e-07
180	0x36f98a3c	7.436871e-06
181	0xb550a4c6	-7.7725815e-07
182	0xb7ae8210	-2.0802981e-05
183	0xb799bec4	-1.8327853e-05
184	0x31a2fea8	4.7437716e-09
185	0x35029cb0	4.8656784e-07
186	0x358237d8	9.702007e-07
187	0x36f98a3c	7.436871e-06
188	0xb550a4c6	-7.7725815e-07
189	0xb7ae8210	-2.0802981e-05
190	0xb799bec4	-1.8327853e-05
191	0x00000000	0.0
192	0x391411fc	0.0001412108
193	0xb7cb9dc3	-2.427295e-05
194	0xb9f9a88e	-0.00047618564
195	0x00000000	0.0
196	0x391411fc	0.0001412108
197	0xb7cb9dc3	-2.427295e-05
198	0x39cb7a0e	0.00038810115
199	0x36284572	2.5074373e-06
200	0x00000000	0.0
201	0x3497313b	2.8161762e-07
202	0xb39d824d	-7.334584e-08
203	0x37780754	1.4783658e-05
204	0xb6115a60	-2.165929e-06
205	0x3490cb3e	2.6969968e-07
206	0x36c429f8	5.846141e-06
207	0x00000000	0.0
208	0xb4110209	-1.3504918e-07
209	0x36656f58	3.418847e-06
210	0x36dd2860	6.5910135e-06
211	0x363d61ae	2.8220052e-06
212	0xb4371138	-1.7049467e-07
213	0x36e140ce	6.713067e-06
214	0x00000000	0.0
215	0x350e8d08	5.310435e-07
216	0xb3e3caf0	-1.0607425e-07
217	0x37410ee6	1.1507165e-05
218	0x3527ed42	6.2557604e-07
219	0xb34735d6	-4.638226e-08
220	0x370703fe	8.047557e-06
221	0x00000000	0.0
222	0xb37188aa	-5.623648e-08
223	0x37328031	1.0639474e-05
224	0x36947b1a	4.4250746e-06
225	0x3467d002	2.1589224e-07
226	0xb63d7757	-2.823266e-06
227	0x36b8d8d5	5.50887e-06
228	0x00000000	0.0
229	0xb469b2bf	-2.1764843e-07
230	0x37016c11	7.71416e-06
231	0x361c035d	2.324777e-06
232	0x34e5e047	4.2817757e-07
233	0x354b7448	7.5792605e-07
234	0x37410921	1.1505822e-05
235	0x00000000	0.0
236	0xb4ca8ec0	-3.7729296e-07
237	0x37227c9c	9.684965e-06
238	0x36b9a30e	5.5324117e-06
239	0x357e4eeb	9.4737214e-07
240	0xb674b452	-3.6463794e-06
241	0xb5d8d13a	-1.6154147e-06
242	0x00000000	0.0
243	0xb47f3dcd	-2.3771209e-07
244	0x3724d982	9.825804e-06
245	0x35cb8d99	1.5165889e-06
246	0x36343086	2.6850335e-06
247	0xb5bd6f47	-1.4113983e-06
248	0x36c70fda	5.9325075e-06
249	0x00000000	0.0
250	0xb2b4e285	-2.1057767e-08
251	0x379ed9f4	1.893656e-05
252	0xb6ab2c46	-5.1013512e-06
253	0xb641e99d	-2.8895222e-06
254	0x358f35e4	1.0670014e-06
255	0x3643b60b	2.9163227e-06
