MLBase/results/Stage2/CaptureTheFlag/CaptureTheFlag-190127.pt (torch, 744091 bytes, 46 tensors)

discrete_act_size_vector f4 [1, 3]
0	0x40400000	3.0
1	0x40400000	3.0
2	0x40000000	2.0

network_body._body_endoder.seq_layers.0.weight f4 [128, 100]
0	0xbdbe1f60	-0.09283328
1	0xbd8f326b	-0.06992038
2	0xbc4a1520	-0.012334138
3	0xbd8c4486	-0.06849007
4	0x3d25a16f	0.04043716
5	0xbcaadf12	-0.020858321
6	0x3df72b6d	0.1206883
7	0xbd8abfd4	-0.067748696
8	0xbd89ca91	-0.067280896
9	0x3d279b7a	0.04091976
10	0xbdf6bd39	-0.1204781
11	0xbe269ec6	-0.16271505
12	0xbe43a39e	-0.19105384
13	0xbddeea3d	-0.10884521
14	0x3d94379b	0.072371684
15	0x3cbfc11b	0.02340751
16	0x3bae92f9	0.005327579
17	0xbbd0654c	-0.006359732
18	0xbdd41fb3	-0.10357609
19	0xbdcf1d99	-0.10113067
20	0x3e45b2a6	0.1930643
21	0xbc4562ae	-0.012047453
22	0x3df784ae	0.120858535
23	0xbd3b1508	-0.045674354
24	0x3ebe5e4f	0.37181327
25	0xbd1d39bf	-0.03838515
26	0x3e119e4a	0.14220539
27	0xbd3b2b40	-0.045695543
28	0x3df9617e	0.12176798
29	0xbd2189e5	-0.039438147
30	0x3dcdf634	0.10056725
31	0x3d854c94	0.06508747
32	0xbd68f728	-0.05687633
33	0xbd64718d	-0.055772353
34	0x3d36947f	0.04457521
35	0xbdee3289	-0.116307326
36	0x3c356a27	0.011072672
37	0x3dbf7578	0.09348577
38	0x3df71667	0.1206482
39	0x3d761cbc	0.060085997
40	0x3eabeeb0	0.33580542
41	0x3b76aa13	0.0037637993
42	0x3dc2dd4f	0.095148675
43	0x3d6f5dce	0.05843907
44	0x3d32073e	0.043463938
45	0x3c675760	0.014119953
46	0x3c87bbba	0.016569007
47	0x3def4fab	0.11685117
48	0xbd962914	-0.07332054
49	0x3e34bb1c	0.17649502
50	0x3c88a5f8	0.016680703
51	0xbe69cd89	-0.22832312
52	0xbd9cdff1	-0.07659901
53	0xbb5fa603	-0.003412605
54	0x3da71f2c	0.081602424
55	0xbdfeeaa1	-0.12447096
56	0xbde98abe	-0.11403416
57	0xbd74563f	-0.059652563
58	0x3ea9716c	0.33094347
59	0xbe26a44e	-0.16273615
60	0x3c576564	0.013146732
61	0xbc84b98b	-0.016201755
62	0x3e3348b1	0.17508198
63	0xbd32e999	-0.043679807
64	0xbe5818b2	-0.2110317
65	0xbdb36cc0	-0.08760977
66	0x3df99208	0.121860564
67	0x3de9f104	0.11422923
68	0xbe03e554	-0.1288045
69	0x3d41313f	0.047166105
70	0xbdba8e1f	-0.09109139
71	0x3e999e7f	0.30003735
72	0x3d34c4d0	0.044133008
73	0x3c9d0fd5	0.019172588
74	0xbcfe256b	-0.031023702
75	0xbd576d08	-0.052594215
76	0xbe00a6c4	-0.12563616
77	0xbd95b802	-0.07310487
78	0xbc933425	-0.0179692
79	0x3df4a7e2	0.119460836
80	0x3e8ad949	0.271189
81	0xbccc7a89	-0.024960773
82	0x3dcad30f	0.099035375
83	0x3d034657	0.032049503
84	0xbe0adaa0	-0.13559961
85	0xbd834509	-0.06409652
86	0x3e401ed0	0.18761754
87	0x3d8a8366	0.067633435
88	0xbc85947a	-0.01630615
89	0xbd47c9f6	-0.04877659
90	0x3e1a141f	0.15046738
91	0xbd98e3d7	-0.07465332
92	0xbde05624	-0.1095393
93	0xbda8ad91	-0.0823623
94	0xbd60ddb0	-0.054898918
95	0x3d0201a6	0.031739853
96	0x3db18a6a	0.086689785
97	0xbe0d686c	-0.13809365
98	0x3e5d900e	0.21636984
99	0xbe37949d	-0.17927785
100	0x3c0044ab	0.007828872
101	0x3dda0760	0.10645938
102	0xbdc30b20	-0.09523606
103	0xbd0a9bc3	-0.033839952
104	0xbdca4bcb	-0.098777376
105	0xbda6ac32	-0.081383124
106	0x3cfa3f0e	0.030547645
107	0xbdc8ac2a	-0.09798463
108	0x3b8a11d4	0.004213551
109	0xbe5c066f	-0.21486829
110	0x3d05befd	0.032652844
111	0x3d698adf	0.057017203
112	0xbe112dc7	-0.14177619
113	0x3dd58470	0.10425651
114	0xbcbe514d	-0.023232127
115	0xbdc7ff74	-0.09765521
116	0xbdacae08	-0.08431631
117	0x3ca09f0b	0.019607088
118	0x3e5996e2	0.21248963
119	0x3d61b77e	0.055106632
120	0xbde05c9d	-0.109551646
121	0x3e1b671f	0.15176056
122	0x3e07c22e	0.13257667
123	0x3d183569	0.03716031
124	0x3d4d4f31	0.05012435
125	0xbda87f0a	-0.08227356
126	0xbe3c5b31	-0.18394162
127	0x3e58f2b7	0.21186338
128	0x3dbc3146	0.09189086
129	0xbdbd72ec	-0.09250435
130	0xbd0a87ea	-0.033821024
131	0x3d914737	0.07093661
132	0xbd7a80d8	-0.06115803
133	0x3ccd59b1	0.025067182
134	0x3e62ad59	0.2213644
135	0xbc0477a1	-0.008085162
136	0xbda64d62	-0.08120228
137	0xbabfb5a9	-0.0014626283
138	0x3df58a9b	0.119893275
139	0x3c3a4d60	0.011370987
140	0x3d1b43b1	0.037906352
141	0xbddc86ae	-0.107678756
142	0x3d44c7f8	0.048042268
143	0xbb2dc863	-0.0026517145
144	0x3dbdf712	0.092756405
145	0xbc8af766	-0.016963672
146	0xbb830769	-0.003998686
147	0xbda9e137	-0.082949094
148	0x3d0dc407	0.034610774
149	0x3c8aff12	0.01696733
150	0x3d8da0d5	0.06915442
151	0x3e1d2ff3	0.15350322
152	0xbde99227	-0.114048295
153	0x3cdf474f	0.027255682
154	0x3d746446	0.05966594
155	0x3db046f3	0.086072825
156	0x3d965a22	0.0734141
157	0xbddda47d	-0.10822389
158	0x3b3ad2d4	0.002850701
159	0xbe3cf1bb	-0.18451588
160	0xbe21f6e3	-0.15816836
161	0x3d60016b	0.054688852
162	0xbd7721c7	-0.060334947
163	0xbc931732	-0.017955396
164	0xbcbe0a19	-0.023198174
165	0xbe2cca76	-0.16874108
166	0xbc8fcc39	-0.017553436
167	0xbd4ba1b6	-0.049714766
168	0x3dc17cc9	0.09447629
169	0xbd9534e6	-0.0728548
170	0x3e97a2fe	0.2961654
171	0x3e169083	0.14703564
172	0x3d27413f	0.040833708
173	0x3cc3828b	0.023865959
174	0xbe3f8d53	-0.18706255
175	0x3c3dbab9	0.011580163
176	0xbd06f6cd	-0.03295021
177	0xbc04cf9f	-0.008106141
178	0xbde582e0	-0.11206603
179	0x3da8e06c	0.0824593
180	0xbc85dc65	-0.016340444
181	0xbd2e610d	-0.042573024
182	0x3d8facfb	0.07015415
183	0xbc779591	-0.015111343
184	0xbe83b534	-0.25724185
185	0x3ce16bb3	0.027517175
186	0xbd94a058	-0.07257146
187	0x3d8607f4	0.06544486
188	0x3d806cd9	0.06270761
189	0x3d8d6f79	0.06906027
190	0x3e5e9258	0.21735513
191	0xbd75f0ad	-0.06004398
192	0x3dcd1c41	0.10015155
193	0xbda9b366	-0.08286171
194	0xbcbc233f	-0.022966025
195	0xbd37fa3d	-0.04491638
196	0xbd020ddf	-0.03175151
197	0xbe155ac5	-0.14585407
198	0xbd091c39	-0.03347418
199	0x3dafee86	0.085904166
200	0xbc19ff68	-0.0093992725
201	0x3e44c9f7	0.19217668
202	0xbdad87ea	-0.08473189
203	0x3cb9a82e	0.022663202
204	0x3e2deeaa	0.16985574
205	0xbe1ae93a	-0.15128031
206	0xbe52060e	-0.20510122
207	0x3dbf54e5	0.09342364
208	0xbc16d8cc	-0.009206962
209	0x3d6558d0	0.0559929
210	0x3cb9a69f	0.022662459
211	0xbd2c4b06	-0.042063735
212	0x3dbec0cb	0.09314116
213	0xbdd185b6	-0.102305815
214	0x3cffba58	0.031216785
215	0x3db8b716	0.09019296
216	0xbe3abe24	-0.18236595
217	0x3d2ef265	0.042711634
218	0xbcec4eba	-0.028846134
219	0xbcf04158	-0.029328033
220	0x3dc36307	0.09540372
221	0xbd229b76	-0.03969904
222	0xbd228fa2	-0.03968776
223	0x3df4adef	0.11947238
224	0x3d26d175	0.040727098
225	0x3cb43c42	0.02200139
226	0xbdc09474	-0.09403315
227	0xbe04be38	-0.12963188
228	0xbdedfe52	-0.116207734
229	0xbd3cc9b8	-0.04609081
230	0xbccee590	-0.025255948
231	0x3e4516e7	0.19247018
232	0x3e455c43	0.19273476
233	0xbd6660a4	-0.056244507
234	0xbdcbd95e	-0.09953569
235	0x3e2db18c	0.1696226
236	0x3dfb4e72	0.12270822
237	0x3d33cafa	0.043894745
238	0xbd77e19e	-0.0605179
239	0x3da307f5	0.07960502
240	0x3e0f3ba1	0.1398759
241	0x3c7db11f	0.0154841235
242	0xbdbaf925	-0.09129552
243	0xbd3b635c	-0.045749053
244	0x3d2e3731	0.042533103
245	0x3cd6e6d8	0.026233122
246	0xbd83eb97	-0.064414196
247	0x3d0d47ae	0.034492187
248	0x3d949b35	0.07256166
249	0xbe503661	-0.20333244
250	0x3d9d34cb	0.07676085
251	0xbda6bb58	-0.08141202
252	0x3db5262a	0.0884517
253	0x3eb0b469	0.34512642
254	0xbe66afa2	-0.22527936
255	0xbc575376	-0.013142457

network_body._body_endoder.seq_layers.0.bias f4 [128]
0	0xbaddbdfa	-0.0016917579
1	0xbc007486	-0.007840281
2	0xbc02eb87	-0.007990724
3	0xbca43d93	-0.020048892
4	0x3c7bed06	0.015376335
5	0xbc5ee65c	-0.013604727
6	0xb97f9d87	-0.00024377379
7	0x3a9b4d0e	0.0011848526
8	0x3b842656	0.0040328903
9	0x3b98bd08	0.004661206
10	0x3c515a50	0.01277788
11	0xbc707a40	-0.014677584
12	0x3af319b8	0.0018547093
13	0xbc2c777c	-0.010526534
14	0x3a127b20	0.0005587805
15	0x3ca071a3	0.019585436
16	0xbc6c5b3e	-0.014426051
17	0xbb9b7668	-0.0047443397
18	0x3c285345	0.010273759
19	0xbab2141c	-0.0013586315
20	0xb975a6cf	-0.00023427162
21	0x3c9e9546	0.019358288
22	0x3b2162ac	0.0024625463
23	0xbb6ae805	-0.003584386
24	0xbacca4b7	-0.0015613054
25	0xbc9bd293	-0.019021308
26	0xbc8e0118	-0.017334506
27	0xba27654c	-0.0006385639
28	0xbb69da66	-0.0035683154
29	0x3b0566cb	0.002035546
30	0xba30b246	-0.0006740432
31	0xbbeade1d	-0.0071675912
32	0x3ac63583	0.0015122149
33	0xbbc83889	-0.006110255
34	0xbaed72fc	-0.0018115933
35	0xbc107daf	-0.008819028
36	0xbada7d9d	-0.0016669516
37	0xbc042aca	-0.008066842
38	0x3cc25ecf	0.023726849
39	0x3b865005	0.0040988945
40	0xbbc15033	-0.005899453
41	0xbc5b6e72	-0.013393031
42	0x3c71ff50	0.014770344
43	0x3c9d1e99	0.01917963
44	0x3bfcf3af	0.007719479
45	0xbbe0db1e	-0.0068620583
46	0xbc015131	-0.007892893
47	0xbb14aafc	-0.0022684922
48	0xbc2dd7fa	-0.010610575
49	0xbb84e874	-0.004056031
50	0x3bd47bc3	0.00648448
51	0x3c453c1e	0.012038259
52	0xbbff57d5	-0.007792453
53	0x3b9a298a	0.004704659
54	0xbbe1c125	-0.0068894797
55	0xbc57be43	-0.0131679205
56	0x3bf0b890	0.0073462203
57	0xbd01438a	-0.03155855
58	0x3b92e43c	0.004482774
59	0x3c14ea57	0.009089074
60	0xbbcddf96	-0.006282757
61	0xbbb1e041	-0.0054283445
62	0x3b68895e	0.0035482268
63	0xbc7c424c	-0.015396666
64	0x3af25ef0	0.0018491428
65	0x3cce12b6	0.025155406
66	0x3a94f302	0.0011363926
67	0x3c34a787	0.01102627
68	0xba2e7c81	-0.0006656126
69	0x3c698983	0.014253977
70	0x3b686418	0.003546005
71	0x3be9384e	0.0071173077
72	0xbb5092a6	-0.003182569
73	0x3ca3d56c	0.019999228
74	0x3cfddd89	0.030989425
75	0xb9c99496	-0.00038448413
76	0xbc9a910b	-0.01886799
77	0x3c54145d	0.012944308
78	0xbb8b3490	-0.0042482093
79	0xbcb63910	-0.022244006
80	0x3be6df2f	0.0070456485
81	0xbc857410	-0.016290694
82	0xbc2a474f	-0.010392978
83	0x3c2848af	0.010271235
84	0x39fda917	0.00048381902
85	0xbba003a6	-0.0048832474
86	0x3b4e3559	0.0031464903
87	0xbb021532	-0.001984906
88	0xbc658895	-0.0140096145
89	0xbc28a8dc	-0.010294165
90	0x3aa25667	0.0012385369
91	0xbc439bf9	-0.011939042
92	0xbc665e3e	-0.014060555
93	0x3b5c08ca	0.0033574575
94	0x3d24ce4b	0.0402358
95	0xbbcd03b4	-0.006256545
96	0x3cb9b9aa	0.02267154
97	0xbc9aacc2	-0.018881205
98	0xbb4be38f	-0.0031110977
99	0x3b31f99d	0.0027156838
100	0xbb19ba19	-0.002345687
101	0xbc122f9d	-0.008922485
102	0x3a848d30	0.0010112878
103	0x3c5dbd6f	0.013533934
104	0x3cd9f6bb	0.026606908
105	0x3b845689	0.004038636
106	0xbc5ae8ad	-0.013361138
107	0x3abcbfdb	0.0014400439
108	0x3bcb2f15	0.006200681
109	0x3bed74c7	0.007246587
110	0xb9579856	-0.00020560747
111	0x3cd95456	0.026529472
112	0xbbd951fa	-0.006632087
113	0x3c03eb2b	0.008051674
114	0xbc4dde00	-0.012565136
115	0x3c590c7f	0.013247608
116	0x3bb9d39f	0.005670979
117	0x3c765b3f	0.015036403
118	0x3b89258a	0.004185383
119	0x3c3ad8a0	0.0114041865
120	0xbaa603bd	-0.0012665909
121	0x3bf57927	0.007491249
122	0x3c434467	0.011918164
123	0xb987c831	-0.0002589836
124	0x3d37fc2a	0.044918217
125	0x3cfeca8e	0.031102445
126	0xbc949ef9	-0.01814221
127	0xbcafd045	-0.021461615

network_body._body_endoder.seq_layers.2.weight f4 [128, 128]
0	0x3c0d33e2	0.008618327
1	0xbe4c8b3b	-0.19974987
2	0x3db540b1	0.088502295
3	0xbdb0ce72	-0.08633126
4	0xbcadfdae	-0.021239128
5	0xbdc71171	-0.097201236
6	0x3cbea23a	0.023270715
7	0xbd9de010	-0.07708752
8	0xbd629c9e	-0.055325143
9	0xbcb59e52	-0.02217022
10	0x3ddb83d2	0.10718502
11	0x3d67661a	0.056493856
12	0xbd5d254d	-0.05399065
13	0x3cc454da	0.023966242
14	0xbd560b45	-0.05225684
15	0xbd3e5d1f	-0.046475526
16	0x3dcf0fb6	0.101104185
17	0x3df84ee9	0.12124426
18	0xbd35c645	-0.044378538
19	0xbcaf5058	-0.021400616
20	0xbd91ecdb	-0.07125255
21	0x3d451202	0.048112877
22	0x3d957fe8	0.07299787
23	0xbc2db962	-0.010603281
24	0x3bd8664f	0.006603993
25	0x3db6b858	0.089218795
26	0x3dc929f7	0.09822457
27	0x3e11aa9a	0.14225236
28	0xbd6287b7	-0.05530521
29	0xbc79ebc8	-0.015253969
30	0x3de1e2b5	0.11029569
31	0x3e0474da	0.129352
32	0x3d2a03bf	0.04150748
33	0x3df36915	0.11885277
34	0x3d456a52	0.048197098
35	0xbda10ea5	-0.07864121
36	0xbd33e4eb	-0.043919485
37	0xbd61b877	-0.05510756
38	0x3c805d03	0.015669351
39	0xbc949edd	-0.018142158
40	0x3cf21a8b	0.029553672
41	0xbd612517	-0.054967012
42	0x3d9c240e	0.076240644
43	0x3db6c60a	0.08924492
44	0xbdcb95b9	-0.09940667
45	0xbc8d8642	-0.017275933
46	0xbde1ed21	-0.11031557
47	0x3dbe613b	0.09295889
48	0x3c6c864c	0.014436316
49	0x3e0f7be2	0.14012101
50	0x3941059a	0.00018408001
51	0xbcb5b4c5	-0.022180924
52	0x3c9b381b	0.018947652
53	0x3d8a8fbf	0.06765699
54	0xbd3418e6	-0.043969058
55	0xbd0359df	-0.03206813
56	0xbd1c8034	-0.0382082
57	0x3d3b0ff5	0.045669515
58	0xbd94f7d7	-0.07273834
59	0x3d2f4024	0.04278578
60	0x3d8a4f02	0.06753351
61	0x3e246962	0.16055825
62	0xbdbab037	-0.091156416
63	0xbd67462a	-0.056463398
64	0x3da3f4ac	0.08005652
65	0xbdf03479	-0.11728758
66	0xbd398677	-0.04529425
67	0xbc9f9612	-0.019480739
68	0xbd07b70a	-0.033133544
69	0x3d255c36	0.040371142
70	0x3dd94723	0.106092714
71	0x3cb30baa	0.021856148
72	0xbd2cd989	-0.042199645
73	0x3d75d16d	0.060014177
74	0xbdd8fb4d	-0.10594807
75	0xbe292e79	-0.16521634
76	0xbcd94c75	-0.026525715
77	0xbdd959fa	-0.10612865
78	0x3cfcf9fb	0.030880919
79	0x3daf5c79	0.0856256
80	0xbcab60a4	-0.020920105
81	0xbe5e21f7	-0.21692644
82	0x3c706727	0.014673031
83	0x3be5b08a	0.0070095705
84	0xbe08bff7	-0.13354479
85	0x3d9b9f30	0.07598722
86	0xbd578d42	-0.05262495
87	0xbdbdd9be	-0.09270047
88	0x3da7401b	0.08166524
89	0xbd632cd3	-0.05546267
90	0xbd7b112d	-0.061295677
91	0xbd3470a8	-0.04405275
92	0xbd1838f0	-0.037163675
93	0xbb868342	-0.0041050026
94	0x3d5a0a2d	0.05323236
95	0x3ce4acc4	0.027914412
96	0xbd9ff4af	-0.078103416
97	0xbe312502	-0.17299274
98	0xbdaca0f7	-0.08429139
99	0xbd9af476	-0.075661585
100	0x3d64b3de	0.055835597
101	0xbe1b7dbf	-0.15184687
102	0x3dd96667	0.10615235
103	0xbcf603f0	-0.030031174
104	0x3d09c302	0.03363324
105	0xbd8e5679	-0.06950087
106	0xbd91d424	-0.07120541
107	0xbdf344aa	-0.11878331
108	0xbd89512e	-0.06704937
109	0xbb7c234e	-0.0038473192
110	0x3dc477b1	0.09593142
111	0x3d89106e	0.06692587
112	0xbd5d1c7d	-0.053982247
113	0xbd717d2d	-0.058957268
114	0x3da8a148	0.08233887
115	0x3e1c9229	0.1529013
116	0x3c89549e	0.016763981
117	0xbcb63f5f	-0.022247015
118	0xbde96888	-0.11396891
119	0xbd79a95c	-0.06095253
120	0xbe5a7d89	-0.2133695
121	0x3cd5481a	0.026035357
122	0x3e18f101	0.14935686
123	0xbd91a1a0	-0.07110906
124	0x3e2d9c57	0.1695417
125	0x3d8670eb	0.06564506
126	0x3d72fffc	0.059326157
127	0xbd4fc7f2	-0.050727792
128	0xbdb9086e	-0.09034811
129	0x3c20c295	0.009812017
130	0x3e0a6d37	0.13518225
131	0xbe07b1ef	-0.1325147
132	0xbd142f71	-0.036178056
133	0xbdf771a9	-0.12082226
134	0xbce9afff	-0.028526304
135	0x3e05714b	0.13031499
136	0xbc142a28	-0.009043254
137	0xbbbf25e8	-0.005833376
138	0xbe09fe1c	-0.13475841
139	0xbe061692	-0.13094547
140	0xbcd94c2d	-0.026525581
141	0x3dd14283	0.10217764
142	0x3da0fca9	0.07860691
143	0xbc708572	-0.014680253
144	0x3dddfe48	0.10839516
145	0xbd66cc8e	-0.056347422
146	0x3da32474	0.07965937
147	0xbe366da5	-0.17815264
148	0x3d65d478	0.05611083
149	0xbca989b3	-0.020695543
150	0xbd97c596	-0.074107334
151	0x3dc74ac7	0.097310595
152	0xbd8c4b20	-0.068502665
153	0xbb8a1747	-0.0042142007
154	0xbd658a7a	-0.056040265
155	0xbe039616	-0.12850222
156	0x3ce81e24	0.028334685
157	0x3c292ad2	0.010325151
158	0xbbcb9587	-0.0062128934
159	0xbd0484db	-0.032353263
160	0xbd43e895	-0.04782923
161	0x3ca8209e	0.020523366
162	0x3b6f1b95	0.0036484946
163	0x3c87fa2b	0.016598782
164	0x3e6f54c4	0.2337218
165	0xbde866a5	-0.11347703
166	0xbc9113a7	-0.017709566
167	0x3d3346f5	0.04376884
168	0x3c821b2a	0.015882093
169	0xbd682d91	-0.05668408
170	0x3acd5592	0.0015665761
171	0xbe246d70	-0.16057372
172	0x3d24ba73	0.040216874
173	0xbc9a9047	-0.018867625
174	0xbc419878	-0.011816137
175	0x3cd77545	0.026301036
176	0xbe1bdae9	-0.15220226
177	0x3e065e11	0.13121821
178	0x3e4a395b	0.19748442
179	0xbc90ffa2	-0.01770002
180	0x3ddd49b6	0.10805075
181	0xbdd89caf	-0.1057676
182	0xbd08d50c	-0.033406302
183	0xbdd0ac48	-0.1018911
184	0xbd8549c8	-0.06508213
185	0x3d1ae451	0.037815396
186	0x3d3fad80	0.046796322
187	0xbd6439aa	-0.055719055
188	0x3da68076	0.08129971
189	0x3df5dc3f	0.12004899
190	0xbba2a261	-0.0049632047
191	0xbdcd6c80	-0.1003046
192	0xbd825f4e	-0.06365834
193	0x3da30736	0.0796036
194	0xbe149003	-0.14508061
195	0xbc437ff6	-0.011932364
196	0x3c48a0da	0.012245381
197	0xbdc28171	-0.09497345
198	0xbc90c006	-0.017669689
199	0xbcfda8e8	-0.03096433
200	0xbe7981f1	-0.24365975
201	0x3dea1517	0.11429804
202	0x3e41e678	0.18935573
203	0xbe1f02c3	-0.15528397
204	0x3df71a4d	0.12065563
205	0xbd907587	-0.070536666
206	0xbd9cf694	-0.076642185
207	0xbd7ace2b	-0.061231773
208	0x3d00acb3	0.0314147
209	0x3d4779ae	0.048700027
210	0x3d62223f	0.05520844
211	0x3dd774ff	0.10520362
212	0xbba81839	-0.0051298407
213	0xbd1ad9b9	-0.037805293
214	0x3e423076	0.18963799
215	0xbc95931b	-0.018258622
216	0xbc03c431	-0.008042381
217	0x3da4b105	0.08041576
218	0xbd95d68d	-0.07316313
219	0xbdbbced9	-0.091703124
220	0x3dd4a281	0.10382558
221	0xbce6d34a	-0.028176922
222	0xbd9b4d3f	-0.07583093
223	0x3e232ee4	0.15935856
224	0xbd27148d	-0.040791083
225	0xbd06ad76	-0.03288027
226	0xbc4e39c7	-0.012587017
227	0xbd7f2d90	-0.06229931
228	0x3e1f3dc8	0.15550911
229	0xbd79cd49	-0.06098679
230	0xbda92dc8	-0.08260685
231	0xbd0927f1	-0.033485357
232	0xbda3f321	-0.080053575
233	0x3dae04c1	0.084970005
234	0xbe082f08	-0.13299191
235	0x3c38f0bf	0.011287867
236	0xbdacc4ea	-0.08435996
237	0x3e319761	0.17342903
238	0x3cf16556	0.029467266
239	0xbd9f0407	-0.0776444
240	0xbe1a6751	-0.15078475
241	0xbd90a02d	-0.07061801
242	0xbe3ee6c2	-0.18642715
243	0xbd53b8ba	-0.05168984
244	0x3c2d9a3b	0.010595853
245	0x3d67834d	0.056521703
246	0x3c9525da	0.018206526
247	0xbd18d03e	-0.03730797
248	0x3c86ad43	0.01644004
249	0x3e444b29	0.19169296
250	0xbda665c1	-0.08124877
251	0x3dddd3b5	0.108313955
252	0x3bc262b2	0.0059321756
253	0x3c05c5e0	0.008164853
254	0x3b6637bb	0.0035128433
255	0xbe241cf1	-0.16026665

network_body._body_endoder.seq_layers.2.bias f4 [128]
0	0x3ac25411	0.0014826079
1	0xbc1d203a	-0.009590203
2	0xbcb84af5	-0.02249668
3	0x3cc91467	0.024545861
4	0x3bdafee3	0.006683217
5	0x3ae12a17	0.0017178681
6	0xbbfcdba2	-0.007716612
7	0x3bb22fdd	0.0054378347
8	0x3d3cc8a6	0.04608979
9	0x3c1dafc7	0.009624428
10	0x3cb7e07b	0.022445908
11	0xbc628b1c	-0.013827112
12	0x3b92717e	0.0044690957
13	0xbb225816	-0.0024771742
14	0x3b8b0901	0.0042430167
15	0x3c93e661	0.01805419
16	0xbc5fcf40	-0.013660252
17	0x3d6104fa	0.054936387
18	0xb99e5b8a	-0.0003020431
19	0x394792e4	0.0001903284
20	0x3a521911	0.00080145994
21	0xbb3ce87a	-0.002882509
22	0x3cf2bd50	0.029631287
23	0xbb7dcd7a	-0.003872721
24	0xbc814183	-0.015778309
25	0x3bcbfb88	0.006225053
26	0xbc818df0	-0.015814751
27	0xbc22a247	-0.009926385
28	0x3b265ef9	0.0025386198
29	0xbbd99d00	-0.0066410303
30	0x3be338b6	0.0069342507
31	0x3c0fd986	0.008779889
32	0xbbec8191	-0.007217594
33	0x3c06ff3d	0.0082395645
34	0xbbe1d738	-0.006892111
35	0x3c6dc2d8	0.014511786
36	0xbc885c91	-0.016645702
37	0xbbbfad0d	-0.0058494867
38	0xbb8fffd6	-0.0043945117
39	0xbbc38dcf	-0.0059678326
40	0xbb65d7be	-0.003507122
41	0xbc8a85e5	-0.016909549
42	0x3c525785	0.012838249
43	0x3ac82f7d	0.0015272942
44	0x3c5e7f00	0.013580084
45	0xbb5d5746	-0.0033773943
46	0x3d5a3675	0.05327459
47	0x3b1e7c4b	0.002418297
48	0xbcb7d93d	-0.022442454
49	0x3c9926e4	0.018695302
50	0xbaffda44	-0.0019520004
51	0x3b226919	0.0024781881
52	0x3b66e77c	0.003523319
53	0xba31418c	-0.00067617814
54	0x3af90d2a	0.0019001116
55	0x3c1c147e	0.00952637
56	0x3baf9674	0.0053585116
57	0xbc1341f0	-0.008987889
58	0x3b8df5d3	0.004332283
59	0x3d210422	0.039310582
60	0xbab15fc8	-0.0013532573
61	0x3ae148d2	0.001718784
62	0x3c9fc848	0.019504681
63	0xbb8e4b33	-0.0043424605
64	0xbade78dc	-0.0016973275
65	0x3c50a7cb	0.012735317
66	0x3c832225	0.016007492
67	0xbc4f5389	-0.012654194
68	0x3b8c87b1	0.0042886366
69	0x3cfa55d9	0.030558513
70	0xbb47340c	-0.0030396013
71	0xbc3d3f34	-0.011550713
72	0x39c32a2f	0.00037224728
73	0x3c31572c	0.010824006
74	0xbc1fbba5	-0.009749328
75	0x3c6825bb	0.014169152
76	0x3bdc0a01	0.0067150597
77	0x3cc458a9	0.023968058
78	0xbb5ebcbe	-0.003398701
79	0xbc194815	-0.009355565
80	0xbb943cbb	-0.004523841
81	0xba162d27	-0.0005728774
82	0xbba1d2ec	-0.004938474
83	0x3a6feca5	0.0009152389
84	0xbbec8aa5	-0.007218676
85	0x3b236af2	0.002493557
86	0xbc9b6f7f	-0.018974064
87	0x3b942ca0	0.0045219213
88	0x39f01e14	0.00045798777
89	0x3bca61f2	0.006176227
90	0xbb74f7d0	-0.0037379153
91	0xbc429b42	-0.011877837
92	0xbb91f1f6	-0.004453893
93	0x3a63fadf	0.00086967455
94	0xbbd82a38	-0.0065968297
95	0x3c567b22	0.013090881
96	0x3bf5252f	0.0074812393
97	0x3d679d0d	0.05654626
98	0x3bc78a02	0.00608945
99	0x3c8dd027	0.017311169
100	0xbb29b36f	-0.0025894304
101	0x3aa8971d	0.0012862418
102	0x3896b832	7.1868664e-05
103	0xbb8d2b21	-0.00430812
104	0x3a0cb4ee	0.0005367537
105	0x3b7a50ab	0.0038195055
106	0x3c87d081	0.016578915
107	0xbc290f69	-0.0103186155
108	0x3cd73e30	0.02627477
109	0xbc0a6cca	-0.008448789
110	0x399afe8d	0.00029562824
111	0x3b68df73	0.0035533577
112	0x3cdadec0	0.026717544
113	0xbbf2cfb2	-0.007410013
114	0xbc268bbd	-0.010165152
115	0x3d3fb1e6	0.046800517
116	0xbbcb273f	-0.006199747
117	0xbb8a836a	-0.0042270916
118	0xbb408053	-0.0029373362
119	0x3c0f015f	0.008728354
120	0x3c8436f0	0.016139477
121	0xba07ec68	-0.00051850686
122	0x3c1353d7	0.008992157
123	0xbc34feda	-0.0110470895
124	0x3ca84764	0.020541854
125	0xbbb6cceb	-0.0055786273
126	0xbb36f304	-0.0027915845
127	0x38ac14f0	8.205499e-05

action_model._discrete_distribution.branches.0.weight f4 [3, 128]
0	0x3c74490b	0.014909993
1	0xbc5b81f3	-0.0133976815
2	0x3c1d2fad	0.009593886
3	0xbb0a2792	-0.0021080715
4	0xbc59dff6	-0.013298025
5	0xbc2a48e4	-0.010393355
6	0x3c519d13	0.012793797
7	0x3c29df5c	0.010368194
8	0xbb03f3b5	-0.0020134274
9	0x3c1b7a6d	0.009489638
10	0x39f28c2e	0.0004626228
11	0xbb999066	-0.004686403
12	0x3aae4f2e	0.0013298744
13	0xbb478708	-0.0030445475
14	0xbacb77af	-0.0015523339
15	0x3c9fc88c	0.019504808
16	0xbc081a70	-0.008307084
17	0x3caa06c3	0.020755177
18	0xbc13b07e	-0.009014247
19	0x3b49099e	0.0030675898
20	0x3c5e78b9	0.013578587
21	0xbb513bce	-0.0031926516
22	0xbbb44900	-0.0055018663
23	0x3c35e497	0.011101863
24	0xbc83c3be	-0.016084548
25	0x3c9e27a3	0.01930601
26	0xbc0b3a27	-0.008497751
27	0x3bcdc9e7	0.006280172
28	0xbc39c0a1	-0.01133743
29	0x3bc79f41	0.0060919826
30	0x3c4b69d0	0.012415364
31	0xbc88fe90	-0.016722947
32	0xbc4dc1d3	-0.012558418
33	0xbad0c6be	-0.001592837
34	0x3bc29989	0.005938713
35	0x3bef99d6	0.00731204
36	0x3aa0f2fc	0.0012279446
37	0x3cb964f7	0.022631152
38	0x3b5bb40f	0.0033524071
39	0xbb99acbd	-0.0046897815
40	0x3c45c9e1	0.012072057
41	0x3abfc1ca	0.0014629897
42	0xbbf29520	-0.007403031
43	0x3c8fc172	0.017548297
44	0xbcbbabfd	-0.022909159
45	0x3b780970	0.0037847422
46	0xbb73efde	-0.003722183
47	0x3c48015d	0.012207356
48	0x3bc75c7c	0.006084023
49	0xbcf98efa	-0.030463684
50	0x3bb8c07a	0.0056381794
51	0x3b285e63	0.0025691024
52	0x3ba5d990	0.005061336
53	0xbc07126f	-0.008244141
54	0xbaf05e27	-0.0018338606
55	0x3c5082b8	0.012726478
56	0xbb810efd	-0.0039385543
57	0x3b8b18aa	0.0042448835
58	0x3c8aef83	0.016959911
59	0xbbcf9e99	-0.006336045
60	0x3c1d7449	0.009610244
61	0xbcb2c784	-0.021823652
62	0xbbcdc56f	-0.0062796394
63	0xbbdf617e	-0.006817042
64	0x3be61828	0.0070219226
65	0xbadb97d7	-0.0016753626
66	0xbb83d179	-0.004022774
67	0xbcb4e8c5	-0.02208365
68	0xbc620538	-0.01379519
69	0xbc38be02	-0.01127577
70	0xbb0f27fc	-0.00218439
71	0x3b08e2ae	0.0020887065
72	0x3bc3461f	0.005959287
73	0x3b654355	0.003498276
74	0x3ba50421	0.0050358926
75	0xbbdee2ed	-0.006801954
76	0x3c529a4b	0.012854169
77	0xbb2f17b4	-0.002671701
78	0x3c635d2e	0.013877196
79	0xbb12d97c	-0.0022407463
80	0xbaeb52c0	-0.0017953739
81	0xbc0b7ad7	-0.008513174
82	0x3b021401	0.001984835
83	0xbbdb0eca	-0.0066851126
84	0x3bf54212	0.007484683
85	0xbbd807b3	-0.0065927147
86	0x3beac822	0.007164971
87	0x3a8cb827	0.0010736034
88	0x3c7fab22	0.015604766
89	0x3b82a75f	0.0039872373
90	0xbcbf82f2	-0.02337787
91	0x3b39a1fe	0.0028325315
92	0x3b31fc19	0.0027158319
93	0x3b242871	0.002504852
94	0x3ae989b9	0.0017817534
95	0xbcbd3327	-0.02309568
96	0x3b6f055e	0.0036471705
97	0xbc8c6633	-0.017138576
98	0x3af02544	0.0018321653
99	0xbc9d9cd9	-0.01923983
100	0xbbbd2b8c	-0.0057730135
101	0x3bde2119	0.006778848
102	0xb8dcfbf4	-0.000105373474
103	0x3aeef94d	0.0018232256
104	0xbc3fe736	-0.01171284
105	0xbc3f7efc	-0.01168799
106	0x3ad484c3	0.0016213882
107	0xba61c42b	-0.00086123
108	0x3c1d034f	0.009583308
109	0x3badca68	0.0053036697
110	0x3bcf4f85	0.006326618
111	0xbb5b30ad	-0.003344576
112	0xbc319931	-0.010839746
113	0xb8f4bc90	-0.00011669949
114	0xbbedd9ef	-0.0072586457
115	0xbc4bed10	-0.012446657
116	0x3c21a657	0.009866319
117	0xba7bef6b	-0.0009610566
118	0xbb1c0194	-0.0023804652
119	0xbc4982b3	-0.0122992275
120	0xbbc65dc7	-0.0060536596
121	0xbc43cdd9	-0.011950933
122	0xbc13f883	-0.009031418
123	0x3ba9d608	0.005182985
124	0xb9b9035a	-0.00035288447
125	0xbc6c703e	-0.0144310575
126	0x3c4af11b	0.012386586
127	0x3ae1aef7	0.0017218281
128	0x3964dd07	0.00021826114
129	0xbbb87b4f	-0.005629934
130	0x3b6eddc9	0.0036448112
131	0x3ba4f1d6	0.005033712
132	0x3c257b9b	0.010100271
133	0xbb61efe4	-0.0034475261
134	0xbb4ebf8a	-0.0031547272
135	0xbca2194a	-0.01978745
136	0x3b2a4a53	0.0025984242
137	0x3b86bebb	0.0041120923
138	0xbbccb26f	-0.006246857
139	0xbbf5993d	-0.007495074
140	0xbb2e5e96	-0.002660667
141	0x3b040a32	0.0020147678
142	0xbc1c54e2	-0.009541722
143	0x3b4984b1	0.0030749256
144	0xbba83b05	-0.005133989
145	0xbc833202	-0.016015057
146	0xbb0e682a	-0.0021729567
147	0xba33f7ed	-0.0006865252
148	0xbc706911	-0.014673487
149	0xbbf65fdc	-0.0075187515
150	0x3cea43ab	0.02859672
151	0xbba13819	-0.0049200174
152	0x3b0d0700	0.0021519065
153	0xbb8baf75	-0.0042628595
154	0xbb561162	-0.003266417
155	0xbb86c2bc	-0.0041125696
156	0x3b84077f	0.004029214
157	0xbba4b23b	-0.0050261295
158	0xbb9fce84	-0.0048769135
159	0xbc1b5036	-0.009479573
160	0x3b997eb2	0.0046842927
161	0x3c14581c	0.00905421
162	0x3a5fdeff	0.0008540004
163	0xbb753649	-0.003741639
164	0x3bd7b4d1	0.0065828343
165	0xbcb84e87	-0.022498382
166	0xbc273588	-0.010205634
167	0xbb341336	-0.002747727
168	0x3c3c30cc	0.011486243
169	0xbb822d94	-0.0039727185
170	0xbc46d444	-0.012135569
171	0x3a0c59e0	0.00053539686
172	0x3c944268	0.018098071
173	0xb98a7964	-0.00026411854
174	0x3d0ea1e4	0.03482236
175	0xbc0b850e	-0.008515609
176	0x3bd0e57d	0.0063750134
177	0x3c61625e	0.013756363
178	0x3be7f769	0.007079054
179	0xbc4d3bec	-0.0125264935
180	0x3c1349f2	0.008989798
181	0x3b032e4a	0.0020016604
182	0xbc853109	-0.016258733
183	0x39e010aa	0.00042737025
184	0x3b3204d5	0.0027163525
185	0xbb522c58	-0.0032069888
186	0xbc93651c	-0.017992549
187	0x3bdd482b	0.006752988
188	0xbbef8300	-0.0073093176
189	0x3c5d1029	0.013492622
190	0x3c45e5c9	0.012078711
191	0x3adf6b2b	0.0017045488
192	0x3a8999dc	0.0010498124
193	0x3bb633aa	0.005560358
194	0xbc73b387	-0.014874346
195	0xbc476c61	-0.012171836
196	0x3b65341b	0.0034973684
197	0xbb7d399c	-0.0038639074
198	0xbb93f282	-0.004514993
199	0xbbf5fffb	-0.007507322
200	0x3c123e00	0.008925915
201	0x3ae7cd25	0.0017685039
202	0x3c85a1ba	0.016312469
203	0xbbc66da0	-0.006055549
204	0xbbcea8e7	-0.006306756
205	0xb93c85dc	-0.00017978944
206	0xbbd3cca9	-0.0064636064
207	0xbc276575	-0.01021706
208	0xbc38d7ea	-0.011281947
209	0x3b90e4f7	0.004421826
210	0x3bd82181	0.006595791
211	0xbae363c7	-0.0017348462
212	0x3c1d3e61	0.009597392
213	0x3b9b73ee	0.0047440445
214	0xbafccb77	-0.0019286711
215	0x3a7e9953	0.0009712178
216	0x39da9e78	0.0004169827
217	0x3b6ebe6e	0.0036429423
218	0x3bec21c6	0.0072061745
219	0xbc14f11f	-0.009090691
220	0xbbce55bb	-0.006296841
221	0x3bb4703d	0.005506544
222	0xbc817a3d	-0.015805358
223	0x3c4add26	0.012381827
224	0xbbd5ecca	-0.0065284716
225	0x3ce14788	0.02749993
226	0x3b523465	0.0032074687
227	0x3bff1de5	0.007785546
228	0x3c37fb00	0.011229277
229	0x3c518318	0.012787603
230	0xbb516427	-0.0031950565
231	0xbc0f693d	-0.008753118
232	0x3a57e795	0.00082361075
233	0xbc11527a	-0.008869762
234	0x3b64eefb	0.0034932483
235	0x3ac2a4fb	0.0014850193
236	0x3b4daa58	0.003138205
237	0x3bf83639	0.007574823
238	0x3c898379	0.016786324
239	0xbc6ec460	-0.014573187
240	0x3c680c80	0.0141631365
241	0x3b24f333	0.0025169372
242	0x3b03f87f	0.002013713
243	0x3c15d1c1	0.0091442475
244	0xbb2e00cf	-0.0026550775
245	0xbc1d7fc2	-0.009612979
246	0x3abebbd5	0.0014551828
247	0x3c64ec5b	0.013972367
248	0xbb11982d	-0.0022215948
249	0xbc9c09ba	-0.019047607
250	0x3c877217	0.016533894
251	0x398fc644	0.00027422805
252	0xbac20635	-0.0014802875
253	0x3c126eb6	0.008937528
254	0xbbd97ef0	-0.0066374466
255	0x3c84a5a4	0.016192265

action_model._discrete_distribution.branches.0.bias f4 [3]
0	0xbb05b9bd	-0.0020404898
1	0x3b044b72	0.002018657
2	0xb9991ce0	-0.00029203948

action_model._discrete_distribution.branches.1.weight f4 [3, 128]
0	0x3bb9c6bd	0.0056694434
1	0x3ccdbaeb	0.025113543
2	0x3c4fd8ff	0.012686013
3	0xbc3ee44e	-0.011651112
4	0xbac3b790	-0.0014932025
5	0xbbb9a225	-0.005665081
6	0x3b370da2	0.002793171
7	0xbc0ce710	-0.0086000115
8	0xbd36708d	-0.04454093
9	0x3b0e8b1e	0.00217504
10	0xbc1dba0c	-0.009626877
11	0x3c7002d5	0.014649113
12	0x3ac724aa	0.0015193422
13	0x3c3cf3e0	0.011532754
14	0x384ca722	4.8793045e-05
15	0xbbabb9ef	-0.005240671
16	0x3c6c8f31	0.014438436
17	0xbd29c532	-0.041447826
18	0x3b893a41	0.0041878526
19	0x3b5f5723	0.0034079037
20	0x3c3c4e22	0.011493238
21	0xbbd2c7d1	-0.0064325114
22	0xbaf831c9	-0.0018935736
23	0xbc2628e0	-0.010141581
24	0x3cbfd3d8	0.023416445
25	0xbc1fc44c	-0.009751391
26	0x3c02f4d2	0.00799294
27	0xbb97ee47	-0.004636559
28	0x3c392a5a	0.011301601
29	0x39b9dbb8	0.00035449653
30	0xbc2f78c8	-0.010709949
31	0xbc0306d1	-0.007997231
32	0x3c5c790b	0.013456593
33	0xbafea202	-0.0019426944
34	0xbc26bf40	-0.0101774335
35	0x3b908d21	0.004411355
36	0x3c9b19f2	0.01893327
37	0x3c9ea854	0.019367374
38	0xba368c33	-0.00069636403
39	0xbc37758a	-0.011197457
40	0xbc59ce6b	-0.013293843
41	0x3c8182d5	0.015809456
42	0x39f9cf14	0.00047647266
43	0xbb42bd24	-0.0029714787
44	0xbd00baec	-0.031428263
45	0x3bf97eca	0.0076139914
46	0xbd9b5d80	-0.07586193
47	0x3c098466	0.008393383
48	0x3c96036b	0.018312177
49	0xbce4a631	-0.027911277
50	0xbb70202d	-0.0036640272
51	0x3cd0c820	0.025486052
52	0xbc292bc3	-0.010325375
53	0x3b8e21c6	0.004337522
54	0x3b4f9f73	0.0031680732
55	0xbb696282	-0.0035611694
56	0x37f61612	2.9335763e-05
57	0x3c629102	0.013828518
58	0xbc56ef90	-0.01311864
59	0xbd118309	-0.035525355
60	0x3b3d4b71	0.0028884078
61	0x3afaf1f1	0.001914559
62	0xbc7e5bb9	-0.015524798
63	0x3ca054ef	0.01957175
64	0x3a731cd8	0.00092740124
65	0xbc4003fe	-0.011719702
66	0xbb0d63ff	-0.0021574495
67	0xbbe668f3	-0.007031554
68	0xbca55cee	-0.020185914
69	0xbcd2c729	-0.025729733
70	0x3c82bdcb	0.015959641
71	0x3acf9a50	0.0015838835
72	0x3c2088f5	0.009798278
73	0xbb8bf7ac	-0.004271468
74	0x3ca29d71	0.019850465
75	0x3c6ee730	0.014581487
76	0xbca40a63	-0.020024484
77	0xbc4d5cee	-0.012534363
78	0x3b40f391	0.0029442052
79	0x3c3907fb	0.011293407
80	0x3a903cbe	0.0011004431
81	0xbb11c811	-0.0022244493
82	0x3c825e9c	0.015914254
83	0x3cca8f08	0.024726406
84	0xbc263bf9	-0.0101461345
85	0x3cc64123	0.024200981
86	0xbb050252	-0.0020295572
87	0xbbfb3de2	-0.007667289
88	0xbc09582d	-0.008382839
89	0xbbca5b7a	-0.0061754556
90	0xbba892e2	-0.005144463
91	0xba2539ba	-0.00063028524
92	0x3cbb94eb	0.022898158
93	0x3cb3a799	0.021930503
94	0x3b6a70a4	0.0035772705
95	0xbc8c4475	-0.017122487
96	0x3c9b173f	0.018931983
97	0xbd97f9f2	-0.0742072
98	0xb9fdca04	-0.00048406434
99	0xbcb20c01	-0.02173424
100	0xbc781659	-0.015142047
101	0xbb480d41	-0.0030525478
102	0x3bbc435e	0.0057453355
103	0x3bdcd9aa	0.0067398148
104	0xbbe9a850	-0.00713066
105	0x3bcb321a	0.006201041
106	0xbbb08ba6	-0.005387741
107	0x3bfc987d	0.0077086077
108	0xbc76d304	-0.0150649585
109	0x3b75b286	0.0037490441
110	0xbc709d29	-0.014685907
111	0x3c74775d	0.014921037
112	0xbc7dceb8	-0.01549118
113	0x3b1a0581	0.0023501816
114	0xbb5af04c	-0.0033407388
115	0xbd25ba78	-0.040461034
116	0x3bbb9e0b	0.0057256273
117	0x3c122282	0.00891936
118	0x3a03da85	0.00050298154
119	0xbb8c5df4	-0.004283661
120	0x3c2927f8	0.010324471
121	0x3c88d225	0.016701767
122	0x3d01c4db	0.031681877
123	0x3bc7c80e	0.0060968464
124	0xbb222771	-0.0024742747
125	0x3c06b756	0.008222422
126	0x3a90b828	0.0011041211
127	0xbbb19963	-0.0054198964
128	0xbc22258b	-0.009896646
129	0x3c658193	0.014007944
130	0x3bf0ce38	0.007348802
131	0xbb7abfa3	-0.0038261197
132	0x3c948fc2	0.018134955
133	0xbb8ef4e2	-0.0043626884
134	0xbb7c2459	-0.0038473813
135	0xbabffcd6	-0.0014647495
136	0x3c50f05a	0.012752617
137	0xbb053e36	-0.002033127
138	0xbb93a5ff	-0.0045058723
139	0xba85417b	-0.001016661
140	0x3ad8b43f	0.001653321
141	0x3bf7d191	0.007562824
142	0x3bb11712	0.0054043615
143	0xbc217b6d	-0.009856087
144	0x3c20e3c6	0.00981993
145	0xbca11158	-0.01966159
146	0xbc36684c	-0.011133265
147	0xbcad080f	-0.021122007
148	0x3ccb2061	0.024795713
149	0xbc6b8615	-0.014375229
150	0x3af445a5	0.0018636478
151	0xba29c2f9	-0.00064758916
152	0xba041f55	-0.0005040069
153	0x3c25998e	0.010107411
154	0xbb9151d3	-0.004434803
155	0x3bdf0833	0.0068063973
156	0xbbffb1da	-0.007803184
157	0x3b0408ee	0.0020146924
158	0x3bcddcc2	0.00628242
159	0xbb0dd3ba	-0.0021641091
160	0x3b4a13f4	0.0030834647
161	0xb933ec3e	-0.00017158777
162	0x3ae21292	0.0017247966
163	0xbc5e6e4c	-0.0135761015
164	0x3baa5489	0.0051980657
165	0x3bc5ab0f	0.0060323547
166	0x3b7bf441	0.0038445147
167	0xbb15eaed	-0.0022875622
168	0xbb9749ba	-0.004616943
169	0x3c8aaba0	0.01692754
170	0x3a18abc0	0.00058239326
171	0xbc619cb7	-0.013770274
172	0x3c87cd0b	0.016577264
173	0x3c406d7c	0.011744853
174	0x3cfa8e3c	0.0305854
175	0x3b570bc7	0.0032813416
176	0x3b16c1b6	0.0023003644
177	0x3be434c6	0.006964299
178	0x3c054e08	0.00813628
179	0x3b9e482a	0.00483038
180	0x3aa1f46a	0.0012356166
181	0xbb8aa2b2	-0.0042308206
182	0xbc154ffc	-0.009113308
183	0xbc908956	-0.017643612
184	0xbc4cc648	-0.012498446
185	0xbb9bdc16	-0.004756461
186	0xbc3098a4	-0.01077858
187	0x3bbeb851	0.005820312
188	0x3bcb2ba7	0.006200272
189	0xbb93a9bb	-0.0045063174
190	0x3bf78aaf	0.007554374
191	0xb91c341b	-0.0001489673
192	0xbc8c1b41	-0.01710284
193	0x3c1b0ee2	0.009463998
194	0xbbc82bca	-0.0061087357
195	0xba8b788f	-0.0010640788
196	0x3cd7f7ab	0.026363214
197	0x3c1a9303	0.009434464
198	0xbc376d92	-0.011195557
199	0x3bc90def	0.006135694
200	0x3ba5cff2	0.0050601894
201	0xbcbfa9b2	-0.023396347
202	0xbab6dae8	-0.0013950737
203	0x3be0e0a8	0.0068627186
204	0x3c61048b	0.013733993
205	0xbb8f5a4e	-0.004374779
206	0x3bacb0df	0.005270108
207	0x3c661d27	0.014045036
208	0x3c6dcc53	0.014514047
209	0x3c90c457	0.017671747
210	0xbc02d067	-0.007984257
211	0xbc880e57	-0.0166084
212	0x3bc0b78e	0.0058812564
213	0x3b47071f	0.0030369235
214	0x3bfb182a	0.0076627927
215	0xbc85153b	-0.016245475
216	0xbb5d55bb	-0.0033773023
217	0x3b12f7d1	0.0022425542
218	0x3a624743	0.00086318346
219	0xba11f9a8	-0.0005568513
220	0xbb33504d	-0.0027361095
221	0x3a2d00b3	0.00065995305
222	0x3bbe81d4	0.0058138166
223	0x3b3789cf	0.0028005724
224	0xbb7626fc	-0.0037559858
225	0x3ca5c431	0.020235153
226	0xbca73ae0	-0.020413816
227	0xbace9b54	-0.0015762844
228	0x3b8ec2a3	0.0043566986
229	0xb9d74b48	-0.00041064085
230	0xbb409668	-0.0029386524
231	0x3b9a5346	0.004709634
232	0xbb1753a1	-0.0023090618
233	0x3c5d7d05	0.0135185765
234	0xbcc1ea12	-0.023671184
235	0x3afc0cdb	0.0019229905
236	0xbc0af627	-0.008481539
237	0x3c16be83	0.009200695
238	0x3b693afb	0.0035588134
239	0x3bc3bfaf	0.005973778
240	0x3c0519b3	0.008123803
241	0xbbbf1b90	-0.005832143
242	0xbb93f38b	-0.0045151166
243	0xbbeb272f	-0.007176302
244	0xbbd2189a	-0.006411624
245	0x3aa8c972	0.0012877418
246	0x3c28a23b	0.010292585
247	0xbc379296	-0.011204382
248	0xbc0c27bb	-0.008554394
249	0xbb004e82	-0.0019578044
250	0x3c94d8c0	0.01816976
251	0x3c58a741	0.01322347
252	0x3a99063c	0.0011674832
253	0x3b3d22ba	0.002885981
254	0x3bc77a4f	0.0060875784
255	0xbad79324	-0.001644705

action_model._discrete_distribution.branches.1.bias f4 [3]
0	0xbc37f81c	-0.0112285875
1	0xbbf00f52	-0.007326045
2	0x3c8386e3	0.01605553

action_model._discrete_distribution.branches.2.weight f4 [2, 128]
0	0xbb38bd7e	-0.0028189118
1	0x3cbc8406	0.023012172
2	0x395a1556	0.00020798048
3	0x3a19017b	0.00058367074
4	0x3c13684b	0.008997033
5	0xbc3f808c	-0.011688363
6	0x3c06a177	0.008217207
7	0x3bc99fbf	0.0061530764
8	0x3ca8b7a4	0.02059538
9	0xba9e12b6	-0.001206002
10	0xba6e0aaf	-0.00090805715
11	0x3a242318	0.0006261333
12	0xbbf9a4dd	-0.00761853
13	0xbbaf9027	-0.0053577605
14	0x3c460723	0.012086662
15	0xbcd0e2ef	-0.025498835
16	0x3c2c95a9	0.010533729
17	0xbc3fbdf6	-0.011703005
18	0x3a19bc3b	0.00058645353
19	0xbbf00540	-0.0073248446
20	0xbb8e06b5	-0.0043342956
21	0x3c6aaea7	0.014323867
22	0xbbb6322f	-0.0055601816
23	0xbc1bb9f2	-0.009504782
24	0x39598c0c	0.00020746904
25	0x3c2f1b62	0.010687681
26	0x3b5e0b26	0.0033881157
27	0x3c734e26	0.014850175
28	0xbc1ed502	-0.00969434
29	0x3b29ac68	0.0025890116
30	0xbc6a9894	-0.014318604
31	0x3bb427b8	0.005497899
32	0x3b8daf48	0.0043238737
33	0x3c3f150b	0.011662732
34	0xbc2348d0	-0.00996609
35	0xbbf3419a	-0.007423592
36	0xbc0467ee	-0.008081419
37	0x3bea4ca9	0.007150252
38	0x3c1cb67e	0.009564994
39	0x3c3fe445	0.011712139
40	0xbb6c26cf	-0.0036033874
41	0x3c8c1c32	0.017103288
42	0xbc36a46f	-0.011147602
43	0xbb231ab3	-0.002488774
44	0x3b289d13	0.002572839
45	0xbc8cbc60	-0.017179668
46	0xbb7db6d7	-0.0038713717
47	0xbc96f383	-0.018426662
48	0x3bf92870	0.0076036975
49	0x3c4d1312	0.012516754
50	0xba430cd0	-0.0007440569
51	0xbc36e6f9	-0.011163467
52	0x3b9edd2c	0.004848143
53	0xbc74a182	-0.014931085
54	0x3bb9c797	0.005669545
55	0x3b117af5	0.0022198532
56	0x3c7108ef	0.014711603
57	0xb996913a	-0.00028718432
58	0x3b92dd8f	0.0044819782
59	0xbb8b800e	-0.0042572087
60	0xbc7a1490	-0.015263692
61	0x3ca6abf1	0.02034566
62	0xbbb99ea0	-0.0056646615
63	0x3c672260	0.014107317
64	0x3cba9932	0.022778127
65	0x3ca24c95	0.019811908
66	0xbb7af0dc	-0.0038290536
67	0x3c0f6beb	0.008753757
68	0x3ac2c151	0.0014858638
69	0xbc13af1a	-0.009013915
70	0x3bb5d18f	0.005548663
71	0xba56f67d	-0.0008200182
72	0x3bea8409	0.007156853
73	0xbc9c14b5	-0.019052843
74	0x3b80126c	0.003908446
75	0xbb568484	-0.0032732794
76	0x3c056c62	0.008143516
77	0x3b8ef2c8	0.004362438
78	0x3c0530ca	0.008129308
79	0x3c357d12	0.011077182
80	0xbb631dae	-0.0034655142
81	0x3c0eb99f	0.008711248
82	0xbc8554e5	-0.016275832
83	0xbb0ff739	-0.0021967425
84	0x3a1d6ec4	0.000600558
85	0xbb68f64a	-0.003554719
86	0x3bd5e9a4	0.0065280963
87	0x3c823ffa	0.015899647
88	0x3ca53e8e	0.02017143
89	0xba800d27	-0.0009769545
90	0xbc33f533	-0.010983753
91	0x3aa5c5da	0.0012647465
92	0xbb99041c	-0.0046696793
93	0xbc6b99a5	-0.014379893
94	0xbb946de8	-0.0045297034
95	0x3c36ed9f	0.011165052
96	0xbbfe232f	-0.007755659
97	0x3bc95afc	0.0061448794
98	0x3b97f3bd	0.00463721
99	0xbc012ceb	-0.007884244
100	0x3c2eeaf1	0.010676132
101	0x3b9bf08d	0.0047589005
102	0x3c2d2602	0.010568144
103	0x3b52eda3	0.00321851
104	0x3c887b95	0.016660491
105	0xbca882fa	-0.020570267
106	0xbb393635	-0.002826107
107	0xbbccb152	-0.006246724
108	0xbb9e5263	-0.0048315986
109	0xba865168	-0.001024765
110	0x3bcf0d9a	0.00631876
111	0xbc03874f	-0.008027866
112	0x3c28889e	0.010286478
113	0x3c7af875	0.015318026
114	0x3c8631c4	0.016381152
115	0x3bcd332a	0.0062622027
116	0x3c390761	0.011293263
117	0x3bbcc2c2	0.0057605216
118	0x3bf0da98	0.007350277
119	0x3b08b7ce	0.002086151
120	0x3c55cbd9	0.013049089
121	0xbc1d990d	-0.00961901
122	0x3ad25cb7	0.001604936
123	0xbc2ed2c7	-0.01067037
124	0xbbb859e1	-0.005625949
125	0x3c5fcea8	0.0136601105
126	0xbc0db157	-0.008648238
127	0x3b9bd924	0.00475611
128	0x3c3c6f3c	0.01150113
129	0xbc0ef2d0	-0.008724883
130	0xbc4a7a91	-0.012358324
131	0xbbbc5785	-0.005747738
132	0x3cb604b0	0.022219032
133	0x3c880a42	0.016606454
134	0xbbc86eb4	-0.0061167125
135	0x3bb9ea07	0.00567365
136	0xbc6580b1	-0.014007733
137	0x3ce496d4	0.027903952
138	0x3c2d3d9a	0.010573769
139	0x3be23b1c	0.006904019
140	0x3bdf97cc	0.0068235155
141	0x3beb4fff	0.007181167
142	0x399a735e	0.00029459124
143	0x3c51a60e	0.012795938
144	0x3c162ef3	0.009166467
145	0xbc30a678	-0.010781877
146	0x3b2533d6	0.0025207899
147	0x3a1b1270	0.0005915528
148	0xbb848a23	-0.0040447875
149	0xbbd80bf6	-0.0065932227
150	0xbbabeb40	-0.00524655
151	0x3b0673cc	0.0020515798
152	0x3a3b7fe6	0.0007152542
153	0x3cb064fa	0.021532524
154	0xbc3f277b	-0.011667128
155	0x3bb3d6f1	0.0054882695
156	0x3c00ab72	0.007853376
157	0xbc762140	-0.015022576
158	0xbc010b59	-0.007876241
159	0xbbaff3a0	-0.0053696185
160	0x3aeec932	0.001821792
161	0xb7a06881	-1.912215e-05
162	0xb9c16d89	-0.0003689344
163	0x3c4ba4a4	0.01242939
164	0xbc5ab219	-0.013348126
165	0xbb004547	-0.0019572543
166	0x3b88cc43	0.0041747405
167	0x3b7bf7a7	0.0038447173
168	0xb92f83dd	-0.00016738423
169	0xbcad3122	-0.021141592
170	0xbc51d1f1	-0.012806402
171	0xbc040d48	-0.008059807
172	0xbc3f5e0d	-0.011680138
173	0xbc319055	-0.010837634
174	0x3c3178f1	0.010832057
175	0x3b8e870d	0.0043495954
176	0x3b85c88d	0.0040827454
177	0x3b90ce64	0.004419135
178	0x3a8420fb	0.001008063
179	0xbc26bf6d	-0.010177475
180	0xbaeaeda9	-0.0017923611
181	0x3c0f1952	0.008734064
182	0x3b4c2ade	0.003115348
183	0x3d036cae	0.032086067
184	0x3bae9a6b	0.0053284667
185	0xbc9fb3c4	-0.019494899
186	0x3c0bd135	0.008533766
187	0xba948238	-0.0011330312
188	0xbc10ed82	-0.008845689
189	0x3c6432bd	0.013928113
190	0xbb9b4f39	-0.0047396687
191	0x3b927d35	0.0044704922
192	0xbb901e9c	-0.00439818
193	0x3b57eb2f	0.0032946577
194	0x3beeed39	0.0072914627
195	0xbbf0f611	-0.007353552
196	0xbb0444e4	-0.0020182664
197	0x3c41ec16	0.011836072
198	0xbc6b72ee	-0.014370663
199	0xbaf5a54c	-0.0018741279
200	0x3bcc1541	0.0062281196
201	0x3bbc34db	0.0057436056
202	0xbc804622	-0.015658442
203	0xbc0c9ad3	-0.008581835
204	0xbcb773ba	-0.02239405
205	0x3c00ccb5	0.007861306
206	0x3ad8879c	0.0016519907
207	0x3ba7257d	0.0051009045
208	0x3b89cdc2	0.0042054364
209	0x3b0bb1eb	0.0021315764
210	0x3aafaad1	0.0013402348
211	0x3aa93f52	0.0012912548
212	0xba89e41f	-0.0010520256
213	0x3c1e9789	0.0096796835
214	0x3c151053	0.00909813
215	0xbc6b7963	-0.014372203
216	0xbc6b46a1	-0.014360101
217	0x3c92a73f	0.017902015
218	0xbc3ee4df	-0.011651247
219	0x3a8163ae	0.0009871626
220	0xbaeb8c69	-0.0017970923
221	0x3c28f10f	0.010311379
222	0xbbd1f6db	-0.0064076013
223	0x3a903648	0.0011002505
224	0x3b34c1b8	0.0027581286
225	0xba71e52c	-0.00092275697
226	0x3b4b7128	0.0031042788
227	0xbbebf671	-0.007201009
228	0x38a044ef	7.6422344e-05
229	0xbb0d84d0	-0.0021594055
230	0x3b0d12fd	0.002152621
231	0x3c72cb10	0.014818922
232	0x3ca3b821	0.01998526
233	0xbbd699ab	-0.0065490804
234	0xbc16bf3d	-0.009200868
235	0xbc051490	-0.008122578
236	0x3bfcf217	0.007719289
237	0x3b046de0	0.0020207092
238	0x3c26f01b	0.010189082
239	0x3bf2cb06	0.007409456
240	0x3c977338	0.018487558
241	0xbbf34ecb	-0.0074251643
242	0xbcab0a14	-0.020878829
243	0xbb9ca19c	-0.0047800075
244	0xbc322ad2	-0.010874467
245	0x3b49deb3	0.0030802905
246	0xbb560863	-0.0032658807
247	0x3ae4fb9b	0.0017470004
248	0x3c5a0e05	0.013309007
249	0xb9927487	-0.0002793411
250	0x3b855a00	0.0040695667
251	0xbb1dde94	-0.0024088966
252	0xbc28fb04	-0.010313753
253	0x3b38779f	0.0028147472
254	0x3bb5d5fd	0.005549191
255	0xbbd3fa7c	-0.006469069

action_model._discrete_distribution.branches.2.bias f4 [2]
0	0xbc0d37c4	-0.008619253
1	0x3c0d37c4	0.008619253

exp_avg f4 [128, 100]
0	0xb3840e7b	-6.149363e-08
1	0x3578fc1d	9.275407e-07
2	0x36c14a6a	5.760511e-06
3	0x358655ac	1.0008712e-06
4	0xb7d173a9	-2.49686e-05
5	0x3731a38e	1.0588103e-05
6	0x37949292	1.7711227e-05
7	0x338705c1	6.287474e-08
8	0x35c73246	1.4841287e-06
9	0x3790806e	1.7225942e-05
10	0x35d2088d	1.5648708e-06
11	0xb7eb9dfc	-2.808775e-05
12	0x35850ac2	9.912403e-07
13	0x370af520	8.282514e-06
14	0xb5ef3aa7	-1.7823958e-06
15	0x35a1b02d	1.2046709e-06
16	0x37a76ca8	1.9958548e-05
17	0x32806b4a	1.494995e-08
18	0xb7e780a9	-2.7597258e-05
19	0x35c27c23	1.4490255e-06
20	0x36af5354	5.225107e-06
21	0xb20b378f	-8.103497e-09
22	0xb34f0cda	-4.820763e-08
23	0x379c8bbd	1.866172e-05
24	0x35354e90	6.754208e-07
25	0xb7fb369a	-2.9946958e-05
26	0x36838093	3.9190722e-06
27	0x36b58082	5.4091806e-06
28	0xb622467e	-2.4180913e-06
29	0x341ea69d	1.477551e-07
30	0x37c449a2	2.3399309e-05
31	0x33046453	3.082489e-08
32	0xb7ea6a89	-2.7944583e-05
33	0x3305549f	3.1043438e-08
34	0x3541f25e	7.2250793e-07
35	0x33986973	7.097233e-08
36	0x312c6899	2.508875e-09
37	0x37ad8efd	2.0689791e-05
38	0x3615f1e2	2.2343525e-06
39	0xb7be8181	-2.271007e-05
40	0xb6ec22d9	-7.037405e-06
41	0xb7b336d1	-2.1363989e-05
42	0xb672b6b6	-3.6167162e-06
43	0xae5a87fd	-4.9688243e-11
44	0x37c9f106	2.4073302e-05
45	0xb3f77ae8	-1.152419e-07
46	0xb7e34a54	-2.709512e-05
47	0xab43feb1	-6.963137e-13
48	0xb7306a36	-1.0515147e-05
49	0xb41c4005	-1.4551922e-07
50	0x35b709f7	1.3637463e-06
51	0x37b0d665	2.108067e-05
52	0xb64e8577	-3.0774079e-06
53	0xb771c02a	-1.4409461e-05
54	0xb7421d7c	-1.1570166e-05
55	0xb7a9ee44	-2.0257321e-05
56	0xb5fafe04	-1.870038e-06
57	0x3125c55a	2.4122842e-09
58	0x37de1fd1	2.6479278e-05
59	0x347c7c81	2.3514623e-07
60	0xb802460f	-3.1059662e-05
61	0xb5128eeb	-5.459721e-07
62	0xb7764116	-1.4677897e-05
63	0x35c1e3d4	1.4445927e-06
64	0x35f3cef0	1.8165138e-06
65	0x369d74cc	4.6925616e-06
66	0xb70da45a	-8.442521e-06
67	0xb5d8a36c	-1.6140816e-06
68	0xb69b2af3	-4.62436e-06
69	0xb725a11d	-9.8722785e-06
70	0xb5922450	-1.0888416e-06
71	0x364478d9	2.9276619e-06
72	0x3789a5e5	1.6408923e-05
73	0xb5ccf4a0	-1.527038e-06
74	0xb784669b	-1.5783406e-05
75	0xb716d412	-8.990073e-06
76	0xb7c52f9b	-2.3506398e-05
77	0x3562deb8	8.451566e-07
78	0x3687ea99	4.0506243e-06
79	0x3614caf6	2.2171857e-06
80	0x3648162e	2.9815233e-06
81	0x36742eeb	3.6386143e-06
82	0xb7a9b7ef	-2.023202e-05
83	0xb781c5f5	-1.547018e-05
84	0x3562deb8	8.451566e-07
85	0x3687ea99	4.0506243e-06
86	0x3614caf6	2.2171857e-06
87	0x3648162e	2.9815233e-06
88	0x36742eeb	3.6386143e-06
89	0xb7a9b7ef	-2.023202e-05
90	0xb781c5f7	-1.5470183e-05
91	0x00000000	0.0
92	0xb898bbf6	-7.282935e-05
93	0x37fed0d7	3.0376408e-05
94	0x3aa91130	0.0012898799
95	0x00000000	0.0
96	0xb3951fcb	-6.944136e-08
97	0xb6e1e0fb	-6.7317137e-06
98	0x3625469e	2.462802e-06
99	0x370f788c	8.551531e-06
100	0x344e4cc2	1.921317e-07
101	0x35b05f69	1.314079e-06
102	0xb680b0e9	-3.8352923e-06
103	0x37b86c7e	2.198503e-05
104	0xb89c4baf	-7.452757e-05
105	0x3816b574	3.593178e-05
106	0x383a198e	4.4369655e-05
107	0xb39749e3	-7.044925e-08
108	0x35972ef3	1.1264041e-06
109	0x381b584c	3.7037113e-05
110	0x37720da3	1.4427499e-05
111	0xb8a3e7a4	-7.815592e-05
112	0x36e0caa0	6.699309e-06
113	0x37a0c1c7	1.9163721e-05
114	0x3622c099	2.4251988e-06
115	0x35f3f137	1.8175114e-06
116	0x3817e362	3.6212972e-05
117	0xb4f48fd7	-4.55532e-07
118	0xb88c5693	-6.691846e-05
119	0x3708bba3	8.149919e-06
120	0x37a8f5b0	2.0141568e-05
121	0xb2d3a589	-2.463891e-08
122	0x34ec5496	4.401997e-07
123	0x38424407	4.631656e-05
124	0x3721ef00	9.651994e-06
125	0xb8a891a4	-8.037992e-05
126	0x36aeea72	5.212897e-06
127	0x36a1a089	4.8168627e-06
128	0x358aec96	1.0350657e-06
129	0x34a43fc9	3.059379e-07
130	0x3858ea96	5.171689e-05
131	0xb4b13389	-3.3006316e-07
132	0xb89532b7	-7.11432e-05
133	0xb4e440ca	-4.251545e-07
134	0x355b3b6a	8.1670316e-07
135	0x34b24626	3.3206123e-07
136	0xb0d4a75a	-1.5472594e-09
137	0x3863a050	5.427032e-05
138	0xb7de5aee	-2.6506805e-05
139	0xb7bc0efd	-2.2418326e-05
140	0xb7cd9513	-2.4507322e-05
141	0xb811d64b	-3.477027e-05
142	0x362a1112	2.534191e-06
143	0xaa8e50a5	-2.5280226e-13
144	0x385ef939	5.316103e-05
145	0xb5921e94	-1.0886747e-06
146	0xb89a25de	-7.3503455e-05
147	0x32bb049d	2.1771763e-08
148	0xb7d98489	-2.5930132e-05
149	0x35887c53	1.0168973e-06
150	0x35950527	1.1102865e-06
151	0x3811924b	3.470694e-05
152	0xb8416b7a	-4.611488e-05
153	0xb7e09c9d	-2.677581e-05
154	0x3790ae03	1.7247168e-05
155	0xb7751544	-1.4608089e-05
156	0x3502a665	4.867091e-07
157	0x34b4694c	3.3604226e-07
158	0x385b3e5e	5.2271753e-05
159	0x34825ad1	2.4280465e-07
160	0xb8969043	-7.179428e-05
161	0xb4db2dc1	-4.082522e-07
162	0xb8018de4	-3.0888143e-05
163	0xb6e575ef	-6.838461e-06
164	0x36c4e96b	5.8684286e-06
165	0x37197624	9.147017e-06
166	0xb7c4a94b	-2.3443854e-05
167	0x35cf1aa3	1.5430454e-06
168	0xb6aaa42b	-5.0855065e-06
169	0xb7923daa	-1.743327e-05
170	0x35ee8ab3	1.7772749e-06
171	0xb5374bae	-6.828294e-07
172	0xb7c9a331	-2.403706e-05
173	0x355814f8	8.0496784e-07
174	0xb7d84837	-2.5782834e-05
175	0x37ed9f6b	2.8326836e-05
176	0xb7f16841	-2.8777986e-05
177	0x35e18de1	1.6805099e-06
178	0x36c21441	5.7840084e-06
179	0xb81facd4	-3.8069513e-05
180	0x36e394af	6.7824362e-06
181	0x35dc63c4	1.6420313e-06
182	0x359a76a3	1.1508422e-06
183	0xb62e1211	-2.5938537e-06
184	0x35e18de1	1.6805099e-06
185	0x36c21441	5.7840084e-06
186	0xb81facd4	-3.8069513e-05
187	0x36e394af	6.7824362e-06
188	0x35dc63c4	1.6420313e-06
189	0x359a76a3	1.1508422e-06
190	0xb62e11d7	-2.5938405e-06
191	0x00000000	0.0
192	0xb9b76429	-0.00034979105
193	0xb8523b74	-5.012327e-05
194	0x3b3829ac	0.002810101
195	0x00000000	0.0
196	0xb680e3b2	-3.8412045e-06
197	0xb79020f4	-1.7181483e-05
198	0x387ab49d	5.9772854e-05
199	0x37229440	9.69047e-06
200	0x3289b4eb	1.6031171e-08
201	0x35a8a1f0	1.2564105e-06
202	0xb5efc177	-1.7863193e-06
203	0xb5a2e66d	-1.2137003e-06
204	0x3666fa28	3.441828e-06
205	0xb6b818e7	-5.4865263e-06
206	0xb6e38af4	-6.7813035e-06
207	0xb2c6df71	-2.3151843e-08
208	0xb534cb4d	-6.7351067e-07
209	0xb6a86937	-5.019039e-06
210	0xb50ef68e	-5.3257907e-07
211	0x3675a79c	3.6605406e-06
212	0xb5a7a59f	-1.2490672e-06
213	0xb6832cf1	-3.909336e-06
214	0xb4ab391b	-3.1892782e-07
215	0xb417411e	-1.408666e-07
216	0xb6ce931b	-6.1564037e-06
217	0xb384fee0	-6.1930905e-08
218	0x366b2bfd	3.5043333e-06
219	0xb525f594	-6.1824653e-07
220	0xb63af92d	-2.78612e-06
221	0xb2910775	-1.6883613e-08
222	0xb29032fb	-1.678699e-08
223	0xb6e3d440	-6.7898363e-06
224	0xb50a58c5	-5.153818e-07
225	0x367e0466	3.785151e-06
226	0xb4a9de7e	-3.1640587e-07
227	0xb60ee5e5	-2.1293465e-06
228	0x347ae681	2.3366921e-07
229	0x347840a5	2.3120317e-07
230	0xb6e505a3	-6.825388e-06
231	0x327b5021	1.4628342e-08
232	0x3635a2e6	2.706592e-06
233	0xb4979a54	-2.823823e-07
234	0xb6123fea	-2.1792898e-06
235	0xb36fe5c1	-5.5855484e-08
236	0x322d7511	1.0096543e-08
237	0xb6c9b128	-6.0108905e-06
238	0x35959910	1.1145912e-06
239	0xb397e93c	-7.0739105e-08
240	0x359e54ae	1.1796562e-06
241	0x33b34391	8.347627e-08
242	0xb4605e7e	-2.0896002e-07
243	0x3110279a	2.0977269e-09
244	0xb6d46b34	-6.3305724e-06
245	0xb27315f6	-1.4149455e-08
246	0x36381e98	2.7435945e-06
247	0xb358b459	-5.0455444e-08
248	0xb47d2704	-2.3576655e-07
249	0xb4ca78bd	-3.771328e-07
250	0xb4a20f26	-3.0185873e-07
251	0xb6b17fd5	-5.2898927e-06
252	0x35dbe457	1.6383227e-06
253	0x35b5f147	1.3555772e-06
254	0xb57e7a9b	-9.480079e-07
255	0x349643f5	2.7989122e-07
