MLBase/results/Stage2/CaptureTheFlag/CaptureTheFlag-16298.onnx (onnx, 130971 bytes, 9 tensors)

discrete_act_size_vector f4 [1, 3]
00000000: 0000 4040 0000 4040 0000 0040
3.0 3.0 2.0

network_body._body_endoder.seq_layers.0.weight f4 [128, 100]
00000000: efbf 1b3e bf4e ed3d 174e 3b3d 08d3 83bc
00000010: e3fe d9bd 6a81 b73b 95f3 c93d f37b d9bd
00000020: df16 5a3e d793 24bc a385 acb9 0b7c 0a3e
00000030: 4235 dc3c 42ac d5bc 3735 523d 0103 0cbe
00000040: 981e 88bd 2be1 c43d 4c3b 013c f20a 5ebd
00000050: 2c62 ba3d d29a 55bd 29f4 81bd b786 ce3d
00000060: 1348 613c 1b79 1cbe 776d 9d3c f3ee d4bb
00000070: ff35 95bd 5a9e ae3c 4365 683e f965 82bc
00000080: 2d5d 983d f3f7 093d cdba bb3c 5695 17bd
00000090: 23bf ef3d 380c 4fbd 3259 e63d 5438 0ebd
000000a0: 1a0e 67bc ff0e 5fbd b060 df3c 3ca4 453e
000000b0: 7f39 7fbe 09e0 babc 77a8 253e e3a3 19be
000000c0: 8906 45be 0635 00be 0b89 50be 193d a5bb
000000d0: a8bd 4d3c 227f 933c 37f4 acbc 2f7c 1fbe
000000e0: 4504 dfbd c622 863d 07fe 3e3a d68e 92bd
000000f0: de15 99bd 9d2e f23d 32c5 48bd e70d 0fbe
00000100: e01a 07be d7cd cfbd 27b8 b1be bb56 6bbd
00000110: c045 b03d b0a9 f0bd 6f70 b4bd 14cc 2bbe
00000120: 3efa 363d fc1f 233c 72e4 f5bd eb13 4e3e
00000130: e37c 933c b9a9 443d 07ab 463b 4b83 96bd
00000140: 57b0 c63d 0c8a 15be 06b9 9cbc d3db 073e
00000150: a262 74bd 0b50 88bc d048 5d3d cc5a 1b3e
00000160: 8222 3bbd 6f1a 42bd adf3 193e ce66 b03d
00000170: 229e 213e 6b20 d83d eb78 2e3e 0f81 153c
00000180: 1c65 84bd 32b9 6bbe c304 a6bd 2b8f e33d
00000190: 3bd6 5e3c 5bc8 2a3e 67d7 d53d ea9a 2fbd
000001a0: 17d1 d1bd 08fa 843d 472a ffb9 73eb a73d
000001b0: 632f d23c 332e 193c 439a b93c a880 013e
000001c0: fa87 42bd b29c 0bbe 4bf9 ecbc ca63 9d3c
000001d0: c22e 743d 83f9 4d3e 3507 6d3e e0ee db3b
000001e0: ec74 463d 33b5 54be 5668 333e d682 b9bc
000001f0: 64de aa3d 3dcc b4bd adaf 13be c4af 8aba
00000200: 4f66 9a3d 07e8 c6bd fca3 49be dfb8 14bb
00000210: 3f08 113d 8f7c a33c 438b a6bc 8566 fbbc
00000220: 53a0 61bd ebcd d63d 8aec 733d 4d35 41be
00000230: 45c6 3cbe ecf0 0cbe 8e06 b4bd ed41 edba
00000240: 7751 063d a4a7 83be 5b64 85bd 2811 a73c
00000250: f345 473d a796 4f3d dfbe d9bd 3738 cf3c
00000260: 33d3 22be c5a2 fdbb 66a7 4bbd eee8 8abd
00000270: 186a 5dbd d0b3 8dbd 38ee 5a3e c502 cd3d
00000280: f754 9f3d 1f95 1a3c fd1b 713d 1fcf a3bd
00000290: 1f56 02be 1281 e03d c517 463e 65fb 763d
000002a0: fbb2 edbc a7c5 9d3d c3db c1ba 9a43 533c
000002b0: ea8b 0c3c 2de9 9ebd 8dbd 56be bdab 113d
000002c0: ec73 86bd a2b4 17be 9121 c53c 054c ca3d
000002d0: d50b cb3c 501b 843c 28f0 82bd 5da4 8b3d
000002e0: 43e4 46bd 4b45 babd 4a1e 2ebe 0894 703d
000002f0: 0f3c 083d 830a 03be 6316 81bd ff50 1e3d
00000300: 9b98 9d3d 38dc 11be faa6 2fbe 1e3a 443d
00000310: bf05 4f3d 1bd3 e0bc 171c eabd b984 3038
00000320: 986f 5b3c cd0d 3b3d 2e4e a3bd 5992 b43d
00000330: 2006 5dbc 520a 57bc f75a 9d3d 5329 dbbc
00000340: 8ce3 363c 37d0 0e3d 4f24 4c3d 1882 963d
00000350: bd96 d2bc a07c 74be 82b4 593c e809 503e
00000360: 6784 203e 9939 953d 7388 4cbd abd3 b73c
00000370: 5bf2 f73c 7898 67be 330f 34bd 4785 86bd
00000380: 4fb7 4dbe a759 8ebb 6798 72bc 2fa2 033d
00000390: 6d3d 5d3e 0a6a 2d3d c3d5 58bc 2271 ddbd
000003a0: 6380 ffbd cdcf 36bd 8d7f 903d 7f73 563e
000003b0: bb2c 8fbb 000b df3c b3f3 83be 5996 a1bb
000003c0: dfb4 86bd 801d 65be 91f9 12be b80a d43d
000003d0: 50e6 12be 60fb 8b3d 32d8 bf3a 9dee 00be
000003e0: d9da 0cbd cbe3 b73c 23ee ee3b 6667 08bd
000003f0: 32b2 823d 376b 243d 15a4 53bd fa1a abbd
0.15209936 0.11587285 0.04572877 -0.016091838 -0.10644319 0.005600144 0.09860913 -0.106193446
0.21297787 -0.010045013 -0.00032905964 0.13523881 0.026880864 -0.026083115 0.05132028 -0.13673021
-0.0664646 0.0961326 0.007887673 -0.054209657 0.09100756 -0.0521496 -0.06345398 0.100842886
0.013750094 -0.15280573 0.019217236 -0.0064982115 -0.072856896 0.021315742 0.22694878 -0.015917765
0.07439647 0.03368373 0.022916222 -0.037007652 0.11706378 -0.050548762 0.112474814 -0.034721687
-0.014102483 -0.05445766 0.027267784 0.19300932 -0.24924277 -0.022811906 0.16177545 -0.15003924
-0.19240774 -0.12520227 -0.20364778 -0.005042684 0.012557425 0.018004958 -0.021112544 -0.15574716
-0.10889486 0.06549601 0.0007285778 -0.0715615 -0.07474874 0.11825297 -0.049016185 -0.13970147
-0.13193846 -0.10146683 -0.3471081 -0.05745576 0.08607054 -0.11751115 -0.088105075 -0.16777068
0.044672243 0.009956356 -0.12006463 0.20124786 0.018003887 0.048013423 0.0030314343 -0.07349261
0.09701603 -0.14603442 -0.019131195 0.1326745 -0.059664376 -0.01663973 0.054024518 0.15171355
-0.045687206 -0.04738849 0.15034361 0.086133584 0.15782979 0.10553058 0.17038314 0.009125008
-0.064645976 -0.23019865 -0.08106377 0.111112915 0.013600881 0.16677992 0.10441475 -0.042872347
-0.10244959 0.06493002 -0.0004866889 0.08199205 0.025657361 0.009349394 0.022656566 0.12646735
-0.04749296 -0.13633993 -0.028927466 0.019212622 0.059614904 0.20114712 0.2314728 0.0067118257
0.04845135 -0.20772247 0.1752027 -0.022645395 0.08343199 -0.08828018 -0.14422484 -0.0010580947
0.07539045 -0.097122245 -0.19691461 -0.00226932 0.035408255 0.019956855 -0.020330077 -0.030688534
-0.055084538 0.104884945 0.059551753 -0.18867989 -0.18435009 -0.1376378 -0.08790313 -0.0018101312
0.032792535 -0.25713837 -0.06513282 0.020393923 0.048650693 0.050680783 -0.10632109 0.02529536
-0.15900879 -0.007740351 -0.04972019 -0.06782709 -0.054056257 -0.06919062 0.21379936 0.10010294
0.07779878 0.009434967 0.058864582 -0.079984896 -0.12728165 0.10962118 0.19345005 0.060298342
-0.029016009 0.07703715 -0.0014790226 0.012894535 0.00857828 -0.077593185 -0.20970745 0.035564173
-0.06565079 -0.14815 0.024063857 0.09877781 0.024785915 0.016126305 -0.063934624 0.06818459
-0.04855753 -0.09095248 -0.17003742 0.058734924 0.0332604 -0.12796979 -0.06303098 0.038651463
0.07695123 -0.14244163 -0.1715354 0.047906987 0.05054259 -0.027444413 -0.11431139 4.2085278e-05
0.013393305 0.04566746 -0.07973896 0.08816976 -0.01349023 -0.013125019 0.07683366 -0.026753103
0.01116265 0.034866538 0.049839314 0.07349032 -0.025706643 -0.23875666 0.013287665 0.20316279
0.15675507 0.072863765 -0.049934816 0.022439798 0.030266931 -0.22616756 -0.043959808 -0.065683894
-0.20089458 -0.0043441835 -0.014806843 0.032137092 0.21605463 0.042337455 -0.0132345585 -0.10812594
-0.1247566 -0.044631768 0.070555784 0.20942496 -0.004369346 0.027226925 -0.25771865 -0.004931253
-0.06577467 -0.22374535 -0.14353015 0.10353607 -0.1434567 0.06835055 0.0014636575 -0.12591024
-0.034388397 0.022447487 0.0072915717 -0.033301733 0.06381644 0.04014131 -0.051670153 -0.08354755

network_body._body_endoder.seq_layers.0.bias f4 [128]
00000000: 0000 0000 0000 0000 0000 0000 0000 0000
00000010: 0000 0000 0000 0000 0000 0000 0000 0000
00000020: 0000 0000 0000 0000 0000 0000 0000 0000
00000030: 0000 0000 0000 0000 0000 0000 0000 0000
00000040: 0000 0000 0000 0000 0000 0000 0000 0000
00000050: 0000 0000 0000 0000 0000 0000 0000 0000
00000060: 0000 0000 0000 0000 0000 0000 0000 0000
00000070: 0000 0000 0000 0000 0000 0000 0000 0000
00000080: 0000 0000 0000 0000 0000 0000 0000 0000
00000090: 0000 0000 0000 0000 0000 0000 0000 0000
000000a0: 0000 0000 0000 0000 0000 0000 0000 0000
000000b0: 0000 0000 0000 0000 0000 0000 0000 0000
000000c0: 0000 0000 0000 0000 0000 0000 0000 0000
000000d0: 0000 0000 0000 0000 0000 0000 0000 0000
000000e0: 0000 0000 0000 0000 0000 0000 0000 0000
000000f0: 0000 0000 0000 0000 0000 0000 0000 0000
00000100: 0000 0000 0000 0000 0000 0000 0000 0000
00000110: 0000 0000 0000 0000 0000 0000 0000 0000
00000120: 0000 0000 0000 0000 0000 0000 0000 0000
00000130: 0000 0000 0000 0000 0000 0000 0000 0000
00000140: 0000 0000 0000 0000 0000 0000 0000 0000
00000150: 0000 0000 0000 0000 0000 0000 0000 0000
00000160: 0000 0000 0000 0000 0000 0000 0000 0000
00000170: 0000 0000 0000 0000 0000 0000 0000 0000
00000180: 0000 0000 0000 0000 0000 0000 0000 0000
00000190: 0000 0000 0000 0000 0000 0000 0000 0000
000001a0: 0000 0000 0000 0000 0000 0000 0000 0000
000001b0: 0000 0000 0000 0000 0000 0000 0000 0000
000001c0: 0000 0000 0000 0000 0000 0000 0000 0000
000001d0: 0000 0000 0000 0000 0000 0000 0000 0000
000001e0: 0000 0000 0000 0000 0000 0000 0000 0000
000001f0: 0000 0000 0000 0000 0000 0000 0000 0000
0.0 0.0 0.0 0.0 0.0 0.0 0.0 0.0
0.0 0.0 0.0 0.0 0.0 0.0 0.0 0.0
0.0 0.0 0.0 0.0 0.0 0.0 0.0 0.0
0.0 0.0 0.0 0.0 0.0 0.0 0.0 0.0
0.0 0.0 0.0 0.0 0.0 0.0 0.0 0.0
0.0 0.0 0.0 0.0 0.0 0.0 0.0 0.0
0.0 0.0 0.0 0.0 0.0 0.0 0.0 0.0
0.0 0.0 0.0 0.0 0.0 0.0 0.0 0.0
0.0 0.0 0.0 0.0 0.0 0.0 0.0 0.0
0.0 0.0 0.0 0.0 0.0 0.0 0.0 0.0
0.0 0.0 0.0 0.0 0.0 0.0 0.0 0.0
0.0 0.0 0.0 0.0 0.0 0.0 0.0 0.0
0.0 0.0 0.0 0.0 0.0 0.0 0.0 0.0
0.0 0.0 0.0 0.0 0.0 0.0 0.0 0.0
0.0 0.0 0.0 0.0 0.0 0.0 0.0 0.0
0.0 0.0 0.0 0.0 0.0 0.0 0.0 0.0

network_body._body_endoder.seq_layers.2.weight f4 [128, 128]
00000000: 740e b6bd dc2c e83c 74f1 ebbd 23d4 ad3d
00000010: 33e7 933c d783 293e 916a e53c 6cd9 443c
00000020: 28bc 023c 613b 91bc 5ada e23d 00bc 063d
00000030: d510 273d 0d8a c8bc 51df 99bc 2031 5abe
00000040: 4095 d23c 9bc0 743d 08e2 cb3d fdae a13c
00000050: ed7b 0c3e d993 2ebd 9fa7 013d 91ad 05be
00000060: f129 82bc e140 d43d 9b1e 053d add3 083d
00000070: 8d3c c73c ae8b 85bd 53be 1ebe c1a9 563d
00000080: 1579 c8bc b5ab e83c 915c cc3d c6e3 9ebb
00000090: fe81 493d bdc6 673d b9e9 43bd c0c3 543e
000000a0: 4595 343d 8330 d23d 885d 3bbd 9d4a aa3d
000000b0: aea5 bd3d 62a4 b33c 1e14 a0bc fe62 56bd
000000c0: ec19 3cbc d904 b1bd 4530 84bd 909f 063d
000000d0: dea1 313e c463 a73d c4f3 bf3d 0421 1b3d
000000e0: 22c8 013b e4b6 2ebe 2d07 37be aa67 cf3d
000000f0: b6d6 9cbd f4b6 3a3d f519 d3bd 1e6e d83c
00000100: 396f 92ba 07be 16be aa98 76be badb 263c
00000110: 6302 31bd 026f 503d 5212 bf3c bf19 0c3d
00000120: b782 a3bd 4f54 c83d 9bdf a8bc 70f6 c53d
00000130: 7161 4d3c d7c6 07be 67da 48be 0096 3c3d
00000140: 269d 0c3d 3c84 84bc ee48 563d 2db2 d73c
00000150: 69b0 5cba 5852 b1bd 3e34 4cbd 9d0f e63c
00000160: e397 503d 116d 823d f78b 9b3d 213c ab3d
00000170: 5adf 353d 61d8 8a3b 360c 853d 8444 ebbd
00000180: a245 24bd 1702 513b d1ef a0bd df29 0abe
00000190: 559d 10bd 5b84 ba3d 714f 893c baf9 e8bc
000001a0: 7db1 2bbe 1080 93bd 2a27 083d 1ed1 b8bc
000001b0: 334d bcbd 81d3 2fbd eace 7f3d 4d58 a93c
000001c0: b819 46be 4b0c 5f3d 9431 9a3d 9281 26be
000001d0: 0d30 0bbe 5fd4 a9bb 9d3b 223d abef f03d
000001e0: f7d3 833b 1678 083e a2a1 69bd 837b 003d
000001f0: 0b99 113d af3a 88bc 7612 10bc 284a 12bd
00000200: 9a48 243e 0846 76bc 0b7c e9bc e84d d5bd
00000210: 61dc 2cbd add8 6dbd 3e62 36bd 1a8b c7ba
00000220: 5764 86bd 85ba aa3d 4ffe 333d 95cc cebd
00000230: b964 dd3d 7072 97bc 136e 7cbd 74f4 9cbc
00000240: 1295 30be 6e88 e23c 954a 02bd 3e3b c63d
00000250: 88e9 f23b c401 ee3c ad5d ad3d 609a c9bc
00000260: ac5d d1bd 5f26 2abd 9761 23bd 947d 3f3d
00000270: c18b 823c fa25 28bd 7052 8b3b 8ff4 b53c
00000280: a9fd 31bc a979 9b3c ea70 13bd 7223 0d3e
00000290: 1f99 5ebd 479a aa3d 2aca b4bc 1cb1 373d
000002a0: 6311 8e3b be83 dc3d d3a0 96bc aa3f 91bc
000002b0: ec40 a63d 234e 7ebd dad6 9abc b8b9 be3b
000002c0: 21d0 633d 482d f2bc 8579 c3bd e59c 033d
000002d0: 960b ea3d 43ba 8e3d beab cabd 4525 643c
000002e0: bc0d 38be cf0f 0e3e 94eb a13b 314d 39bd
000002f0: 243d dbbd 5f8c a5bb 0795 f0bc 1d8c eb3d
00000300: 06a0 0e3b 4841 80bd ad88 22bd fae0 e53d
00000310: a83e 143e 17c8 e23c 5990 f3bd 7fab 2b3c
00000320: e198 dbbc eb86 053d 8657 063e 740f 2f3d
00000330: 98ae 2a3b e911 5e3d 3491 34bd 20bf 12bd
00000340: 72d1 debd e555 01bd e41d 55bd 1c13 1abc
00000350: d334 263d edda 6cbd 8f7c b43d 0d12 8abd
00000360: 8da6 11be 2647 04be 33bd 38bd 65f2 f73d
00000370: ebf8 b6bc ac4c 7c3d b792 19be 17b8 1cbd
00000380: b4c2 da3c e408 ecbc 8460 233d da0a e7bd
00000390: 8922 653d f812 0e3e 384f 91bd 407d 57be
000003a0: 5485 923d e01d 83bd 6912 0ebe a3e2 a13d
000003b0: a2ec e6bd ec10 bfbd fbb7 383e fcdf d53d
000003c0: 2a19 bf3d 0f4e 8b3d f8fc f43d 9fd6 8b3d
000003d0: edd3 983c fc24 ba3d 41be 42bd 0127 b13c
000003e0: 5c0d 80bc 0a84 073e 732a 173d 760d 0d3e
000003f0: 8179 323d d990 513e f2c6 abbd df8f 693b
-0.088894755 0.028341703 -0.11520663 0.084877275 0.01805458 0.16554199 0.028004916 0.012014728
0.00797943 -0.01772851 0.110768035 0.032894135 0.040787537 -0.02447989 -0.018783243 -0.21307802
0.025705934 0.059753995 0.099552214 0.019736761 0.13719149 -0.042621467 0.031653997 -0.13054492
-0.01588914 0.10363937 0.03249989 0.033404995 0.024320865 -0.065207824 -0.1550229 0.052407984
-0.024471799 0.028402189 0.09978593 -0.00484893 0.049196236 0.056586016 -0.047830317 0.20777798
0.044087667 0.10263159 -0.045743495 0.083150126 0.092601165 0.02192897 -0.019540843 -0.0523405
-0.01148079 -0.08643503 -0.06454519 0.032867014 0.17346904 0.08173326 0.093726665 0.037873283
0.0019803126 -0.17061955 -0.17873831 0.10127194 -0.0765814 0.045584634 -0.10307685 0.026419695
-0.0011172063 -0.14720927 -0.24081674 0.010184223 -0.043215167 0.050887115 0.023324165 0.03420424
-0.07983916 0.097817056 -0.020614436 0.09666145 0.012535439 -0.13259445 -0.19614564 0.04604149
0.034329556 -0.016176336 0.052315645 0.026330078 -0.0008418621 -0.08658284 -0.04985451 0.028083617
0.0509261 0.06368459 0.075950556 0.08361078 0.044402458 0.00423722 0.0649647 -0.11487678
-0.04010547 0.0031892115 -0.07858241 -0.13492535 -0.035306294 0.09107276 0.016761513 -0.028439391
-0.16766925 -0.0720216 0.033240475 -0.022560652 -0.09194412 -0.042926315 0.062453188 0.020671988
-0.19345748 0.054455083 0.075289875 -0.16260365 -0.13592549 -0.0051827873 0.039607633 0.11764463
0.004023071 0.13327059 -0.05703891 0.03136779 0.035546344 -0.016629545 -0.008793464 -0.035715252
0.1604332 -0.015031345 -0.028501531 -0.1041525 -0.042202357 -0.058067966 -0.044527285 -0.0015223951
-0.06562107 0.08336357 0.0439437 -0.10097615 0.10810227 -0.018487185 -0.061628412 -0.019159533
-0.17244366 0.027652945 -0.03180941 0.09679268 0.007413093 0.029053576 0.08465133 -0.024609745
-0.102229446 -0.0415405 -0.03988799 0.04675062 0.01593578 -0.041051842 0.0042517707 0.022211341
-0.0108637 0.01897891 -0.035996355 0.13783053 -0.054345246 0.08330207 -0.022069056 0.04484664
0.0043355688 0.10767315 -0.018387234 -0.017730553 0.081178516 -0.062086236 -0.018901277 0.0058204792
0.05561841 -0.029562607 -0.095446624 0.03213205 0.11427991 0.0696912 -0.098960385 0.013924901
-0.17973989 0.13873218 0.004941413 -0.04523963 -0.10705021 -0.005052134 -0.029367937 0.11501334
0.0021762862 -0.062624514 -0.039681125 0.112245515 0.14477026 0.0276833 -0.118927665 0.0104779
-0.026806297 0.03259937 0.13119325 0.042739347 0.0026044007 0.0542163 -0.04408379 -0.035826802
-0.10879792 -0.031576056 -0.05203046 -0.00940397 0.04057772 -0.05782597 0.0881282 -0.06741724
-0.1422369 -0.12917766 -0.04510231 0.1210678 -0.02233549 0.061596557 -0.14997374 -0.0382615
0.02670417 -0.028812833 0.039886966 -0.11281367 0.05594114 0.13874424 -0.07095188 -0.21043873
0.071543366 -0.064021826 -0.1387421 0.07904556 -0.11275603 -0.093293995 0.18038933 0.10443112
0.093309715 0.06801998 0.119623125 0.06828045 0.018655742 0.090890855 -0.04754472 0.021625044
-0.01563137 0.13233963 0.036905717 0.13774666 0.043572906 0.20465411 -0.08387555 0.0035638732

action_model._discrete_distribution.branches.0.weight f4 [3, 128]
00000000: beca 833b 88a8 92bc 287e e83b 19d3 b6bc
00000010: 5ae0 053c 7b1d ff3b e312 703c 205a 763c
00000020: 0db1 8fbb 8ac5 10bc dd22 ae3b 4a38 233c
00000030: 63b2 acbc 9a0a 73bc 759f ed3b e3fc bebb
00000040: c192 b2bb 9f62 4abc 4db3 9339 aaba a43b
00000050: d7e4 44bb 9fdb 98bb 1851 36bc 7189 053c
00000060: d78d 6bbb 60b9 e53a 938e 2bbc 2630 293b
00000070: 037f cb3b 3b3e 75bc 1eb3 063c a36c 6d3c
00000080: 2f7a b33b 9220 12bc 68c1 413b 42f9 7f3b
00000090: 05e5 553b 3841 3cbb df4b 223b f29f 2f3c
000000a0: 80a7 063c e211 e53a 29d7 9fbb 0aca a93b
000000b0: 4b8e 713b 2f67 a73b 4d7e 363c 1d0e 7b3c
000000c0: 271b ba3b e311 0abc bb95 8f3b b846 55bc
000000d0: 3e22 01bb 4d9c 783c 0b5f 21bc 6b7f 9f3b
000000e0: 64c5 483a 9517 f5bb 1871 60bc 47d4 ffbb
000000f0: f449 4a3c 4e06 253b 4fae 963b 8347 91bb
00000100: 6373 693c 8397 e43b 2b6c 07bc 236e 0bba
00000110: af86 c83b bb65 85bc b04d b639 f0c0 c738
00000120: 47dd 373c 400e 24bb 501e 8cba 82d2 873b
00000130: 2229 5d3c 6307 40b9 ebf0 383c 360c 86bb
00000140: 57bf 0fbc ebc0 363a af05 083a ceb1 b8bb
00000150: 62b0 603b a46c 883b da12 8dba f3d0 7abb
00000160: 53fa 9ebb 55bb eabb 5da9 72ba e41a 3fba
00000170: d3d1 d73c dacc 713c 4200 6d39 9d00 03bc
00000180: 98a7 333c 79fa 813a 2d3e ed3b ded4 843b
00000190: 4066 233c 57da c9bb 4b28 83bb 4531 793c
000001a0: 9bb7 a23a 75c7 8f3b 64e2 a7ba d05f c13c
000001b0: febc cc3b d000 52bc 0a62 fe3b 3f41 f239
000001c0: 5fa7 953b 0b09 333c b91c 30bc 9eea 8b3c
000001d0: 8ab4 25bb fd10 f43b 65dd fe3a aa00 4d3c
000001e0: 5b18 5b3a 35b4 80bb 8dab d93b 70a0 69bc
000001f0: cf6e 1bbc 8cf5 25bc 3267 483c f36a 21bc
00000200: 9ac5 57bc 85c7 fcba f72f 47bc 04af a63c
00000210: 229e 1ebb 680f cdbb f0b4 cbba 7542 e53b
00000220: 53e3 e33b a02e ef3b acd7 9b3b ae2f a13c
00000230: f17b ac3c e03d 27bb 3f45 14bb b59a 0e3c
00000240: 0db3 17bc 3c44 9a3c 1305 ab3c 6a8e 9abc
00000250: 3b57 5bbc 7dcf e43b 206c 88bb 16aa 9a3c
00000260: c687 bf3b 60a5 f7bb aa45 fd3b bf6a 2f3a
00000270: 8b64 97bc 1e96 aabc e74a 0bbc 4509 f53a
00000280: 1f2c 90bb 91fa 27bb ffc2 00bc 1b7c 843c
00000290: 87e3 513b c076 723b 2554 4e3c ca9b fe3b
000002a0: 6610 1dbb caea 01bc e9b9 1dbc 0308 183a
000002b0: afa0 8bbc 75d0 d9bb b352 23bb 3093 5d3c
000002c0: e21e 7ebb aada f33b 2a98 43bc 0bfb 95bb
000002d0: aa80 663b f6f7 96bb a3ef a0bb 074f fb3a
000002e0: 5e2e 463b 0dff 4a3c dd8d e2ba 63e7 713b
000002f0: 239a 3c3c bd9e 70bb 03d9 1a3c 879e d33a
00000300: ba5c 6b3b f725 523b 6637 153b 3458 1b3c
00000310: 2d4e 33bb b313 e13b 15d8 d63b a0fb dcbb
00000320: 2243 003c 8259 c63b 6783 c3bb 5306 63bc
00000330: e0f9 03bc 917e 093c 5e8e 123c f2f4 213c
00000340: 183b adbb 0b1c 853a a6a3 b3ba b59f 4eba
00000350: 9840 e5bb 87d4 82bc e5d3 283b 156d 583b
00000360: 9a6f e73b 22c0 a83b 7b8f 3d3b 0314 fd3a
00000370: d005 c9bc 2d09 303c 1f81 df3b 798d 1b3c
00000380: a534 a1bc ab03 923b 7513 993b 0a07 0cbc
00000390: efc5 f3ba 4878 633c 3bff 923a 9987 8e3b
000003a0: a21f 703c 5772 13bc ab6c 103c 12a1 68bb
000003b0: b34a 893b 4bb6 913c 7f20 70bb bec1 913c
000003c0: 3f2a d63b df53 02bc 13b4 5e3c 3df3 c2ba
000003d0: a7c8 5b3b b79d 603a e876 72ba 8f80 513c
000003e0: 9e73 0a3c 5024 213c 2a7c 113b 0398 2dbc
000003f0: 5b35 16bc a759 a43b 5fcf b83b d7fa 6b3c
0.0040219715 -0.017902628 0.007095117 -0.022317456 0.008171165 0.007785497 0.01465294 0.015036136
-0.00438512 -0.0088361595 0.0053142146 0.009962151 -0.021081155 -0.014834071 0.007251675 -0.0058284863
-0.0054496233 -0.012352615 0.00028171614 0.005027135 -0.0030043626 -0.0046648527 -0.011127733 0.008150444
-0.0035942697 0.001752656 -0.010471004 0.0025816052 0.0062102093 -0.01496845 0.008221416 0.014491233
0.005477212 -0.008918898 0.0029564742 0.0039058481 0.0032637727 -0.0028725397 0.002476446 0.010719286
0.008218646 0.0017476643 -0.004877944 0.0051815556 0.0036858495 0.005108736 0.011138511 0.015323189
0.0056795063 -0.008427116 0.004381863 -0.013017349 -0.0019704248 0.015173984 -0.00984932 0.0048674843
0.0007658808 -0.007479618 -0.013698839 -0.007807288 0.012346733 0.002518076 0.004598416 -0.0044335737
0.014248702 0.0069760694 -0.008265535 -0.0005318841 0.006119571 -0.01628386 0.00034771627 9.524997e-05
0.01122219 -0.0025032908 -0.0010690186 0.0041449675 0.013498576 -0.00018313299 0.011287908 -0.004090811
-0.008773646 0.0006971496 0.0005188835 -0.0056364303 0.003428482 0.0041633416 -0.0010763064 -0.0038271516
-0.0048516183 -0.007163445 -0.00092568045 -0.0007290079 0.02634517 0.014758313 0.00022602177 -0.007995752
0.01096525 0.0009916566 0.007240078 0.004053696 0.009973109 -0.0061600613 -0.004002606 0.015209501
0.0012414338 0.004387791 -0.0012808559 0.023605257 0.0062481156 -0.0128175765 0.007763152 0.0004620645
0.0045670713 0.010927449 -0.0107490355 0.017079648 -0.0025284612 0.007448314 0.0019444643 0.012512365
0.0008357816 -0.0039277324 0.006642765 -0.014259443 -0.009486868 -0.010129344 0.012231635 -0.009852159
-0.0131696705 -0.0019285536 -0.012157432 0.020347126 -0.0024203141 -0.00625794 -0.0015541594 0.0069964477
0.0069545894 0.0072992593 0.0047559347 0.019676056 0.021055194 -0.0025519058 -0.0022624282 0.008703877
-0.009258998 0.018831365 0.020876443 -0.018866736 -0.013387497 0.0069827423 -0.00416328 0.018879931
0.005845043 -0.007557556 0.007729252 0.00066916266 -0.01848056 -0.020823535 -0.008501745 0.0018694779
-0.004399791 -0.0025631527 -0.007858991 0.01617246 0.0032026486 0.003699705 0.012593304 0.0077700363
-0.0023966073 -0.007929513 -0.009626844 0.00057995337 -0.017044393 -0.0066471645 -0.0024921119 0.013523862
-0.0038775732 0.0074418383 -0.011938134 -0.004577046 0.0035171905 -0.004607196 -0.0049113794 0.0019173332
0.003024004 0.01238991 -0.001728471 0.00369116 0.011511358 -0.003671571 0.009451154 0.0016145267
0.0035913424 0.0032066086 0.0022768616 0.0094814785 -0.0027359829 0.0068688034 0.0065565207 -0.006743863
0.007828506 0.0060531506 -0.005966592 -0.013856488 -0.00805518 0.008391992 0.008945076 0.00988506
-0.0052865855 0.0010155452 -0.0013705387 -0.00078820746 -0.0069962256 -0.015970482 0.0025761065 0.0033024002
0.0070628645 0.005149857 0.0028924632 0.0019308332 -0.024538904 0.010744375 0.0068208124 0.009494179
-0.019678423 0.0044560037 0.004671509 -0.0085466 -0.0018598418 0.013883658 0.0011214981 0.0043496606
0.014655979 -0.008999429 0.008814971 -0.0035496396 0.004189813 0.01778712 -0.0036640463 0.017792579
0.006535798 -0.007954567 0.013592738 -0.0014873516 0.0033536346 0.0008568423 -0.0009249286 0.012786998
0.008450417 0.009835318 0.0022199252 -0.010595324 -0.009167994 0.00501557 0.005639955 0.014403067

action_model._discrete_distribution.branches.0.bias f4 [3]
00000000: 0000 0000 0000 0000 0000 0000
0.0 0.0 0.0

action_model._discrete_distribution.branches.1.weight f4 [3, 128]
00000000: eae0 f33a e540 503c 4f6a 65bc 15b5 f8b9
00000010: 17f5 15bc da19 6b3c c2b4 623b 756a 3f3b
00000020: e546 74b8 cd98 9039 f2bf 8a3b 05c1 85bb
00000030: 800c f0ba d28f 5fbc c3ba 8ebc ac7d 9d39
00000040: a0dd 54bc 38ca ba3b 5769 48bb 6794 8abb
00000050: c64c 8cbb 7f20 893c 3701 15bb d5f0 68bc
00000060: f76d 913b de61 93b9 fc6e 193c e42e 9f3b
00000070: 6b42 9a3b 3b0f 0fbc f874 bbbc 438b 6e3c
00000080: 63e2 d9ba d6e3 44bb 8052 873b 268f 283c
00000090: 4398 2dbc 1deb d53b b3a8 9d39 bd39 77bc
000000a0: f03f a43b e308 92ba b3f6 09bb 357a 34bb
000000b0: 2bd0 973b 6bfb 943c 504f a6bb ffb1 92bb
000000c0: f961 04bc bf57 4cbb 37bd 21bc be8f a43a
000000d0: eddf d5bc c042 043b 0ec6 12ba 14f8 b2ba
000000e0: ded5 4a3b 13b4 c23a 1f46 ad3b 1d89 c8bb
000000f0: 2304 8a3c d68e c63b e6ea a5bb e968 acbb
00000100: 63ab 0c3c 2bc9 823c 0e33 8bbb 1292 75bb
00000110: 2195 073c 988f e3bb 8fcd 073c ab41 70bc
00000120: c7ab 0cbc f7a3 093b 54e0 833c ed94 e03b
00000130: e7a7 693c 97c6 2b3c 3a04 813b dd03 d7bb
00000140: 1a21 84bb 5825 ddbb 1597 d8b9 9a69 86bb
00000150: ba52 2e3a 9ac2 3fbc 1f5b a9b7 c528 fd3b
00000160: ff35 083a 9cab 0bbc a2bd 2bba 8b36 23bc
00000170: 91f5 0cbc ffa0 babb 7dac 5bbb 14cf 1b3c
00000180: c2ed 2db9 af47 22bb 44bc 113c ff54 d73a
00000190: f6cf 07bb 591e 9a3b 7348 073c 63b6 043c
000001a0: 335a dabb 2a5d 783a 48c1 fe39 77ed 96b9
000001b0: af29 29bc 62f2 363b 2a9b 2d3c aa24 7f3b
000001c0: 43eb 03bc 75f9 103c b1b7 383c 1d5c 453c
000001d0: 25c2 d83a 99dc 113c dd80 f5bb d971 20b7
000001e0: e077 873c bf18 13bb 0c8f 8c3b db67 3f3c
000001f0: 844e 983c d52b 16bc 2fae ffbb 30bf e238
00000200: 1778 263c 63d2 393b 2276 403b ce15 0bbc
00000210: aaa1 99bc 35ef 223c ac55 04bc 11c7 01bb
00000220: 7879 a93b b401 273a 4ea7 a4bb b701 b53b
00000230: 5ade ea3b 8b26 ddbb 22d1 13bb 8ebf 203c
00000240: 3790 193c f922 2f3c c254 d9bb 303a d63c
00000250: 0a48 d53b d81e da3b 2a0d d13b 4ebd c13b
00000260: 23fd 853a dd69 f73b 25ab cf3b da48 62b7
00000270: 48ae fbbb 0c96 2dbc 6a7e f73b c3a5 4b3b
00000280: 7d1c 62bc 5fc8 e3bb 41fc a2ba 60a9 2f3c
00000290: 7408 173c 455b f9ba 54c6 a33a 0dd6 96b9
000002a0: cf3e 953b 3be6 18ba 8b31 173c 50e2 673c
000002b0: 477e 053b 3faa bb3c bff3 2b3b 6f15 9339
000002c0: 5303 45bc 5eb7 153c 6822 703c 92fc 1fbc
000002d0: d3c2 f33b 0862 dd3a 74b9 373b d0d3 473b
000002e0: 322c 76bb 9f27 463b 19b1 93bb a39c 2bbc
000002f0: 3a97 55bb 99da b13b 4ad6 16bb 8737 32bc
00000300: 5f56 b33c 7485 8e3c e364 033c 7537 3e3c
00000310: 30c2 c83b f624 cb3a 3c35 1539 5501 b43b
00000320: 7dbd 35bc c5d4 a8b9 fec9 2c3c 6829 04bc
00000330: 6066 c03b 2779 013c 04b4 1f3c 191c 3abb
00000340: 956a 203b c4f2 b2bb 27bd 213c 0bb7 c5bb
00000350: d7dd 85bc 2a22 5b3c 7230 f9bb 0dd8 dcbb
00000360: ab58 13bc 3acb bbba abfb 7e3c a373 53bb
00000370: 74be b539 978d ad3a a53d efbb 8f2d 3abc
00000380: 88eb 533a 3ada efbb 2f99 123c 28e4 963b
00000390: ca3a 13bc 2a0f 14bc 08c7 59b9 45e5 cfbb
000003a0: dadf 78ba c808 5d3a 20ee 5e3c 844a be3b
000003b0: fdde 39bb 778d 813c 74c3 aa3c 4b29 36bc
000003c0: a64f bbbb b64c 82bb 456d 4bbc e024 aa3b
000003d0: f0d8 60bb 130a 2fbb 7716 353c 8ada 433c
000003e0: e79a edba 1d53 56bc 0a64 5dbc 2dd6 a73c
000003f0: 4b14 97ba 14fd 353b da37 503c 85bf f1bb
0.0018606458 0.012710785 -0.014002397 -0.00047437163 -0.009152672 0.014349425 0.0034592603 0.002920774
-5.824016e-05 0.00027579666 0.0042343074 -0.0040818476 -0.0018314272 -0.013645129 -0.01742304 0.00030039006
-0.012992293 0.005700376 -0.0030580366 -0.0042291167 -0.004281613 0.016739128 -0.002273632 -0.014217575
0.0044381577 -0.00028110942 0.00936484 0.0048578847 0.0047076247 -0.008731659 -0.022882923 0.01455957
-0.0016623255 -0.0030043027 0.004129708 0.0102880355 -0.010595384 0.006528272 0.00030071064 -0.0150894495
0.0050125048 -0.0011141564 -0.0021051585 -0.0027538661 0.00463297 0.018186292 -0.0050753728 -0.004476785
-0.008079999 -0.003118023 -0.0098717725 0.0012555046 -0.026107753 0.0020181388 -0.00055989705 -0.0013654255
0.0030950229 0.0014854692 0.0052879 -0.006119861 0.016847676 0.006059508 -0.0050634025 -0.0052615297
0.008585784 0.015965065 -0.0042480296 -0.0037471098 0.008275301 -0.006944608 0.008288755 -0.014664094
-0.008585877 0.0021002272 0.016098179 0.006853691 0.014261222 0.010484359 0.0039372714 -0.00656174
-0.0040322663 -0.0067488365 -0.00041311295 -0.004101944 0.00066499005 -0.0117041115 -2.0188801e-05 0.0077258074
0.00051960343 -0.008524802 -0.000655139 -0.0099617345 -0.0086034695 -0.0056954618 -0.003351956 0.0095098205
-0.00016587137 -0.0024761965 0.008894984 0.0016428529 -0.002072332 0.0047033248 0.008257019 0.008100125
-0.0066635846 0.0009474332 0.0004859066 -0.00028787155 -0.01032488 0.0027915468 0.010596076 0.0038931766
-0.008051696 0.008848538 0.011274264 0.012045887 0.0016537352 0.008902692 -0.0074921683 -9.56325e-06
0.016536653 -0.002244517 0.0042895135 0.011682476 0.018592127 -0.009165724 -0.0078027467 0.00010812131
0.010160468 0.002835416 0.0029367288 -0.008489085 -0.018753845 0.009944727 -0.008077066 -0.001980249
0.005171951 0.0006370798 -0.005024827 0.005523886 0.0071676197 -0.0067489794 -0.0022555073 0.009811295
0.009372762 0.0106894905 -0.0066324184 0.026150793 0.006508832 0.006656509 0.006379743 0.0059124595
0.0010222535 0.0075504617 0.0063375407 -1.3487612e-05 -0.007680688 -0.010594856 0.0075529115 0.0031074143
-0.013800737 -0.0069513763 -0.0012434797 0.0107215345 0.009218324 -0.0019024393 0.001249502 -0.0002876971
0.0045546065 -0.0005832647 0.009228121 0.014153078 0.0020369457 0.022908328 0.0026237813 0.00028053994
-0.012024718 0.009137956 0.014656641 -0.009764807 0.0074389963 0.0016890178 0.0028034123 0.003049124
-0.0037562964 0.0030236018 -0.0045071957 -0.010474357 -0.0032591359 0.00542767 -0.002301591 -0.010877497
0.02189177 0.01739762 0.008019659 0.011609902 0.0061266646 0.0015498686 0.00014229579 0.005493323
-0.011092541 -0.00032201983 0.010546206 -0.008066513 0.005871579 0.00790242 0.009747509 -0.0028398095
0.002447759 -0.005461069 0.009871758 -0.0060337833 -0.016341133 0.013374845 -0.007604652 -0.0067396224
-0.008993308 -0.0014327534 0.015562932 -0.003226497 0.0003466491 0.001324105 -0.00730105 -0.011363401
0.0008084108 -0.007319716 0.008947655 0.004604835 -0.008986184 -0.0090368185 -0.00020768878 -0.0063444697
-0.00094938057 0.00084317895 0.013606578 0.005807223 -0.002836167 0.015814526 0.020845152 -0.011118243
-0.005716282 -0.00397643 -0.012416189 0.005192384 -0.0034308992 -0.0026708886 0.011052719 0.011953959
-0.001812783 -0.013081339 -0.013512621 0.02048787 -0.0011526434 0.0027769255 0.012708629 -0.0073775672

action_model._discrete_distribution.branches.2.weight f4 [2, 128]
00000000: c304 90bb e5eb 53bc ef17 f6ba 9f3f babb
00000010: 5f7c adbc 572a b339 6669 abbb 7d79 52bc
00000020: 6aab 54b9 019b 80ba 4874 7fbc 6e77 853a
00000030: faec 563c e214 073b 082a f839 6549 6cbc
00000040: ab38 36bb 61f7 42ba 73c4 df3b ec65 3fbb
00000050: c194 a6bb 89e7 c33b a523 973c 0fd5 233c
00000060: d5a8 8bba d024 1fbc a636 c5bb 88ab bb3b
00000070: 70a9 48bb d3c7 d1bb 77e0 47bc 6387 a6ba
00000080: b08e 4f3a e186 963b a70d 1e3b bf0f 443c
00000090: c0a6 56bb f30f 2dbb 0849 a4b9 ad2f cfbb
000000a0: eba3 ee3a 9d78 293c 4d3d 3d3c 91d8 803c
000000b0: 433c 093b 4f39 a339 6bc6 653a 6f7d a23b
000000c0: 9449 21bc f119 97bc 475a a63b a2a6 5ebc
000000d0: 66cf 8bba 0390 133c a6d4 113c 03a8 07bc
000000e0: 7355 a1bb 33dd d23b 3bc0 623c 2f7b 31bc
000000f0: 6b7a 1b3c 800a 8938 4762 b5bb 7bad ebba
00000100: e17f 9d3a 36c2 473b 0f5c 04bc 4e77 14bc
00000110: 0334 95ba cd34 7bbc bb11 0b3c c855 073c
00000120: 63bb 993c 6e07 afbb 1fa1 67bb 55a8 62bb
00000130: 2dfe 6b3c 7a46 2cba efd3 083c 430d a13a
00000140: abb0 36bc 7c7f 143c 4008 bcbb 8404 2c3b
00000150: 5187 39bc b148 8bbb 880e bfbb 3f54 3a3b
00000160: 5722 4ebb bef1 3abc 7f16 e93b 4bc2 38bb
00000170: 33c8 d43b b8a8 79bc 2975 12bc 7b74 3a3b
00000180: 43f9 403c bfc7 8e3c 6f25 69bc bf56 f33b
00000190: 7335 05bb 972a 3339 f365 b4ba 3606 023b
000001a0: 3bad 5d3b dac8 99bb 0bb9 313c 7f80 f639
000001b0: 2710 1dba 030d 28ba acbe c43a 0f7c b4bb
000001c0: 9afb e1ba c5a8 813b 60f5 ebba a9c1 bfba
000001d0: b0a1 103c 2e67 11ba c0b4 ad3b db67 ce3a
000001e0: 1219 88bb cb32 ed39 bd04 e539 7b15 bfba
000001f0: fb5a edbb c21f 1bbc b1d0 8a3a f0c9 8dbc
00000200: 0100 a5bc 127b 5cba 0eec 0b3c 6309 e1bc
00000210: 6267 2b3b 7c47 29bb 4049 053c 8dd7 2d3c
00000220: 01ca a8ba 026d d1bb 0517 b83b 1be0 793c
00000230: ec15 14ba ab70 f5ba ba90 063c bad6 babb
00000240: 0282 283c 13d8 a43b abd4 9137 dd25 aabb
00000250: fe40 8fbc 0eb7 88bc d815 a83c 0c61 173c
00000260: 3a61 ee3b e861 60bc afd8 253c 8286 0b37
00000270: 6376 003a 1318 0d3c ea8d 513b 894b 43bc
00000280: 0fe7 30bc 971c f7bb 4b47 373c bb4a d2bb
00000290: 8301 433b b04b 9abb 52e5 643b 321c 7c3b
000002a0: d5f1 a33c 0205 bf3b a7ad 1dbb f2ec 4d3b
000002b0: 2e34 93ba 6526 b13b fbd1 90bb 5008 31bb
000002c0: ab12 6f3c 1c42 913b 514b 9fbc 0f23 bdba
000002d0: f374 e83a e5fe ba3b ba62 11bc 2ff1 20bb
000002e0: 582a 323b 0232 853a 8822 323c 6145 a83b
000002f0: a345 623c b434 2f3a 8141 4abc 2f06 8dba
00000300: 1094 bfbb acea 43bb f498 a33a 693c af3b
00000310: 1fcc 20ba 6cb7 2839 8380 1b3c 52c4 f2bb
00000320: 94a3 933b 100d 76ba 920a 31bc f54f 06bc
00000330: 3558 8f3b a25a 54bc fb2b 683c e8d4 8aba
00000340: 4f5c 13bb b3e0 213c 49fe 803c 4fc5 c4bb
00000350: a488 143c 3493 333c 50af c7b7 0d09 afbb
00000360: 0ec6 3ebc 6760 073c 3d23 41bc 38de 8f3b
00000370: 0e8a 873c c8bd 1cbc 5a13 6b3c 7b7b 58bc
00000380: 43ee 9fbb 6fc6 c4bb 0a96 4dbb 5f1c c33b
00000390: 4e7d a4bb 35f7 d4b9 b3cc 923a b747 81bb
000003a0: dee2 a7bb 9c10 43ba 8aa7 cf3b f39a 3dbb
000003b0: 0af3 0bbc d568 883b d00e cd3b ce68 43bb
000003c0: bab6 8c3b 2d8f 143c 8ce3 263c ffac 0abc
000003d0: 633c 98bc f854 193c 9bb9 66bc 5d58 243c
000003e0: a0f9 79ba 2ca4 9abb 9f5a e63b 889b cbbc
000003f0: 59fd 343c a8f0 41bc 0a60 1fbc 10f7 783c
-0.004395099 -0.01293466 -0.0018775443 -0.0056838538 -0.021177469 0.00034173086 -0.0052310703 -0.012846348
-0.00020281752 -0.000981182 -0.015591688 0.0010182688 0.013118023 0.0020611812 0.00047333562 -0.0144217955
-0.0027804773 -0.0007437375 0.0068288385 -0.0029205037 -0.005083651 0.005978529 0.018449614 0.009999528
-0.0010655174 -0.009713367 -0.0060184775 0.005727235 -0.003061857 -0.0064019947 -0.012199513 -0.0012705143
0.00079176854 0.0045937155 0.0024117024 0.011966645 -0.00327532 -0.0026407212 -0.0003133493 -0.006322822
0.001820681 0.010343698 0.01155026 0.015728267 0.002094046 0.0003113248 0.00087652233 0.0049588005
-0.009844203 -0.018444987 0.00507668 -0.013589533 -0.0010666668 0.009006503 0.008900797 -0.008279803
-0.0049235164 0.0064350604 0.013839777 -0.010832592 0.009489636 6.534625e-05 -0.005535397 -0.0017980778
0.001201626 0.003048075 -0.008078589 -0.009061648 -0.0011383299 -0.015332413 0.008488114 0.008260198
0.01876611 -0.005341462 -0.0035343838 -0.0034585197 0.014403862 -0.0006571781 0.00835131 0.0012287277
-0.011150519 0.009063598 -0.005738288 0.0026247809 -0.011323766 -0.004250609 -0.0058305897 0.0028431562
-0.0031453574 -0.011410175 0.0071132774 -0.002819198 0.006493592 -0.01523798 -0.008939066 0.0028450775
0.011778179 0.01742923 -0.014230116 0.0074261124 -0.0020326048 0.00017086636 -0.0013763293 0.0019840128
0.0033825177 -0.004693133 0.01084734 0.00047016513 -0.00059914816 -0.00064106303 0.0015010438 -0.005507953
-0.0017241121 0.0039568865 -0.0018002205 -0.0014629859 0.008827612 -0.0005546686 0.005301088 0.0015747504
-0.0041533792 0.00045242006 0.00043681814 -0.0014578545 -0.0072435117 -0.009468021 0.0010590759 -0.017308205
-0.020141603 -0.0008410673 0.008540167 -0.027470296 0.002615415 -0.0025829962 0.00813514 0.010610473
-0.0012877585 -0.0063911686 0.0056179785 0.015251185 -0.00056490186 -0.0018725594 0.008213216 -0.005701867
0.0102849025 0.005030641 1.7384378e-05 -0.005192502 -0.017487045 -0.01668885 0.020518228 0.009239446
0.007274774 -0.013695218 0.010122462 8.316363e-06 0.00049004535 0.008611697 0.0031975457 -0.011919864
-0.010797276 -0.00754125 0.011186431 -0.0064176 0.002975554 -0.0047087297 0.0034926725 0.0038468954
0.020012775 0.0058294544 -0.0024059804 0.0031421748 -0.0011230761 0.0054061883 -0.004419563 -0.0027013011
0.014591853 0.0044329297 -0.019445093 -0.0014430004 0.0017735049 0.0057066553 -0.008873636 -0.002455782
0.0027185883 0.0010161998 0.010872491 0.0051352237 0.013810548 0.00066835736 -0.012344719 -0.0010759289
-0.005846508 -0.0029894514 0.0012481497 0.0053477776 -0.0006133932 0.00016090058 0.009491089 -0.007408657
0.004505584 -0.0009386102 -0.010805743 -0.008197774 0.004374529 -0.012961062 0.014170642 -0.0010592015
-0.002248544 0.009880233 0.015746253 -0.0060049663 0.009065781 0.010960389 -2.3804285e-05 -0.005341655
-0.0116439 0.00826273 -0.011788187 0.004390504 0.016545322 -0.009566732 0.0143478755 -0.013213034
-0.004880698 -0.0060051004 -0.0031369948 0.00595431 -0.0050198203 -0.00040619975 0.0011199921 -0.0039453167
-0.00512348 -0.00074411347 0.006337111 -0.0028931468 -0.008541832 0.0041628876 0.0062578693 -0.0029817107
0.0042942436 0.009067339 0.010186087 -0.008464097 -0.018583482 0.009358637 -0.014082338 0.010030833
-0.0009535793 -0.004719278 0.007029846 -0.024854437 0.011046731 -0.011837162 -0.009727487 0.015195623

action_model._discrete_distribution.branches.2.bias f4 [2]
00000000: 0000 0000 0000 0000
0.0 0.0
